bassNotes.pt (torch_old, 485074 bytes, 18 tensors)

lstm.weight_ih_l0 f4 [256, 12]
00000000: a71d 42bd ecb9 cbbb a9fb 0abb 2e08 ddbc
00000010: 87fa 67bc 2eaa 9e3d b2ce e83d 1732 b53d
00000020: 3236 bd3d ba58 a8bd 82bf f23d 517e 5ebd
00000030: 741a 583d df30 c33d 3851 9abc 336b 0a3d
00000040: beaa c93d 01cd 74bc 6063 673c 39a0 e2bd
00000050: dd72 b9bc 519c 49bd 3ae8 bf3d fe0b c9bd
00000060: 53c4 f9bd a231 a6bd 1430 58bd f5df 62bd
00000070: c8e1 09bd cf73 b5bc 57a4 04bd 61b8 b73d
00000080: 8bae 193d dcd6 cd3d d538 f2bd 9f56 d83c
00000090: d328 6bbd f8ed 0b3d a3e9 843d c908 da3b
000000a0: a0b5 d13d 0985 81bd bef7 fc3d 81f2 0cbc
000000b0: 9e83 d03c 7f44 2e3a 5fba 023d 0a74 febd
000000c0: d178 aa3d 0044 9b3d ad6b af3d d5dc c73c
000000d0: fbcd 863d 424f 93bc 9dd1 cfbd c020 bfbd
000000e0: 09c4 f6bc febd 43bd 9fd4 753d 9a55 ad3d
000000f0: b56b d3bd 8e9e 51bd 5022 28bd 24b6 d53c
00000100: afd6 f93d ba2a d3bd 01c0 953c dc1d 1dbd
00000110: c98b e63d ae13 5bbc 72ec eebc ca19 f7bd
00000120: ee86 8c3d 78cf 01bc 468d c3bd 940e a13d
00000130: 6af2 d03d 98cd c9bc f10a db3d 1109 2a3d
00000140: 6f79 edbd ba74 e6bd ef6a f4bd 0c54 f93d
00000150: 5aa1 8e3d 358a d1bb 2018 bdbd 517e b0bd
00000160: 8244 82bd 37e3 82bc 68b0 66bd e466 cebd
00000170: a257 a3bd 4a6d 203d 3097 debd 725c 00bc
00000180: 4cad db3d d670 f73d 0c0d afbd c8fb a8bd
00000190: 5cf0 353d 79b7 693d 80fd 84bd b54b a53c
000001a0: e8c9 a6bd 7040 313d f8fa 2abc b260 21bd
000001b0: efc0 373d 7d4b 2b3d b9ba ee3d dd5f e0bd
000001c0: b623 f93d 87a4 86bd a32a aebd 66f8 e63d
000001d0: cf03 833d e8da ddbd 7caa 90bc 836f 13bc
000001e0: 35bb 65bd e836 77bd 9642 943d 186b 1ebd
000001f0: 36d0 1fbd c556 643c f630 bebd 2026 be3d
00000200: c46c dabd 439c 883c 58f8 c43c 94d9 423d
00000210: 99da 0dbd f8cb 14bd 2dc8 bcbd 066b 3bbd
00000220: e66f c5bc 6aa8 863c 7a57 83bd 73d1 fabc
00000230: b341 13bd 1058 6cbd a597 a33d 9f66 ebbd
00000240: be6a 3dbd 6a3f 0cbd 3ff9 d7bc 059f 1fbd
00000250: ce84 c33c 75d8 833d 3c1b f63d d7d9 e8bd
00000260: baf2 c63a 7afb d13d a0dd eabd 6b19 46bd
00000270: c213 d7bd df40 e5bd 3c45 56bc c12f bbbd
00000280: 18c9 e2bd 26f1 fd3d 5e6e d63d 3da3 d7bd
00000290: f6ae efbd 2ff0 923c e233 c1bc d099 c5bd
000002a0: ea0f 8e3d 9e09 27bd caa4 cbbb 1aba 993d
000002b0: 819d 71ba 3c30 23bc aa68 b5bd f10a 90bd
000002c0: 917e 583d c8f7 af3d c96f aabd fc7c 083d
000002d0: 2a36 5bbd 0882 2fbd db64 bcbd 302c aa3d
000002e0: 5bd0 16bd 7f66 283d e0fe 4cbc 24d6 cb3d
000002f0: 8a2d 75bd e108 3ebd bc8a 76bc a1f8 b5bd
00000300: 5c3c 383d 42b4 debd c65b a5bd c7d5 013d
00000310: bc2e aabd 30d2 07bd 8e3d 7c3d 68dd b03d
00000320: 3a64 f13d 5d09 d2bc 3101 6b3d 4ac9 01bb
00000330: 5951 5ebc 25ec 933b 7025 dcbd a9ed 723d
00000340: e197 ebbd 8848 883d 2c59 85bc cd41 243c
00000350: 8ee3 febd da78 f4bd fa99 92bc 6ef7 1abd
00000360: 5686 c73d 0dbb febd 7ab6 053c d218 c6bd
00000370: b298 aebd 5cb0 53bb 9b8a fe3c 4e3a 8a3d
00000380: 0837 983d db9d 843d dce3 aa3d d0d7 80bd
00000390: ee9a 87bb 7a43 7abd 6675 0f3c 1c41 eebd
000003a0: 7272 d83d 89b2 cebd 4e50 ba3d 79ba 173c
000003b0: f034 bdbd 3f64 d23d 84be a93d 4080 4dbd
000003c0: 83be 9ebc 2708 9b3d 40a5 833d 0c36 fdbd
000003d0: b80a 853d 6af8 883c c18c 903d 15b8 f0bd
000003e0: 2247 82bd 7ee6 a93d 671e a43d e048 d1bd
000003f0: 2e1c a03d 1bf7 13bd 91c1 2dbd c510 563d
-0.04739156 -0.006217232 -0.002120713 -0.02698144 -0.0141588515 0.07747303 0.11367549 0.088474445
0.092388526 -0.08220048 0.118529335 -0.054319683 0.052759603 0.09530806 -0.018837556 0.03379364
0.098470196 -0.014941455 0.014122814 -0.11065716 -0.022637779 -0.04922134 0.093704656 -0.098167405
-0.12195649 -0.081149355 -0.052780226 -0.055389363 -0.033662587 -0.022149948 -0.03238329 0.08970714
0.037519973 0.10050747 -0.11827246 0.026408492 -0.05741198 0.03416249 0.06489875 0.0066538793
0.1023972 -0.063242026 0.123519406 -0.008602739 0.025453385 0.000664778 0.03191602 -0.124244764
0.08323825 0.07581329 0.085654594 0.024397293 0.065822564 -0.017982129 -0.101474024 -0.093324184
-0.030122774 -0.047788613 0.060017224 0.08463593 -0.10323278 -0.0511766 -0.041048348 0.026087828
0.12199151 -0.10310884 0.018280031 -0.038358554 0.11257131 -0.013371391 -0.02916548 -0.12065466
0.06861673 -0.007923 -0.0954843 0.07864109 0.10202487 -0.024634168 0.10695446 0.041512553
-0.11595427 -0.112527326 -0.119344585 0.12174234 0.06964369 -0.0063946494 -0.09233117 -0.08617843
-0.06360723 -0.015977485 -0.056320578 -0.100782186 -0.07975699 0.039166726 -0.108686805 -0.007834541
0.10726413 0.120820686 -0.0854741 -0.082511485 0.044418678 0.05705974 -0.06493664 0.020177701
-0.08143979 0.043274343 -0.010435812 -0.039398856 0.04486173 0.041820038 0.11656708 -0.109557845
0.121650144 -0.0657435 -0.08504226 0.11277847 0.06397211 -0.10832769 -0.017659418 -0.008998754
-0.056086738 -0.060355097 0.07239263 -0.03867635 -0.039016925 0.013936703 -0.09286682 0.092846155
-0.10665277 0.016676074 0.0240442 0.04757078 -0.0346323 -0.036327332 -0.09217868 -0.045756362
-0.024101209 0.016437728 -0.06413169 -0.030617451 -0.035951328 -0.05770117 0.07987908 -0.11494183
-0.046244375 -0.034240164 -0.026363967 -0.038970012 0.023867037 0.0643777 0.12016913 -0.11369675
0.0015178539 0.102530435 -0.11468053 -0.048364084 -0.105018154 -0.11194014 -0.01307803 -0.09139968
-0.11073512 0.12399511 0.104702696 -0.10529182 -0.11703293 0.017936794 -0.02358431 -0.09648478
0.06936629 -0.040780656 -0.0062147127 0.07506199 -0.00092168903 -0.00996023 -0.08857854 -0.07033337
0.052855078 0.085921824 -0.083221026 0.03332232 -0.05351845 -0.042848617 -0.09198924 0.08309209
-0.036819797 0.041113373 -0.012511939 0.099529535 -0.059857883 -0.046395186 -0.015047725 -0.08885313
0.04497944 -0.10874225 -0.08074145 0.031698015 -0.08309695 -0.033159435 0.06158214 0.0863598
0.11786695 -0.02563923 0.057374183 -0.0019803816 -0.0135691995 0.0045142346 -0.10749328 0.05930868
-0.11503578 0.06654459 -0.016277872 0.010025454 -0.12445746 -0.11937113 -0.017895687 -0.037833624
0.097424194 -0.12438021 0.008161182 -0.09672703 -0.08525218 -0.0032301163 0.031071952 0.06749402
0.074323714 0.06475421 0.08344242 -0.06291163 -0.004138342 -0.061099507 0.008756017 -0.116335124
0.10568704 -0.10092647 0.09097348 0.009260767 -0.09238613 0.10273027 0.08288291 -0.050171137
-0.019377952 0.07569914 0.06428003 -0.12363824 0.06496185 0.016720016 0.07058097 -0.11753861
-0.06361224 0.08295916 0.08013611 -0.10218978 0.07817875 -0.03612433 -0.042420927 0.052262086

lstm.weight_hh_l0 f4 [256, 64]
00000000: ea59 8d3d d077 333d 9005 efbd 78c0 553d
00000010: 48b9 5cbc 40c0 f5bc 7ac1 49bd 8859 90bd
00000020: d6b5 253d 0066 ad3d 874b be3c a032 7a3d
00000030: 26b2 4dbd 2db1 2cbc 3cfe f23d aa7b 0abd
00000040: 745b b83d e66a 5e3d b6b7 b9bd 185c 84bd
00000050: fb06 583c dc4c e4bd 46ca d23d 24e5 773d
00000060: 64c3 39bd 583a ac3d 1ea9 fd3d 1463 d3bc
00000070: ba08 833c f5e3 6cbd b2ef a23c d2ce 8b3d
00000080: 6cdd cbbd 6de6 bdbd bca4 de3d c066 0ebd
00000090: f474 6c3d 9ce2 983d 8b83 dc3d 0c6c 37bd
000000a0: 60c9 a0bd 4ebf 5e3d 36d7 b0bd 0283 bd3d
000000b0: 4ee4 a23d c896 f0bd 43bc d9bb 3a40 8bbd
000000c0: 583d f13c 5884 dabd fa0c abbd 2a86 c2bd
000000d0: a645 093d 5a45 87bd 2e05 0bbd 0636 423d
000000e0: 267a b8bd 0a70 d9bd f438 a83d 26d9 f2bd
000000f0: f435 893d ecc4 843d b8f4 9cbd 8470 173d
00000100: aeb1 ce3d ec88 8fbc e571 26bc fe0e 92bd
00000110: 0e26 70bd 0e7a 01bd 0ef1 eebd 7603 c23d
00000120: 0a35 8dbd 27e1 403d 6416 bc3d f065 b3bc
00000130: c745 4abd 17d4 0e3d 6d0d d6bc 927e ef3b
00000140: 587f 863d 7e1d 683d 7305 05bd 0aa7 28bd
00000150: fdcf 60bd b10a a1bd 3abd e4bd e3e3 6c3d
00000160: ecc3 a83d d8dd dc3a 0e0c c8bd 1339 13bd
00000170: 4d69 103d a79e b2bd acbc e5bd 4470 8d3d
00000180: 6f09 c4bd 017a babd 0a76 503c ca1e 9abd
00000190: d5ad de3d b54d d13d a089 e1bd 32a3 4abd
000001a0: 8bf3 ca3d 478f e73d cca6 c5bd 8593 b63c
000001b0: e3ef 043d 5875 2abd 9006 d53d 33c2 b7bd
000001c0: fa1b cb3d 21a0 c4bc 0f0e af3d 138a f6bc
000001d0: eed9 dabb 8646 7d3d cabf c7bd eb5c bfbd
000001e0: 2aef 27bd 5ffb f8bc 03e0 90bd 677f f7bd
000001f0: a4bd d3bd 5c2a 973d a323 16bd a6b0 83bd
00000200: d9d2 bcbb 5457 783d 1b64 c13d 7a43 4dbd
00000210: 14fa d53c 0f44 cdbc a842 8abd d8a0 5dbd
00000220: d7cb 803b e7b7 8dbb b908 79bc 2215 b0bd
00000230: 1b68 7c3d 54c0 d9bd 80d0 89bd 40c6 a9bd
00000240: 70c3 713d 6015 88bd 4a3d 593d de02 b73d
00000250: 5b7b cc3c 1916 cfbc 73cb 903b 8aec 783d
00000260: 565d 603d d648 c63c e4dc 87bd 9240 823d
00000270: 00a1 973d 9e8b 283d 42e3 293d 1fa7 b53c
00000280: 3830 e03d 2ec4 3c3d 0c78 70bd c6b1 483d
00000290: bd6e 4cbd 82c3 4bbd 4a13 9e3c 8147 d83c
000002a0: 1260 dbbd 8854 1fbd cce4 b3bc b826 143c
000002b0: 9a35 853c 1c31 cf3d 5d2f de3a cf10 00bd
000002c0: c399 b7bc e428 843c eaa7 3fbd 2106 2d3c
000002d0: 9878 80bb 9d44 00bd 7ae3 8bbc 90f4 e0bd
000002e0: 129c 44bd 0644 f23d 5669 20bd a09e f83d
000002f0: ca34 e1bd 55e3 6d3c d839 28bc a8ce 7bbc
00000300: 3aa7 2e3d b265 babd d18f a9bd 5a18 15bd
00000310: 18d1 16bc 7107 323d 5ca1 4abc 4337 4cbd
00000320: e247 cabd 703f 623c b4a3 e53d ef57 903d
00000330: 826d e8bd 1645 b6bd e30e 23bd ce58 333d
00000340: b637 193d 70f2 0dbd f9db 86bd 9553 acbc
00000350: e202 d73d fc23 8bbd ba2d f0bc d2de e4bd
00000360: 65ab 5e3c b259 e2bd e809 e1bd a0a4 e0bd
00000370: 2d94 2dbd da5f c83d 8abc 32bd a324 d43c
00000380: 0197 5e3d df54 f8bd bed0 28bd 0619 1e3d
00000390: fe2c 8ebd 1184 833d 3ccd a1bd a994 94bd
000003a0: 44c1 a5bc 26cf 23bd f1e2 553c 659c 203d
000003b0: a5c7 1dbd 02b9 893d 1601 e7bc 2284 74bc
000003c0: e0f0 cb3d f335 d3ba b755 d2bc 3259 f33d
000003d0: b7c0 05bd 2884 c53c 3032 83bd e53b 4e3c
000003e0: 727c d63d 5374 62bd f944 f03c 7f62 e0bd
000003f0: 4221 3a3d febd 9b3d 177c dd3b dc2d 683d
0.06901915 0.043815434 -0.11670983 0.052185506 -0.013471909 -0.029998899 -0.04925678 -0.07048327
0.040456615 0.084667206 0.023229374 0.061083436 -0.050218724 -0.010540289 0.118648976 -0.03380934
0.09001818 0.054301165 -0.09068243 -0.06462878 0.013185258 -0.11147472 0.10292487 0.06052126
-0.045352355 0.08409566 0.12385772 -0.02580408 0.015995372 -0.057834584 0.019889686 0.06826557
-0.09954342 -0.09272466 0.10871264 -0.03476596 0.057728723 0.07465097 0.10767277 -0.044780776
-0.07850909 0.05438166 -0.08634798 0.092535034 0.07953702 -0.11747509 -0.006644757 -0.067993596
0.029448196 -0.10669774 -0.083520845 -0.09498246 0.033513688 -0.06605025 -0.033940487 0.047414802
-0.09007673 -0.10617073 0.08213988 -0.11857824 0.06699744 0.06482872 -0.07663864 0.036972538
0.100924835 -0.017521344 -0.0101589905 -0.07131766 -0.05863004 -0.03161054 -0.11667071 0.09473316
-0.06894882 0.047089722 0.09183958 -0.021899194 -0.04938295 0.034870233 -0.026129449 0.0073087895
0.06567258 0.05666875 -0.0324759 -0.041174926 -0.054885853 -0.07863367 -0.111689046 0.057834517
0.08240494 0.0016850783 -0.09767924 -0.035943102 0.035256673 -0.08721667 -0.11217627 0.069061786
-0.09572112 -0.09105302 0.012723455 -0.07525404 0.108729996 0.102198996 -0.11012578 -0.04947204
0.099097334 0.11306625 -0.096509546 0.02228714 0.032455336 -0.041615814 0.10401642 -0.089725874
0.099174455 -0.024002137 0.08547603 -0.030095136 -0.0066788113 0.061834835 -0.09753378 -0.093438946
-0.04099957 -0.0303933 -0.07073977 -0.12084847 -0.103389055 0.07381126 -0.03665508 -0.064301774
-0.0057624397 0.060630158 0.09442922 -0.05011318 0.026120223 -0.025056867 -0.06750995 -0.05410847
0.0039305496 -0.0043249014 -0.015199834 -0.08597781 0.06162272 -0.10632387 -0.06729221 -0.08289766
0.059024274 -0.06644702 0.053036965 0.08936094 0.024961164 -0.025279092 0.0044187843 0.060772456
0.054776512 0.024204653 -0.066339284 0.06359972 0.07403755 0.041148774 0.041476496 0.022174416
0.10946697 0.04608553 -0.058708236 0.048997663 -0.049910296 -0.049746998 0.019296307 0.026401283
-0.10711683 -0.038898975 -0.021959685 0.009042434 0.01626091 0.10116789 0.0016951371 -0.03126603
-0.022412186 0.01613278 -0.046790995 0.010560543 -0.003920626 -0.031315435 -0.017076243 -0.109841466
-0.048000403 0.11829381 -0.039162956 0.1213963 -0.10996397 0.014519532 -0.010267697 -0.015369095
0.04263995 -0.09101428 -0.08279384 -0.036400177 -0.009205125 0.043464128 -0.012367573 -0.04985739
-0.09876992 0.01380907 0.112128645 0.07048022 -0.11349012 -0.08899896 -0.03980912 0.043785863
0.037406646 -0.034655035 -0.06584925 -0.021035949 0.10498597 -0.06793973 -0.02931868 -0.11175312
0.013590668 -0.11052264 -0.109882176 -0.109689 -0.04237764 0.09783907 -0.043636836 0.025896376
0.054343227 -0.12125563 -0.041214697 0.038598083 -0.06942175 0.06421674 -0.079004735 -0.07254917
-0.020233758 -0.039992474 0.013054595 0.03921165 -0.038520474 0.067247406 -0.02819876 -0.014924081
0.09958053 -0.00161141 -0.025675638 0.11882247 -0.03265449 0.024110869 -0.06406057 0.012587522
0.10472955 -0.055286717 0.029329764 -0.10956287 0.045441873 0.076045975 0.0067591774 0.05668436

lstm.bias_ih_l0 f4 [256]
00000000: 39e4 2cbd 6ffb acbd 8a46 86bd 1eff b2bd
00000010: 3964 dfbd f3de 943d da6f a93d c9fa bf3d
00000020: 8bd7 4e3c de3a 8dbd b23f d83d bea5 df3d
00000030: 78e9 203d 01d3 e73d 57d4 90bd 98cc 743c
00000040: 4ea8 6e3d 9ea5 0dbc 5215 c7bd 5586 183d
00000050: fcac b6bd 6018 80bd adac 4fbd 4a5c 163c
00000060: 7443 edbb 0dec 36bd 5903 f53c 1b37 d33d
00000070: b459 973c 3c26 c53d 967a ae3d eb2f 24bd
00000080: afc4 9bbd bccb 323d 3d18 003d feaf 9a3d
00000090: 659c b03d 8016 bbbd af3e c1bd 1be7 82bd
000000a0: b532 253d 2493 55bd 5aee 2ebc 180e 5bbc
000000b0: 97fe c2bb d484 5abd 8e18 7abd b244 71bd
000000c0: 448a 9cbd dcea c4bc 6b92 3f3d f9df fabd
000000d0: 4e0f be3d 50b1 9e3d 23da b2bd 601d 983c
000000e0: 5f77 c63d d789 de3d 9ff8 c63d 6dd1 bb3d
000000f0: 856c 893d d05c f03c 0ce2 f0bd 7099 d8bd
00000100: c0c4 9cbd 22f6 aabd 62dd 92bb 94b6 c5bc
00000110: aa79 e1bd 68f4 673d 7897 2a3d c608 d9bd
00000120: 7b50 8c3c 67ac 87bd 9fbc 043d 2f5a a7bb
00000130: 3ab5 edbd 1c4e bd3d a48c 683d 2f95 b23c
00000140: 99fe a93c 7421 7a3c e67f 193d fa93 c3bd
00000150: fdf3 53bd 04c9 3ebb a656 d53d 744e 953d
00000160: 961a a7bd d082 debd 5861 7b3d 484f 2b3d
00000170: 2a3a df3d 476c 993d 67b1 82bc 6f84 e93d
00000180: c7ab d53d e7cd b83d 373b e33d c993 273d
00000190: cfaf 98b9 daba 9dbd cc47 e43d 9c21 13bd
000001a0: d5b9 c43d 0ba6 373d d653 d93c 9e02 203d
000001b0: 5c93 f93c 472f a5bd fba4 283d 2621 a1bb
000001c0: e8b1 6e3d 1155 f83d bac4 4a3c 187a a83d
000001d0: 96d8 22bd 90fc 41bd 5127 a73d 37d1 2b3d
000001e0: f88a 43bd 6a01 193c 80bd fb3d 0718 66bc
000001f0: fdca babd 9962 c8bd b05b 883d bb81 763d
00000200: ca90 2f3d 6ed5 f53d c2e5 f3bd 5856 e7bd
00000210: 7124 f7bc 85d4 a3bd 8c89 cebd 5376 24bd
00000220: 860a cbbb faa2 a13d 482e 90bd 6696 d4bd
00000230: 5681 b33c aadd 78bc 87da c13d 95d6 90bd
00000240: d632 dfbd dc75 aa3d 5779 3cbd d14f 8bbb
00000250: 29e5 54bd 3607 e3bd a2d3 f23d f5f4 333d
00000260: 811e af3d fa5d b93d 8078 8abd d933 563d
00000270: 524b f1bd d846 66bd 26b2 a5bb 1cca bf3d
00000280: 3583 f33d 8e54 a73d dd5c 6dbd a8d5 b43d
00000290: 868b 75bd c559 873d b0c8 6cbd 1bd3 d13d
000002a0: bea7 85bd 645b 6f3c 45d4 863d 7770 f23c
000002b0: 42e8 e83d 8b36 f9bb 5a8a 77bd d7f9 c3bd
000002c0: 08a9 4a3d 9cdd c63d 2b72 43bd f040 0c3d
000002d0: 91d1 2abd ef8b 4bbd f93c 8b3d a9d2 9e3d
000002e0: eabe d63d 0a34 f9bd 29af 833c 6de8 e7bc
000002f0: 5a4e d5bd dd65 e9bd 1fb6 f73d f622 e8bd
00000300: 5f6f 9a3d 9a12 6f3d 93db 5abd 98bb bc3d
00000310: ff59 6f3d a391 82bd 5b92 623d 738c cdbd
00000320: 5b9a 02bb dca3 d43b 671f 8fbd 9491 dd3d
00000330: 2329 543b 2343 e93d 1d7a 273c 3a9d c6bc
00000340: 841e 703d 9271 5b3c d9f3 b83d 56e8 d5bc
00000350: d7d7 a83d ee45 a53d 86af bdbd f826 a7bd
00000360: 5643 8cbd de3c 91bd 9938 84bd 8160 f03c
00000370: eda1 81bd 83d0 97bb 77c4 e43d 966e 843d
00000380: abaa 0bbd 4ad1 82bd 9f27 bcbd e8fc ecbd
00000390: a233 de3d d874 25bd 1bf3 87bd 94c1 17bc
000003a0: 086d af3d a5fb 85bd af8c d83d 1dbb 96bc
000003b0: a22b dd3d 29e2 8fbd 1c17 a53d 932f 39bd
000003c0: 98a5 9fbd 3c14 323d e0b2 823d d112 e43c
000003d0: f989 903c d8bc 52bd 5402 46bc 9202 47bd
000003e0: 6547 623c 65d9 d1bd c773 c4bd f88b 803d
000003f0: 1989 80bd cafe a0bd 8fcd 97bd 0980 ccbd
-0.042209838 -0.08446395 -0.06556423 -0.08740066 -0.10907788 0.07269087 0.08273287 0.09374005
0.012624632 -0.06895994 0.10559024 0.10920285 0.039285153 0.11319543 -0.070717506 0.014941357
0.058265977 -0.008645443 -0.097208634 0.037237484 -0.08919713 -0.06254649 -0.050701786 0.009177277
-0.007240707 -0.04465871 0.029908823 0.10313245 0.018475391 0.09626433 0.08519475 -0.04008476
-0.07605874 0.043651327 0.031273115 0.07553099 0.0862358 -0.09135151 -0.09435784 -0.06391736
0.04033156 -0.052142277 -0.010676945 -0.013370059 -0.0059507596 -0.05334933 -0.061058573 -0.058903404
-0.076435596 -0.02403777 0.046770494 -0.12249751 0.09280263 0.077486634 -0.087330125 0.018568695
0.09690737 0.108661346 0.097153895 0.09170804 0.067101516 0.029341131 -0.11761865 -0.10576141
-0.076547146 -0.08347727 -0.0044819573 -0.024134912 -0.11009534 0.05662957 0.041648358 -0.105973765
0.01712822 -0.0662468 0.032406446 -0.0051071863 -0.11606832 0.09243414 0.05677475 0.021799652
0.020751284 0.015266765 0.03747549 -0.09549709 -0.051746357 -0.0029111514 0.104169175 0.07290354
-0.08159368 -0.10864794 0.06137213 0.041823655 0.10899766 0.074913554 -0.015953733 0.11402213
0.104331546 0.09023648 0.11095279 0.040912423 -0.00029122687 -0.07701655 0.11146507 -0.035920724
0.09605757 0.044836085 0.026529234 0.039064996 0.030465774 -0.08065658 0.041172963 -0.0049172817
0.058275133 0.121256 0.012376005 0.082264125 -0.039757334 -0.047360003 0.08161796 0.04194757
-0.047739953 0.009338716 0.12292004 -0.0140438145 -0.09120748 -0.09784431 0.06658113 0.060182314
0.04286269 0.12003599 -0.11909057 -0.11295766 -0.030168744 -0.07999519 -0.10084829 -0.040151905
-0.006196323 0.078924134 -0.070400774 -0.10380249 0.021912258 -0.015189568 0.09465509 -0.07072178
-0.10898368 0.08323261 -0.046014156 -0.004251458 -0.051976357 -0.1108536 0.11856772 0.04393478
0.0855074 0.09051128 -0.06761265 0.05229554 -0.11781944 -0.056219906 -0.0050566373 0.09364721
0.1189026 0.081704244 -0.05794989 0.08829814 -0.059947513 0.06608919 -0.057808578 0.10245343
-0.06526135 0.014609192 0.06583456 0.029594643 0.11372425 -0.007605379 -0.060434677 -0.095691375
0.049477607 0.097102374 -0.0477163 0.034241617 -0.041703764 -0.049693998 0.06798739 0.07755024
0.10485633 -0.12168129 0.016074734 -0.028309071 -0.10415335 -0.11396382 0.12095284 -0.11334793
0.075407736 0.05836735 -0.05343206 0.09215468 0.058435436 -0.06375434 0.055315357 -0.10036554
-0.0019928429 0.00648926 -0.069884114 0.108187824 0.0032373152 0.113897584 0.010221985 -0.024244893
0.058622852 0.0133937765 0.09030885 -0.026111763 0.08244293 0.08069979 -0.09261994 -0.081617296
-0.06848781 -0.070916876 -0.06456108 0.029342892 -0.06329713 -0.004633011 0.11170285 0.06466405
-0.03409831 -0.06387575 -0.091872446 -0.115716755 0.10849692 -0.040394634 -0.066381656 -0.009262461
0.08565718 -0.06542138 0.10573708 -0.01839977 0.10799338 -0.070255585 0.080610484 -0.045211386
-0.077952564 0.04347633 0.06381774 0.027841004 0.017643915 -0.051449627 -0.012085516 -0.048586436
0.013810967 -0.10246543 -0.09592395 0.06276697 -0.06276149 -0.07861097 -0.07412254 -0.09985358

lstm.bias_hh_l0 f4 [256]
00000000: 9700 493d e2b8 ebbd 8303 4a3d 2809 13bd
00000010: 59cb b93c 6a9e fbbd 1b15 65bd aab7 dfbd
00000020: 4506 b6bd 816d 253c e4e2 ef3d fbfa 9f3b
00000030: 69a0 efbd cfaa c2bd 018b be3b 18ed 0a3c
00000040: 1544 763d 83a5 b03d b923 9b3d 7a20 df3d
00000050: 4962 643d d36a 25bc 7392 e3bc c229 c33c
00000060: ae79 db3d b368 3d3d 382e ca3b 4e28 c4bd
00000070: 8dea a73d 4318 9d3d 012a 203b 6013 d13c
00000080: dbcf 873b bdfb c73c 1705 eabd d0c7 9bbd
00000090: 2240 db3c 4894 663c 5c02 5abd e42e 233d
000000a0: 4d98 f43d 25ce e43b d97e dd3d 8ee8 ee3d
000000b0: cb61 19bd 3e8d fd3d 3f9e d7bd 2eb2 80bb
000000c0: 281b 95bc f934 89bd 8663 b43c b05c efbd
000000d0: 208c d13d a2cf bebd 5749 b53c 242d 9abd
000000e0: 9473 dc3d 355b aabd 5469 07bd 8513 1b3d
000000f0: e6ab 82bd 54aa 293d 9c2f 56bd 2d11 2b3d
00000100: 7b17 733d 3ea5 cfbd ec89 333d 1913 8d3d
00000110: 7c10 f83d 9201 a23d ca1e afbd f637 f8bd
00000120: 090c a6bc bce3 aabd 08dd 82bd 53ba 9abc
00000130: 1957 753d a269 c4bd 49b2 9ebd eb64 d1bc
00000140: 1549 ccbc 3679 733c 9c7f 8c3c 2514 8b3d
00000150: 120f 13bd 9a43 a0bd a416 f6bd d194 a23d
00000160: 1fe2 8fbd 9073 55bc 769b d3bd 8934 a33d
00000170: ee10 d9bb 1f71 e9bd 6fac 42bd 563b 7bbd
00000180: 677f a6bd 36fd efbb 343b 96bd 0f54 7bbd
00000190: 14f5 03bd 2390 c1bd a9ff 933d b28f ef3d
000001a0: befd afbc 21c0 143d eaad 9f3d 843e 453d
000001b0: e49b cdbd e9c9 79bd f25a 4ebd e644 dd3d
000001c0: af33 16bd c3c9 8e3d 606b 36ba 0e59 46bd
000001d0: 327e 38bb 36ca dabd bb84 ec3d fc31 a2bd
000001e0: 9317 d43d 2bb4 22bd 017e 443d 80f7 d03d
000001f0: a572 b53c bb2a 9b3d 2b61 c13d d3a7 2ebd
00000200: 6bf3 64bd b144 b33d cbf0 c8bb 9493 6cbd
00000210: 0999 f6bc e20e 843c 1dc8 cd3c 9206 d43d
00000220: 0774 8c3d 2229 f73a c9df 4f3d 1100 f13d
00000230: 26e9 d63c a3a2 503d a771 cb3c 9c6f 22bc
00000240: 975d e13d b4ac f4bd 333b abbd c9a2 c3bd
00000250: 5e74 96bd 58e3 233d dae2 bc3d b5aa aebb
00000260: 22fe b0bd 9c1b ccbd 80b9 38bd 6daa dfbd
00000270: a8d2 673b b2e2 ab3d e9fc 833c 0625 e63d
00000280: 7399 04bd f976 78bc 6220 443d fd21 9d3d
00000290: aaef 523d 4e61 a83d a3d9 913d 27e6 cb3d
000002a0: 4407 533d 66be 483d 9927 70bd 0444 d93c
000002b0: 7e55 823c b7cf 6a3d aa1e 8638 ed54 f7bd
000002c0: ffd5 9c3d 46cd a93d 02a8 df3d cce4 dbbd
000002d0: fade afbc 6617 cc3d d550 37bd ef68 ed3d
000002e0: 29ad 82bd 1699 5abd c3dc dfbd 62f4 66bd
000002f0: e5a5 f43d f913 cf3d dd95 c23d ebcf 923d
00000300: 3a5d c03c c507 abbd 1727 c3bd d26c d53d
00000310: 4a8a 833d edf3 e8bd 5642 793c 1ef5 28bc
00000320: 7c04 9fbd 85f4 9abc 3814 223d 6cdb 8e3c
00000330: 6da7 e03d 0037 d23d 6a58 36bc e370 e6bd
00000340: ff29 babc 09c1 bb3d 75d7 213c d987 86bc
00000350: 59a8 90bd 2df0 333d efc7 cdbd d94b f2bd
00000360: 26b3 d6bd 76d9 a8bd dba9 fabb c852 a23d
00000370: ed3b d63d 5c99 c33d e8bf b4bd 8213 24bc
00000380: 680f dbbd a7a9 43bd 69f0 a8bd 2a6c e13c
00000390: df19 3e3b 8bc9 3cbc 6c4a a1bd 11f3 b13d
000003a0: 4121 76bb a757 31bc e0a0 39bc 9d42 12bd
000003b0: e378 703c d2cf f43d 42ef 773b 10d3 f23d
000003c0: e4d8 fdbd f03a 8e3d 7de5 c0bd b384 903d
000003d0: ae86 df3d 568f 6bbd 8afe e23d 2b47 63bd
000003e0: 6f7d 74bd 9d79 bebd 9046 10bd 348a edbc
000003f0: 6251 99bc 15d1 913d 86d7 ea3d c5d1 0ebc
0.04907283 -0.11509873 0.049319755 -0.035897404 0.022679972 -0.122860745 -0.05592833 -0.10923703
-0.088879146 0.010096909 0.11713198 0.004882214 -0.11700518 -0.095052354 0.0058149104 0.008479379
0.06012352 0.08625319 0.07575173 0.10894866 0.055757795 -0.01009627 -0.027779793 0.023823623
0.10716568 0.046242427 0.0061700605 -0.09578 0.08199034 0.07670643 0.0024439099 0.025521934
0.0041446513 0.02441203 -0.11426752 -0.076064706 0.02676398 0.014073439 -0.053224906 0.03983964
0.119431116 0.006982582 0.1081521 0.1166545 -0.03744678 0.123804554 -0.1052823 -0.0039274907
-0.018201426 -0.06699557 0.022020113 -0.116876006 0.10231805 -0.093169466 0.022129698 -0.07528141
0.10764232 -0.083181776 -0.033059433 0.037860412 -0.06380443 0.041422203 -0.052291498 0.041764427
0.059348565 -0.10138939 0.043832704 0.06888408 0.12112519 0.07910456 -0.085507944 -0.12120049
-0.02026941 -0.08344218 -0.063898146 -0.018887674 0.059897516 -0.0959046 -0.07748849 -0.025560817
-0.024937192 0.014860442 0.017150693 0.06790952 -0.035903044 -0.07825394 -0.12016037 0.07938541
-0.07025551 -0.0130280405 -0.10332386 0.07969005 -0.0066243326 -0.11398529 -0.047527727 -0.061335884
-0.08129769 -0.0073238863 -0.07335511 -0.06135946 -0.032216147 -0.0945132 0.07226498 0.116973296
-0.021483298 0.03631604 0.07796843 0.048155323 -0.100394994 -0.060983572 -0.0503797 0.10804157
-0.036670383 0.06972077 -0.0006958749 -0.048424773 -0.002815139 -0.106831 0.11548754 -0.0791969
0.10356059 -0.039722603 0.04797173 0.10203457 0.022149393 0.075765096 0.094423614 -0.04264052
-0.055896204 0.08753336 -0.0061322204 -0.05775793 -0.03010227 0.016120378 0.025119836 0.10352816
0.06858068 0.0018856863 0.050750528 0.11767591 0.02623422 0.050936352 0.024834467 -0.009914305
0.11004179 -0.11947003 -0.08360901 -0.09552533 -0.07346414 0.040011734 0.09222956 -0.0053304085
-0.08642222 -0.099662036 -0.04509878 -0.10921178 0.0035373364 0.08392848 0.016111808 0.112375304
-0.032372903 -0.015165084 0.047882445 0.076724984 0.051498093 0.082216844 0.07121589 0.099560075
0.0515206 0.049009703 -0.058631513 0.02652169 0.015909906 0.057327 6.3953295e-05 -0.12076745
0.07658004 0.08291106 0.10920717 -0.10736999 -0.021468628 0.099654004 -0.04475482 0.1159228
-0.06380684 -0.05336865 -0.10930779 -0.056385405 0.11945704 0.10111231 0.095012404 0.071685635
0.023481954 -0.08351091 -0.0952894 0.104211465 0.06422861 -0.1137465 0.01521357 -0.010312347
-0.07764527 -0.018915424 0.039570063 0.017438613 0.10969434 0.10264397 -0.011129478 -0.11252
-0.022725103 0.09167678 0.009878029 -0.0164222 -0.0706336 0.04393022 -0.100479 -0.11830873
-0.104833886 -0.082446024 -0.007649643 0.079259455 0.10460649 0.09550735 -0.08825666 -0.010014417
-0.10696298 -0.047769215 -0.082489796 0.027517397 0.002900712 -0.011522661 -0.07875523 0.08688939
-0.0037556442 -0.010824121 -0.0113298595 -0.03570806 0.014677259 0.11953701 0.0037831818 0.11856663
-0.12394884 0.06944835 -0.094187714 0.0705656 0.1091436 -0.057509743 0.11083706 -0.055487793
-0.059689935 -0.0930054 -0.035223544 -0.028996564 -0.018715564 0.07119957 0.11466889 -0.008717005

lstm.weight_ih_l1 f4 [256, 64]
00000000: fc3b ae3d 10db e0bd 5e94 a33d a668 ee3d
00000010: c410 173d d24a 163d 17c0 e5bc 8ad2 a6bd
00000020: 4679 9bbd f1a4 003d 169b f83c 2358 0ebc
00000030: 8de2 12bd ea93 463d 90a9 783d ecd3 123d
00000040: 008c fa3c 116c 8d3d 9c5b 2e3d 5a88 bc3d
00000050: 6da7 29bd 77d6 b1bd 4eaa 16bd fb6b 4f3d
00000060: 6f0a 69bc 083c e53d 0188 67bd d30e 01bd
00000070: 84b6 433c f052 d53d caa5 18bd 7ec5 babd
00000080: 7832 f63d fb24 3a3c 2ea4 f2bd 6a8b 0f3d
00000090: 691a af3d b8e6 833c 8ab4 d73d df7c df3d
000000a0: 3e2a 99bc a473 b03d 5215 d23d b125 28bd
000000b0: e487 493d 7849 7dbd 60a9 e23d 28b4 aa3d
000000c0: cdb7 8cbd cd62 0dbd c48e d73c da18 d03d
000000d0: 2f55 fdbd ea01 ef3d 80cc e9bd bba0 c23d
000000e0: dac7 d93d 30f2 10bd fc85 923c 6224 573c
000000f0: f43f ddbd d6f7 013c 1484 fb3b 81a2 a4bd
00000100: ca9b d03d 8b50 bf3d f22d d3bd 6632 e93b
00000110: 7753 debb 17bd 6c3b 8cc4 9bbd c8d2 d6bd
00000120: 4e83 fdbd 2ef3 c7bd 2874 b9bd b892 b1bd
00000130: b67b 7b3d 218d 003d 3455 723d c251 ae3c
00000140: 0121 25bc a2c0 e5bd a20b f6bd d0fb 913d
00000150: 4227 693d 57f7 923d 711e e23d 5c84 973b
00000160: f60f 593d a411 743c 2cd1 9f3d cac7 bbbd
00000170: 819b 57bd c629 d5bd 368a 2ebd 71de ebba
00000180: 954f 733d d7a1 d6bd 126f 1dbc 75b4 a23d
00000190: 60e8 f9bd a03d c1bd a0fe 6f3a fb05 af3d
000001a0: 3de7 6cbd 7d3b a0ba 7824 babd 6a59 7fbd
000001b0: 8ef7 823d ab9b 3cbd 25ce 763d f270 8cbd
000001c0: b42e 333c 379f dbbd 079f f9bd 0f6d 80bb
000001d0: 8361 88bc 3bce 6b3d bada a63d 7846 ec3d
000001e0: 7893 66bd b4d6 9d3d 405c e5bd 5f20 983d
000001f0: 1f62 8bbc 77ce 81bc 6bbb 24bd 3ec3 e63d
00000200: 58c9 3cbd 2999 d5bd f5f9 bebc 149f c4bd
00000210: 52d6 783d 40ee 283c 4ff2 c33d 1b11 cc3d
00000220: b2f5 983d 8446 0dbc 0b52 2dbc 50c1 903d
00000230: 84b1 aabc 1cec a03d ca7d babd 81eb bebd
00000240: 6c5b 94bd 3e8d b2bd 1132 3d3c c027 e23c
00000250: d987 b93d 97ba ca38 7ea4 ea3d 41e3 a2bd
00000260: 0495 1b3d 9070 84bd b09a af3d 99d5 93bc
00000270: 6923 563d 2709 df3c e9b9 cd3d fc8e 92bd
00000280: e36e 213b 3cae fdbd da6a af3d be00 ed3d
00000290: 629c 043d c6e2 e2bc 2f6a 9dbd bc4f 423d
000002a0: 5251 ecbc d84b 883d 6e82 c8bd b79c 08bd
000002b0: 4255 d2bd 3cb8 a13d 9e54 bebd 3ab0 e13c
000002c0: 4c92 8c3d d27b dfbb ba85 89bc 0852 3ebd
000002d0: 7e7a c03c 3a8f af3d b223 c73d 284f 5a3d
000002e0: fff2 9f3d edb1 81bd 2f65 bbbd 946a 14bd
000002f0: 54f1 11bd 0c91 6a3d 60d2 87bd 5de7 8ebd
00000300: aee2 9cbd 1e2e 7abd 64c2 af3b de4e a33d
00000310: ea38 8bbd b8b1 31bd d43a e23c d896 ea3d
00000320: 79e5 b4bc 1cbb d23c 2d9b fe3a 76e4 d4bd
00000330: 6173 80bd a6a1 9f3d 16cc d83c 537f fc3d
00000340: 2a60 b53d 703d a43d 7cfa b5bd 57e5 023d
00000350: 1322 b73c 5fb6 dbbd 9939 df3d e237 d5bd
00000360: d667 adbd 3c8e 713d 179f b03d 5c4f 403d
00000370: 3a9d db3d 2d12 d8bc d054 f73b 7e92 afbd
00000380: bb3e 3dbc b92d 30bd 1aba 9fbd 808b 09bd
00000390: f420 5ab9 4f3c e8bd 985b c1bd ebe3 d73d
000003a0: ba22 b73a bee5 ae3d 8420 963c ae22 95bd
000003b0: 54a2 fbbc 3c78 9f3c cc4c c63d 4547 a93c
000003c0: 9fba 40bd 5287 1dbd 6b42 08bd 8e4a 8ebc
000003d0: e858 b33d 57c8 c83d 2abb a83d e080 e13d
000003e0: 3e92 4fbd 7359 fa3d f696 3f3d 26b7 95bd
000003f0: 7831 edbd af7a 9f3d 36ef 8fbd 3e3b d43d
0.08507535 -0.10979283 0.07987283 0.11641054 0.036881223 0.036692448 -0.028045697 -0.08145626
-0.075914904 0.0314073 0.030347388 -0.008688006 -0.035860587 0.048480906 0.060708582 0.035846636
0.030584335 0.06905378 0.042567834 0.092056945 -0.041419435 -0.08683484 -0.03678351 0.050640088
-0.014223679 0.11193091 -0.056526188 -0.031508278 0.011945371 0.1041621 -0.037267484 -0.091197
0.12021345 0.011361356 -0.11847721 0.035045065 0.08549959 0.016101226 0.10532482 0.10912489
-0.0186969 0.08615807 0.10257973 -0.04105157 0.04920186 -0.061837643 0.11067462 0.08335143
-0.06870995 -0.034518052 0.026313193 0.1016099 -0.12369763 0.11670287 -0.114159584 0.09503313
0.10633822 -0.035387218 0.017886154 0.013131233 -0.10803214 0.007932624 0.007675657 -0.08038808
0.101859644 0.09341534 -0.10311498 0.0071166037 -0.006784852 0.0036123449 -0.07605848 -0.10489422
-0.1237856 -0.0976318 -0.09055358 -0.086705625 0.061397277 0.03138459 0.059163287 0.02127922
-0.0100786695 -0.112183824 -0.120139375 0.071281075 0.056922205 0.071760826 0.110409625 0.0046239328
0.052993737 0.014896784 0.07803568 -0.09168966 -0.052638534 -0.10408358 -0.042612277 -0.001799537
0.059402067 -0.10480087 -0.009609001 0.07944576 -0.12202525 -0.09435582 0.00091550685 0.085460626
-0.057837714 -0.001222476 -0.09088987 -0.06234113 0.063948736 -0.046046894 0.06025519 -0.0685748
0.010936428 -0.10723727 -0.12188535 -0.003919251 -0.01664806 0.057569724 0.081471875 0.11536878
-0.05629298 0.07706967 -0.11199236 0.07428049 -0.017014561 -0.01584552 -0.0402178 0.11267708
-0.046090454 -0.104296036 -0.023312548 -0.09600654 0.060751267 0.0103107095 0.09567701 0.099642
0.07468738 -0.008622769 -0.010578643 0.070681214 -0.0208366 0.07857534 -0.091060236 -0.093222626
-0.07244 -0.08718346 0.011547581 0.027606845 0.09059114 9.666866e-05 0.11457156 -0.079535015
0.03798391 -0.06466782 0.08574426 -0.018046187 0.052279864 0.027226044 0.10045225 -0.07156178
0.0024632744 -0.12386748 0.08565302 0.11572407 0.0323757 -0.027696025 -0.076862685 0.047439322
-0.02884737 0.06655091 -0.097905025 -0.03335258 -0.10270168 0.07896468 -0.09293483 0.027549852
0.068638414 -0.0068201805 -0.016787399 -0.04646495 0.023495909 0.0857224 0.09723605 0.053298146
0.0781002 -0.06332765 -0.091501586 -0.036234453 -0.03563054 0.057267234 -0.06631923 -0.06977723
-0.07660423 -0.061079137 0.0053637493 0.07974027 -0.06797965 -0.043382376 0.027615942 0.114545524
-0.022082077 0.025723986 0.0019424908 -0.10395138 -0.06272007 0.07794504 0.026464503 0.12328973
0.088562325 0.08019531 -0.08885667 0.031956997 0.022355115 -0.10728144 0.10899658 -0.104110494
-0.08467071 0.058973536 0.08624094 0.046950683 0.10723348 -0.026375854 0.0075479522 -0.08572863
-0.011550601 -0.043012355 -0.07799168 -0.033580303 -0.00020802376 -0.11339628 -0.09441298 0.10541519
0.0013972141 0.085399136 0.018326052 -0.07282005 -0.030717053 0.019466512 0.096826166 0.020663867
-0.047052976 -0.03845913 -0.033266466 -0.017369535 0.08757192 0.09803837 0.08238824 0.11010909
-0.050676577 0.12224092 0.046774827 -0.073103234 -0.11581701 0.07787072 -0.07028048 0.10362862

lstm.weight_hh_l1 f4 [256, 64]
00000000: a85d a4bd b6a3 e8bd df54 3d3c 1f9f 1f3d
00000010: 6c0a a33d c87a ea3d 340c 1ebd 88fa 233d
00000020: a6fa f0bd 7423 0a3b 019a 4ebb aee7 8a3d
00000030: fc1c c7bc ba99 c33d 518c 9d3c 9d14 fbbd
00000040: 8070 b63d 00a1 593d f694 bebc f549 af3d
00000050: d312 6bbd aa3c 4c3d af00 103c 62b0 3e3d
00000060: 152b ea3d c9d0 7a3d 5380 0c3c e8c4 abbd
00000070: ab61 03bd 6aa6 443d 027c 4c3c ec25 bdbc
00000080: 8efa a73d 407b a4bd c79d 123c 4170 483d
00000090: 4e1d e33d 6805 173d d3d5 ad3d eed8 9f3d
000000a0: f028 393d 6099 973d 9004 f23d b728 0bbd
000000b0: 684f 39bc 59d9 803d 2e31 abbc ca60 5cbd
000000c0: 4046 813c 866e 91bd 73e7 8b3c 9843 a3bd
000000d0: a0a8 41bd 22f7 a23d a350 473d 0d7f e43c
000000e0: 027d 64bc a6ff b13c 1f7f d13c 423b a8bd
000000f0: 9643 0a3d 1a13 c33d d910 c2bd 024a 853d
00000100: 7f11 89bc 6680 86bd b9ce 5f3b 1c76 8abd
00000110: 68f4 693b fe70 b83d ce65 d4bd add2 94bd
00000120: 0c83 d0bd 4c33 bebd 0414 a13d 0c12 5dbd
00000130: f8cb a8bd a863 e63d 30b4 753d 3480 a53d
00000140: ea23 abbd db74 71bb 03f9 2fbd 27cc 5c3d
00000150: 5957 f0bd 28c6 b8bd 494b 4ebd 6ac4 8ebd
00000160: 2295 d2bd bef5 273d 6c15 55bd d5e9 af3d
00000170: 75b6 34bd ea49 483d 525c fb3d d72f 373c
00000180: 600f d73d f4b6 a0bd 852a 1f3d 77d2 c0bd
00000190: 7512 adbc 0643 6e3c 18ad dc3d f21b 9e3d
000001a0: 072f 68bd a943 dc3d 67d1 22bd eddc 9cbc
000001b0: 464c 8c3c a624 a13d d24e 493d 7656 983d
000001c0: 6804 f0bd 48df bb3c 25a2 fb3d 9099 9abd
000001d0: bdcc d8b9 9a9e 273d d53f 9d3d f800 723d
000001e0: f00f ef3c d9ee dcbd 6b1e acbd 0d52 a43d
000001f0: 6c0f b33d 906e b53d 3b16 51bc 8983 aebb
00000200: 6c1d c4bd 3eda e63d 6a08 ec3c cc2b 6fbc
00000210: 7014 48bc def5 42bd 9997 5f3c 54f0 343d
00000220: 9105 a1bd d0af 9e3d 6b35 b23d fe05 dc3d
00000230: c5ae 2d3d 3a27 e5bb 8288 88bd fbbe 813b
00000240: c139 033d 7810 b63d fcd4 793d 64cf fdbd
00000250: 4189 ab3d 1abd d03d 1851 aabc 8f20 683d
00000260: 1446 bd3d 3679 c3bc 4c93 97bc 5415 8abd
00000270: a3f4 95bd cc52 9cbc ffce eb3d 4c00 2a3d
00000280: b4a3 e1bd e6bd 5cbd 361f 0fbd 951c 003d
00000290: d8a0 99bd 0a14 0d3d 89af ce3d 0c71 893d
000002a0: 6229 86bd b6be b5bd 07b8 fbb9 5495 863c
000002b0: 72cf a33d 482d bcbd 1634 c1bc 6b98 1b3d
000002c0: d195 d3bc 92ba 46bd 1a9d f5bd 4f04 0a3c
000002d0: d38b 1bbd 4731 2b3c 09e5 3a3c e582 92bd
000002e0: e0af 763d 1d32 693d 26d6 8238 6b66 80bc
000002f0: 35b8 bfbd 5c4b c6bd 507f 0a3d 6bf1 8fb7
00000300: 1a12 c03d 54b4 4d3c 17d3 163d 8a09 0cbd
00000310: 70de 7b3d 129a aabd 6283 66bb 3283 96bd
00000320: 3c8a 8f3d d6ac d2bd 2262 cfbd b6c5 66bd
00000330: 3ec0 c33d a2ad 79bc cfc4 e63b 84c8 18bd
00000340: e387 7abd 105a 8c3d 8652 1bbd 3d75 3e3d
00000350: 4f6b 343d 47cc 66bb 8bf4 cd3c 6402 523d
00000360: 9c04 e2bd b2f2 a33c 96c4 88bc 5e07 c4bd
00000370: b57c a93d 3270 f63d 27e2 343d 3eb6 70bc
00000380: 68cd 3a3d 91cc babc 203e 823d dd19 303d
00000390: 48c3 d0bd 6a0d c2bd e800 f73d f0ef d4bd
000003a0: 7e90 60bd e760 fb3d af46 ccbd 5724 723d
000003b0: 266d 093d 060c edbd 7e8e c0bd 3005 b3bd
000003c0: 9ea2 b73d 3a60 7d3d 78fe d53d 7adf 41bd
000003d0: 38a3 a9bd 445a adbd 8609 e23d 7cb3 d0bd
000003e0: cac8 d2bc dc22 ddbc 29ad 1bbd 3632 4bbd
000003f0: 116a ba3c 0afd 62bd c646 4c3c bea8 ca3c
-0.08025676 -0.113593504 0.011555879 0.03897011 0.07960972 0.114492 -0.038585857 0.040033847
-0.117665574 0.002107826 -0.00315249 0.06782471 -0.024305813 0.095508054 0.019231947 -0.12259791
0.089081764 0.053132057 -0.02326439 0.08559028 -0.057391 0.04986254 0.0087892255 0.04655493
0.114339985 0.06123427 0.008575517 -0.08387166 -0.032075565 0.048010267 0.012480738 -0.023089372
0.082020864 -0.080313206 0.00894875 0.04893518 0.11089574 0.03687039 0.08488049 0.07805048
0.045205057 0.07402301 0.118172765 -0.033974376 -0.011310436 0.06291456 -0.020897474 -0.053803243
0.015780568 -0.07101159 0.017078137 -0.07971877 -0.047279954 0.07957293 0.048660886 0.027892614
-0.01394582 0.021728348 0.025573311 -0.082144275 0.03375586 0.09525128 -0.0947587 0.065082565
-0.016731976 -0.06567459 0.0034150316 -0.06760809 0.0035698656 0.090059265 -0.1037098 -0.07266746
-0.10181245 -0.09287128 0.07865146 -0.05397229 -0.08242029 0.11249477 0.059986293 0.080810934
-0.083564594 -0.0036843333 -0.042962085 0.053905632 -0.1173541 -0.0902217 -0.050364766 -0.06971057
-0.10282351 0.041005842 -0.052022383 0.08589522 -0.044119317 0.048898615 0.12273468 0.0111808395
0.105009794 -0.078473955 0.03885891 -0.09415143 -0.021126965 0.014542347 0.107752025 0.07720174
-0.056685474 0.10755093 -0.039750483 -0.019148314 0.017126214 0.07868318 0.049147435 0.07438366
-0.117195904 0.022933617 0.12286786 -0.07548821 -0.00041351272 0.04092274 0.076781906 0.059082955
0.029182404 -0.10787744 -0.08404239 0.080234624 0.08743176 0.08858979 -0.012761648 -0.005325739
-0.09575924 0.11272095 0.028812606 -0.014597844 -0.012211904 -0.04759776 0.013646984 0.044174507
-0.0786239 0.07748377 0.08701595 0.107433304 0.042403 -0.0069932016 -0.06666662 0.003959534
0.0320375 0.0888986 0.060994133 -0.12393072 0.083757885 0.10192318 -0.020790622 0.056671675
0.09241882 -0.023861509 -0.018502854 -0.06742349 -0.073220514 -0.01908245 0.11514091 0.04150419
-0.11017552 -0.05389204 -0.034941874 0.031277258 -0.07501382 0.03444294 0.100920744 0.06711015
-0.06550862 -0.08874266 -0.00048011562 0.016428627 0.079985514 -0.09188324 -0.023584407 0.037987154
-0.025828274 -0.04851777 -0.11992855 0.008423879 -0.037975144 0.01044876 0.011407145 -0.071538724
0.06022632 0.056932557 6.238771e-05 -0.015673837 -0.093613066 -0.096823424 0.03381282 -1.7159347e-05
0.093784526 0.012555201 0.036822405 -0.034188785 0.06149143 -0.08330168 -0.0035173525 -0.07349242
0.07008788 -0.10286872 -0.10126139 -0.056340896 0.09558152 -0.015239151 0.0070425044 -0.0373006
-0.061164748 0.068531156 -0.037920497 0.046498526 0.04404765 -0.0035216974 0.025141021 0.05127181
-0.110360354 0.020013187 -0.016695302 -0.09571718 0.08275739 0.12033118 0.04416099 -0.014691887
0.045606047 -0.022802623 0.06359506 0.042993415 -0.10193497 -0.09475215 0.1206072 -0.10397327
-0.0548253 0.12274342 -0.09974419 0.059116688 0.033551358 -0.11574559 -0.09402178 -0.08741224
0.08966564 0.061859347 0.10448927 -0.047332264 -0.08283085 -0.084644824 0.11036973 -0.10190484
-0.02573051 -0.026994161 -0.038006935 -0.04960843 0.022755655 -0.055417098 0.012468046 0.024738666

lstm.bias_ih_l1 f4 [256]
00000000: fcdb c2bc 046d 5fbb cfdd a23c c091 793d
00000010: 1b61 e8bc c0b4 03bc 39dc bb3d d49d 30bd
00000020: 99bf 3bbc 325d f43c b178 d5bd 122e 1dbd
00000030: d72e eebd e8c0 8fbd 7a5e 7bbd 1860 acbd
00000040: 4139 e73d dd9a ce3d 3004 9d3d 140c ecbd
00000050: a783 b53d 3ffc a13d 4415 ff3c a03b ec3d
00000060: 96ea e13d 0f89 dc3d f2c8 cbbd 4644 55bc
00000070: 2d34 ef3d b75c 8d3c a267 b5bd 1200 89bd
00000080: f212 bf3c a320 af3d 380f bfbd 1b76 c63d
00000090: a595 083b e9c0 1fbd efe3 d4bd d3e7 5f3d
000000a0: a863 75bd c8b7 8a3d ccba 5b3d 01e5 ed3d
000000b0: 23b7 e63d 2085 86bd fce0 cd3c 3443 e9bd
000000c0: 71b4 8cbb 4d0b 58bd 19fc 4abd e091 c2bd
000000d0: 45f5 ce3d 9e3a 47bd 1154 c4bb c8cb 40bd
000000e0: 8d80 043c a918 6a3d 8a2e cdbd aca2 163d
000000f0: c68c 47bd a952 283d a94c 903d 99a0 d73d
00000100: 70b8 d33c bf1b 2fbd 723f 58bd 2c1c d43a
00000110: acaa b1bd a98a c93d e290 b33d 7634 febd
00000120: dfd5 1f3d c242 bdbc 07df 1cbc 4ab6 fd3d
00000130: 3de7 e6bc 78d5 4d3d 981f 36bd baa8 e4bb
00000140: 529b 90bd e535 823d 6fc7 ae3d a6c1 afbd
00000150: 7524 98bb 0180 6d3c 59b3 e9bd 9a6c 4b3c
00000160: d74a 4c3b dcaa edbd 11f1 38bd 37dd c8bd
00000170: cea2 9ebd 5719 98bd edc3 a73d c76e cbbd
00000180: 1dcf acbc 3e89 f1bd 5a30 d03d 9265 413d
00000190: 58f8 a63c 9754 17bb 1fc2 2dbd f8ad 433c
000001a0: b23c 37bb bb47 c3bd 0a48 dfbd 2c7c b2bd
000001b0: 7027 04bc 8b8d e43d 6225 84bd 185d b3bc
000001c0: befd 463c 72c6 963d ea3e ccbb be07 22bd
000001d0: 47a6 4dbd 2872 1abb 6a70 cdbc 2a05 8ebc
000001e0: 8cde a73d ead9 203d f2d6 e4bd 4ba2 da3d
000001f0: 8725 cf3d 7d4b 23bc ec89 643d e3b9 86bc
00000200: adf5 12bc 0a3c 24bd 032b ef3c bd65 dd3c
00000210: 867e 783d bfd6 32bd 37be 413d 07c7 6e3c
00000220: a200 54bd 79e1 a03c 6cf9 04bd 9705 b63c
00000230: defc ad3c 5bd1 e83d b549 1e3c a2ab 1abd
00000240: 330c 16bd ec58 b83d b819 193d 5e56 d0bc
00000250: d707 debd a7c4 073d d894 5a3c 738f dabd
00000260: 87a9 1dbd db9a dd3d 019b edbd ed21 f23d
00000270: 0495 f53d 80d7 95bc a2f2 0c3d bcdb c23d
00000280: 38c3 c3bd dfa6 7dbd 7d66 58bc 5b76 273d
00000290: 0e0c dbbd 8864 4a3c 395a f2bd 8ab5 9fbd
000002a0: ec0e d43d 5167 b93d 8419 d7bd e98d 06bd
000002b0: d049 b93d 669c 94bd b443 b73d c0cb f53c
000002c0: b5b9 333d 3ff2 863d 12d3 84bd 29de 9ebd
000002d0: 4ae3 05bd 79cb b93d 40e3 9a3d ce30 96bd
000002e0: 5554 c83d aefd 363d df6d f83d 231e f43d
000002f0: 0229 b43c 7388 69ba ac5c a53d c2cc a9bd
00000300: d674 5e3d dc8f afbb d421 993d 4b6e c0bd
00000310: 1954 6bbc b019 b23d 509e c13c 66c6 283c
00000320: d9b4 1bbc 402b 1bbd b7ed 88bd 8640 6bbd
00000330: ffe5 a2bd 1e9a 313c c773 dcbd 1d50 aa3d
00000340: fcf6 70bd db04 8a3d cba1 453d 899c d5bd
00000350: 3444 a4bd db5e d7bc c721 bbbd dd1d a23b
00000360: 271e 6cbd 8097 9c3d 5fa3 b5bb 2310 84bc
00000370: d677 8ebd 8bc3 0ebd 4463 eebd 6eb9 b9bc
00000380: 5bd6 d33c 951b 243d f310 0e3d bc0f dcbd
00000390: f080 92bc b58c c6bd a114 d9bc 043f 5a3d
000003a0: cd0e 183d c92d ef3d 22f4 c33b 4edd c9bd
000003b0: dd2d 643d f2a2 e13d 239c 133d 5917 4a3d
000003c0: 617c 07bc d25d aa3d dde3 54bd f919 dd3d
000003d0: 23de 94bd f688 c53d 136c 05bd 0043 ac3d
000003e0: 3203 90bc 19d2 bebd ac1d 1cbd a789 083d
000003f0: e52c d53a 35c9 9ebd d633 acbb 9b49 64bd
-0.023786537 -0.0034092078 0.019881157 0.060930014 -0.028366616 -0.0080387 0.091728635 -0.043119267
-0.011459255 0.029829595 -0.10423411 -0.038374014 -0.11630028 -0.07019216 -0.061369397 -0.08416766
0.11290217 0.100881316 0.07666814 -0.11525741 0.08863001 0.0790944 0.03113807 0.1153481
0.11031072 0.10768329 -0.09950437 -0.013016766 0.116798736 0.017256124 -0.08857657 -0.066894665
0.023324464 0.08551147 -0.093290746 0.096904956 0.0020841148 -0.039002333 -0.103950374 0.054664444
-0.059909493 0.06773335 0.05364494 0.11615945 0.11265399 -0.0656836 0.025131695 -0.11389771
-0.004293971 -0.052745152 -0.049556825 -0.0950048 0.10105375 -0.048639886 -0.005991467 -0.04706934
0.0080872895 0.057152424 -0.10018642 0.03677623 -0.048718236 0.041094456 0.07045872 0.105286784
0.025844783 -0.04275107 -0.05279488 0.0016182712 -0.08675131 0.098409005 0.087678686 -0.1241235
0.039022323 -0.023103122 -0.009574658 0.123882845 -0.028186435 0.050252408 -0.044463724 -0.0069781216
-0.07060875 0.06357936 0.08534133 -0.085818574 -0.004643018 0.014495851 -0.11411161 0.012416029
0.0031172538 -0.116048545 -0.045151774 -0.098078184 -0.07745896 -0.07426708 0.08191667 -0.099332385
-0.021094853 -0.11793755 0.10165472 0.047216006 0.020382091 -0.002309119 -0.042421456 0.011943333
-0.0027959761 -0.09535166 -0.10902412 -0.0871509 -0.008066043 0.1115981 -0.06452443 -0.021894976
0.012145458 0.07362069 -0.006233086 -0.039558165 -0.050207403 -0.0023566578 -0.025078017 -0.017336447
0.08196744 0.03927032 -0.1117381 0.10675486 0.1011458 -0.009966728 0.055795595 -0.01644606
-0.0089697065 -0.04009632 0.029195314 0.027026052 0.060667537 -0.04366183 0.047300544 0.014573819
-0.051758416 0.019638764 -0.03246443 0.022219462 0.02123874 0.113680564 0.009661128 -0.037761338
-0.036632728 0.090013355 0.037378043 -0.025431808 -0.10841339 0.033146527 0.013341151 -0.10671892
-0.038491752 0.10820552 -0.1160183 0.11822877 0.11991313 -0.018291235 0.03441108 0.09514567
-0.095587194 -0.06192672 -0.013208029 0.040884357 -0.106956586 0.01235307 -0.11833615 -0.07798298
0.103544086 0.09052909 -0.105029136 -0.03285018 0.09047282 -0.07256393 0.0894846 0.030004382
0.043878276 0.065891735 -0.06485571 -0.077572174 -0.032687463 0.090720125 0.07562876 -0.073335275
0.0978171 0.04467552 0.12130331 0.119198106 0.02199221 -0.0008908577 0.080743164 -0.082910076
0.054310642 -0.0053577255 0.07477155 -0.09396037 -0.014363312 0.08696306 0.02363506 0.010301208
-0.009503567 -0.037883043 -0.066859655 -0.05743458 -0.079540245 0.010839967 -0.1076427 0.08316062
-0.058829293 0.06739207 0.04825 -0.10430247 -0.08020821 -0.026290348 -0.09137302 0.0049474076
-0.057645943 0.07646084 -0.005543157 -0.016120976 -0.06956451 -0.034854453 -0.11640027 -0.022671428
0.025859049 0.040065367 0.034684133 -0.107451886 -0.017883748 -0.096948065 -0.026499094 0.053282753
0.03712349 0.11678655 0.0059800306 -0.09856664 0.0557078 0.110174075 0.036037575 0.049338672
-0.0082694 0.08318676 -0.05197512 0.107959695 -0.07268932 0.09645264 -0.03257377 0.08411217
-0.017579649 -0.09317417 -0.038114235 0.0333344 0.001626399 -0.07753221 -0.0052552028 -0.05573426
