bassNotesGAN.pt (torch_old, 395057 bytes, 12 tensors)

main.0.weight f4 [144, 5]
00000000: 6c9f f53e 4d9d 243e c6cf 6dbe 34ba 5d3d
00000010: cafb 83bc 3129 0ebe 19c3 dcbe 4215 af3e
00000020: daee 3f3d a931 493e 71f0 a3be 3b7c 95be
00000030: 754c edbd 5e8e b0be 742f d2be c9a7 e8be
00000040: 3ca8 303e e19b 133e 3a87 043d b480 34be
00000050: bb21 ef3d c1d8 4ebe 2607 9e3c 7673 fbbd
00000060: 4d4e de3e 4d64 82be ac59 943e 13ed 503d
00000070: 3bb6 b53e 79dd 5fbe 0b00 073e be44 10bc
00000080: 79c0 173e 3f3a 2f3e 89eb aa3e 0574 f3bd
00000090: 2456 dbbe 82de a6be 7556 42be 1d72 19be
000000a0: d1e7 84be d4c9 a53e 0634 793e 7f4d fbbe
000000b0: 6fee bcbe 8d33 4cbe 48f4 923b abf0 8f3e
000000c0: d678 a1bd bfa7 c23e 5f69 0b3e 19e2 b93e
000000d0: 04bb d7bd c703 8ebe 3eb6 9ebe c648 9dbe
000000e0: 29ae 543e 3f29 afbe c097 acbd 8f12 633e
000000f0: 3dc4 abbd dcb2 b2be 96c9 d43e dde8 a7be
00000100: f950 d13e 7b76 ac3e 0823 023e 57ae bf3e
00000110: 2d17 d7bd 91f9 c43e e2af d53e b80b 9fbe
00000120: daa7 433e ce29 023f dfd4 46be 0584 ad3c
00000130: 4c56 653d bade 2bbe 8bdc 87be f1cd c9be
00000140: 28f5 1bbe 22ad 833e 00e9 7b3e 0787 1b3e
00000150: cc15 04be 6e28 a23e 3f0b aa3e 5c6d f8be
00000160: 4854 fd3d c382 9c3e 3129 c4bd cc5b 0bbe
00000170: 1f42 cfbd 666f 0c3e 716c 67be 69c8 78be
00000180: ae78 1bbe d41c dcbe 4462 873d 19c9 cc3e
00000190: ac70 c2bd 3d80 ee3d c8ae bbbe 7e9c 4dbe
000001a0: 54e9 613e 5fee d23e 3156 7d3e 6b96 c43e
000001b0: 97f5 52be 31f4 b33e 71ff abbe ea1a 25bb
000001c0: 795f d9be 99fe 57be 0af0 c33e 4925 923e
000001d0: 1bf7 bcbe 3deb c73d 9976 f8bd f4cd bb3d
000001e0: 34e6 043f 6199 e53e 3aae 54be 04a4 abbe
000001f0: ca72 ddbe 0a69 723e beb2 edbe f127 3b3e
00000200: 01a8 b1be 3465 55be 1d71 353c 2c87 533e
00000210: 572f 7e3e 7032 86bb 2b75 b83e b411 ac3d
00000220: afae b8be 58ff 79be e392 01be 9a78 c23e
00000230: 4131 90be 1120 fc3e a57a 5dbe fefb a6be
00000240: 87ff 0bbe 77b6 903e 9009 81be 3bd3 b23e
00000250: 3f29 683e 583d 343e f2a2 c5be 93a8 fcbd
00000260: f0ee 863e cd33 d63e 0dc2 043f 0441 d1be
00000270: 7f64 b1bd a783 b1be 80ac 773d fdb6 c0bd
00000280: 1c7e 813e 62a3 983e 354b 3f3e 4f4f 9cbe
00000290: 017d abbe c66a ca3e 14ed 923e a226 ce3e
000002a0: 33eb fabd 3005 92be 58c1 0b3f ecdc 66be
000002b0: 24a3 7fbe 8097 05be 3806 e1be 6f01 a73e
000002c0: 1204 e6be a3c2 b1be 4ab1 a5bd 738d 8d3e
000002d0: cf2e efbe 948c 883e 5cc6 903e f18e 6bbd
000002e0: ad05 d43d 48bf c2bd bd6b 04be ba96 87be
000002f0: 121c f3be be9b fd3d 5d11 e73e 6e33 843e
00000300: 73a3 043e 012f e03e 3d40 27bd e45a 033e
00000310: 8e65 d4be 4875 03be 6721 b03e 823c 17bd
00000320: f00e 883e 0f54 28be 077a a03e 8700 3dbe
00000330: b282 5bbe d8ff 91be 478f 30be 6a49 d3be
00000340: 8d63 c43e 8a85 2d3e 99aa 543e adb2 a83e
00000350: 3a86 c03d 6f9a e43c 5f6b 4abe f27e 6f3e
00000360: bf7c 85bb 085f d9be cc86 a1be 0a78 4cbe
00000370: 9070 b63e ec77 223d d486 d33e 7e97 36be
00000380: 1963 883e b9f4 4abe f355 abbe f4f4 b2be
00000390: 0012 b23e bab0 dbbd b0db 983d e572 bfbd
000003a0: 2c8f 1dbe 4d4d 83be eab8 40be 1836 cfbe
000003b0: 6570 65bc a7aa a23e 6912 823e d0ab c53e
000003c0: 4e50 b23e 1947 2c3e 35c7 ee3e 8f03 ca3b
000003d0: 927e da3e 9e86 493e b733 2cbe 06bb 58be
000003e0: e930 a3be 89cd 023d 6fba 3b3c 5ed3 b1bd
000003f0: dfa3 88be 147f d63e 5a91 563e d2e6 04bd
0.47973192 0.1607563 -0.2322379 0.054132655 -0.016111273 -0.13882901 -0.43117598 0.34195906
0.046858646 0.1964785 -0.3201938 -0.29196343 -0.11586849 -0.34483618 -0.4105183 -0.4544051
0.17251676 0.14414932 0.032355525 -0.17627221 0.116763555 -0.20199873 0.019290518 -0.12277882
0.43419114 -0.25467148 0.28974664 0.05100734 0.35490593 -0.21861829 0.1318361 -0.008805452
0.14819516 0.17112063 0.33382824 -0.11887363 -0.42839158 -0.32591635 -0.18978293 -0.14984937
-0.25958112 0.32380545 0.24336252 -0.49082562 -0.3690066 -0.1994154 0.004484687 0.28113303
-0.07884376 0.38018605 0.13614415 0.3630531 -0.10533717 -0.27737257 -0.30998415 -0.30719584
0.20769562 -0.34211156 -0.084273815 0.22175048 -0.08387039 -0.34902084 0.41560048 -0.32794848
0.4088209 0.33684143 0.12708676 0.37437698 -0.10502467 0.38471654 0.4173575 -0.31063628
0.19106999 0.5084504 -0.19417141 0.021181116 0.055990502 -0.16784182 -0.26535448 -0.39414933
-0.15230238 0.25718027 0.24600601 0.15188228 -0.1289894 0.3167147 0.33211705 -0.48520935
0.12369591 0.30568513 -0.09578169 -0.13609236 -0.101200335 0.1371437 -0.22599961 -0.242952
-0.15182754 -0.42990744 0.066105396 0.39997175 -0.09494147 0.11645553 -0.36656785 -0.20079228
0.22061664 0.41197488 0.2473991 0.3839601 -0.20601498 0.3514724 -0.33593324 -0.0025193044
-0.42455652 -0.21093215 0.38269073 0.2854407 -0.36907277 0.09761665 -0.12131996 0.09170142
0.5191376 0.4484358 -0.20769587 -0.33523571 -0.4325164 0.23672882 -0.46425432 0.18276955
-0.3469849 -0.20839387 0.011074332 0.20657033 0.24822746 -0.004095368 0.36026892 0.08401814
-0.36070773 -0.24413812 -0.12653689 0.37982637 -0.28162578 0.49243215 -0.21628816 -0.3261413
-0.13671695 0.2826421 -0.25202608 0.3492678 0.22671984 0.17601526 -0.3860088 -0.123368405
0.2635417 0.41836396 0.518586 -0.40869915 -0.08661746 -0.34670755 0.060467243 -0.09409902
0.25291526 0.2981215 0.18681033 -0.30529258 -0.33493808 0.39534587 0.286965 0.4026385
-0.12251892 -0.28519583 0.54591894 -0.22545213 -0.24964577 -0.13046074 -0.43950057 0.3261828
-0.4492498 -0.3471881 -0.08090456 0.2764698 -0.467154 0.26669753 0.28276336 -0.057509366
0.10352645 -0.0950914 -0.12931724 -0.26482183 -0.47482353 0.12383221 0.45130435 0.25820488
0.12952976 0.4378586 -0.040832747 0.12827641 -0.4148373 -0.12837708 0.34400484 -0.03692294
0.26573896 -0.16438316 0.313431 -0.18457232 -0.21436575 -0.28515506 -0.17242156 -0.41266948
0.383572 0.16945472 0.20768203 0.3294882 0.09400602 0.02790567 -0.19767521 0.2338827
-0.004073709 -0.42455316 -0.31548154 -0.19967666 0.35632753 0.039665148 0.41313803 -0.17831227
0.26638106 -0.19819917 -0.33464012 -0.3495251 0.34779358 -0.10727067 0.07463777 -0.09348086
-0.15386647 -0.25644913 -0.18820539 -0.40470958 -0.014003848 0.31770822 0.2540467 0.38607645
0.34826893 0.16823997 0.46636358 0.006164975 0.4267469 0.19680259 -0.16816603 -0.21165094
-0.31873253 0.031934295 0.011458023 -0.08682893 -0.26687524 0.41893828 0.20953885 -0.03244669

main.0.bias f4 [144]
00000000: ca1d 763e 2803 e7bb 8e98 673d 5696 a53d
00000010: 1df3 c83e ab41 833e c452 a73d 8864 15be
00000020: a30e 90be 4a4d 3e3e 4787 943e 76b3 473e
00000030: fe6b f23d 4f78 75be af27 173c a4df 213d
00000040: 82f4 b73e a84b 833e 13ab 1bbe 183a 0d3e
00000050: f292 673e 681e 48be a60f 07be 74d8 2fbe
00000060: 0521 5abe 9b24 adbe a080 4ebe 3c70 40bd
00000070: cefd 6fbe 1742 db3d 0105 9cbe fb8c 4cbe
00000080: 5bf4 933e cc75 88bb b669 88be f9bc afbe
00000090: 6fd5 c53c eadf b0be a3a6 d53b 76d7 e0bc
000000a0: 24aa 543e 2c5d 5fbe 9427 ac3e b790 8a3c
000000b0: 8743 f83d 55fb 7e3d ee9d 61be abe2 843e
000000c0: b721 92be af1c 723e fb1a 3b3e 5c0a 1d3e
000000d0: bca8 96be 9725 623b c0a0 af3e b533 c6bc
000000e0: a1c9 8fbe c165 c93e 9ef4 b8be 9c65 83be
000000f0: 3f68 d53d 1a8c 7abe c408 a2bd 6c58 113e
00000100: d37e 75be 5a86 91bd fa71 733e 4aab 1c3e
00000110: ed34 9f3d 879f 893e 4d01 c93c b943 9b3e
00000120: 6f0d f73d 6bae 66bd ade5 9cbe a4e2 91be
00000130: f9b2 56bd e0cb c03e 8278 bc3e 2990 0bbb
00000140: ffaa 4b3e a7bc 883e f3d2 2ebe 1a24 673b
00000150: eda6 3abe bca8 c83c 79bd a0bd e7a4 2fbe
00000160: 5989 de3d 51a3 1ebe c48d 6b3e e99c 0f3e
00000170: 25b5 0b3c ff19 5cbe 013a 80be ef27 a9bd
00000180: cc34 96be 5428 efbd f20a 7a3e a4f1 9a3b
00000190: e95b 8cbe 95e4 7bbe ce15 8c3e 2298 523e
000001a0: c3b4 4abd 84e5 39be b1ae 4cbd 01c1 88be
000001b0: cef3 eabd 1486 8f3d 9236 8bbd cb71 6c3e
000001c0: 7180 863e 0b26 3dbe 4acb 32be 2dce 833e
000001d0: f8af 173e 6ed4 64be e71b 88bd 2272 4fbd
000001e0: 27fa 463e e83f 473e 936d a7bd bc51 1dbe
000001f0: 166c 803e fc91 b03d 22c2 f6bd 7fd0 903e
00000200: bfe2 b7bc 66aa 57bd 7416 8fbe 5d93 99be
00000210: 1785 873e 2060 8c3d 2d2a 163d 9eef 603d
00000220: 9463 5b3e f8ae 9cbe 54c5 10be 0646 39be
00000230: e15f 1fbe bcbe 56be 78b0 36bd 2197 a3be
0.24034801 -0.007049937 0.05654197 0.08085315 0.3924798 0.25636038 0.08170083 -0.14589131
-0.28136167 0.18584171 0.29009458 0.19502053 0.11837004 -0.23971675 0.00922577 0.03951992
0.35928732 0.2564366 -0.15201978 0.13791692 0.22614649 -0.19542849 -0.13189563 -0.17172414
-0.21301658 -0.3381699 -0.20166254 -0.046982035 -0.23436663 0.10705965 -0.30472568 -0.19975655
0.28897366 -0.004164433 -0.2664315 -0.34323862 0.024149625 -0.34545833 0.006520109 -0.02744649
0.20768028 -0.21812886 0.33623946 0.016914709 0.12122255 0.062251408 -0.22032902 0.25954184
-0.28541347 0.23643754 0.18272011 0.15335983 -0.2942561 0.0034507269 0.3430233 -0.024194578
-0.28083518 0.39335445 -0.36124128 -0.2566346 0.10420274 -0.24467507 -0.07911828 0.14193887
-0.23974161 -0.07105704 0.23773947 0.15299717 0.07773767 0.26879522 0.024536753 0.30325106
0.12063109 -0.05631868 -0.3064398 -0.28493226 -0.052416775 0.37655544 0.3681069 -0.0021295643
0.19889449 0.2670643 -0.17072658 0.003526932 -0.1822774 0.024494521 -0.07848639 -0.17152749
0.10866041 -0.15491988 0.23003298 0.140247 0.008527075 -0.21494292 -0.25044253 -0.0825957
-0.29337156 -0.11677614 0.24418238 0.004728513 -0.27413872 -0.24598916 0.27360386 0.20565847
-0.049488794 -0.1815396 -0.049971286 -0.2670975 -0.11472283 0.07007995 -0.06797518 0.23090284
0.26269868 -0.18471543 -0.17460361 0.25743237 0.1481322 -0.2234666 -0.06645947 -0.050645955
0.19431363 0.19457972 -0.081751965 -0.1536321 0.25082463 0.08621594 -0.12048747 0.2828407
-0.022446988 -0.05265274 -0.27946818 -0.29995242 0.26468727 0.06854272 0.036661316 0.054916017
0.21424705 -0.3060224 -0.14137775 -0.18093118 -0.15563919 -0.20971197 -0.044601887 -0.3195124

main.2.weight f4 [144, 144]
00000000: 69e5 ccbd bc4c e13c 37bb f93d 1614 eeba
00000010: b73e b73c 4908 443d 0beb 4cbd e783 e13d
00000020: 0883 493d bc76 e3bc 08d6 ed3c 997a a6bc
00000030: 8ede c4bd aeb2 2dbd f289 f1bb bdd7 9cbd
00000040: ebd9 a23d 2d0c b8bc bff9 f93d 700a 063e
00000050: 104c 5b3b a973 d5bd 2128 fa3d ba0c b3bc
00000060: 0f41 dcbd 711a 85bd a10b 40bc 9994 b53d
00000070: c633 9abc f7d9 0a3d ea58 d5bb 6f78 333e
00000080: 6851 ef3c 92c9 0fbe 5a9e 7ebd 19af 71bd
00000090: ecf7 d03a a837 f33b ff5b 2dbe 6533 613d
000000a0: 5c5b 5ebc 828e 1d3e eee4 bf3b e53a d1bd
000000b0: e2b3 3bbd 0958 8f3d bde3 e63c 8eb9 ed3c
000000c0: ff80 bbbd ae14 6bbc be42 16bd b16a ed3c
000000d0: 13d2 fdbc cf85 cfbb cb31 9abc 40c7 2a3e
000000e0: 151e c13c 7e0e 81b8 7b3c b93c 9bb2 363c
000000f0: 5eb2 96bd b836 c0bd 9454 173e 322d 63bd
00000100: bafa 64bc 5c4a c93c 5e58 183d 4351 88bc
00000110: aa25 fa39 8c68 9b3d 01c1 523d 8b0a 40bc
00000120: 999f 63bc eedd 423d 3125 623c 48bd bfbd
00000130: 06c2 ab3b 5801 b3bd 62f3 0d3d 5381 9bbd
00000140: 28f0 acbd ded3 993d 5c19 643d 2869 0abe
00000150: 7a20 d63d f0d9 eb3d 0b5a e53d bca1 423c
00000160: dad5 adbb 6a3f 97bd c1f3 a33d 42f6 de3c
00000170: 0c2c df3d b8e1 1ebe 1ca8 783d 3305 7abd
00000180: 912b 79bc d780 0bbe 5a1f b23c 66b9 033e
00000190: 6fc6 f3bd 9758 843d 192a af3d ee56 e13b
000001a0: 9684 72bc a432 ef3d f418 cdbd 697a a6bd
000001b0: 903b 5abe 2c96 753d 1e15 0abe 521a cb3c
000001c0: 3c32 f43a 4f24 7bbd f367 bcbc 969d f8bc
000001d0: 78c6 73bd 05d6 eb3d 93c9 8fbd 8f51 6fbd
000001e0: 47c3 09bc 8192 0c3d 2b90 e7bb 198e 103e
000001f0: e008 cf3c f609 35bd 46af bf3d 0303 7d3d
00000200: f071 453c 984b cf3a de00 2b3e 22b3 143c
00000210: 8202 f23d 14a2 ec39 8a64 b8bd a00f 913d
00000220: 9348 af3d 9385 0cbe e629 513d f00b 983c
00000230: 0ff2 ff3d dabc 933d c4b2 8abd b4d6 9dbc
00000240: 636e 833d 1516 803d b96a 993c 5d73 9ebc
00000250: 1484 343e d7bd 75bd b640 3c3e a315 86bd
00000260: 40ca 7ebd b505 0f3e 5904 9b3c 7c87 2b3e
00000270: 0208 b93c 87d6 0abc a72d 803d e865 ffbd
00000280: 71af a73d 430b a23d 22e6 e4bd b6f2 ae3d
00000290: 03b6 673b 928e fabc a726 a33d 0180 96bb
000002a0: 913b 34be 8d35 8fbd 5004 963d dca7 413e
000002b0: 2647 c6bd 7c61 353d 7757 e33d fa55 793d
000002c0: 45c7 64bd 918d 00be 3017 6fbd 2ccf fbba
000002d0: 1fa6 b83c cec1 92bc 060c 96bc fe88 89bd
000002e0: aca8 ddbd 2c28 3d3d 85b4 1c3d 3d18 b6bd
000002f0: 2bef 3f3d 8d26 813b 09e7 03be 8ae5 433d
00000300: 8677 11bc 6765 cabc 8a42 583d 263f 083e
00000310: cae9 b0bd d028 8d3d 8e46 303e 2af8 573d
00000320: 1504 b5bc 77d5 9c3c 211f febc 7dc0 34bd
00000330: 7a75 1c3e 0dee c8bc c235 b0bd 1cad 253d
00000340: d618 f2bc c077 a2bd 98b2 cd3d 86be 0d3d
00000350: a5de 77bd 9671 c03d 679a b93a f11c 753d
00000360: 3e22 11be d276 3b3e 48d4 eebb 5d9c e43d
00000370: 4252 a6bd e440 03bb 3e6c 31bd c89d 4d3b
00000380: a91e c83c 8843 4d3e 17ed 08be 0200 533d
00000390: d28a 21b9 aa55 f2bd 2071 2e3c 600b 1bbe
000003a0: 790c 45bd f71e dcbd f417 38bd 71ec f03d
000003b0: 8ebc eb3d f9c7 b03d 611e d53d 5f8c dabd
000003c0: f8fb cebd 13fa 29bd f8b6 0a3e 8e5e 10be
000003d0: 96ba 303d b742 bebc 4f12 9a3d 7ccb 6abd
000003e0: 4deb 3ebd 16ef cebc 4073 cc3d f74c ae3b
000003f0: ee7a 3d3d 57de 83bd 3e7b 0bbe c877 a53d
-0.10004694 0.02750241 0.121939115 -0.0018163945 0.022368772 0.047859464 -0.050028842 0.110114865
0.049197227 -0.027766578 0.029032722 -0.020322131 -0.096127614 -0.04240673 -0.0073711807 -0.07658336
0.07951721 -0.022466743 0.122058384 0.13089919 0.0033462085 -0.10422451 0.12214685 -0.021856654
-0.107545964 -0.06499184 -0.011721523 0.088662334 -0.018823516 0.033899274 -0.0065108435 0.1752641
0.029213622 -0.14041737 -0.062162735 -0.059004877 0.0015943027 0.007422406 -0.16929625 0.054980654
-0.013571586 0.15386394 0.005856148 -0.10216311 -0.045825846 0.06999213 0.028184766 0.029019143
-0.091554634 -0.014348192 -0.036684744 0.028981538 -0.03098396 -0.00633309 -0.018822571 0.1667757
0.023573915 -6.153899e-05 0.022611847 0.011150981 -0.073582396 -0.09385437 0.14778358 -0.055463023
-0.0139757935 0.02457159 0.03719365 -0.016640311 0.00047711778 0.075883 0.051453594 -0.011721264
-0.0138930315 0.04757493 0.013802812 -0.093622744 0.0052416353 -0.08740491 0.034655936 -0.07593026
-0.08444244 0.075111136 0.055688247 -0.13516676 0.10455413 0.11516178 0.11198815 0.011879381
-0.005305034 -0.07385142 0.08005477 0.027217034 0.10897073 -0.15515792 0.060707197 -0.061040115
-0.015208141 -0.13623367 0.021743465 0.12863693 -0.119030826 0.0646221 0.08552951 0.006876818
-0.014802119 0.11679581 -0.10014525 -0.08128817 -0.21311784 0.05995767 -0.13484618 0.024792824
0.0018630694 -0.061313923 -0.022998786 -0.03034858 -0.059515446 0.1151543 -0.07020869 -0.05842739
-0.008408374 0.034319405 -0.0070667467 0.14116706 0.025272787 -0.044198953 0.09359603 0.06177045
0.012051091 0.0015815375 0.1669955 0.009075912 0.118168846 0.00045134185 -0.09003551 0.07083058
0.08558764 -0.1372283 0.051065348 0.01856038 0.12497341 0.07213755 -0.06772378 -0.019267417
0.06417539 0.06254212 0.018727647 -0.019342119 0.17628509 -0.0599955 0.1838406 -0.065470956
-0.0622046 0.13967021 0.018922972 0.16750902 0.022586826 -0.008473999 0.062587075 -0.12470609
0.0818776 0.07912304 -0.11176707 0.08542387 0.003535629 -0.030585561 0.07966357 -0.004592896
-0.17600848 -0.06992636 0.07325041 0.1891169 -0.09681539 0.04428242 0.11100667 0.06087301
-0.0558541 -0.12554003 -0.058371723 -0.0019211522 0.02254015 -0.017914679 -0.01831628 -0.06715582
-0.10823187 0.04618089 0.038258094 -0.08891342 0.046858948 0.003941363 -0.12881102 0.047826327
-0.008878594 -0.024706556 0.05279783 0.13305339 -0.08638342 0.0689255 0.17214414 0.052726902
-0.022096673 0.019144757 -0.031020703 -0.044128884 0.15279189 -0.024527574 -0.086040035 0.040448293
-0.029552858 -0.07932997 0.1004383 0.034605525 -0.060515065 0.09396665 0.0014160395 0.059842054
-0.14173219 0.18307045 -0.0072884895 0.111626364 -0.08121158 -0.0020027691 -0.04331612 0.0031374563
0.024428682 0.20045292 -0.13371693 0.05151368 -0.00015405871 -0.118327454 0.010647088 -0.15141058
-0.048107598 -0.107480936 -0.04494472 0.117638476 0.11510573 0.08631892 0.10406185 -0.10671305
-0.10106653 -0.041498255 0.1354636 -0.1409857 0.043146692 -0.023225171 0.07523023 -0.057322964
-0.04661112 -0.02526049 0.0998292 0.0053192335 0.046259813 -0.06438892 -0.13621232 0.08079487

main.2.bias f4 [144]
00000000: e6cb 863b 4fe3 163d ec90 213d b570 cc3d
00000010: b315 713b 988c e53b a846 923c 2449 35bc
00000020: 8148 d03d eb58 df3c e76c 48bc a59d 523b
00000030: b64e 35bd de30 833d 81e8 c7bb 7be2 353b
00000040: e679 ee3d c4fa aabd aa27 14bd 2aaf 32be
00000050: e1b0 04bd 618c 073e 89d0 a9bd ec99 043d
00000060: 788b b4bc 30ce 17be 83a9 bcbd cd82 eb3c
00000070: ce4b 2a3d 71e9 23ba 96c4 9bba 3905 8bbb
00000080: 384e a33c 788b 02bc 734d fa3d 630e 443c
00000090: c158 63bd 123b 28bd a68f dfbc 9eef 8dbd
000000a0: 4ea4 903d 650a 3cbc fb66 48bd 40fb ec3c
000000b0: 0153 23bc acdf 5a3d b973 233d be48 50bd
000000c0: fe6a 0f3d 1165 bbbd ba1e b6bb b3af b83c
000000d0: 06d9 593d 38ea 85bc 265d a43c 92d0 fcbd
000000e0: 0664 9e3d b0d5 adbd 4fcd b5bd b42c 9a3d
000000f0: 9f0d 04be b479 29bd d565 793d 76df b4bd
00000100: 16ff 90bc 0a1e 81bd ced0 4bbe 0cd9 a1bd
00000110: 5782 203d 4081 66bd e263 3f3d 40a4 6ab7
00000120: 22cb ad3d 75f5 a7bd bcb7 c83d 6210 6b3d
00000130: c2d8 bdbd d81c e0bc 1e15 a53d 0a50 aabd
00000140: 6f3c d03d 7d5a c53d cf2b 193e c0cc 613d
00000150: 38c3 04bc 16b6 7ebb 98c0 d2bc f0ee cd3d
00000160: ae9d c3bd e633 a4bc 0949 50bd 9daf 70bd
00000170: 263a 61bd e71a 423e 31fc 9abb c92d 25bd
00000180: 229e e03d 0b30 ebbd 0ac3 b03d 2a18 ed3d
00000190: 052b 7d3d 4351 8e3d 457a b1bd 7db3 f4bc
000001a0: d7c3 723d 9ac3 903c 225a 2f3d 2066 b83c
000001b0: ea45 3e3d 8bce 9fbd 4d33 00be ba0b ed3d
000001c0: 94b4 1dbd 744a e8bd d52d 923d 8edd 09be
000001d0: 3f68 94bd 8cb7 463d 1f67 c0bc 7b54 bdbd
000001e0: 1670 7b3d 45cc 8c3c f292 c53d 4439 f43d
000001f0: b373 ab3d 1118 38bd 8102 07be d978 033e
00000200: 9f68 fa3c f479 853d f756 10be a518 e7bd
00000210: 9e39 363b 67f9 f53d e08b 2f3d 6ad4 92bd
00000220: 09db 9cbc d48b 9fbc d6e3 e6bd ea0a 7bbd
00000230: 9a72 013d 3704 abbd c57a 393b e886 6a3c
0.004113662 0.036837872 0.03944485 0.09982435 0.0036786615 0.0070052855 0.017855957 -0.011064801
0.10170079 0.02726408 -0.012232996 0.003213742 -0.044264518 0.06405805 -0.0061007147 0.00277534
0.11644344 -0.08348611 -0.03617064 -0.17449632 -0.032395247 0.13237144 -0.08291728 0.032373354
-0.02203916 -0.14824748 -0.09212019 0.028748894 0.0415762 -0.0006252742 -0.0011884149 -0.004242566
0.019934759 -0.007967822 0.122218035 0.011966321 -0.055504564 -0.04107196 -0.027290177 -0.06930469
0.07062589 -0.011477088 -0.048926335 0.0289284 -0.00996852 0.053435966 0.039905284 -0.050850622
0.035014145 -0.09150136 -0.005557862 0.022544717 0.053185485 -0.016347036 0.020063948 -0.12344469
0.07733922 -0.08488023 -0.0887705 0.07528058 -0.12895821 -0.04137583 0.06088813 -0.08831684
-0.01769976 -0.063045576 -0.19903871 -0.079027265 0.0391868 -0.056275606 0.046726115 -1.3985729e-05
0.0848601 -0.08201114 0.098006696 0.05738867 -0.09269859 -0.027357504 0.080606684 -0.083160475
0.10167777 0.096364 0.14958118 0.055126905 -0.008103184 -0.0038865856 -0.025726601 0.10055339
-0.095515594 -0.020044278 -0.0508509 -0.058761228 -0.054987095 0.18955575 -0.0047297706 -0.040326867
0.109676614 -0.11483773 0.08630951 0.115768746 0.061808605 0.06949093 -0.08665899 -0.029870743
0.0592688 0.017671395 0.042810567 0.022509634 0.046453394 -0.07803067 -0.1251957 0.11574502
-0.03850229 -0.11342326 0.07137648 -0.13463423 -0.07246446 0.048514888 -0.023486672 -0.09244629
0.06138619 0.017187247 0.09647168 0.11924985 0.08371677 -0.044944827 -0.13184549 0.12839068
0.030567465 0.06517401 -0.14095674 -0.112839974 0.0027805339 0.1201046 0.042858005 -0.07169421
-0.019147413 -0.019475855 -0.11273925 -0.061289705 0.031603433 -0.08350413 0.0028301936 0.014314391

main.4.weight f4 [144, 144]
00000000: 0d4a 73bd 7836 0e3e 8138 843a fbef 76bc
00000010: 6a43 81bc 67f7 ee3c aefb 0b3e 0943 09be
00000020: c1a2 7fbd cce5 b4bc b2b3 3cbc 8c9e e3bd
00000030: dbd2 b9bc 7d50 f83c 1cf0 fabc 4f1d c83d
00000040: 7029 0d3e cc56 45bd abb9 b5bd 40ce 9f3c
00000050: 0b1e ff3c bebb 4c3d ddba ba3d 6aeb b23d
00000060: b58c c53d 94cc 203d b1da edbc 57fc 97bd
00000070: be45 ac3d d8b1 9f3c 3d9f 54be 4e77 96bc
00000080: d0e0 babd 9e75 783b 60f3 373d 7e54 b63c
00000090: a14c 9b3d ecc0 64bd ac89 343d 73f8 ae3d
000000a0: 7a94 a03c 2296 92bc 0d95 19be 88a8 623d
000000b0: d18a a43c a691 48bd 254b 893d ecdb 02be
000000c0: 9358 2a3e 0140 c6bb c650 8d3d e733 b0bd
000000d0: 4955 0b3c 1d59 e63c f188 e1bc 9b0e a13c
000000e0: e785 cebc 08ff bb3d fb90 9bbd 904e 38bb
000000f0: c5ee 533d 8200 4bbd e6b0 72bd 7a68 523c
00000100: e5c3 0e3c 93d2 0ebc fc8e 80bd b806 c8bd
00000110: b3f4 5e3c b20e e63a 3d7f 203d 625e e03c
00000120: 73a7 033e d9a2 07bc fadf bc3d 3d1d 30bb
00000130: c1dd 4b3b 478c f6bd 71e4 f73d 194b bb3d
00000140: 6afa 403d a7dd 7c3c 1ccd 3f3d 26ee d9bd
00000150: f1eb 32bd 8c3d 7f3c 276b 973d e0c8 50bd
00000160: adb8 8dbd 90a0 493d a5db bcbc f4a4 e5bc
00000170: 293d 92bd ee2a 9e3d c39a a1bd 2bc4 17bb
00000180: 8ac0 073e 3ee3 5f3d c1ea 1f3e 0981 9dbd
00000190: 8737 c03c 550e ce3c 08f4 46bd d0fe 8a3d
000001a0: 22ff e83d b0ca 983c 1fc4 0f3e 2941 04bd
000001b0: fc99 9fbb cb28 273c 03d5 59bc 3cd6 3e3d
000001c0: 61a8 64bb 7eea de3d 83ec 883d b713 d4bd
000001d0: d777 8dbd 05dc 7d3e 93d2 dabd d994 6c3c
000001e0: 9cd6 edba 0e64 ccbc 2de8 033d 128d fa3b
000001f0: b98e 3bbe 8c13 d4bc 71b2 0cbd 470e 393e
00000200: 46a4 663b 41f3 e03d fb10 1d3e 6af4 7fbd
00000210: d1f8 b93d c6bb bc3d 0bd2 dcbc 3c49 c2bd
00000220: bb73 4ebd 3a1f 423d 8232 af3c 6e26 61bd
00000230: 0567 ca3d 90f5 903d 4473 163b aace a2bd
00000240: 0f7c c13d a8e2 07be 6cd5 3f3d cb35 123e
00000250: 0058 7dbc fcd8 27bc 4c5d efbc 34ce 4b3d
00000260: ea20 a6bd 7850 433d d8b9 a83d 4dde 323c
00000270: 02e5 c43c 169b d6bb 21c7 cb3d 333e b43c
00000280: beb2 89bd 3775 febc 32b6 a73b 387e 63bc
00000290: c37b ad3a bbab 1fbd e2cc 0ebe 3385 683d
000002a0: a5dd be3b e7c2 c33c 3d8d e83c 689f ab3c
000002b0: 9b51 89bd 57db adbd 646c 31bd 3f86 53bd
000002c0: 504d 2e3d e5ec f0bc d5b8 373d 2cba 973d
000002d0: ab61 f93d 44e7 563e 12e3 133e 3a97 f1bd
000002e0: 6980 cbbd 23a1 95bd 9ba7 a73d 6507 963d
000002f0: b621 3cbc ca8f 02be ef81 163c 6b8e 3dbd
00000300: 62fc 4e3d 3c41 423c 03fd c53d b294 003d
00000310: 6ea4 62bd 1087 653d 0081 81bc add7 3dbc
00000320: 93a4 50bd 37f6 893d 9bfb fd3d 1dec 143e
00000330: 4c32 acbd cd8e 2f3c 9ce8 e5bd a0bb f7bb
00000340: 259f 9abd ae10 cb3d 4280 a03d e1ea 463e
00000350: 9de8 c8bd 8723 f23b a014 09be eb34 ba3d
00000360: b24c 073d 9077 8b38 9f98 74bd 7607 8d3d
00000370: 7c14 ae3d 51db d6bd 573e 3abd e2e3 72bd
00000380: 1d5e dbbd 8125 283e ee67 083e df9c d23d
00000390: 6350 223c 87f8 ffbd d952 a63a ca06 ba3b
000003a0: 373d 10bd ea37 143e 0421 75bd 231c 2c3d
000003b0: a6c8 ee3c 1d32 3d3d b517 763d 3e21 493e
000003c0: c0b2 8bbd d300 23bd 77c0 b3bc 2d44 fb3d
000003d0: 7946 cf3d 8e1f 1bbe 3700 96ba debf b43d
000003e0: 43f5 723d 960b b83d e1da bebd 2deb e93c
000003f0: a078 b8bd 750d a53d f394 2abd 80ca f53d
-0.059396792 0.13887966 0.001008764 -0.015071864 -0.015779216 0.029170705 0.13670227 -0.13404478
-0.062411074 -0.022082232 -0.011517452 -0.11114225 -0.022683552 0.030311817 -0.030632071 0.09771215
0.13785338 -0.04817848 -0.08873304 0.019507527 0.031142255 0.049983732 0.091176726 0.08736308
0.09645978 0.0392576 -0.029034944 -0.07421177 0.0841174 0.019493982 -0.2076387 -0.018367436
-0.09124911 0.0037911902 0.044909835 0.022257086 0.07582975 -0.055848047 0.044076607 0.08543482
0.01960205 -0.017893855 -0.14998265 0.055336505 0.020085724 -0.048967026 0.06703786 -0.12779206
0.16635351 -0.0060501103 0.06900172 -0.086036496 0.00850422 0.028118664 -0.027531119 0.019660285
-0.025210334 0.09179503 -0.07596012 -0.0028122999 0.05174138 -0.04956103 -0.059250735 0.012842292
0.008713697 -0.008717197 -0.06277272 -0.097669065 0.0136081455 0.0017551987 0.039183844 0.027388755
0.12856846 -0.008278572 0.09222408 -0.0026872896 0.0031107517 -0.120384745 0.121041186 0.09145183
0.047113813 0.015433705 0.046826467 -0.10641126 -0.043682043 0.015578639 0.073934846 -0.05097282
-0.0691999 0.04922539 -0.023053953 -0.028032757 -0.071405716 0.07723032 -0.078908466 -0.0023157697
0.13257042 0.054660074 0.15616895 -0.07690627 0.023463978 0.025153318 -0.04857257 0.06786883
0.11376788 0.018651336 0.14039658 -0.032288704 -0.0048706513 0.010202597 -0.013295415 0.04659103
-0.00348904 0.108845696 0.06685736 -0.10355323 -0.06907623 0.24790962 -0.10684695 0.014439785
-0.0018145624 -0.024950054 0.032203842 0.0076462114 -0.18316163 -0.025888227 -0.034349862 0.18071853
0.003519313 0.10983897 0.15338509 -0.06248895 0.09080661 0.092155024 -0.026955625 -0.094866246
-0.050403338 0.04739306 0.021386389 -0.05496829 0.09882931 0.07078087 0.0022956887 -0.07949574
0.094474904 -0.13270056 0.046834394 0.14278333 -0.015462875 -0.010244604 -0.029219292 0.049757197
-0.081117466 0.047684163 0.08238572 0.010917258 0.02403498 -0.0065492494 0.0995009 0.022002315
-0.067235455 -0.031061752 0.005118155 -0.013885073 0.0013235736 -0.038982134 -0.13945344 0.056767654
0.005824762 0.023896648 0.02838766 0.020950034 -0.06705018 -0.084891014 -0.04331626 -0.0516417
0.0425542 -0.029409835 0.044854004 0.07408556 0.12176832 0.20986658 0.14442089 -0.11796422
-0.09936602 -0.07306125 0.08186265 0.07325629 -0.011482647 -0.12750164 0.009186252 -0.0462784
0.05053366 0.011856373 0.09667399 0.031391807 -0.055332594 0.05603701 -0.015808582 -0.011587066
-0.0509382 0.06736415 0.124015056 0.14543195 -0.08408031 0.010715199 -0.11226007 -0.0075602084
-0.07549886 0.09915291 0.07836963 0.19425537 -0.098099925 0.007389489 -0.13386774 0.090921246
0.033032127 6.650307e-05 -0.059715863 0.06886189 0.08500001 -0.1049105 -0.04546961 -0.059299357
-0.1071131 0.16420557 0.13320896 0.10283827 0.009906861 -0.12498575 0.0012689485 0.005677079
-0.03521463 0.14474455 -0.05984594 0.04201902 0.029148411 0.04619037 0.060081203 0.19641587
-0.06821203 -0.039795708 -0.02194236 0.12268863 0.101208635 -0.15148756 -0.0011444156 0.08825658
0.05931593 0.08986585 -0.093190916 0.028554523 -0.090073824 0.08059207 -0.041645955 0.120015144

main.4.bias f4 [144]
00000000: cd5c 0c3b 8e44 d63d f39f 623d 84c6 22be
00000010: ad6b 883d f616 123d 446e a6bd 28b4 3dbd
00000020: dacd 873d bdee 53be 09da 11bd dec9 03be
00000030: 5d20 93bd c72f 533c dddf 3abe b717 9ebb
00000040: 7670 5bbe 3d7a 17be 852e 47bc d2aa 03be
00000050: 9a17 0c3d 29c9 16bc fa9f 593e f610 88be
00000060: 2c35 08be e6e9 a2bd 81f5 1f3d 7ea4 7d3b
00000070: 15bf 80be 0f64 483d 47d2 8f3c 6b30 5bba
00000080: b6a2 793d 7bfc abbd fbd6 a8bd 8f82 ccbd
00000090: 229e babc 766a 083e d345 a4bd 7725 843b
000000a0: bf3d 00be af2f d0bd 01a2 a33d 52d8 d3bd
000000b0: 6d5b 9a3d c05e d0bd 68ef 80bd e0cf 6cbd
000000c0: c7b4 8d3d b688 1bbe fc67 3fbc 3a6a afbc
000000d0: a100 b5bd 0a65 143e 25a2 013c 0906 08bd
000000e0: 739b 733c 0842 81bd 2e8e e13d c268 e23d
000000f0: f114 8dbd a5dc 08be f5a4 9d3d f149 b53c
00000100: e8d3 bebd 0de1 2dbd ab40 88bd 71a7 0cbe
00000110: 4252 86bd f06d 40be a32c d9bd d041 dfbd
00000120: 9b91 80bd a310 5bbd c2ee f1bd 3551 f9bd
00000130: 61eb 963c 5f25 723e 0e46 70be dc97 07be
00000140: c1d0 793d 7576 d9bd 4d41 e8bd 66f3 c3bd
00000150: 8495 acbd 0590 113e 446a 92bd 4517 1dbe
00000160: cdfb fcbc 2289 52bd c932 a2bd ef80 97bd
00000170: 8cf2 5bbd ba23 81bc 7827 c1bc 4fa5 04be
00000180: 1824 09be 0e14 19bd 9c14 c13c 0b56 3cbc
00000190: 1f51 8b3d 7f0f 9cbc 829c 05be d2ab 913d
000001a0: 1ab4 7c3e f748 293c 126e bb3d a4a1 0dbe
000001b0: 9ff5 a0bd b8a3 6f3d 9a34 bfbc ea98 29bd
000001c0: 19ad 0abe 6a9e 91bc cc60 5fbe 829f 9a3d
000001d0: 53cf 9fbd 4ab1 24bd 7427 f1bc 614e 20be
000001e0: 42a9 acbc e2c3 903c 7393 debc 811f 133e
000001f0: b90f 0fbe 94e8 27be a82e 0d3d ba38 ad3b
00000200: cde3 a8bd f8b4 c43b 739c 4bbc cb44 72bd
00000210: 4d51 f5bc a203 72be f217 8bbe 531a 1abc
00000220: 6798 433d a472 403d e501 18bd 37c5 d6bd
00000230: 4092 51be afe7 143b f075 563d 6118 9f3d
0.0021417618 0.104622945 0.05532832 -0.1589604 0.066611625 0.03566643 -0.081265 -0.04631439
0.0663106 -0.2069654 -0.035608325 -0.12869975 -0.07183907 0.012889809 -0.1824946 -0.0048246044
-0.21429619 -0.14792724 -0.012157087 -0.12858132 0.034202196 -0.009203234 0.21252432 -0.2657544
-0.13301533 -0.07954769 0.03905249 0.0038702781 -0.25145784 0.04892355 0.017556323 -0.0008361402
0.06094619 -0.08397766 -0.08244129 -0.099858396 -0.022780482 0.13321862 -0.080211304 0.0040327865
-0.12523554 -0.10165345 0.07989884 -0.10343994 0.07536969 -0.10174322 -0.06295663 -0.057815433
0.06919246 -0.1518887 -0.011682507 -0.021412957 -0.088380106 0.14491668 0.007912193 -0.03320888
0.014868605 -0.063114226 0.11013447 0.11055137 -0.0688876 -0.13365419 0.07697479 0.022129985
-0.09317762 -0.042450953 -0.066529594 -0.13735749 -0.06558658 -0.18791938 -0.10604217 -0.109012246
-0.06277772 -0.053482663 -0.118131176 -0.12173692 0.018422784 0.23647068 -0.23464224 -0.13241524
0.0609901 -0.10618297 -0.1134058 -0.09567909 -0.08426955 0.14215095 -0.07149175 -0.15340908
-0.030881787 -0.05140031 -0.07919843 -0.07397639 -0.053698108 -0.015764106 -0.02357839 -0.12953685
-0.13392675 -0.03737264 0.023569398 -0.011495124 0.06802582 -0.019050358 -0.13047984 0.0711285
0.24678078 0.010332338 0.091518536 -0.13831192 -0.078593485 0.058505744 -0.023340512 -0.041405596
-0.13542594 -0.017775733 -0.21814269 0.07549955 -0.07803216 -0.04020814 -0.029437758 -0.15654899
-0.021076802 0.01767153 -0.027169919 0.14367487 -0.13970841 -0.16397315 0.034468323 0.0052863033
-0.082465746 0.0060030185 -0.012427437 -0.059147637 -0.029945994 -0.23634198 -0.27166706 -0.00940569
0.047752764 0.04698433 -0.03711118 -0.104868345 -0.20465946 0.0022721102 0.052358568 0.07768322

main.6.weight f4 [144, 144]
00000000: aa63 b4bd 004a 04bb 2a2a 30bc e1f4 663d
00000010: 4e0c 933c dbf2 8a3d 0ab8 413d c34a 97bd
00000020: 7af6 5fbc f36f bb3d 9782 e73d c92c a33d
00000030: d746 dc3d 5fbf 3d3b 4a92 093d 0244 9b3b
00000040: a8f3 af3d 6d1c 01bb d1e7 453d 0cbf 453c
00000050: 4b04 a6bc ede8 9b3d 2b20 f5bd 8708 413e
00000060: 58f8 cf3c 6c46 373c 5572 01bd 1a5d 5d3d
00000070: a596 143e a9f6 01bb 71c0 9d3d dbfa ba3d
00000080: a3d1 44bc f40e 0c3d 08bb 083d 1780 32bd
00000090: 35cc a1bd b885 c03c f703 a23d 5502 debd
000000a0: c68c ac3d 127e 1abb b91f f6bd 9e0a 273d
000000b0: 6ca6 1ebd 40be 82bd 7186 1d3d b228 d13c
000000c0: b600 1fbc 1cd4 2e3c 1ba7 0abc 1da7 073d
000000d0: c464 5c3c 0716 ffbd ee06 bdbd 49d9 8c3d
000000e0: bcd1 1fbd 23a4 52bc 39ef 053b 6b35 1f3d
000000f0: aad6 c53d c746 943d 722a ba3d 12a7 e03b
00000100: ce64 e83c c441 b03c f47c 8a3d dc48 1d3d
00000110: ac87 0cbd 20f5 88bd 79fd acbd 10a2 093b
00000120: c0af bbbc 6bf4 af3d 02ab 9a3b fd24 3ebd
00000130: 2deb 69bd e56a 15be 0835 c63c c6e6 1bbe
00000140: 0e47 a0bd 29ca 00be 08e0 36bd f951 9d3c
00000150: 7833 db3c 2ed7 353d b598 c93d 7985 86ba
00000160: 9d1f 57bd 6d2b b9bc 74fe 263d 7f48 853d
00000170: 06f3 cdbc 204e 7bbd 671b df3c 8f90 963d
00000180: 38d6 5a3d 069e 41bd b468 b3bd 2992 12be
00000190: a349 a5bc c19e babd d6bd 9f3d 881f f8bc
000001a0: 46ae bcbc 9de3 d3bc 2d8c ed3c f21c 0b3e
000001b0: 38b2 df3c bbd6 33bc cc8a ed3c 23ec f8bc
000001c0: dcec 4fbd f4c1 19be e9c1 a83d b28a 573d
000001d0: bda7 b93d 9c0c 973d 4a26 bbbc 8d9e aa3d
000001e0: 7842 4b3d 7011 6cbc b619 693d 897a 34bd
000001f0: 9262 f83d cacd 983d 3195 e23c 76b5 c73d
00000200: 65df 1c3d 49e9 08bd 2928 b4bd 793e 81bd
00000210: ed52 883d e82a f93c de5d f43d b21e d6ba
00000220: ad22 a2bd f3fd 963d 7546 01be c145 c33d
00000230: 0e4a 103e 724a b1bb d5bc 28bd 2928 09bd
00000240: 9036 313d d1d2 c63c 94a8 e2bd 98a1 af3d
00000250: c9d8 143e da93 14be 7c5c eeba 7624 833d
00000260: 8c36 363d 459f c4bc 58ef 1cbe a069 8b3d
00000270: 9512 3ebc 40d3 27be 6306 273e 2ed2 d3bc
00000280: f61d 15ba 5ad6 b1bd ceb1 623c 6969 92bc
00000290: 661d 3c3c c6b6 613e d6dc c03c 418d 2a3d
000002a0: 138e 4a3d 92f1 08be a398 12be 48c0 57bd
000002b0: ff66 433d 085f e5bd 21db 703d 816a 793b
000002c0: 0ebe 89bd f40a 86bc 696f c7bc 2544 db3d
000002d0: bbc4 37be 04be c8bc 3a57 79bc f642 a6bd
000002e0: b3cb 78bd bff5 2b3c 89ba a2bd fff2 93bc
000002f0: 1a21 ae3c 88ed c1bd 3ace 65bd 6a62 643d
00000300: fbf7 b03d ca20 d93d fb5f ad3c 7c99 303d
00000310: 9ae4 3ebe ff8e efbd a475 9cbd befb 08be
00000320: a9ff 42bd 2e2c aa3c b793 f43d 1545 363d
00000330: 866e e3bc 4c3d 5ebc a159 073d fc5b e63d
00000340: 4889 c5bd 5660 bd3d 5cd7 a53d a8da 03bd
00000350: f62a d63c 6ca8 503d 18f9 7cbd b40f 453d
00000360: 1558 48bd 39a4 edbd e105 153e 7e84 c8bd
00000370: 9f64 24bc 45ff 723d 77e7 63bd fbda c5bd
00000380: 7519 07bd 61ec 743d 1665 11bc ed54 11be
00000390: 6d26 dbbd 337c f6bd e016 cc3d 629d 1c3e
000003a0: aa34 e23c 013c 13bd a656 8e3d 9b10 78bd
000003b0: ea0d f13b d62b 9ebd 9ec1 1ebd 16a2 ff3d
000003c0: 1a7d 01be 34fb 00be c7ca a2bd 2ecd 00be
000003d0: 5f7c e7bc 815e 45bd 39bf 883c e1be 12be
000003e0: 851a 163d ba8c 44bd 87b5 0f3e 022a b23d
000003f0: 9311 b2bb fdcb 093c c472 9abd 38b6 043d
-0.08808072 -0.002018571 -0.01075224 0.05638588 0.017950203 0.06784602 0.047294654 -0.073873065
-0.013669604 0.09152212 0.11304205 0.079675265 0.10755699 0.0028953177 0.033586778 0.004738332
0.085913956 -0.001970078 0.04831678 0.012069475 -0.020265719 0.076127864 -0.11969026 0.18850909
0.025386974 0.0111862235 -0.031603176 0.054043867 0.14510591 -0.0019830859 0.07702721 0.09129878
-0.012012872 0.034193948 0.033381492 -0.043579187 -0.079002775 0.023501262 0.079109125 -0.108402885
0.08425288 -0.002357368 -0.12017769 0.04078161 -0.03873293 -0.063839436 0.03845829 0.0255321
-0.009704759 0.010670688 -0.008462693 0.033118356 0.013451759 -0.12455373 -0.09229837 0.06877381
-0.039018378 -0.012856516 0.0020436777 0.038869303 0.096600845 0.07240062 0.09090127 0.006855854
0.02836838 0.021515734 0.06762114 0.038399562 -0.034309074 -0.06687379 -0.084467836 0.0021001138
-0.022910953 0.08591541 0.0047200928 -0.046421994 -0.057109047 -0.14591558 0.02419521 -0.15224752
-0.078260526 -0.12577118 -0.044647247 0.019204127 0.02675794 0.044394664 0.0984358 -0.0010263167
-0.052520383 -0.022603715 0.04077001 0.06507968 -0.025140297 -0.061353803 0.027234746 0.07351791
0.05342695 -0.047269844 -0.08760205 -0.14313568 -0.020176714 -0.09112311 0.0779988 -0.030288473
-0.023032319 -0.02586537 0.028997505 0.1358526 0.027306661 -0.010976489 0.028996848 -0.030386036
-0.050762996 -0.15015393 0.082401104 0.052622505 0.09065197 0.07375452 -0.022845406 0.083310224
0.049623936 -0.014408454 0.056909285 -0.04406217 0.12128176 0.07461126 0.02765903 0.09751408
0.038298983 -0.033425603 -0.087967224 -0.06310744 0.06656442 0.030415967 0.11931966 -0.0016336052
-0.0791677 0.07372656 -0.12624533 0.09534789 0.1409075 -0.005410486 -0.04119571 -0.033485565
0.043264925 0.024270447 -0.1106731 0.085757434 0.14535822 -0.14509526 -0.0018185521 0.06403439
0.044485614 -0.024001727 -0.15325677 0.06807256 -0.01160111 -0.16389179 0.1631103 -0.025857057
-0.00056883635 -0.086834624 0.013836337 -0.01787253 0.0114816185 0.22042379 0.023542803 0.041638616
0.0494519 -0.13373402 -0.14316039 -0.052673608 0.047705647 -0.111997664 0.058802728 0.0038057866
-0.06725703 -0.016362645 -0.024345117 0.10706357 -0.1794614 -0.024504669 -0.01521855 -0.081182405
-0.060741138 0.010495602 -0.07945735 -0.018060206 0.021256018 -0.094691336 -0.056104876 0.055757917
0.086410485 0.10601957 0.021163931 0.043115124 -0.18641892 -0.11697196 -0.07639626 -0.13377282
-0.047607098 0.02077302 0.11942237 0.044499476 -0.027762663 -0.013564419 0.03304446 0.112480134
-0.09645325 0.0924689 0.08097717 -0.03219095 0.026143532 0.05094187 -0.06176099 0.04811068
-0.048912127 -0.116035886 0.14553024 -0.09790896 -0.010033756 0.059325475 -0.055640664 -0.09660908
-0.032983262 0.05979574 -0.008874198 -0.14192553 -0.107006885 -0.12035408 0.099653006 0.15294412
0.027613003 -0.035945896 0.06950121 -0.06056271 0.007356395 -0.07723205 -0.038758866 0.12482087
-0.12645379 -0.12595826 -0.07948833 -0.1257827 -0.028257547 -0.04818583 0.016692745 -0.14330627
0.036646385 -0.04798577 0.14034091 0.086994186 -0.005434224 0.008410451 -0.07541421 0.03240034

main.6.bias f4 [144]
00000000: 3575 94be 56b8 0cbe 61ad 993e ce59 dbbd
00000010: 0e55 4abe 5018 a0bd d189 b93d b250 11bd
00000020: 0a7e 40be 56a5 89be 438d 123e 53c7 29be
00000030: 5180 42be dcad dbbd 73cf 06be aff7 19be
00000040: 66a6 8c3d 212a 2dbd 74b3 473d 0335 5ebe
00000050: a7c9 3e3d 4272 b33d 927e 4bbe 77d7 5fbe
00000060: f81e afbd 623c eabd 232b 823d d503 fcbd
00000070: 9ea7 13be 96c7 1c3e a688 063d b4b7 de3d
00000080: b5af 55bd 61bd df3d 4fc7 45bc 5a5f 653d
00000090: bf03 473e d718 66be 4adb 0b3a a019 75bd
000000a0: 9b8c 71be 756a 6b3d 7d46 1d3e fe25 abbd
000000b0: 1cf1 85bd 5226 49be bc8a 70be 9f9c 2abd
000000c0: 12c9 c3bd 36ce 5abe c735 8abc 648e 93be
000000d0: ac06 9dbd b2dc 013e 51fa 5ebe 1081 0b3d
000000e0: 26ad 25bc 973b 373d c621 26be f6fd 173d
000000f0: 3dde ba3d 81f2 72be 561e 38bc cccb 96bd
00000100: e329 2fbe 23a0 3cbd b417 07be 8374 2bbe
00000110: 6868 733d f24e 18be 72cb 293e cc08 4cbe
00000120: dc2b 133d 5f7c 72be 7d65 fbbc 4a00 92bc
00000130: abb8 4dbe 774f 90bd 8967 53be 1945 e5bd
00000140: 346a 19be 9a4e 5ebe f027 34bd f622 223c
00000150: b35d 81be 575e 4c3d b225 1ebc 61a3 04bc
00000160: 1b20 88be abb5 5dbe 621f 6dbe bacc 323e
00000170: 982f f53d 27a4 9dbe f204 493d aa62 8fbe
00000180: db9d 3f3e eb5c 25be aec6 96be e161 203e
00000190: beb9 59be d75a d6bd 3ba4 be3d 20e8 5a3e
000001a0: ba85 46be 1a70 24be c1f6 88bd 6848 d5bd
000001b0: bf47 09be fb5f 80be 31f6 7dbd eace f7bd
000001c0: 298e d43d 65df 2fbe 97db 86be d2c0 61bd
000001d0: 84c8 60be a6d2 c9bd 080d a1bd d3a8 1dbe
000001e0: c4d1 babb 0a5a e7bc 3c73 9b3b 6a87 c93d
000001f0: 6be0 33be 8d68 08be aac7 d6bc 59aa 97be
00000200: 7d5d 4ebd c2aa d3bd aaa6 623d 59f1 bc3c
00000210: f724 2cbe 8fa5 e73d 9d13 e9bd 82ac 08be
00000220: 9f1e 13be 81d8 40be f0c7 203d 2050 93be
00000230: cee5 19be e9be 8dbd dfe9 5c3e 50b3 9dbe
-0.28995672 -0.13742194 0.3001509 -0.10710488 -0.19759008 -0.07817137 0.090594895 -0.035477348
-0.1879808 -0.26883954 0.143117 -0.16579942 -0.18994261 -0.107265204 -0.13165073 -0.1503589
0.068676755 -0.042276505 0.048755124 -0.2169991 0.04657903 0.08762027 -0.19872501 -0.21859537
-0.08550829 -0.11437298 0.06355884 -0.123054184 -0.1441941 0.15310511 0.03284516 0.10874882
-0.05216952 0.10924793 -0.012071445 0.055999137 0.19435023 -0.22470413 0.0005335106 -0.05983889
-0.23588793 0.057474572 0.1535892 -0.08356856 -0.065401286 -0.19643524 -0.23490423 -0.04165327
-0.095598355 -0.21367726 -0.016871346 -0.28819573 -0.07667288 0.12681845 -0.21775176 0.03405863
-0.010112083 0.044734564 -0.16223821 0.03710743 0.0912442 -0.2372532 -0.011237701 -0.0736309
-0.17105822 -0.046051156 -0.13192636 -0.16743664 0.05942574 -0.14873865 0.16581514 -0.1992523
0.0359305 -0.23680256 -0.030688042 -0.017822403 -0.20089976 -0.07046407 -0.20644964 -0.1119482
-0.1498192 -0.21709672 -0.0439834 0.009896031 -0.252668 0.049894657 -0.009652542 -0.008095593
-0.26586995 -0.21651332 -0.23156503 0.1746091 0.119719684 -0.307893 0.04907698 -0.28004962
0.18712561 -0.16148727 -0.29448456 0.15662338 -0.21262261 -0.10466545 0.09308668 0.21377611
-0.1938695 -0.16058388 -0.066876896 -0.10414201 -0.13406275 -0.25073227 -0.062002365 -0.121000126
0.103786774 -0.17175062 -0.2633941 -0.05511553 -0.2195149 -0.09854631 -0.07863814 -0.15396433
-0.0057012755 -0.028241176 0.0047439616 0.09840281 -0.17566077 -0.13321133 -0.026218254 -0.29622152
-0.050382126 -0.10335304 0.055334724 0.023064302 -0.16810976 0.11310875 -0.11380694 -0.13347057
-0.1436715 -0.1883259 0.039253175 -0.28772068 -0.1502907 -0.06921179 0.2157359 -0.30800867

main.8.weight f4 [144, 144]
00000000: 3bb1 94bd 35f3 d6bb 8bfd 713d 40de 99bc
00000010: 200c 1b3e 6817 813c 0f8c b4bc 57c8 bfbd
00000020: 6cf6 cc3d 7f5f 73bd a465 d2bc 90c4 a53c
00000030: 2834 d03c f2c3 c83c 2560 3e3d 311e cb3d
00000040: ed1a 04bd 6996 75bc cf84 5b3d b1dd 653d
00000050: 9dbb 39bd 74b1 1f3b b3db 85bd b8af 72bd
00000060: c0b5 1cbd 8d7a 05be 37a1 3d3c 88be 97bd
00000070: 145d 73bc ffe8 abbd 4a63 c63d 440e e1bd
00000080: fdc2 fbbb fb77 4fbc 8563 403e 46b0 63bd
00000090: aa19 34bd 3d3d 0dbc c599 833d 9131 20bd
000000a0: 2d78 363d f280 dcbd ff98 20be 8a65 233d
000000b0: e8dd 9bbd 2fcd 013d 772e 243d 1975 fe3d
000000c0: d958 2c3d 0a91 f53c 8337 153d d824 ad3d
000000d0: d968 01be 27d4 e6bb 70e1 003e 6d80 113e
000000e0: 807d c2bd 0334 e7bd 4079 02bd da4a 8fbc
000000f0: 08f4 603d b438 433d dbe1 cdbb 0bfc 00be
00000100: 9fd2 04bd 2b57 7dbd d682 3b3c 4891 f83d
00000110: 48b5 ad3c 07c7 cd3c 547e 733d 7c89 083e
00000120: 296d 783c 7b37 94bd 6c79 19be 1df3 31be
00000130: a6d7 afbd e7e4 83bd 4e14 dc3d f24a a13d
00000140: a7e1 873d 2ce3 c2bd 037e 8ebc 5e47 81bb
00000150: aafb 62bd 478c 32bd 29f6 a5bd 5305 953d
00000160: e311 2fbd 6737 e43b 0e51 45bd 582c d5bd
00000170: cd13 98bc 3239 b1bc 35ce 7c3d 5075 cf3b
00000180: 7cf0 2dbd 561d 5cbd 1504 83bc a52a 763d
00000190: 01e6 d03d a43a bc3c b14f 9dbc 4dd9 903c
000001a0: 3e17 96bd 9da8 cdbd f1ab dd3d 21a7 c5bd
000001b0: 5ee6 363d 55b9 8fbd 4b7d 2abd 7568 b03c
000001c0: 6009 1bbd 24bd e63d 455b 36bb 363a 83bd
000001d0: fb1d c5bb 5e05 a13d f622 cdbd 5d56 1fbd
000001e0: 1385 d83c 3d74 a6bc f297 43bd 068b 183d
000001f0: 6b09 a93d bd7c 23bd b428 51be e11a 4c3d
00000200: 75d9 4c3d 5df4 ed3c e842 a1bd a211 0a3e
00000210: 00da 1abe dd12 c2bd e0d6 043e 4749 213b
00000220: 0917 a0bb 5f4b f53d f97c adbc f5a9 a4bd
00000230: 858a 87bd 2d5c 993d 9222 90b9 a57f f93d
00000240: e781 783d 9266 30bd dd73 0bbd d22e 8e39
00000250: e106 14be b51c 9ebd 2b96 1dbe 2dbd 793d
00000260: db1e a73d 8e33 aa3d fdbb 5c3d b1eb e23d
00000270: 2a82 073d be92 2bbc 19fd ad3d 5304 81bd
00000280: c9da 2fbb f67d e13d 0f4a a9bc 0d75 7fbb
00000290: 8857 d0bd 8232 13be 892e f0bc 00dc 603e
000002a0: 15b0 41be c494 c5bd 18f3 03bc 2d7c c93d
000002b0: 1c8d a9bd c8f8 8c3d 2caf 973d fa6d cfbd
000002c0: 0e8f d0bd bf03 8dbd c861 663c 7872 63bd
000002d0: 1346 013d 0820 19be b018 b8bc 58f8 0d3e
000002e0: 797c 29bd 7a56 303d 9cf6 033d 37de cbbd
000002f0: 49af 3fbd 256b ef3c 884f 253d 7f60 93bd
00000300: b62f 123d 86f1 943d 29a2 2e3c f87e 4b3d
00000310: fda8 c53d cb7e cdbc 98ba 093c 0e58 7e3d
00000320: 9282 4abd 1ab1 bd3d 92a2 023e 01cb c53b
00000330: d091 35bd 881e e13d 2be7 50bd 8346 f73c
00000340: 5c36 a63d 5b47 e83c 02e8 d03d dac6 acbd
00000350: 4401 57be c934 c5bd eb9d 7bbb db54 5a3d
00000360: 89ec 093e e55b 833d 56fe 0cbd aff2 9dbc
00000370: 936f 0b3c acd1 923c 4836 f53c 1f65 e1bb
00000380: fcaa 6ebd 63bb 7abb 5850 0ebe 450b acbc
00000390: a015 043d 3e8c 4bbd d6f1 3fbd 2b58 debd
000003a0: c0e8 76bd a54e cdbc db0c a43d 0946 0f3b
000003b0: 3d7c 0dbe 7ebf d33d 4c6b adbd e91c a03d
000003c0: e2aa 873d f17e a83d ace3 223e dc2d 0abe
000003d0: bd9a d33d e901 82bc 7e61 12bc 8a03 f13c
000003e0: ea2d e2bd e37d 093e 4eca a3bd dba1 023d
000003f0: 6b24 fe3c 51c4 d43d 982d 74bc 5f4e 24bd
-0.072603665 -0.0065597543 0.059079688 -0.018782735 0.15141344 0.015758231 -0.022039441 -0.09364384
0.10007939 -0.059417244 -0.025683232 0.02023533 0.025415495 0.024507497 0.04647841 0.09917868
-0.03225224 -0.014989474 0.053593453 0.056119625 -0.045344938 0.0024367245 -0.06536045 -0.05924961
-0.038259268 -0.1303503 0.011574081 -0.07409388 -0.0148537345 -0.0839405 0.09686907 -0.10989049
-0.0076831565 -0.012662883 0.18787964 -0.05558803 -0.043969788 -0.008620557 0.064258136 -0.03910977
0.044548202 -0.10766782 -0.15683363 0.039891757 -0.07610685 0.03168982 0.040083375 0.12424678
0.04207692 0.029976387 0.036429893 0.08454293 -0.12637652 -0.0070443335 0.12585998 0.14209147
-0.094965935 -0.11289217 -0.031853914 -0.017491747 0.054920226 0.0476615 -0.0062830276 -0.12596147
-0.032427426 -0.061850708 0.011444768 0.12137085 0.021204606 0.025119318 0.059446648 0.13333696
0.015162745 -0.072371446 -0.14987725 -0.17377897 -0.085860536 -0.06440144 0.1074606 0.07875623
0.06634837 -0.09515986 -0.017394071 -0.003945275 -0.055415787 -0.04359081 -0.08103592 0.07276406
-0.042741667 0.0069646123 -0.048173003 -0.104088485 -0.01856413 -0.021633718 0.06172009 0.0063311234
-0.042465672 -0.053738914 -0.015993157 0.060099263 0.1020012 0.02297718 -0.019203039 0.017681742
-0.07328652 -0.10041926 0.10823811 -0.09651018 0.04465329 -0.07017771 -0.041623395 0.021534184
-0.037850738 0.112665445 -0.0027825397 -0.06407587 -0.006015537 0.07862352 -0.10016434 -0.03890072
0.026430642 -0.020319099 -0.04775233 0.037241958 0.082537495 -0.03991388 -0.20425683 0.04983032
0.05001207 0.029047186 -0.078740895 0.13483289 -0.15122223 -0.09476254 0.12972593 0.0024610327
-0.0048855585 0.119772665 -0.021177756 -0.08040229 -0.066182174 0.07488284 -0.00027491577 0.121825494
0.06067076 -0.04306657 -0.034046043 0.00027119234 -0.14455749 -0.07720319 -0.15389316 0.060971428
0.08160182 0.083106145 0.053890217 0.11080111 0.03308312 -0.010471998 0.0849554 -0.06299653
-0.0026833287 0.11010353 -0.020665197 -0.003897968 -0.10172945 -0.14374736 -0.029319065 0.21958923
-0.18914826 -0.096475154 -0.008053564 0.09838138 -0.082788676 0.06883389 0.07406458 -0.10128398
-0.101835355 -0.0688548 0.014061399 -0.055529088 0.03156097 -0.14953625 -0.02247271 0.13864267
-0.041378472 0.04305122 0.032217607 -0.099544935 -0.046798024 0.029225895 0.04035905 -0.071961395
0.035690032 0.072726294 0.010658779 0.049681634 0.096513726 -0.025084874 0.008406304 0.062095694
-0.049440928 0.09262295 0.12757328 0.006036163 -0.04432851 0.109921515 -0.05100171 0.03018499
0.08115837 0.028354337 0.10200502 -0.084363654 -0.20996577 -0.096292086 -0.0038393687 0.05330358
0.13469137 0.06414012 -0.03442224 -0.01928076 0.008510488 0.017922245 0.02993311 -0.0068785097
-0.058268532 -0.0038258664 -0.13897836 -0.021001467 0.032247186 -0.049694292 -0.046861492 -0.108566605
-0.06028056 -0.025061915 0.080102645 0.0021861813 -0.13816924 0.103392586 -0.08467731 0.07818014
0.0662439 0.08227337 0.15907162 -0.13494056 0.10332248 -0.015870051 -0.008934377 0.029420633
-0.11043914 0.13426928 -0.07997571 0.03189264 0.031023225 0.10389007 -0.0149034485 -0.040113803

main.8.bias f4 [144]
00000000: cfbf 923d 8bdb f53d c042 9fbd 0518 8ebd
00000010: 876b 473e c35a 7ebc 73a5 98bd d0a3 f9bd
00000020: 769d cb3d b4d5 2bbe c084 83be d53b 85bd
00000030: 9c08 da3d 6812 183d 19e2 95bc 1e2d a8be
00000040: be56 b3be 8030 883b 2134 3dbe 2293 d73d
00000050: 7c3e 50be f9b9 723d e6d6 c73d f84f 9f3b
00000060: d126 59be 1c4a c13d 0d9e 27be 2447 59be
00000070: 5d4b 893d 6660 71bc 166c 8abe 3c2f ccbd
00000080: 70aa 65be 2d06 243d b461 d0bd f9c5 c83d
00000090: 2541 27be 94b8 3c3b edd8 afbd e35e cd3d
000000a0: 3e94 a6bd e347 bfbc abe0 03be 2c32 b03d
000000b0: 7b56 4abe f6a4 8a3d bd21 9e3d c384 72bd
000000c0: e0ea 4bbe af3e a9bd efda 51be a206 c5bd
000000d0: ef09 d3bd 6dbc 65bd 48a7 2abe c35b 88be
000000e0: 5422 85be ddd7 8a3d 42b1 98be a6b8 88be
000000f0: d5bf 90be ac50 7bbd 8a84 f53d eb0c d2bd
00000100: be18 1fbe 7d0a 2d3e 3925 e83c e53d d0bd
00000110: df84 a9be 8058 41be c93d e7bd 28d5 4ebe
00000120: 177c 14be 8bf7 083e db0e 53be ca5f 5ebe
00000130: 3e30 8cbe 167b 28be 47dc 89be c3fc c1bb
00000140: cfd5 c93c 14ee 753d 77bf c43b ba3d 083d
00000150: d7cf 32be 8057 143e 4849 92be 4d87 b63d
00000160: 6b5c 1f3d 0e23 91be a09a c43d a12d de3d
00000170: 78f6 4bbe abab 06be 93c1 283d 7179 47be
00000180: b6e3 29be 82ee 203e e4f9 8e3c 1d7b bebc
00000190: e5ec 44bd a1f8 12bd 25f0 48be 1a00 a13c
000001a0: 932e e3bc 26ae 763d c693 68be ec4f f2bd
000001b0: 58c4 6fbe 335e 7f3b a5b4 4ebe 234e 0ebe
000001c0: 1e25 4fbe 39df 303e b78e 65be 89c8 9bbd
000001d0: 8f85 9abd f429 173d 2237 813d 84b7 b5bd
000001e0: d69f 40bd d891 45be 8fcf f4bd a16a 9ebe
000001f0: fba0 50bd 8865 91be c402 9a3d f2eb 7ebd
00000200: 81cc 4a3c eda0 2dbd 4962 aabd 9da9 7cbd
00000210: b201 c03d e0d6 363e 5625 533d e442 2fbd
00000220: 7c71 183e cc92 b4bc cb98 18be b917 4fbe
00000230: edcd 0c3d 3d3e c5bd dbd8 46bc b2fc c23d
0.07165491 0.12004765 -0.077764034 -0.06938175 0.19474612 -0.015524569 -0.07453432 -0.12189448
0.09942143 -0.1678074 -0.25687218 -0.06505553 0.10646173 0.03712693 -0.018296288 -0.32846922
-0.35027117 0.0041561723 -0.18476917 0.1052611 -0.20336336 0.05925939 0.097577855 0.004861828
-0.21206214 0.09437963 -0.16368885 -0.21218544 0.067038275 -0.014732456 -0.27035588 -0.09969947
-0.22428298 0.040044952 -0.101748854 0.09803385 -0.16333444 0.002879654 -0.08586297 0.10027864
-0.08133744 -0.023349708 -0.12878673 0.086033195 -0.19759552 0.06769745 0.07721279 -0.059208643
-0.19913816 -0.08263909 -0.20493673 -0.09620406 -0.10304629 -0.0560879 -0.16665375 -0.2663251
-0.26002753 0.06779454 -0.29822737 -0.26703376 -0.28271356 -0.06135623 0.119881704 -0.1025637
-0.15536782 0.16898532 0.028338062 -0.101680554 -0.33109185 -0.18881416 -0.112910815 -0.201985
-0.14500462 0.1337568 -0.20611136 -0.21716228 -0.27380556 -0.16453204 -0.2692587 -0.005920024
0.024638085 0.060041502 0.0060042697 0.033261992 -0.17462097 0.14486504 -0.28571534 0.08912525
0.038906496 -0.28347057 0.09599805 0.10848547 -0.19918239 -0.13151424 0.04120023 -0.1947992
-0.16590771 0.15715984 0.017453142 -0.023252064 -0.048077483 -0.035881642 -0.19622858 0.019653369
-0.02773217 0.060224675 -0.22712621 -0.1183165 -0.23414743 0.003896606 -0.20186098 -0.13896994
-0.20229003 0.17272653 -0.22417723 -0.076066084 -0.075450055 0.036905244 0.06309344 -0.088728935
-0.04702743 -0.19293916 -0.11953651 -0.30940726 -0.050934773 -0.28397775 0.07520059 -0.062236734
0.012377859 -0.0423898 -0.08319528 -0.061685193 0.09375323 0.17855406 0.05154928 -0.0427884
0.14887041 -0.022042654 -0.14902036 -0.20223893 0.034376074 -0.09631012 -0.012136663 0.09520854
