trained networks/5304.pt (torch_old, 395061 bytes, 12 tensors)

main.0.weight f4 [144, 5]
00000000: b7c6 43be e550 aa3d d81f 6dbe cd86 cb3d
00000010: 8150 9cbe 6f62 863e 0401 64be 57cd 9d3d
00000020: f831 2f3d b3c3 023f 987a 67bc 0939 d8bd
00000030: ded3 2cbe e086 833d 6d29 43bd 0f60 653d
00000040: dabe 3f3e 7591 26bd ba6d 683e 546c 40bd
00000050: 80b8 3ebd 514b 8e3d 3a92 48bd fe70 6c3e
00000060: 2abd 84bd a785 713e f09a 6fbd ffaa 9a3e
00000070: c5e7 cdbe 8e3a 953a 7ff6 4cbe 30f7 cc3e
00000080: 560a 883e 5303 8f3e 1689 803d a3c8 eb3c
00000090: b45f 78be 82d1 32be 33f0 82bd 154f 433c
000000a0: 1762 c93d 770d e43e c3a3 203e 70a9 93be
000000b0: 9a55 5d3d 6b18 043f dbe8 313e 0b4e be3c
000000c0: 2bce 3f3e 4ce1 bbbc 8e32 51be 36fd e8bc
000000d0: d83d 9fbe 140c 283e 7722 633e 55a6 03bf
000000e0: ccfd 233d 9443 433e dd47 3fbe 88c7 dd3d
000000f0: a4f9 463c 1891 9ebc 02f7 a0be 0bc9 b43d
00000100: bb7a 9e3e 9f4f 29be 98ce a9be 8885 92bc
00000110: ce32 c0be 5cb3 06bd 7dec ca3e 6906 b9bd
00000120: 1884 ccbd 0395 a9be b424 31be cb65 82be
00000130: 0d10 c93b e3c9 16bd 9bf5 b83e b78b 0fbd
00000140: 06b4 8fbe 4630 5d3e 628e 4ebe 5b9b 203e
00000150: b3c3 743e 7dfe d5be a87e f83d dedf 47bd
00000160: eab2 16be 9ea7 7e3e e2e7 f13e c538 d5be
00000170: dbd8 75bd fce0 203e 3304 833e 509d 543e
00000180: 9307 96bc b051 9bbe 6a84 56bd e2fd 9b3e
00000190: 16b9 313e 622c 02be 4b62 d6be b5eb d9be
000001a0: d55d 54bc ad48 b5be 1222 82be 584d 4dbe
000001b0: a9e3 04be 3177 113c 03be ebbd 4104 2e3d
000001c0: fe77 97be 67b2 b83d fa09 413e ef29 17be
000001d0: 5251 b2be 2ddd 78bc a2af 423e 1106 c23e
000001e0: 13d7 523e d52c b43d 0280 afbe a3b4 3ebe
000001f0: b5ea 623e 4ee0 c73e d94e b73c d917 6e3e
00000200: b9fe e4bd 1e04 1bbe 64eb 85be 6d79 6a3e
00000210: b7f6 053d 32ea 813e 818a 033e 4095 d1be
00000220: ce32 8f3e f0a1 46bd 3c99 6ebe 0eed 44bd
00000230: c9d4 3c3d 7256 f4bd 447c 803e 4fb7 be3e
00000240: 26ab 5e3d f965 89be e354 a4be bdc6 9bbd
00000250: 1829 593e 2573 923e 1fbc 923e 2b34 283c
00000260: b80d 96bc 4164 65bc f2f9 dd3e 9bb7 e63c
00000270: d8e3 58bd 5d27 abbe 62e8 133e 961d 393e
00000280: cf30 a63e 1371 21bb 404c d0bd 9d44 b3be
00000290: fcf5 f8be 0826 7e3e d6bd 9f39 bc22 04bd
000002a0: 15e3 5b3e f0ec 0bbd 9119 653e 43b3 babd
000002b0: df01 7dbd b551 82be 224a 953e 4a2d bbbb
000002c0: a3e7 573e 4169 a5be 907f ff3d 551c 103c
000002d0: 4004 113e 078f 033e 53a1 af3e f157 ad3d
000002e0: 2e34 7f3e 9735 47be ec31 83bd a38c b5be
000002f0: aab6 7fbe 475d 51bd da02 bfbd b029 9c3e
00000300: ddee 8c3d 4344 e83d 0632 bd3e 7d3e 513e
00000310: aea3 89be 358a 28be 7507 18be 40f4 aa3d
00000320: c54d 4f3e 8c55 823e 8943 52be 03f1 f83d
00000330: 1c5a 7fbc 814e d6be 2ab6 333d 75be 853e
00000340: 9c84 57be 915c b0bd 10ee 8d3c 5db8 803e
00000350: 665f ebbd 79e0 92be 757d ffbb 21f6 e43d
00000360: 932a a53e 5d09 84be 611b 51bd 0ec9 2e3e
00000370: c196 91be 7b67 39be 549d 38be c5f6 b9bd
00000380: 9b9a ba3d 219d 56be ba94 1c3e 0f6b a03e
00000390: 8a61 3c3d 2fca 0e3e 193a e9be c74c b33e
000003a0: 3f04 af3e ec24 68bd b046 933e 53dc 953d
000003b0: a5d0 9b3c dd5f a23e 029a 9f3c 6b00 a0bd
000003c0: 079e 09be 5c0e 13be 22b9 bd3e 7620 84be
000003d0: 30ca f2bd 5310 92be c3fd e5bd 825d c0be
000003e0: 250f 2d3d 9c7f f73b ccd8 f8bd e1f2 373e
000003f0: f5b5 bcbe 7bf7 b73d 82c2 3cbe d66d 55be
-0.19118772 0.08316211 -0.23156679 0.099378206 -0.3053017 0.26246974 -0.22266012 0.07705181
0.042772263 0.51079863 -0.01412835 -0.105577536 -0.16877696 0.0642221 -0.04764693 0.05599981
0.18725148 -0.040666062 0.22698107 -0.04697831 -0.04656267 0.06947959 -0.048967578 0.23089978
-0.06481393 0.2358614 -0.05849737 0.30208585 -0.4021589 0.0011385249 -0.20015906 0.4003234
0.26570386 0.27932224 0.06276147 0.028782194 -0.24255258 -0.17462733 -0.063934706 0.01192071
0.09833162 0.44541523 0.1568747 -0.28840208 0.054036714 0.5159976 0.17373984 0.023230573
0.1873099 -0.022934578 -0.20429441 -0.028441053 -0.3110187 0.16410857 0.22181116 -0.5142568
0.04003696 0.19068748 -0.18679757 0.10829073 0.01214448 -0.019356295 -0.31438452 0.088274084
0.3095301 -0.1653428 -0.3316543 -0.017885938 -0.3753876 -0.032885894 0.3963355 -0.09034426
-0.099861324 -0.331215 -0.17299157 -0.25468287 0.0061359466 -0.036813628 0.36124882 -0.03504535
-0.28067034 0.21600446 -0.20171502 0.15684263 0.23902778 -0.41795722 0.12133533 -0.04879748
-0.14716688 0.24868628 0.47247225 -0.41644874 -0.060021263 0.15710825 0.2558914 0.20763135
-0.018314159 -0.3033576 -0.052372374 0.30467135 0.17355761 -0.12712243 -0.41871867 -0.42562643
-0.012961824 -0.3540701 -0.2541662 -0.20049036 -0.1297747 0.008878515 -0.11510851 0.042484526
-0.29583734 0.090184025 0.18851462 -0.1476209 -0.34827667 -0.015189451 0.19012311 0.37895253
0.20589857 0.087976135 -0.3427735 -0.18623595 0.22159846 0.39038318 0.022376465 0.23251285
-0.11181397 -0.1513829 -0.2615615 0.22897883 0.03270599 0.2537399 0.12845804 -0.4093418
0.27968448 -0.04849428 -0.23300642 -0.048077635 0.046101365 -0.11930551 0.25094807 0.37249228
0.05436244 -0.2683561 -0.32096013 -0.07606266 0.21207082 0.28603473 0.2865915 0.010266344
-0.018317088 -0.014000953 0.43354756 0.028163722 -0.052951664 -0.3342847 0.14444116 0.18077692
0.32459113 -0.0024634048 -0.101707935 -0.35013285 -0.4862517 0.24819195 0.00030468282 -0.032259688
0.21473344 -0.034161508 0.22373034 -0.09116223 -0.061769363 -0.25452963 0.2915812 -0.005712186
0.21084456 -0.32306865 0.124755025 0.008795817 0.14161777 0.1284753 0.34302768 0.08464039
0.24922249 -0.19454037 -0.06406006 -0.3545886 -0.24972025 -0.051114347 -0.09326716 0.30500555
0.06881497 0.11341145 0.36952227 0.20433994 -0.2688269 -0.16458972 -0.14846595 0.08347368
0.2024451 0.25455892 -0.20533575 0.12155344 -0.015585449 -0.4185677 0.043874897 0.2612187
-0.2104668 -0.08611406 0.017325431 0.25140658 -0.11492805 -0.28686884 -0.007796938 0.11179758
0.32259044 -0.25788394 -0.0510515 0.17068884 -0.2843533 -0.18105881 -0.18028766 -0.09080271
0.0911152 -0.20958377 0.1529111 0.3133168 0.045991458 0.13944314 -0.45552137 0.35019514
0.34182927 -0.056675836 0.28764868 0.07317414 0.019020388 0.31713763 0.019482616 -0.0781258
-0.13439189 -0.14360946 0.37055308 -0.25806016 -0.118549705 -0.2852808 -0.11230042 -0.3757134
0.04225077 0.007553054 -0.12150726 0.17963745 -0.36857572 0.0898275 -0.18433574 -0.2084268

main.0.bias f4 [144]
00000000: 401b b2be dcf6 0ebf a3c9 a03e 5403 c23e
00000010: 716e 0e3d 5199 d7be a74a 85be 9f5e fcbe
00000020: a8d0 d8be 8fc2 84be ade3 d03e e7c5 e5be
00000030: 2c47 fd3e fa29 b63d 20ff 23bf ecab 00be
00000040: 8936 84bd 5851 c5be 55de f3be 1a73 5ebe
00000050: 939d 433c c7f7 15bf ad11 a13e b5ac 4bbe
00000060: 39fb 18bc 06cc 4fbe ff7c c4be 134a fcbd
00000070: e891 e8be 92e8 bc3e 1c0e 053f 1f1d abbe
00000080: 2988 0ebf 2eba f13d 09dc 58be 3fa8 5a3d
00000090: 0e1c 873e 98ad 603e ec3d d43d b172 fe3d
000000a0: 6355 b93d 1de1 c7be ccb5 333e df08 8cbe
000000b0: b6f7 9cbd fde5 39be 378b febe 72ed e83e
000000c0: 1c08 ee3e 3bdd b63e 38cf 093e 73eb 89be
000000d0: 230b b5be 11d5 15be bc05 cebe 8b20 10bf
000000e0: fbbf de3e 73c8 acbe b06f 38be 1cdf 75be
000000f0: 21ef cdbd 8430 013f 60a4 cdbe 52af 10bf
00000100: 4fd2 183f e4c8 30bc 3ecf ec3d a8d3 3fbd
00000110: cd95 02be af9b d0bd 0191 883c 2a04 17bf
00000120: fe66 693e e821 83be 630b 76be eb5b 92be
00000130: ab94 c23d c435 d23e 96c6 7abe 6a02 bebe
00000140: 6097 d5be 6e10 fbbd b1c5 c5bc af74 ccbc
00000150: 4507 3a3e 2210 85bd 3c87 4cbe 50d3 d73e
00000160: 5dbc aebe 88e9 62be e853 9cbe 4097 f9be
00000170: e85a b63e 0076 583d 529d f8be 7fb8 f63e
00000180: 0c49 8bbe 2f07 3bbe 0453 8ebe 65f9 ac3e
00000190: fa13 8abe a1aa ccbe 8b72 cfbe 576c 58be
000001a0: bbdb f0be f159 22be 15d4 053f 8c5a b8be
000001b0: d284 2b3e 75d4 61be faa2 47be 77e3 a63e
000001c0: 57d3 8e3d f91c a1be 616f debe 686a 273e
000001d0: 989c d23e dfc9 1abe 005f 11be 5e6b 55be
000001e0: 652d 96be 1aa1 05bf 0655 cc3e 3781 80be
000001f0: d377 263d 227f e6be beec 2fbe b6e9 b4be
00000200: 0427 c43e 09ab 73be fdd3 f4be 015c 973e
00000210: 10be 6f3e 457b fb3e aea6 12be 31b4 1dbe
00000220: 56dc 6d3d 1fb1 a73e 6bf0 3e3e 37c2 e23c
00000230: b475 c8bd c366 973e aaf5 9e3e 530a 93be
-0.34786415 -0.5584543 0.31403837 0.37893164 0.034773294 -0.4210916 -0.26033518 -0.4929094
-0.42346692 -0.25929686 0.40798703 -0.4487755 0.49468362 0.08894725 -0.64061165 -0.12565583
-0.06455714 -0.38538623 -0.47630563 -0.21723595 0.011939424 -0.58581203 0.31458798 -0.19890101
-0.00933724 -0.20292673 -0.38376614 -0.12318816 -0.45423818 0.36896187 0.51974654 -0.33420655
-0.55676514 0.11803089 -0.21177687 0.05338311 0.26388592 0.21941221 0.10363373 0.124242194
0.09049489 -0.39038935 0.17549819 -0.27350518 -0.076644346 -0.1815414 -0.49715587 0.45493656
0.46490562 0.3571566 0.13457954 -0.26937446 -0.3536006 -0.1463206 -0.4023875 -0.56299657
0.43505844 -0.3374668 -0.18011355 -0.2401089 -0.10055376 0.50464654 -0.4016447 -0.5651752
0.59695905 -0.010790084 0.11562966 -0.04683271 -0.12752457 -0.10185944 0.016670706 -0.5899073
0.22793195 -0.25611806 -0.24027781 -0.28585753 0.095010124 0.41056645 -0.24489817 -0.37111217
-0.41717052 -0.12258993 -0.024142118 -0.024957983 0.18166836 -0.06497218 -0.19973463 0.42153406
-0.34128085 -0.22159398 -0.30532765 -0.48748207 0.3561623 0.05284691 -0.48557526 0.48187634
-0.27204168 -0.18264459 -0.2779771 0.33784023 -0.26968366 -0.3997393 -0.40517077 -0.21135078
-0.4704264 -0.15854622 0.52276736 -0.36006582 0.16749886 -0.22053702 -0.19495764 0.32595417
0.069739036 -0.31467417 -0.4344435 0.16349185 0.41135097 -0.1511607 -0.14196396 -0.20841739
-0.29331508 -0.52198946 0.39908618 -0.25098583 0.040641617 -0.4501887 -0.17180154 -0.35334557
0.38311017 -0.23795713 -0.47817984 0.2956238 0.23412347 0.49117485 -0.14321396 -0.15400769
0.058071457 0.3275232 0.186464 0.0276805 -0.09788075 0.29570588 0.31046802 -0.28718814

main.2.weight f4 [144, 144]
00000000: 4739 47bd 3512 f6bd 64e0 303e 2244 bb3d
00000010: c233 9bbd 7016 6fbc fe02 98be 230d 0f3d
00000020: bdc9 2bbe b863 9abd 8882 6c3d 735f 12be
00000030: a089 5e3d 95a4 2b3e 19c9 95bd 32b0 57be
00000040: 7169 51be f7d1 2dbe 8123 5f3d 978a b5bd
00000050: bad1 b63d 3b2c 15bd 347d 73bc f0d8 4a3c
00000060: ebc3 43bd 1530 f03d 121d a2be d3d2 863d
00000070: 321c 09be 5343 8a3d 0caf c73d 007b 37be
00000080: ee2b 233e 4e1c 0a3e c24c 51bd 7a2c 07be
00000090: 85bb 81bd 673f 1e3e 3b02 32be cec6 1e3e
000000a0: 47f9 1f3d 6d69 1cbe f5c5 c73d b69a acbd
000000b0: 70ef 39bd 8696 57be 4d28 a9be 1f99 133e
000000c0: 9731 343e c5b7 203e 1e04 ba3d 51bd a0be
000000d0: 2f24 d6bd 4af6 71bd 7fdb 5abe 68a3 0dbd
000000e0: cb9e 423e 675e 5bbe 7035 46be 3baa de3c
000000f0: 88c1 983c 74a9 193e 204b ef3d 3088 c5bd
00000100: d6ea 083d cba9 5f3e 0ccf ed38 f053 843d
00000110: 892d f6bd 35fb a4be e937 0f3e 15cf 64be
00000120: 1432 c23d c754 d13d 4efd 37be abd3 f8bd
00000130: 66e0 ddbc 06bf 293e fa0e 4539 5bb7 bdbd
00000140: ee07 8fbd fcbe 0f3b 1eec e03d 71e1 913d
00000150: 7e9c 83bd 0e0d 16bc fab7 06bc 82f5 e83c
00000160: be81 37be 71d2 4ebe 6e99 a1be 1f1b c73c
00000170: 4999 533e eaee b63c 4377 293c ad15 0e3e
00000180: 6fa3 efbd 40b5 d7bc fd00 e9bc 4861 213e
00000190: 81bd 56bd 2b5a 89bc 6826 e2bc 3405 f4bc
000001a0: efd8 84bd ae02 e5bd 374e 243e 27a0 2dbe
000001b0: 301f 033e 83fd 74be c844 83be 9301 16be
000001c0: 2002 073c a5d4 86bd 6fb0 9bbd 38eb 813d
000001d0: f8a2 eb3c 6c86 553d e160 b93d 077f ecbc
000001e0: 090f be3d a01b 8c3d cf9f 23bc 3457 12be
000001f0: b749 be3d dc3d 65be 215e 3dbd f60e 19bd
00000200: 9a0c 1ebd 0cee 963d b417 87bd 2d4c 523e
00000210: 7490 703e 873f 123e df33 8d3e c05b 18be
00000220: e74c 393e 847c 7b3e 230d 5d3d e19f 5f3c
00000230: 8fc2 193d f98e b53d c5a1 713e 3098 4bbd
00000240: c9be 20bd d8db 8c3d a87a 41be 90f8 fb3d
00000250: 083e b63b 5220 41bc e779 7b3e 6616 fabc
00000260: 3427 0a3e 0ac3 cd3d dcad 87be 0cc7 ad3b
00000270: c4bd 76be 0073 44be 2be1 1b3b 811a d93c
00000280: ea99 b0bd 4e54 29bb 9b77 6b3c 50b6 493d
00000290: 2b99 3abe 2ed0 813c 46b7 ffbd 1c99 11be
000002a0: c700 abbd 4db3 e43d ee46 cf3d 5029 913c
000002b0: 5349 1c3e 3328 42be 5bb7 643c a59b 0e3d
000002c0: ce64 143d 7dfb dc3d 0f50 0bbc d78b f0bc
000002d0: b3eb c53d 8336 babe 35e3 253d 10e5 0fbe
000002e0: 4e31 b43d ee0a 07bd 5785 b7bc c991 fa3c
000002f0: 7d28 40be 6be3 473e 7d52 193e 933c 863d
00000300: 8816 cdbd 61eb 5dbe 9daa 66bd a365 c13d
00000310: 20c4 d93d 15bd 04bd 5532 2c3e cec2 1c3d
00000320: 061d c1bd 4532 0f3e a298 c63c fbf7 a7bd
00000330: 36c6 073e 2c84 1cbe 1166 fc3c 0989 803e
00000340: 014a dcbd 1c6e 4f3d 90e5 b13c 7421 27bd
00000350: 64f6 a53c 1a31 1a3e c9f4 2dbd 8e71 903e
00000360: ced6 52be 645b 343a b85c 473e 445a 973b
00000370: 19d1 1abc 43e8 80bd 950e 14be 37fa 56bd
00000380: 1aad 263e 7eed eb3d 7488 c53d 2048 813c
00000390: fc2f 9fbd c93c aa3c 7942 693d 03e7 45be
000003a0: 2fa1 313d 6135 663e 152a c53d b04b 13bd
000003b0: e3e8 16be 79f1 07be af7a 3f3e c4ad a83d
000003c0: 9c73 323d e841 5fbd 19fd 553e 743b 3cbe
000003d0: 2944 6a3e 597a 863d 2133 543e b7ef 41bd
000003e0: c285 0fbd b1d0 573e 127c 65be 352d 1f3e
000003f0: b382 fa3c 2eec 633e 13c2 323e b1f7 b63d
-0.04863861 -0.120151915 0.17273098 0.09143855 -0.075782314 -0.014592752 -0.29689783 0.034924638
-0.16776176 -0.07538551 0.05774167 -0.14294223 0.05433047 0.16762002 -0.07313747 -0.21063307
-0.20450379 -0.16974626 0.05447722 -0.088643245 0.08926721 -0.036419135 -0.014861394 0.0123808235
-0.047794264 0.11727921 -0.31662804 0.0658318 -0.13389662 0.06751122 0.097501844 -0.17918015
0.15934727 0.1348736 -0.051098593 -0.1320056 -0.06334595 0.15453874 -0.17383663 0.15505525
0.03905609 -0.15274592 0.09754554 -0.08427946 -0.04539436 -0.21053514 -0.3303856 0.1441388
0.17597042 0.15695103 0.090828165 -0.31394437 -0.1045612 -0.05907277 -0.21372794 -0.034579664
0.19005887 -0.2142273 -0.19356322 0.027180782 0.01864697 0.15006047 0.11684251 -0.09645116
0.033427082 0.21842115 0.00011339606 0.06461322 -0.12020404 -0.32222906 0.13986172 -0.2234462
0.09482208 0.10221248 -0.17967722 -0.121497475 -0.02708454 0.16576776 0.00018792963 -0.09263488
-0.06983934 0.0021933904 0.10982536 0.07123078 -0.06426333 -0.009158386 -0.008222574 0.02843738
-0.17920586 -0.20197465 -0.3156237 0.024304925 0.20663942 0.02233072 0.010343376 0.13875456
-0.11701094 -0.026331544 -0.028442854 0.15759766 -0.05242682 -0.016766628 -0.027606204 -0.029787637
-0.06486689 -0.11182152 0.16045462 -0.16955625 0.12804866 -0.23924832 -0.25638413 -0.14649038
0.008240253 -0.065835275 -0.076020114 0.063436925 0.028764233 0.052130148 0.09051681 -0.028869165
0.092802115 0.068412066 -0.009986832 -0.14291078 0.09291404 -0.22386879 -0.046232346 -0.037367783
-0.038586237 0.073696226 -0.06596318 0.20536871 0.23492604 0.14282046 0.27578637 -0.1487875
0.18095742 0.24559218 0.053967606 0.013648958 0.03753906 0.088651605 0.23596866 -0.049705684
-0.039244447 0.06877869 -0.18894446 0.12303269 0.005561594 -0.011787491 0.24558221 -0.030528259
0.13491517 0.100469664 -0.26499832 0.0053032693 -0.24095827 -0.19184494 0.0023785334 0.026501896
-0.08623107 -0.0025837603 0.014371778 0.049246132 -0.18222491 0.015846338 -0.124861285 -0.14218563
-0.08349758 0.111670114 0.10120951 0.017719895 0.15262346 -0.18960647 0.013959731 0.034816403
0.036228947 0.10790155 -0.008502974 -0.029363556 0.09664097 -0.36369714 0.040499885 -0.14052224
0.087984666 -0.032969408 -0.022402449 0.030587094 -0.18765445 0.19520347 0.14972873 0.06554522
-0.10014063 -0.21671821 -0.056315053 0.09443214 0.10633111 -0.032406885 0.16816075 0.038271718
-0.09429364 0.1398402 0.024242703 -0.082015954 0.13259205 -0.15284795 0.030810388 0.2510455
-0.107563026 0.050642118 0.02171591 -0.040803388 0.02025909 0.15057793 -0.042469773 0.28211635
-0.20589754 0.00068800733 0.19468963 0.004618915 -0.009449267 -0.062943004 -0.14458688 -0.052484717
0.1627697 0.115199074 0.09645167 0.015781462 -0.07772824 0.020780938 0.05694816 -0.19326405
0.043366607 0.224813 0.09627167 -0.035960853 -0.14737277 -0.13275708 0.18699144 0.08236268
0.043567285 -0.054506212 0.2089733 -0.18382055 0.22877564 0.06566305 0.20722629 -0.04734775
-0.03503967 0.21075703 -0.2241061 0.15544589 0.0305799 0.22258064 0.17456846 0.08933962

main.2.bias f4 [144]
00000000: 8ede 0a3e 53e0 13bd 9e5c 3cbc 9001 e2be
00000010: bf94 08be 7cd4 74bd ace7 f2bd 9723 27bd
00000020: f261 1dbe 77bb 56bd 61df 78be dc33 1a3e
00000030: 5b50 02be 9eed cdbd e655 9f3d 6109 333e
00000040: 2af3 bdbe f7bd f7ba f3e2 04bc 72b5 80be
00000050: 1083 20be c9a0 913d dc89 99be 8ccb cfbe
00000060: f783 b8bd 1d1d 36bc b900 fbbd 3d7d 453d
00000070: d3b4 d5bd 1c2c 44be 0d84 d43d ae5d 94be
00000080: eae7 babe 90f3 c1bd 3f2a 85bb 4a4b 24be
00000090: 9c79 a3bd c1dc 82be 7867 403d aac3 86be
000000a0: e3db 8dbe fd47 02bf 9b29 613e cc8c c8be
000000b0: 7663 33be 676e bbbe 0566 3dbe 4d2d 0b3e
000000c0: a8a0 02bf dc81 e1bd 9ad0 00be 298c 94bd
000000d0: cfbf d0bd 67a5 6abd 34b9 54bd 3afc e4be
000000e0: 0202 95bd 1fc3 3abe a2c0 aabe c7d5 e8bd
000000f0: 990c cabe d161 97be ba73 d0bd 406c 53be
00000100: abbc 6a3e b6d2 95be 6c59 ccbe 1248 b5bd
00000110: 8812 bc3c 1430 d83d 9350 39be 0c90 1dbe
00000120: e496 04be 0e3b 0abe 5051 57be fb50 90be
00000130: 5963 71be daab afbe 8bf0 5c3e ff02 763d
00000140: 7c68 d0bc ebb8 debd f504 3fbe 900f 5a3d
00000150: 9190 163e ce5c b33d 0e45 23be e97a d3bd
00000160: 1d5b 2fbc edc9 c43c 69d3 98be 0bec e3be
00000170: c26e 113d 6d7e d3bd 61a8 63be 74d8 aebe
00000180: d272 813d 8695 16be 9b31 42be dd2b c4be
00000190: a5d5 b0be a14d 49be 6482 9fbe e91c 95be
000001a0: a5cb 753d d4a0 fa3c 2647 4d3e 43cd 543e
000001b0: 90e5 a2bd dbf3 e93d cd2a 79be cc33 85be
000001c0: bfdc 53be 4fc5 e2bd 274f 1cbe 3c4c 4d3d
000001d0: 0c52 31be 0159 1dbe 5c4e 22bf 0291 893c
000001e0: be80 c0bc 16bc 263d 26f6 b9bb b501 de3d
000001f0: ed57 cdbe 630b 47be 5381 3dbe fb09 9c3c
00000200: 93a4 62be be11 90be 47c6 83be 2b4d c2be
00000210: c176 03be 93dc 3bbc 4e00 59be 8455 b3bc
00000220: 4e8e dbbd 4e62 f3bd 6543 2abe cbb0 d0be
00000230: b5c9 f9bd 48de 243d 7d7a 02be 04bd babd
0.1356146 -0.036102604 -0.011496691 -0.44141817 -0.13337992 -0.059772953 -0.11860594 -0.040805425
-0.15369394 -0.052424874 -0.24303962 0.15058845 -0.12725966 -0.100550875 0.07780056 0.17484047
-0.37099582 -0.0018901218 -0.00811075 -0.25138432 -0.15674996 0.071107455 -0.2998799 -0.4058498
-0.09009545 -0.01111534 -0.12255997 0.04821514 -0.1043488 -0.19157451 0.10376749 -0.28977722
-0.3650506 -0.09470284 -0.004063874 -0.16044345 -0.079821795 -0.25559047 0.046973675 -0.26321155
-0.27706823 -0.50891095 0.21988527 -0.3916992 -0.1751841 -0.36607668 -0.18495949 0.135915
-0.5102639 -0.11011097 -0.12579575 -0.07253296 -0.101928346 -0.057286646 -0.051934436 -0.44723684
-0.072757736 -0.18238495 -0.33350092 -0.113689 -0.39462736 -0.29566815 -0.10178323 -0.20646763
0.22923534 -0.29262322 -0.39911973 -0.08851637 0.022958055 0.10556045 -0.18097143 -0.15386981
-0.12948185 -0.1349909 -0.21027112 -0.28186783 -0.23573054 -0.343108 0.21576135 0.06006145
-0.025440447 -0.10875114 -0.18654235 0.053237498 0.14703585 0.087579355 -0.15944311 -0.103261776
-0.010702875 0.024022067 -0.29848793 -0.44516024 0.035506018 -0.10326848 -0.222322 -0.34149516
0.06320728 -0.14705476 -0.18964235 -0.38314715 -0.34537998 -0.1965852 -0.31154168 -0.2912362
0.060008664 0.030594267 0.20046672 0.20781426 -0.07953942 0.11423465 -0.24332733 -0.2601608
-0.20689677 -0.1107279 -0.15264569 0.05012153 -0.17316455 -0.15365984 -0.63400817 0.016792778
-0.023498889 0.040706716 -0.005675095 0.10840169 -0.40106145 -0.19437937 -0.18506365 0.019047728
-0.22133093 -0.28138536 -0.2573721 -0.379495 -0.1283827 -0.011466163 -0.21191522 -0.021891363
-0.10720502 -0.118839845 -0.16627271 -0.40759882 -0.12196676 0.040251046 -0.12742038 -0.09118083

main.4.weight f4 [144, 144]
00000000: 22c7 a7bd 10bc 393e e6af 20be cae5 9cbb
00000010: f4be a7bd 9da5 cebd bb64 38bc 06a8 033e
00000020: 2186 013e 1e56 3abe 4ad0 3e3c f1c5 47bd
00000030: 10d3 61be 2395 49be ce83 233e 44ae dfbd
00000040: cfec 433d 7392 393d 1745 52bd 9758 2b3e
00000050: eb74 413e 7f59 44be e4d1 0cbc abb6 20bd
00000060: 82c1 8bbe 6aa3 7cbe a927 753c c531 083c
00000070: 45a6 2e3d 538b b1bd 15a9 04be cace 2bbd
00000080: 7635 473d 4434 253d 44ed 40be ba07 013c
00000090: 621c f43a 2149 1bbd 84cf f4bc 48ce b63d
000000a0: f9ad 91bc 3299 e43d d0d0 f9bc 4bc4 8a3e
000000b0: 9351 90bd 3489 033e fd17 ac3d 1490 38be
000000c0: f67c 073e 34b1 4dbe 99c7 813d d8ef 59bd
000000d0: 6d1b e5bd 6a97 553d 9f88 be3d f7dc 81bb
000000e0: 6c55 3fbe 0283 14be 9396 70bd fa8b 37bd
000000f0: b183 ab3c cd8b 303c 8456 513e b6b6 cebd
00000100: a399 e13c b643 0bbe c5d8 053d 1f2f 233e
00000110: bd97 a9bd dccd c7bd ae80 0e3d 70a2 09be
00000120: 27a8 eebc ab8f 84bd 9d98 703e 5d4a 953d
00000130: a48b 873c c491 253d 8e17 86be 909b 0fbd
00000140: 0988 203e 7d3b fabd f666 a4bb 8ec6 cebd
00000150: ff3e 143d 45d6 89bd 71c0 c43d 464e 3cbd
00000160: 5423 173d 6105 6dbe 48c9 403c 2dda 133e
00000170: 06ce 7bbd 5de8 073c b3e3 883d 4412 2b3e
00000180: 168d 64be c0eb a63c f8d0 0bbd f607 003e
00000190: f5b9 9f3d 3a8f 10be 9be9 85bc 5daf 5cbd
000001a0: 0904 e1bd ef0a 423e aca4 75be effd 7cbe
000001b0: 6a0c 01be 8894 43bd 2e43 b73c 4575 163d
000001c0: 8f13 163e 3d07 7b3c 44c1 a5bc e5bb 8abd
000001d0: 886f 90be d94c ef3d 16b4 2c3e 01e0 a43d
000001e0: 1f1f 60bc 0633 25be 3471 b23d 016c c5bd
000001f0: a6d6 8b3d 2979 853b 2179 4d3d 2ad8 243e
00000200: 97e2 9cbd 2cbe a53d f82c 443b 5e9b aa3c
00000210: a5b7 2bbe 33bc 8c3c eea6 42bd 0507 ec3a
00000220: 158d 963e 52ed 14be 20d8 1e3e 31c6 533c
00000230: 1425 c6bc fd2e 36bd 7c6e 32bc dd8b 1d3e
00000240: 5c7e 943d 0da0 a33d c276 ba3d 9312 da3d
00000250: 1f9a 673e 6718 8f3e 13b9 79bd 9de0 8f3d
00000260: e773 843d 1b32 ff3c 1c0c f93d 8249 013d
00000270: 7cd4 7c3c e714 95bc b863 22bd f897 bd3d
00000280: 2135 903d 09cc 57bd 780f 263d 0e82 cf3e
00000290: 6d7c fb3d 0811 133e a24e 98bb 1cfa b93c
000002a0: c9f8 76bd 274a 19be 5174 c83d c49d 9d3d
000002b0: fb60 813e 01d3 59bd 3763 e3bb 9d69 0abe
000002c0: 68b9 803d c8d6 a2bd 6749 593e e41b 803b
000002d0: 3e9a 5ebd 3828 003d 17f1 c5bd 47eb c73d
000002e0: 19a1 03be 926f 8c3d 4c85 863e d97f 8c3d
000002f0: 3627 bd3b fec9 b1bd 7a86 1d3e f539 b53b
00000300: 6bd2 90bb 996b b7bc 20a5 473d dd48 9c3e
00000310: 177c 213e e935 563e 2340 cfbd a3da 9abd
00000320: 3de4 debd c1a3 c2bd 82ad 61bd e3c0 993e
00000330: e4c4 13be 3569 5ebd 9c86 bdbd e5aa 2dbe
00000340: e326 fe3d b6ff b4bb 0c81 89bd fbec 4c3e
00000350: d88e 2b3e 3a27 243e 4d33 963e 3501 4c3d
00000360: 4583 0fbd 0bed 6a3e b397 5a3e 2580 4cbc
00000370: 8593 64bd f9ea a63d 7fb0 5f3d af57 233e
00000380: 7e3d 563d 8434 6b3d 7f09 9d3d c692 613e
00000390: b7fd bdbd 6f61 a93d 9d4b bf3d 1350 5d3d
000003a0: 3b69 ff3d 1307 2e3e 6072 52be d4d4 dc3c
000003b0: bf66 36bb 42ec 01be 8a81 5cbd 81de 6d3d
000003c0: e13e ee3d 0a92 093e f576 5dbd 21f6 683d
000003d0: 8e28 26be 6192 febd 152e c2bd fd68 323e
000003e0: 2a08 803e dea5 e6bd 6a7a 7a3e d739 0a3e
000003f0: 21d3 10bd ff9f 2b3c eea8 4a3e d6e6 153e
-0.081922784 0.18138146 -0.156921 -0.004788135 -0.08190718 -0.10090182 -0.011254485 0.12857065
0.12648822 -0.18196914 0.01164634 -0.048772756 -0.2205317 -0.19685797 0.15968248 -0.109219104
0.04783326 0.04530568 -0.05133542 0.16733013 0.18892257 -0.19174765 -0.008594964 -0.039236706
-0.27296072 -0.24671713 0.014963069 0.008312647 0.042639036 -0.08669152 -0.12955125 -0.041945256
0.04863497 0.040333048 -0.1884051 0.007875377 0.0018624181 -0.037911538 -0.029884107 0.08926064
-0.017783152 0.11162032 -0.030495077 0.27102885 -0.07046809 0.12845308 0.08403013 -0.18023711
0.13231263 -0.20087129 0.06336898 -0.05320725 -0.11186872 0.052146353 0.09303402 -0.0039631086
-0.1868493 -0.145031 -0.05873735 -0.044811226 0.020936819 0.010775519 0.2044316 -0.10093443
0.02753908 -0.13600048 0.03267743 0.15935944 -0.08280895 -0.097560614 0.034790687 -0.13440871
-0.029132916 -0.06472715 0.23495717 0.07289574 0.016546078 0.040422216 -0.26189846 -0.035060465
0.15676893 -0.12218378 -0.0050171567 -0.10096465 0.03619289 -0.06730322 0.09607018 -0.045973085
0.036898926 -0.23146583 0.011766739 0.14438696 -0.061475776 0.008295146 0.06684055 0.16706187
-0.22319445 0.020376086 -0.034134835 0.12503037 0.0779914 -0.14117137 -0.016346743 -0.053878177
-0.10987098 0.18949483 -0.23988599 -0.24706243 -0.12602392 -0.047749072 0.022370901 0.03673293
0.14655899 0.01532155 -0.020233758 -0.06774119 -0.28210092 0.116845794 0.16865572 0.08050538
-0.013679295 -0.16132745 0.08712998 -0.09639741 0.0682805 0.0040732813 0.050164346 0.16098085
-0.07660406 0.08092913 0.002993403 0.020826038 -0.16769274 0.017179584 -0.047522478 0.0018007463
0.29404512 -0.14543656 0.15512133 0.0129256705 -0.024187602 -0.044478405 -0.010890599 0.15385385
0.07250664 0.07989512 0.091046825 0.10648074 0.22617386 0.27948305 -0.060967516 0.070252635
0.06467419 0.031151822 0.12160513 0.031564243 0.01543152 -0.018198444 -0.03964588 0.09257501
0.070413835 -0.052684817 0.040542096 0.4052891 0.12279592 0.14361966 -0.0046480456 0.02270227
-0.060295854 -0.14969693 0.097878106 0.07696107 0.25269303 -0.053179745 -0.0069393176 -0.13516851
0.062853634 -0.079511225 0.21219407 0.003909575 -0.054346316 0.031288356 -0.09665125 0.097616725
-0.12854423 0.06857218 0.26273572 0.068603225 0.0057724966 -0.08681105 0.1538333 0.0055305907
-0.004419615 -0.022390174 0.04874146 0.3052434 0.15769993 0.20919003 -0.10119655 -0.07561233
-0.10883377 -0.0950389 -0.05509711 0.30029973 -0.14430577 -0.054299552 -0.0925419 -0.16959722
0.12409761 -0.005523647 -0.06714067 0.20012276 0.1675371 0.16030589 0.29336014 0.04980584
-0.035037298 0.22941987 0.21346931 -0.012481724 -0.055804748 0.08150286 0.05461168 0.15951417
0.052304737 0.05742313 0.07667827 0.22028646 -0.09276908 0.08270537 0.09340594 0.054031443
0.12471243 0.16994886 -0.20551443 0.026956953 -0.0027832238 -0.12687781 -0.053834476 0.058073524
0.11633087 0.13434616 -0.054068524 0.05687535 -0.16226408 -0.12430263 -0.09481446 0.17422862
0.2500623 -0.112621054 0.2446076 0.13498627 -0.0353576 0.010475158 0.19791004 0.14638838

main.4.bias f4 [144]
00000000: 8c31 2bbe 5f37 103e 13a3 90be 217d b2bd
00000010: 1654 d9be e2eb dbbd fef5 d3be c70a d7be
00000020: 725b aabe 21d6 a5be f69d fdbd ab5b a53e
00000030: 172f f9be 54f5 43be a3ce 9c3e 01ed a7bd
00000040: 5bd5 babe 9200 c13d e099 f6be 43ec dcbd
00000050: 7d24 f5be d22a 4abe e9d7 3fbe bc49 6e3e
00000060: 6679 8d3e 67ff 51be d708 883d 5eaa d23d
00000070: c2c4 d3be 24b1 8b3c 8ce3 59be 0fc8 3cbe
00000080: d924 17bf 96bb aebe e7c5 edbd 85b8 f1be
00000090: c291 7bbe 4fe5 a53e c377 2b3d d905 dc3c
000000a0: 268a e7bd 5fbe 1b3b 3837 263d 0e36 533e
000000b0: 67c4 37be 727c 873e 33d4 09be e3c1 23bd
000000c0: 71f9 f73e 1701 1dbd 8010 4dbe 212e b1be
000000d0: f5a1 b3be 85cb 98be 54b9 cabe ec0f 4abe
000000e0: 3629 9abe e2f0 45be 976c 9bbe e7f6 363c
000000f0: 8d9c 943d fb9e 09bf 6260 6ebe ece1 eebd
00000100: 9f9b 053e 0b16 c3bd 66be ecbe d19c a7be
00000110: d58f 84be d5e1 3bbc 02cd d03d 2352 50bc
00000120: a027 03be 0c94 9dbe 26e3 43be 568d c4bd
00000130: 243c 203e 21bc 09bf cf1f 36be a136 d5be
00000140: 0063 cd3d 13e1 04bf 1392 b2be 7f76 a3be
00000150: dbd2 20be b773 bdbd e51a d2bd 97c4 c5be
00000160: 7947 943e 41da c3bd 8ad4 413c c243 4fbe
00000170: f204 6b3d 3ab9 78be b068 16be 438d f1be
00000180: 6507 1bbe 0e4a dd3d 591e 9dbe e01e 353e
00000190: 692c febe 5e8d b4be 75c4 a9be 6fa9 9c3d
000001a0: 1a88 80be 3bfb b4be b083 a1be aa11 f4bd
000001b0: 8cc6 afbe f619 83be 17fc b4be e54f 1ebe
000001c0: 8fb7 0cbe 5d9c 04be 5d6e bcbe b26f 833e
000001d0: cff4 7d3e ddd1 ddbe f94d 5bbe c744 d5bd
000001e0: 2561 e8bd bf54 7ebe 1b1b 98bd 3874 90bd
000001f0: b4f8 c83d 4148 a9be e5fe 01bf e08f a93e
00000200: fc66 91be e920 1cbe 0d32 073e eef3 febb
00000210: a6e6 42be e571 8f3b 38bc 213c 62b1 f4be
00000220: 2c0c fcbe 37e7 c6be dd02 91be 10a8 f73d
00000230: cb33 003e 8f02 afbe 7307 a0be 195b 1d3c
-0.1671812 0.14083622 -0.28249416 -0.08715273 -0.42446965 -0.107383505 -0.41398615 -0.4200041
-0.33272892 -0.3238993 -0.12383644 0.322965 -0.4866874 -0.19136554 0.306264 -0.08199502
-0.36490902 0.09423937 -0.48164272 -0.10787251 -0.478794 -0.19742897 -0.18734707 0.23270315
0.27631682 -0.20507585 0.06642311 0.10286401 -0.41361052 0.01705224 -0.21278208 -0.18435691
-0.590406 -0.34127492 -0.116100125 -0.4721109 -0.24567321 0.3240151 0.04186226 0.026858257
-0.113056466 0.0023764593 0.040580004 0.20626089 -0.17946015 0.26462132 -0.13459854 -0.039979827
0.48432496 -0.038331117 -0.20025826 -0.34605506 -0.350845 -0.29842773 -0.3959452 -0.19732636
-0.30109566 -0.19330171 -0.30356285 0.011167265 0.07256422 -0.5375821 -0.23278955 -0.11664185
0.13047646 -0.09525689 -0.46239012 -0.3273683 -0.25890985 -0.011467417 0.10195352 -0.012714895
-0.12808084 -0.30777013 -0.19129619 -0.0959727 0.15647942 -0.53802687 -0.17785572 -0.4164324
0.100286484 -0.51905936 -0.3487707 -0.31926343 -0.15705435 -0.092505865 -0.10259036 -0.3862655
0.2896078 -0.09563113 0.011830458 -0.20240691 0.057377763 -0.24289408 -0.14688373 -0.47178087
-0.1513954 0.108051404 -0.30687216 0.17687559 -0.49643257 -0.35264105 -0.33157697 0.076495044
-0.25103837 -0.35347924 -0.31545782 -0.11917432 -0.34331167 -0.25605744 -0.3534858 -0.15460165
-0.13741897 -0.12950273 -0.3680295 0.25671154 0.24800418 -0.43324175 -0.21416463 -0.10413509
-0.11346654 -0.24837016 -0.07427045 -0.07053417 0.09813061 -0.33062938 -0.50779563 0.3311758
-0.28398883 -0.15246929 0.13202687 -0.0077805435 -0.19033298 0.004377591 0.009871535 -0.47791582
-0.49228036 -0.38848278 -0.28322497 0.12092602 0.12519757 -0.3418164 -0.31255683 0.009604239

main.6.weight f4 [144, 144]
00000000: d0bf 4bbe aa66 28be a027 1bbe 8cd8 37be
00000010: 983f 3fbe 03a1 aebe f1c3 6d3d a820 8dbd
00000020: e127 e53c c1ad 3f3e fbd8 db3d 2512 46bb
00000030: de50 a03d 1e93 8f3e 301a 0fbe d470 c53d
00000040: 1b3a b7bd d99b 83be cbcf 83bd 2788 cd3d
00000050: ad65 c2bd 1ebd 15bd f820 a5bd 0aae 0c3d
00000060: fc82 5a3e 3b2f 0bbe baf2 a0bd cce4 80be
00000070: b547 83bb 6204 b8be df93 023c 2229 e9bc
00000080: 06af f33c 7d0a febd 7cba 4cbd fdff 9a3a
00000090: 3b90 2dbe 40d9 1d3c c9b3 21bd d25a 47be
000000a0: c754 eebe fb41 c0be 003f 32be 7677 b7be
000000b0: 8ac2 10bc 439e babe c97a c53d 2b76 39be
000000c0: 5887 093d 11c7 8bbe 7ece 27be 85b8 c43d
000000d0: 96ab 9ebd efed 683d 1325 67be aa82 0c3e
000000e0: b2af 22bd 04bb 06bd d7f1 e13b de22 bcbe
000000f0: 8f38 64be 97a1 1dbd 9685 70be 76d7 12be
00000100: 1fd0 1b3e b69d 8ebe fcb2 303c 8964 85bd
00000110: 93ac 84be 6431 533c f70b 96be 79ee 22be
00000120: 9498 c8bd 4a58 3bbe c563 0f3d 8567 a7be
00000130: 2879 a93d 78fb 063e d16d e53d 97aa 613c
00000140: 453a d13d 70e2 a83d 1050 5cbd 940e 053e
00000150: b1fd 88ba 7987 87be 5f95 a0be 67a9 f5bd
00000160: e4db b4bd 71b4 403c d6a1 34be 6aa6 3b3e
00000170: eeb6 47be 5aa5 a3bc 7ca1 383e 37cb 343d
00000180: ea34 093e c0a0 76be 326c 70bd 94f6 a1bd
00000190: 73b5 483c 728c 373e 204a 3d3c 8e57 06be
000001a0: c9cd fb3b 52e2 62be 1846 0bbe a01e f53c
000001b0: d02f b73c c1ab c83d b8db c03d 1bb1 b6be
000001c0: f640 d43d 0ac4 6cbe 3b22 a73d f250 ba3b
000001d0: 154e edbc fd65 72be 23ca 293e b085 b9bd
000001e0: 3ce1 f6be efc2 21be 89a5 aebb c191 313e
000001f0: 6956 b6bc 65eb 5c3c 8822 c53d de89 c5be
00000200: b3dc 79bc aa8e b43d 8100 44bd e002 b1bd
00000210: 23eb 2ebe b92b d73d f62e 003e 1d1e ea3c
00000220: 8845 693d c31a 24be d699 52be 17cc 53bd
00000230: 2b74 a0be 6dee 993d 71b6 a23d be9a 87be
00000240: bbcd afbd 6f1d 38be e5e1 14be 088e 1dbc
00000250: 5e60 adbc 52f7 19be 125a 96bc 9a91 bb3e
00000260: 701d 0e3e 5543 b13e a706 1c3e 274a b8bd
00000270: 1a6e 003e 8b02 ae3d 0b13 d1bd f686 a43d
00000280: 156e 7fbe e667 88bd 65a5 253e 7869 a6bd
00000290: 1ab6 a43d b008 1b3e 9b80 d7bc a499 2b3d
000002a0: a2ee 74bd 662c 303d 9cde a13d 84c6 403e
000002b0: 246c 3a3e 9a58 c33c d8de 6a3e af21 3fbe
000002c0: a9d9 103d 90d8 5b3e 8ace 79be d2e7 83bd
000002d0: 5af2 753e fb4d 84bc 66bd 11bc c752 0abd
000002e0: 0735 0b3d 7db3 06be 973b 1abe ffab 86bc
000002f0: 6a73 423e de31 37be 215f 333e 4dd2 6c3d
00000300: d13f 58be 010d 6a3e 6b84 423c b2d3 973e
00000310: 5d8e 92bd aaf5 2f3e cee3 263e 860a 233e
00000320: 9265 943e 64f9 2a3e acb2 8f3e 3387 90be
00000330: 9a41 b33c 95fd be3d 046b 733d 57d1 b03d
00000340: 259d 8fbd e9dd 2dbd e792 783d 4eeb 033e
00000350: b60e de3d 06bf 1fbe e66f 0bbd 4aae 643d
00000360: 2733 253e d5be f23c 2c27 e53d e1c5 03be
00000370: 1e50 d2bd b739 6d3e 92f2 053e dd46 ae3d
00000380: fb13 c239 c1a0 323e 57b4 be3c a9cf 8e3e
00000390: 8d7c b13d fc02 073d 6e7b 44bd dab6 8f3d
000003a0: d262 0ebd 00e1 0e3e f721 dfbd 4a93 493e
000003b0: 1013 28be c67c 49be 4182 af3e fc22 8d3d
000003c0: eb38 463e 59c1 173e 7793 9e3e d009 a0be
000003d0: 3bc7 063e a040 51bd c73e 7e3e 042e c83d
000003e0: ecd1 9b3e f90a ad3d 1731 3c3e 4ea6 f0bc
000003f0: 705c b93d dbbf bc3d 8559 5e3e 6d24 36bc
-0.1989739 -0.16445413 -0.15151834 -0.179537 -0.18676603 -0.34107217 0.058048192 -0.06890994
0.027973117 0.18718626 0.10734745 -0.0030223217 0.07827924 0.2804193 -0.13974833 0.09640661
-0.089466296 -0.2570484 -0.06436118 0.100357346 -0.09492049 -0.03655731 -0.08062929 0.034345664
0.21339029 -0.13592236 -0.078587964 -0.25174558 -0.004006351 -0.35940844 0.0079698255 -0.028461996
0.029746544 -0.12404344 -0.049982533 0.0011825558 -0.16949551 0.009634316 -0.039478097 -0.19468239
-0.46549055 -0.3755034 -0.17406845 -0.3583333 -0.008835444 -0.3644887 0.0964256 -0.18111484
0.03357634 -0.27300313 -0.16387364 0.09605507 -0.07747571 0.056867536 -0.22572736 0.1372172
-0.039718337 -0.032893196 0.0068952846 -0.36745352 -0.222872 -0.038484182 -0.23488459 -0.14340004
0.1521611 -0.278547 0.010784861 -0.06513316 -0.25912914 0.012890194 -0.29306003 -0.15911283
-0.09794727 -0.18295398 0.035007257 -0.32696167 0.08275062 0.13181865 0.112025864 0.013773582
0.10216192 0.082463145 -0.05378729 0.12993842 -0.0010451582 -0.26470545 -0.3136396 -0.119952016
-0.08831003 0.011761771 -0.1763986 0.183252 -0.19503376 -0.019976307 0.18030351 0.044139113
0.13399091 -0.24084759 -0.058696933 -0.07908359 0.012250292 0.1792467 0.011553317 -0.13119337
0.0076844436 -0.22156647 -0.13600957 0.02992183 0.022361666 0.097983845 0.09416908 -0.35681996
0.10363953 -0.23121658 0.08160826 0.005685919 -0.028967896 -0.23671718 0.16581015 -0.09058702
-0.48218715 -0.15797018 -0.005329792 0.17340757 -0.022258 0.013483857 0.09625727 -0.38581747
-0.015250373 0.088162735 -0.047852043 -0.086431265 -0.17081885 0.10506386 0.12517914 0.028578812
0.056951076 -0.16025834 -0.20566496 -0.051708307 -0.3133863 0.07516179 0.07944954 -0.26485246
-0.08584162 -0.17979978 -0.14539297 -0.009616382 -0.021164116 -0.15035751 -0.018353496 0.36634523
0.13878417 0.34621683 0.15236913 -0.089985184 0.12542 0.08496579 -0.1020871 0.08033554
-0.24944337 -0.06660442 0.16176374 -0.08125585 0.080425456 0.15140033 -0.026306441 0.04189457
-0.05979789 0.04301109 0.079037875 0.18825728 0.18205315 0.02384596 0.2293657 -0.18665193
0.035363827 0.21469331 -0.24395195 -0.064407006 0.24018231 -0.016150465 -0.008895254 -0.03377035
0.033986118 -0.13154407 -0.15061794 -0.016439436 0.1898934 -0.17890117 0.17516758 0.057817746
-0.21118094 0.22856523 0.011872391 0.29653698 -0.0715606 0.17183557 0.16297838 0.15921983
0.28983742 0.16696697 0.28066003 -0.2822815 0.021881867 0.09325711 0.05942823 0.086336784
-0.07012395 -0.04244796 0.060686972 0.1288273 0.1084265 -0.15600213 -0.03404226 0.055830278
0.16132794 0.029632011 0.11189112 -0.12868454 -0.102691874 0.23166548 0.13080814 0.0850961
0.0003701745 0.17444135 0.023279352 0.27892807 0.08666334 0.03296183 -0.047969274 0.07017298
-0.03476221 0.13953018 -0.1089515 0.19685093 -0.16413522 -0.19676504 0.34279063 0.06891438
0.1935765 0.1481985 0.30971882 -0.31257486 0.13161938 -0.05108702 0.24828635 0.09774402
0.30433595 0.084493585 0.18378101 -0.029376175 0.09050834 0.09216281 0.21713836 -0.011117083

main.6.bias f4 [144]
00000000: 9d1a 24be 0803 b1be eccd 53be fa51 d9bc
00000010: 6526 fe3d 5ad9 4ebe a4a8 33be 4cd0 c63d
00000020: 554e 99bd ba3b 51bd 6bb4 1a3f af46 0a3c
00000030: e973 e03d 09c3 073c 06d7 233f bc3e 0dbf
00000040: 8dea 01be 98e6 7cbe ba89 febe 1413 a1bd
00000050: 5e69 09bf cee2 46be 16de 56be d763 1ebe
00000060: e88a 48be bcd5 a7be 8a82 12bd 1a59 f9be
00000070: f282 cabc 0f63 fc3c 13e0 04bf f91e 7ebe
00000080: abf2 33be 01c8 71be 5808 17be 8726 abbe
00000090: 7681 71be 3fa5 8cbe a597 c63b ee04 0fbe
000000a0: 2ddb acbc 0335 bc3c 4fc4 16bf bc86 82be
000000b0: c9fc 90be 724f 6fbd 982b c53d 8923 6cbe
000000c0: f555 123e 2281 21be 776d 8cbe 8557 e3bd
000000d0: 990d bfbe 2f8f 24be 2a65 40be a913 2dbd
000000e0: c48b 23be ab41 66be c4e2 bbbd ec77 0cbe
000000f0: 1046 46be f3b5 b7be 365c d53d 04bf da3d
00000100: faf5 5ebe 305c c0be 5832 adbe efd1 ffbd
00000110: b563 4abd f622 16be 387e a23d 0618 a0be
00000120: f949 54be 9e65 5cbe aaf1 15bf e824 943d
00000130: 3414 a5be 973b 8bbe eace 2ebe 9579 90be
00000140: 740e 4bbe 0441 0cbe d34c e2bd ad7f 4ebe
00000150: 3389 b13d cdc6 a53d 4bc1 bbbe 5005 e83d
00000160: dcc9 aabd 00c4 61be 2c7f 1fbe 2211 18be
00000170: 7e02 cebd e776 6abe 92bd b53d a3dd 5cbe
00000180: 5632 80bd 9101 a9bd 4a10 05be 92b7 c5be
00000190: 4558 89be 8cf9 f8be ca70 a53c 7598 41be
000001a0: 6951 253e a4c3 20be 823d 44bd 7ae4 d1be
000001b0: 63ca 86bd f326 8f3c c0c5 96be 66a0 2bbe
000001c0: c538 ccbd ca77 f1bd 45b0 af3e cad6 8bbe
000001d0: ee03 d2be 2629 66be 4505 1a3d 9333 16bd
000001e0: 62c7 64be ffe5 98be e619 16bd 2145 c6be
000001f0: b261 8ebe 15c3 80bd a04b 283d 4da5 f9bd
00000200: 0458 e6bd d6a1 7cbe 3557 bcbe 16a8 b13d
00000210: af35 96bd b0ed 27be c5d7 3bbe cd0a afbe
00000220: 14a7 f23c b897 11bf 40ac c2be 0472 95be
00000230: c47c edbd df1a 94be 4218 033d ee10 5abe
-0.16025777 -0.34572625 -0.20684022 -0.026528347 0.12409667 -0.202001 -0.175448 0.09707698
-0.07485644 -0.05108235 0.60431546 0.008439704 0.10959608 0.008286246 0.63999975 -0.5517385
-0.1268713 -0.2469734 -0.49714452 -0.07864967 -0.536764 -0.19422457 -0.20983157 -0.15467773
-0.19584239 -0.32780254 -0.035769023 -0.48700792 -0.024720643 0.030808954 -0.5190441 -0.24816503
-0.17573039 -0.23611452 -0.14749277 -0.33427832 -0.23584542 -0.27469823 0.006060558 -0.13966724
-0.021100605 0.022974497 -0.58893293 -0.2549342 -0.2831786 -0.058425374 0.096274555 -0.2306043
0.14290603 -0.15771917 -0.27427265 -0.111006774 -0.37315062 -0.16070245 -0.18788591 -0.042255078
-0.15971285 -0.22485988 -0.091741115 -0.13717622 -0.19362664 -0.35881004 0.104179785 0.106809646
-0.2177352 -0.37570333 -0.33827472 -0.124912135 -0.049411494 -0.14661774 0.079342306 -0.31268328
-0.20731343 -0.21523139 -0.58571875 0.07233602 -0.32241976 -0.271939 -0.17071119 -0.2821776
-0.19829732 -0.13696676 -0.11049809 -0.20165892 0.08668747 0.08094559 -0.36670908 0.11329138
-0.08339283 -0.22047424 -0.15575856 -0.14850286 -0.10059069 -0.2289692 0.08874048 -0.21568923
-0.06259601 -0.08252252 -0.12994495 -0.38616616 -0.26825157 -0.4862789 0.020195384 -0.18905814
0.16144337 -0.15699631 -0.04791022 -0.40994626 -0.06581571 0.017474627 -0.29447746 -0.16760406
-0.099717654 -0.11790426 0.3431417 -0.2731231 -0.41018623 -0.22476634 0.03760268 -0.03667028
-0.22341684 -0.29862973 -0.036645792 -0.38724616 -0.2780891 -0.06287209 0.041087747 -0.12189732
-0.112472564 -0.2467111 -0.36785284 0.08674638 -0.07334458 -0.16399264 -0.18344028 -0.34187928
0.029620685 -0.5687213 -0.3802204 -0.2918855 -0.11596063 -0.2892675 0.032005556 -0.2129552

main.8.weight f4 [144, 144]
00000000: 2b63 503e 11b2 133d b14f 483e c9d1 d23c
00000010: 3366 e0bd a8f3 1dbd 3cd9 23be a613 2c3d
00000020: 4fda 00be 0510 043c 604b 02be cf3b 873d
00000030: 07f7 51bd 74bb 6abd bca0 fdbd a79b 233e
00000040: c95d aa3d 85cc b2bd ad0b d93d 053b 1f3c
00000050: bb1c 30bd 6469 943b 37a6 303e ebaa ad3d
00000060: a1a2 a93d d2e6 5c3e bc2d 363e 785b 713e
00000070: 93c2 b3bb 31ad f93d e918 e0bc 14fb c83d
00000080: 5ab5 093d ad28 b33d 58c1 39bd bfe7 6c3e
00000090: 96d8 0abe 6ad7 febd ec62 c93b abb0 ac3e
000000a0: 08df 913e 8e6f 08be e7f6 3a3e 7d1a 043e
000000b0: 0c2d ae3d f85b 33be 0dca b4bd bb24 6e3e
000000c0: d181 23bd 6d9c 923e b996 e73d 1a8c 45be
000000d0: e1e1 2a3e f45a 5bbd a176 e9bd e165 34be
000000e0: 9b51 03bd 1600 3dbd e21e e5bd c1b0 5fbe
000000f0: 0046 19be c760 09bd 1898 bcbd c14d d0bd
00000100: c25a 04bd 89f5 a43d ba54 0e3d e145 8abe
00000110: a914 0cbe 6c87 ed3c 0493 7b3e cbb3 753e
00000120: 3677 eb3d aaee c63d ceab 2d3d d9d9 9cbe
00000130: f9f5 813e f055 3c3e 813a 82bd ec8b 68bd
00000140: affa 9fbd 0b13 0c3e 0e02 dc3d efa8 473e
00000150: e802 ca3b 9eea 34bd 8985 903e 8104 4b3e
00000160: d3b1 253e 9273 213e f8f9 e3bc 77a1 093e
00000170: 36aa 963d b211 a83d 440c af3c 080d 823e
00000180: 2da5 993d 304d 3cbc 8188 a93e 9c1a 54bd
00000190: 3b58 c53d c04b c53d 48a5 25bd b2f3 f5bd
000001a0: aa82 9fbe fc07 f53d 4282 1abe 7337 633e
000001b0: 4b09 76bd 3656 623e b45e c73d 90a5 9fbd
000001c0: 4864 4d3e a566 0abe 44e0 ebbd f71b b03d
000001d0: db91 643e 3945 5b3e 1315 9a3c 9a21 a8bd
000001e0: 2f2a 913c 6cbc f7bc e44c 683e 79d8 6f3d
000001f0: 5fca b43d 7561 77bc a0b1 8d3d febd 073e
00000200: 2a9b 9cbd cd8f 223d 1ec8 65bc 6827 3fbe
00000210: 7fb3 b63c 154b 063e 0111 543d 8385 293e
00000220: 5e27 6f3d b518 033e 6d2e adbc 1466 8e3e
00000230: ea74 713d be4d 04bd 0b6b 4d3e 00a2 1e3e
00000240: 48f5 82be b1b1 b83e aae3 34be cd64 5fbe
00000250: 238e 2c3e c177 28be 60c7 363e ae41 babd
00000260: 7563 67bb 61ea f9bc 4292 8cbd 6dbd 773c
00000270: 0f67 033d 7cec 90bd d59f c8bd 9733 783d
00000280: f56d 66bc 0f8f debd c619 8e3c 2d64 903e
00000290: 3711 5bbd c02d b1bd e26d 7bbe 7485 b2bd
000002a0: e024 9ebd abc3 5abe 7f68 553d 819d 13bd
000002b0: 239f 9ebd eaaf 84be bad7 093d eb1c d73e
000002c0: 0dda dc3d ac99 003e 53db e33d 47a6 773e
000002d0: a751 fa3d 4eae 8c3e 8070 f33d 13eb 14be
000002e0: 5e09 60be c2b1 c8bc 045b a53c cce6 26bb
000002f0: 2c21 a53e 1cad 173e fcab ab3a 8395 04bd
00000300: 6184 3e3e 365b 923c 9ce8 d9bc 8841 7a3d
00000310: 10e4 16be 856e 073c aa30 473e c19a d33d
00000320: 0222 b2bb 846b 0b3d f45e a73e b996 02bd
00000330: 066b f73d 0d33 98bd fefb dcbd 0baf 243d
00000340: 7daa 3a3e e3b5 033e 84b3 81be 6f53 56bd
00000350: d678 3dbe 5a1c a63d 9e02 3fbe b7aa babd
00000360: 1e98 87bd 01bc 203e 5c28 3a3e 147f 4d3e
00000370: 39c6 a53d 1da6 01be 7dec 3fbe 5a60 6c3d
00000380: 47f4 a6be fc51 7bbd 4ca3 5fbe 0685 883b
00000390: fea0 443d 20ca 9f3d e9c9 84be 6ef9 413d
000003a0: 3306 1b3d 0f58 11be 55ff a5be 9d0d b13e
000003b0: b5ba 9bbd 251b 13be 08da 243e efec 233c
000003c0: 8461 283d be00 15be 80e2 443d cea5 363e
000003d0: e0a5 f43e f147 133d 2126 98be 9cbf 42bd
000003e0: 5a82 d5bd d70f 8fbd 91b2 433e 8794 1bbd
000003f0: 43f4 e9bd ac7c a8bd 51ad 08be 11da 063b
0.2035033 0.03605849 0.1956165 0.025734799 -0.10956993 -0.038562447 -0.16000837 0.042010926
-0.12583278 0.00806046 -0.12724066 0.066032045 -0.051260974 -0.057307675 -0.12384173 0.15977345
0.08318669 -0.08730415 0.1059793 0.009718661 -0.04299615 0.004529165 0.17250906 0.08479866
0.08282972 0.21572426 0.17790884 0.23570049 -0.0054858415 0.12191237 -0.027355628 0.09813514
0.033620216 0.08747993 -0.045350403 0.23135279 -0.13559183 -0.12443431 0.0061458256 0.33728537
0.28490472 -0.13323805 0.18258248 0.1290073 0.08504686 -0.17515552 -0.08827601 0.23256199
-0.039918724 0.28634968 0.11308045 -0.19291726 0.16687728 -0.053553537 -0.1139958 -0.17616989
-0.032060247 -0.04614266 -0.11187531 -0.2184477 -0.14968109 -0.03353956 -0.09208697 -0.101710804
-0.032313116 0.080546446 0.03474877 -0.27006438 -0.13679756 0.028995238 0.24567801 0.23994367
0.11497347 0.0971349 0.042400174 -0.30634955 0.25382975 0.18392158 -0.06358815 -0.056774065
-0.07811486 0.1367914 0.107425794 0.19498037 0.0061648972 -0.04416906 0.2822688 0.19825937
0.16181116 0.15766743 -0.027829155 0.134405 0.07356684 0.082065 0.021368153 0.25400567
0.07502208 -0.011493012 0.33111957 -0.05178319 0.09635969 0.09633589 -0.040440828 -0.12009372
-0.31154376 0.119644135 -0.15088752 0.22189121 -0.060067456 0.221032 0.0973486 -0.077952504
0.20057786 -0.13515718 -0.11517385 0.08599084 0.22321264 0.21413125 0.018808877 -0.08209534
0.01772031 -0.030241214 0.22685581 0.058556054 0.08827662 -0.015098919 0.06918645 0.1325607
-0.07646783 0.03968792 -0.014024762 -0.18667376 0.022302387 0.13114579 0.05177403 0.16554837
0.058387153 0.12802394 -0.021140302 0.27812254 0.05894939 -0.032300703 0.20060365 0.15491486
-0.2557776 0.36073068 -0.17664972 -0.21815796 0.16851096 -0.16451932 0.17849493 -0.09094559
-0.0035307084 -0.030507268 -0.06863834 0.015120846 0.032080706 -0.07076356 -0.097961105 0.060596075
-0.014064302 -0.1086713 0.017346274 0.28201428 -0.053483214 -0.08651304 -0.24553636 -0.087168604
-0.07721877 -0.21363704 0.05210161 -0.03603888 -0.07745197 -0.25915462 0.033653 0.4201425
0.107837774 0.12558621 0.11125817 0.24184524 0.12222605 0.27476734 0.11886692 -0.14542799
-0.21878573 -0.024498824 0.020185001 -0.0025467156 0.3225187 0.1481213 0.001309752 -0.032369148
0.18605186 0.017865758 -0.026600175 0.06109765 -0.14735436 0.008266096 0.19452158 0.10332251
-0.005436183 0.03403808 0.3268963 -0.03188202 0.1208096 -0.07431612 -0.10790251 0.040205996
0.18229099 0.12862353 -0.25332272 -0.052325662 -0.18503127 0.081108764 -0.18653342 -0.091145925
-0.06620811 0.15696718 0.18179458 0.20068008 0.080944486 -0.12661023 -0.18742557 0.057709076
-0.32608244 -0.061357483 -0.21839637 0.0041662483 0.048005097 0.07802224 -0.25935295 0.047357015
0.03784771 -0.14193748 -0.32421365 0.345807 -0.07603971 -0.14365824 0.16098797 0.01000522
0.041108623 -0.14551064 0.04806757 0.17836687 0.47782803 0.03595728 -0.2971659 -0.047546014
-0.10425253 -0.06985443 0.19111086 -0.037983444 -0.11423542 -0.08226904 -0.13347365 0.0020576755

main.8.bias f4 [144]
00000000: e884 64be ed5a 93be 41f2 cfbe 044c c9bc
00000010: 955f 5dbe 0ade 8abe fecf f6bd cd75 87be
00000020: ee3e 093e fefd 6b3d 7973 c4be bf1d 453e
00000030: 1ef5 a8bc eb58 a3be 9a3b fbbd b9b9 333e
00000040: 821a 96be a9d7 76bd 9869 71be c504 05be
00000050: 9763 bfbe a781 e8bc b568 813e 3dd3 7bbe
00000060: 2ea5 9eb9 1e52 b9be 1de8 bc3c 091e 7fbe
00000070: 6314 d3be 0227 1bbf b2d2 eabe 05aa 0f3e
00000080: ce22 85bc 86e3 4fbe eb35 9fbe 8c25 b9be
00000090: ec10 d13d 7a90 7a3e c627 bebc 66dc 8cbe
000000a0: 93b9 89be 76b2 95be d5e6 12be 042b 88bd
000000b0: 3f0f 9c3d 8cdf 2f3e b299 98be 1fe8 7c3e
000000c0: 9e1b 41bd 0f18 e6be 0892 293e 76ec 1ebe
000000d0: 830e 27be de37 f9be 24ba 293e f961 5dbe
000000e0: f938 efbe d0af 27bd 29ab d7be a310 c8bd
000000f0: a3a1 33be e8dc babe cda7 57bd b73b 8d3d
00000100: d35d 743d 3de5 22be fc97 e6bd f4b6 26be
00000110: 4027 14be bc0d 05bf 9486 863e 4a8d b5be
00000120: 35c4 203b 0b8e 04be 88f8 86be be0b 8cbc
00000130: 7559 503e 5440 233d ce7a 98be b755 b4be
00000140: c926 773d 272f 94bd c387 1dbe b558 183c
00000150: ef4e 893d 2c10 b1be 3f36 d0bd 2404 cabe
00000160: b9a5 273d 4f93 c6be 53ac babb fb3f 18be
00000170: 9957 0ebf 547c ddbe e8f6 85be 6027 b8be
00000180: 94ab 05be 3310 80be 9f3a 35be 6d6b 75be
00000190: c643 a1bd 89f0 46be 41f7 b5be ae0d 4ebd
000001a0: 518a 66be 407c 893d b126 83bc c837 7a3e
000001b0: bcf6 343e 7c54 a0bd 27e0 a03d 7bff b9be
000001c0: 1440 adbe df79 20be 7a32 003e 6ba6 b03d
000001d0: 526c 98be c1d4 aa3e 1f3a 52be 7d97 b3bd
000001e0: 7436 8fbb bff6 e13d e0e4 b3bb 9c45 7ebb
000001f0: 0374 1e3e 9bcd bbbc 1e10 03bf 8c76 f8bd
00000200: 0a25 2b3d c17b 8ebe fdf3 15be f1b0 a9bd
00000210: 2440 1e3e 6964 c2be 7b4b 88bb dbb3 f03d
00000220: 316a 89be c238 b33c c13e 20be 161a 8abe
00000230: fd73 1bbe c764 cebd c630 b43d c244 3ebe
-0.22316325 -0.28780308 -0.40614513 -0.02457238 -0.21618493 -0.27122527 -0.1205139 -0.26457062
0.13402912 0.057615273 -0.3836935 0.19249628 -0.020624693 -0.31903777 -0.122672275 0.17551316
-0.293171 -0.060264263 -0.23575437 -0.129901 -0.3738067 -0.028382136 0.25275198 -0.245923
-0.00030259177 -0.36195463 0.023059899 -0.24913801 -0.4122649 -0.60606396 -0.45863873 0.14029701
-0.016251948 -0.20301637 -0.31095824 -0.36161458 0.10208306 0.24469176 -0.023212325 -0.275119
-0.26899394 -0.29237717 -0.14345868 -0.066488296 0.076200955 0.1717512 -0.2980476 0.24697922
-0.04714548 -0.4494023 0.16559613 -0.1551989 -0.1631413 -0.48675436 0.16574913 -0.21619405
-0.46723154 -0.040939152 -0.42122772 -0.09768798 -0.17542128 -0.36496663 -0.05265026 0.06896155
0.05965979 -0.1590776 -0.112594575 -0.16280729 -0.14468098 -0.5197408 0.2627455 -0.35459358
0.002453101 -0.1294481 -0.2636149 -0.017095443 0.20346625 0.03985627 -0.29781193 -0.35221645
0.060339723 -0.07235556 -0.1538382 0.009298493 0.067045085 -0.3458265 -0.101665966 -0.39456284
0.04092953 -0.38784263 -0.005696812 -0.14868157 -0.55602413 -0.43258917 -0.26164937 -0.3596754
-0.13053733 -0.2501236 -0.17698143 -0.23966761 -0.07874255 -0.19427694 -0.35540202 -0.050306015
-0.22513701 0.06713152 -0.01600966 0.24435341 0.17672247 -0.07828614 0.07855254 -0.3632773
-0.3383795 -0.1567149 0.12519255 0.08625492 -0.29770142 0.33365443 -0.20529984 -0.087691285
-0.004370505 0.11033391 -0.0054899305 -0.0038798815 0.15473942 -0.022925189 -0.5119647 -0.12131986
0.04178337 -0.27828792 -0.14643855 -0.08285702 0.15454155 -0.37967232 -0.0041593886 0.11753055
-0.2683883 0.02187765 -0.15648939 -0.26973027 -0.15180965 -0.100778155 0.08798365 -0.18580917
