trained networks/5305.pt (torch_old, 388101 bytes, 12 tensors)

main.0.weight f4 [144, 5]
-0.18044344 0.029801726 0.23684414 0.3367229 0.10053546 -0.17998353 0.42375544 0.10839191
-0.080372564 0.046904255 0.48041126 0.06912046 0.14181161 0.024883125 0.27000257 -0.13079411
0.27082515 0.09640227 -0.21452332 0.23534699 0.12881985 -0.22361405 -0.11933172 -0.41530624
-0.17092414 -0.28040642 -0.0335591 0.27452862 -0.01890486 0.37795967 0.2741627 -0.42559642
-0.362945 0.22119784 0.2952623 0.028148383 0.07605681 -0.08756219 -0.08920345 0.20042989
-0.22736752 0.3334626 0.38884804 -0.14720185 -0.062870964 -0.18720789 0.2929545 -0.2614051
-0.16097595 0.23950085 0.10829581 -0.23575099 -0.2533464 0.16579258 -0.024781058 -0.028280402
-0.1410615 0.1866424 0.0028478862 0.37593523 0.328035 0.072820894 -0.3580245 -0.3778141
0.014882581 0.2685945 0.20847923 0.4028047 -0.12145408 -0.3003836 -0.042569745 -0.26471218
-0.20230965 -0.20348458 0.08465219 0.19600841 -0.3723886 0.23165907 0.18375733 0.08401585
-0.093394496 0.15299226 0.1932424 0.17867711 0.3216805 -0.34385848 -0.052059133 0.0915429
-0.16600475 -0.13241969 0.072111405 -0.14416113 0.3232461 -0.23754837 0.05120656 0.2541457
-0.16602272 -0.15609601 -0.1619954 0.2019661 -0.09487898 -0.109337375 0.074833065 0.021518065
0.25402713 -0.050869964 -0.13292792 0.21288271 -0.15605564 -0.01881714 -0.11870714 0.33098328
0.32229853 0.049530923 -0.0789179 -0.2796774 0.12232783 0.133595 -0.012539199 0.13890646
0.08017298 -0.30208474 -0.1609036 0.030277703 -0.30467096 0.048250902 0.27020058 -0.35931835
0.090307236 0.007051263 -0.0067394 0.025448421 0.054651137 -0.042370845 -0.33922058 0.11225992
-0.34890732 0.16856442 0.30336225 0.08865055 -0.27860466 -0.14249223 0.34617528 -0.14375661
0.11870431 0.11020123 -0.06607686 -0.35478407 -0.14925128 -0.10045408 -0.0070087193 -0.44142112
-0.17389281 0.12984766 -0.41674632 -0.18982264 0.19279574 -0.257526 0.30824476 0.106714234
0.11298907 -0.3098293 -0.2091083 -0.49669585 -0.08420169 -0.34833366 -0.36562538 -0.07681857
0.19655712 -0.30959964 -0.047937874 0.3993165 -0.039445087 -0.15209404 -0.2227377 -0.012538951
0.37020034 0.18285221 0.19746421 -0.2664528 -0.39332655 0.2826372 0.02662471 0.23925354
0.24535036 -0.24167721 -0.029510677 -0.08204173 -0.055259388 0.045346364 0.115155384 -0.041862372
0.050062817 -0.40391192 -0.19956261 -0.22948062 -0.10371712 -0.11768872 0.11311665 -0.10845782
0.39564496 0.31481197 0.4977284 -0.12004989 -0.52636915 -0.13310584 -0.2768379 -0.41046858
0.11443093 0.028192187 0.34188554 -0.116351895 0.1388792 -0.35468763 0.12481758 0.1515929
-0.14339273 0.40932378 0.1162297 0.1048602 0.36982876 0.22673039 -0.10842253 -0.06098393
0.16745785 -0.15642881 -0.07013942 -0.05161384 0.01797218 0.04824186 0.3623025 0.30523738
0.15319738 -0.0839082 0.24116388 0.39489207 0.17446928 -0.007155256 0.0073569375 0.16199186
-0.36556995 -0.079207055 -0.2921985 0.17496471 -0.105513185 0.35446748 -0.005443338 0.24304481
0.10205524 0.18007357 -0.26279366 0.021724371 0.38743794 -0.10653264 0.16768235 -0.17852046
00000000: 2ac6 38be c022 f43c 4587 723e f266 ac3e
00000010: 89e5 cd3d 9a4d 38be 79f6 d83e 94fc dd3d
00000020: 5f9a a4bd ad1e 403d 77f8 f53e 078f 8d3d
00000030: 1037 113e b2d7 cb3c c73d 8a3e e4ee 05be
00000040: 98a9 8a3e 8e6e c53d 00ac 5bbe cdfe 703e
00000050: 5ae9 033e 15fb 64be 3064 f4bd 05a3 d4be
00000060: bd06 2fbe 6e91 8fbe 4475 09bd 048f 8c3e
00000070: 5dde 9abc ee83 c13e 0e5f 8c3e c6e7 d9be
00000080: edd3 b9be b081 623e 9f2c 973e 7097 e63c
00000090: acc3 9b3d ce53 b3bd 4cb0 b6bd 7e3d 4d3e
000000a0: 08d3 68be 9cbb aa3e 1717 c73e 15bc 16be
000000b0: 7ec2 80bd 6db3 3fbe 22fe 953e e4d6 85be
000000c0: e1d6 24be b63f 753e 32ca dd3d b568 71be
000000d0: 9fb6 81be 88c5 293e a501 cbbc 4dac e7bc
000000e0: 6d72 10be 2f1f 3f3e 9aa3 3a3b 957a c03e
000000f0: 34f4 a73e 1f23 953d fd4e b7be da70 c1be
00000100: 12d6 733c 3885 893e 947b 553e 6b3c ce3e
00000110: ebbc f8bd e1cb 99be 9d5d 2ebd 5b88 87be
00000120: 432a 4fbe 435e 50be 215e ad3d 6eb6 483e
00000130: b8a9 bebe 0938 6d3e e22a 3c3e 8110 ac3d
00000140: 9d45 bfbd 01aa 1c3e 56e1 453e 22f7 363e
00000150: 4eb3 a43e 380e b0be f53b 55bd d87a bb3d
00000160: 26fd 29be 0799 07be 25af 933d fa9e 13be
00000170: 8380 a53e e13f 73be f8bd 513d 631f 823e
00000180: dc01 2abe a2d7 1fbe 1fe2 25be 34d0 4e3e
00000190: e94f c2bd 46ec dfbd 1442 993d a746 b03c
000001a0: d80f 823e 065d 50bd 421e 08be edfd 593e
000001b0: 0dcd 1fbe 6726 9abc bb1c f3bd a476 a93e
000001c0: 5004 a53e f0e0 4a3d b59f a1bd e031 8fbe
000001d0: 0387 fa3d 21cd 083e 3671 4dbc 7f3d 0e3e
000001e0: bb31 a43d daaa 9abe eac3 24be f208 f83c
000001f0: d5fd 9bbe bda2 453d bb57 8a3e 93f8 b7be
00000200: 00f3 b83d 480e e73b 2fd6 dcbb 3579 d03c
00000210: dfd9 5f3d 0d8d 2dbd 52ae adbe 87e8 e53d
00000220: fba3 b2be 279c 2c3e 4c52 9b3e 6b8e b53d
00000230: 45a5 8ebe 7ce9 11be e33d b13e ef34 13be
00000240: 3f1b f33d 2fb1 e13d 4e53 87bd 42a6 b5be
00000250: 54d5 18be deba cdbd 66a9 e5bb f301 e2be
00000260: f510 32be c9f6 043e c65f d5be de60 42be
00000270: 3f6c 453e 73da 83be 42d2 9d3e fe8c da3d
00000280: d066 e73d f2a1 9ebe 7c20 56be eb4e febe
00000290: f071 acbd ca58 b2be 4033 bbbe 0e53 9dbd
000002a0: 4546 493e d883 9ebe 815a 44bd 3673 cc3e
000002b0: 2c91 21bd 8abe 1bbe 5a15 64be 2c70 4dbc
000002c0: e68a bd3e 9c3d 3b3e 0f34 4a3e 806c 88be
000002d0: 1962 c9be d3b5 903e 101c da3c e1fe 743e
000002e0: 203d 7b3e 3b7a 77be 60c0 f1bc 7f05 a8bd
000002f0: ab57 62bd 1cbd 393d 96d6 eb3d e177 2bbd
00000300: ab0e 4d3d 8bcd cebe 245a 4cbe f8fc 6abe
00000310: a469 d4bd c906 f1bd b4a9 e73d 221f debd
00000320: fa91 ca3e 092f a13e 42d6 fe3e b7dc f5bd
00000330: 21c0 06bf e64c 08be b2bd 8dbe f028 d2be
00000340: c35a ea3d 4df3 e63c 9f0b af3e e749 eebd
00000350: 5936 0e3e 9e99 b5be 5ca0 ff3d 2b3b 1b3e
00000360: 8bd5 12be e392 d13e d609 ee3d f2c0 d63d
00000370: 325a bd3e 032c 683e a20c debd 49ca 79bd
00000380: 127a 2b3e e02e 20be 42a5 8fbd 0969 53bd
00000390: 653a 933c 4299 453d b77f b93e 1348 9c3e
000003a0: c6df 1c3e 10d8 abbd aaf3 763e 4b2f ca3e
000003b0: 13a8 323e a376 eabb 7712 f13b 32e1 253e
000003c0: fc2b bbbe 4f37 a2bd 0b9b 95be f329 333e
000003d0: 4c17 d8bd c37c b53e 075e b2bb bde0 783e
000003e0: 5602 d13d 3565 383e e48c 86be 4ff7 b13c
000003f0: 445e c63e c92d dabd ecb4 2b3e 11ce 36be

main.0.bias f4 [144]
-0.22518818 0.44414967 0.3992373 0.08073066 -0.078487694 0.05670263 -0.44387254 -0.054673765
-0.5218424 -0.60304266 0.35863125 0.38414368 -0.23617959 0.26501024 -0.09579771 0.15449111
-0.08082959 -0.012136847 0.34145328 -0.3277475 0.19384056 0.38988122 -0.3831754 -0.5310044
0.00032487852 -0.5322551 -0.042212717 0.38059494 -0.09954386 -0.14734995 -0.50795525 -0.5929912
-0.030445075 -0.48893696 0.15005791 0.7067304 -0.39381507 0.37905368 0.44710672 0.24384478
-0.5790419 -0.40189847 -0.38208517 -0.125124 0.38758346 -0.27056128 0.44665545 -0.53291386
-0.52576 0.08317593 -0.110222206 0.22748531 -0.31892404 0.08330991 0.24140404 -0.060196314
0.6378335 -0.6378413 0.62397546 0.008756773 -0.41356024 0.22037864 0.35075876 -0.33068135
-0.23497316 -0.26669905 -0.51674324 0.17091218 0.1551246 -0.54843295 0.5016653 0.4994247
-0.31835443 -0.16931626 0.24908453 -0.2294466 -0.11172736 0.58226484 -0.11871809 -0.22724268
0.45736197 -0.023183754 -0.58177423 0.15941854 -0.2806994 0.5426083 -0.4242348 0.42334425
0.56465495 0.06767033 -0.16884896 -0.4542746 0.3205756 -0.18897562 0.1297738 0.40306175
0.03210623 0.4022121 0.39483663 -0.6022398 -0.5425299 -0.17865744 0.26320544 0.22151975
-0.28314394 -0.25788364 0.29859316 -0.34129477 -0.5564544 0.46890408 -0.29370466 0.43989816
0.2927453 0.5652125 -0.26304042 0.2838465 0.27676982 -0.57287824 -0.44794145 -0.43938795
0.29708058 0.1150339 0.30773917 -0.5268001 0.07262753 -0.5255281 -0.42687085 -0.095155515
0.28346083 -0.42975858 0.07983569 0.4416732 0.03312523 -0.47931975 0.18125154 0.032317474
0.38243636 0.21941403 0.08699584 0.286667 -0.15541121 -0.43770805 -0.5256098 -0.055440262
00000000: bb97 66be 9667 e33e d568 cc3e 1e56 a53d
00000010: 28be a0bd 0441 683d 4343 e3be 99f1 5fbd
00000020: 7797 05bf 0161 1abf 849e b73e 7bae c43e
00000030: 10d9 71be 6caf 873e 9731 c4bd eb32 1e3e
00000040: fc89 a5bd a0d9 46bc f7d2 ae3e 85ce a7be
00000050: 247e 463e 839e c73e 912f c4be e8ef 07bf
00000060: 7554 aa39 df41 08bf 3ee7 2cbd 57dd c23e
00000070: a7dd cbbd e8e2 16be 5b09 02bf 45ce 17bf
00000080: f367 f9bc f255 fabe c8a8 193e 49ec 343f
00000090: 21a2 c9be 5313 c23e 2ceb e43e 72b2 793e
000000a0: 173c 14bf a3c5 cdbe aba0 c3be 8120 00be
000000b0: 5771 c63e 0287 8abe 06b0 e43e 0b6d 08bf
000000c0: 3598 06bf 2458 aa3d 2ebc e1bd e9f1 683e
000000d0: 034a a3be 639e aa3d 9f32 773e 6990 76bd
000000e0: 0e49 233f 9149 23bf dbbc 1f3f 9178 0f3c
000000f0: 2bbe d3be f0aa 613e a796 b33e 114f a9be
00000100: ce9c 70be c78c 88be 4949 04bf 9a03 2f3e
00000110: fcd8 1e3e 1a66 0cbf 236d 003f 98b4 ff3e
00000120: 5aff a2be 3e61 2dbe 0410 7f3e 0df4 6abe
00000130: 50d1 e4bd 4f0f 153f 7822 f3bd 4eb2 68be
00000140: 592b ea3e dbeb bdbc 28ef 14bf 9d3e 233e
00000150: d5b7 8fbe 61e8 0a3f 4e35 d9be 94c0 d83e
00000160: 3a8d 103f be96 8a3d bee6 2cbe ae96 e8be
00000170: 7c22 a43e d382 41be 6ce3 043e 1c5e ce3e
00000180: d281 033d bfee cd3e 0728 ca3e 632c 1abf
00000190: 3de3 0abf faf1 36be ddc2 863e 13d6 623e
000001a0: 3ef8 90be 5309 84be 34e1 983e 30be aebe
000001b0: cc73 0ebf 3214 f03e 7560 96be 553a e13e
000001c0: b6e2 953e c4b1 103f 3cad 86be 5454 913e
000001d0: c6b4 8d3e 26a8 12bf 9558 e5be 75f7 e0be
000001e0: f21a 983e e596 eb3d fd8f 9d3e 5fdc 06bf
000001f0: bebd 943d 0289 06bf d18e dabe e5e0 c2bd
00000200: c721 913e 5109 dcbe e580 a33d fd22 e23e
00000210: 52ae 073d 6669 f5be 019a 393e 545f 043d
00000220: b3ce c33e 12ae 603e e02a b23d 04c6 923e
00000230: 1e24 1fbe 451b e0be 5d8e 06bf 5415 63bd

main.2.weight f4 [144, 144]
-0.02537514 0.09232391 0.032356758 -0.12283398 -0.058585055 -0.18720692 -0.015249306 -0.054214604
0.06024879 0.05602261 -0.09697147 -0.16124551 0.050511587 0.030646652 -0.032895904 -0.09700071
0.0025018926 -0.19351715 -0.2680764 0.04602825 -0.29991955 -0.4355711 0.14703934 0.05609817
0.01494077 0.29741967 0.18666019 -0.20745091 -0.18618856 0.037322994 0.025981586 0.15582456
-0.114628546 -0.009536704 0.21521336 0.0889506 0.092212215 -0.12573452 -0.12822236 0.035908714
0.0933654 0.059688956 0.0723085 -0.1106553 -0.022789253 0.063740976 0.08935432 0.27301255
0.025023168 0.03175037 -0.19469483 -0.22471012 0.011202416 0.05662384 0.048670348 -0.038101714
0.0019542524 0.01450773 -0.1845706 0.15875734 -0.013093791 -0.1346096 -0.2016017 0.154105
0.12782374 0.029892351 0.009912454 0.17573673 -0.1858653 0.108935654 -0.13601507 0.000548577
0.21232632 0.16197087 -0.33694932 0.1337332 0.19509652 -0.008901338 -0.11306419 0.03157583
-0.22022791 -0.12026124 0.25869787 -0.11193593 0.15644653 -0.060598962 0.24899209 -0.115073204
-0.0578059 0.07443352 -0.06578627 -0.021656008 -0.29609066 0.06961298 0.18032971 -0.19817498
-0.04626501 -0.046446055 0.029228391 0.104419 -0.0006161836 0.16804288 -0.25416934 -0.098739944
0.15398775 0.20918794 -0.0966135 -0.06692804 -0.028859952 -0.083124176 0.0021659904 0.12368699
-0.11585982 -0.024790479 -0.07080775 -0.09120106 0.032041833 0.040863767 0.038410027 0.087625824
-0.18639228 -0.17646624 -0.14856498 0.1221908 -0.06268581 0.04082007 0.039220393 0.054543022
0.07120473 -0.03475234 -0.1452969 -0.11960134 0.161928 -0.06597628 -0.0031071706 -0.12202351
-0.04499712 -0.021708917 -0.19436134 -0.08104166 -0.01753773 -0.0508511 0.102249905 0.08811958
0.27457952 0.06324592 -0.04163134 0.113062575 -0.14582719 0.03777429 -0.038599346 -0.03350347
0.30615044 0.16643278 -0.25138634 0.04656515 -0.027348854 0.12684482 -0.13120402 0.11196252
0.09801522 -0.084535114 0.086389564 0.006079912 -0.089432485 -0.14937788 0.22898757 0.42935663
-0.15377378 0.11556293 0.062303483 -0.06861067 0.1876099 -0.14386043 0.06048155 0.06899754
-0.14764805 0.040923357 -0.05177714 -0.04714114 0.23061787 -0.101525545 -0.35319424 -0.1233269
0.19807485 -0.12122581 0.036706403 0.15297033 -0.24909782 0.09299133 0.035760384 0.0630591
0.021446591 0.08996249 0.16844656 0.0015018879 0.17854361 -0.045608357 -0.0014786328 -0.072007135
-0.46400362 0.27631402 -0.26322502 0.16486695 0.23977499 -0.09955977 -0.04183382 -0.035075597
-0.030856015 0.00646858 0.22886515 -0.1783361 -0.001620875 0.12969574 0.047516312 -0.055588815
0.15675126 -0.037682742 0.04811791 0.11993818 0.23966444 -0.16831052 -0.12150456 -0.0074064336
-0.2686219 -0.016019056 0.09788066 -0.07555389 0.0830013 -0.25738737 0.11085601 0.042001452
0.0032409774 -0.22137283 -0.02379285 0.20911403 -0.10492679 -0.004950804 0.19230029 -0.13817707
-0.009036281 -0.08464817 -0.23463875 0.215656 -0.023048315 -0.1420136 0.06134849 -0.22560015
-0.12064971 0.1090867 -0.02190378 0.28022695 0.29840183 -0.2076335 -0.0645587 -0.011690199
00000000: 87df cfbc 5114 bd3d 8588 043d 6290 fbbd
00000010: e2f6 6fbd 2cb3 3fbe 3ad8 79bc 2210 5ebd
00000020: 6fc7 763d f777 653d fa98 c6bd 8b1d 25be
00000030: 3de5 4e3d b00e fb3c dbbd 06bd 4fa8 c6bd
00000040: cbf6 233b 5c29 46be 4f41 89be 1e88 3c3d
00000050: 0e8f 99be 2d03 dfbe 7b91 163e 32c7 653d
00000060: 22ca 743c 6447 983e d923 3f3e 036e 54be
00000070: 37a8 3ebe ffdf 183d 56d7 d43c 7990 1f3e
00000080: 5fc2 eabd d63f 1cbc e460 5c3e bb2b b63d
00000090: c2d9 bc3d 8dc0 00be b94c 03be 0415 133d
000000a0: 5c36 bf3d 687c 743d 7b16 943d 3f9f e2bd
000000b0: 87b0 babc a18a 823d 66ff b63d 4dc8 8b3e
000000c0: 63fd cc3c ad0c 023d 155e 47be 691a 66be
000000d0: 578a 373c 66ee 673d 8f5a 473d 8b10 1cbd
000000e0: ea12 003b d4b1 6d3c 1300 3dbe 4991 223e
000000f0: 5787 56bc 19d7 09be ad70 4ebe b3cd 1d3e
00000100: 3ae4 023e cee0 f43c d867 223c 54f4 333e
00000110: 7953 3ebe a819 df3d 8947 0bbe 61ce 0f3a
00000120: 126c 593e b1db 253e 9f84 acbe 5bf1 083e
00000130: 62c7 473e ebd6 11bc 338e e7bd a855 013d
00000140: 6d83 61be 864b f6bd 0c74 843e aa3e e5bd
00000150: 8533 203e 9e36 78bd c8f7 7e3e 80ab ebbd
00000160: e1c5 6cbd 9a70 983d f4ba 86bd f167 b1bc
00000170: 3299 97be 4091 8e3d 5aa8 383e 62ee 4abe
00000180: 6180 3dbd 383e 3ebd 6170 ef3c a1d9 d53d
00000190: 6287 21ba 6f13 2c3e 7c22 82be 2b38 cabd
000001a0: f7ae 1d3e 5d35 563e 4cdd c5bd 9111 89bd
000001b0: b56b ecbc 023d aabd 4af3 0d3b 9b4f fd3d
000001c0: ea47 edbd 6715 cbbc a703 91bd 9fc7 babd
000001d0: 4c3e 033d c460 273d d553 1d3d 2b75 b33d
000001e0: 9edd 3ebe 91b3 34be 6b21 18be 2c3f fa3d
000001f0: 6b61 80bd f232 273d 90a5 203d 8168 5f3d
00000200: c9d3 913d 7858 0ebd b6c8 14be 8cf1 f4bd
00000210: 74d0 253e 921e 87bd aca1 4bbb 76e7 f9bd
00000220: e64e 38bd e6d6 b1bc a906 47be 2bf9 a5bd
00000230: 49ab 8fbc 3e49 50bd 6668 d13d 0a78 b43d
00000240: b095 8c3e 1487 813d a085 2abd 5a8d e73d
00000250: b953 15be 37b9 1a3d 591a 1ebd ef3a 09bd
00000260: c0bf 9c3e 5b6d 2a3e b6b5 80be 19bb 3e3d
00000270: b40a e0bc 9ce3 013e 595a 06be 9b4c e53d
00000280: 34bc c83d bf20 adbd 03ed b03d 003a c73b
00000290: 6128 b7bd 84f6 18be b87b 6a3e a2d4 db3e
000002a0: e076 1dbe 42ac ec3d f031 7f3d c083 8cbd
000002b0: cf1c 403e 2650 13be 80bb 773d 954e 8d3d
000002c0: 0d31 17be 409f 273d 4414 54bd 1117 41bd
000002d0: 1727 6c3e a0ec cfbd e0d5 b4be d092 fcbd
000002e0: 22d4 4a3e 3d45 f8bd 7459 163d 41a4 1c3e
000002f0: 8013 7fbe 3d72 be3d 7b79 123d 2125 813d
00000300: c3b0 af3c 413e b83d 417d 2c3e ffda c43a
00000310: 23d4 363e d4cf 3abd afce c1ba 7a78 93bd
00000320: e291 edbe 0879 8d3e 6ec5 86be e2d2 283e
00000330: 9387 753e fee5 cbbd f159 2bbd 6eab 0fbd
00000340: c1c5 fcbc 62f6 d33b a05b 6a3e bd9d 36be
00000350: 8a73 d4ba f6ce 043e 77a0 423d 19b1 63bd
00000360: 6783 203e 3859 1abd 4917 453d 26a2 f53d
00000370: 986a 753e 9859 2cbe 62d7 f8bd abb1 f2bb
00000380: cf88 89be 653a 83bc a875 c83d ffbb 9abd
00000390: 96fc a93d 47c8 83be 7a08 e33d b709 2c3d
000003a0: 9466 543b 8faf 62be 39e9 c2bc fd21 563e
000003b0: dbe3 d6bd 5b3a a2bb 5eea 443e 4a7e 0dbe
000003c0: e90c 14bc 055c adbd 2445 70be edd4 5c3e
000003d0: d2cf bcbc 036c 11be 8e48 7b3d ba03 67be
000003e0: 3217 f7bd d968 df3d 8e6f b3bc e879 8f3e
000003f0: 20c8 983e e09d 54be 5a37 84bd 4088 3fbc

main.2.bias f4 [144]
-0.13808453 -0.346845 -0.20859425 -0.4123061 -0.049262308 -0.23022358 -0.20070063 -0.20130666
-0.34545785 -0.0963088 0.09495764 -0.2628785 -0.23523243 -0.013743496 -0.30731937 -0.108117
-0.029968603 -0.3876277 -0.07633551 -0.043110523 -0.17607306 0.019208364 -0.1064901 -0.12031958
-0.25992763 0.09679468 -0.13628367 0.17538767 -0.07328967 -0.453534 -0.14785779 -0.055467904
-0.26003006 -0.20144662 0.49713326 -0.017980685 -0.04708128 0.10078592 -0.0007034858 -0.036225505
0.016326299 -0.05314793 -0.2745437 0.0125183435 -0.13340686 -0.11045338 -0.33976385 -0.5147171
0.00027167477 -0.30135468 -0.2108753 0.16819543 -0.5527116 -0.45061663 -0.3093798 -0.48198316
-0.11754376 0.038648367 0.06663053 -0.06226361 -0.28399107 -0.292648 -0.3329823 -0.29161248
-0.20474748 -0.49353033 0.22316088 -0.18487279 0.13372034 -0.38581795 -0.28603473 -0.09482732
-0.46776238 -0.25294185 -0.1470854 -0.2903714 0.20938043 -0.50379753 -0.018286377 -0.17491676
-0.14369707 0.24533139 -0.47640604 -0.19539243 -0.07575437 -0.26821342 0.20952812 -0.20295307
0.09226555 -0.026913233 -0.18443006 -0.05687476 -0.15735781 0.040750854 -0.32369146 -0.12447209
-0.23882179 0.10268734 0.20015684 -0.23105867 -0.28383452 -0.031457905 -0.25604165 -0.18829729
-0.23476943 -0.12617351 -0.498449 -0.4133828 -0.26365772 0.014007383 -0.19138688 -0.37218982
-0.2403688 0.11669769 -0.1596662 -0.12797298 -0.39001492 -0.16828766 -0.19008991 -0.58903426
-0.09757293 0.30322325 -0.20123726 -0.40030324 -0.119441286 0.19005905 -0.1090227 -0.21604687
-0.095474586 -0.20671967 -0.5220285 -0.14732285 0.15346473 -0.0049380595 0.1313452 0.03902228
-0.43746772 -0.40672103 -0.03930269 -0.20516929 0.2256354 0.026648896 0.058921676 0.20948958
00000000: 0866 0dbe ab95 b1be bb99 55be c919 d3be
00000010: 46c7 49bd bbbf 6bbe 7784 4dbe 5523 4ebe
00000020: dadf b0be 8c3d c5bd 2779 c23d 0398 86be
00000030: c5e0 70be 662c 61bc f758 9dbe 726c ddbd
00000040: b780 f5bc 2377 c6be cb55 9cbd a994 30bd
00000050: 7f4c 34be dc5a 9d3c 7b17 dabd 1d6a f6bd
00000060: 3c15 85be 4a3c c63d f28d 0bbe d398 333e
00000070: e518 96bd 9c35 e8be 0868 17be 5032 63bd
00000080: a922 85be 0648 4ebe 4088 fe3e 3b4c 93bc
00000090: 4dd8 40bd d968 ce3d 226a 38ba 3261 14bd
000000a0: bbbe 853c a5b1 59bd fe90 8cbe bd19 4d3c
000000b0: cf9b 08be 6235 e2bd 87f5 adbe 80c4 03bf
000000c0: 926f 8e39 294b 9abe b2ef 57be 6c3b 2c3e
000000d0: 827e 0dbf 39b7 e6be 0767 9ebe 7fc6 f6be
000000e0: c8ba f0bd c04d 1e3d 9675 883d 2108 7fbd
000000f0: 4767 91be f5d5 95be a87c aabe 3b4e 95be
00000100: 53a9 51be 02b0 fcbe 4984 643e 4b4f 3dbe
00000110: fced 083e ee89 c5be 2573 92be d334 c2bd
00000120: 8d7e efbe 9881 81be 8e9d 16be 8fab 94be
00000130: d367 563e e0f8 00bf 50cd 95bc 611d 33be
00000140: 5325 13be 2738 7b3e 7eeb f3be f414 48be
00000150: 1b25 9bbd 4553 89be 8a8e 563e eed2 4fbe
00000160: b8f5 bc3d 2479 dcbc 3cdb 3cbe 82f5 68bd
00000170: 6822 21be 5eea 263d e3ba a5be 39eb febd
00000180: b38d 74be bd4d d23d eaf5 4c3e a59a 6cbe
00000190: c252 91be 01da 00bd e417 83be 01d1 40be
000001a0: 6667 70be a133 01be b534 ffbe e9a6 d3be
000001b0: 25fe 86be 397f 653c ecfa 43be aa8f bebe
000001c0: 3d23 76be 33ff ee3d 897f 23be 590b 03be
000001d0: 09b0 c7be 9a53 2cbe eea6 42be f3ca 16bf
000001e0: 51d4 c7bd 1440 9b3e 2411 4ebe 8cf4 ccbe
000001f0: a29d f4bd d79e 423e 4b47 dfbd 643b 5dbe
00000200: 2e88 c3bd 52ae 53be a9a3 05bf cddb 16be
00000210: dc25 1d3e 72cf a1bb 5b7f 063e d4d5 1f3d
00000220: c5fb dfbe bd3d d0be dcfb 20bd e617 52be
00000230: f70c 673e c94e da3c db57 713d 7084 563e

main.4.weight f4 [144, 144]
-0.106020965 -0.023407545 0.0909612 -0.10253106 -0.16368784 0.006557204 0.10224883 0.36698964
-0.08503629 0.02995029 0.11781275 0.14295387 0.17010835 -0.0018118179 0.0683657 -0.061495762
0.043862548 -0.072294116 0.11183211 0.044948544 -0.08407805 0.07256116 0.19130999 0.04516474
-0.14089617 -0.040892955 -0.0062239766 -0.1315867 -0.019172683 -0.057131294 -0.23087028 -0.3229801
0.10748657 0.07427373 -0.08717766 -0.14715683 0.047960375 -0.2310387 0.085168086 0.15715957
-0.16591558 -0.17848721 -0.050208244 0.16661064 0.110093035 0.39102507 0.03136093 0.088293575
0.17002086 -0.26579362 -0.11273074 0.037200056 0.1256079 0.024629753 0.102820426 0.015632873
0.14530575 -0.14974158 0.06588913 -0.03350573 0.21171689 0.0038101564 -0.058872372 0.21430166
0.28635168 0.017757017 0.29699105 -0.2218338 0.056031626 0.08600987 0.12880483 -0.060243547
0.041936107 0.021993915 -0.17530191 -0.113231756 0.25357923 0.110709116 0.18959436 0.11523369
-0.044543944 0.13347344 -0.030943807 0.16464245 -0.084737435 -0.011228774 0.0393452 -0.08354296
-0.05525102 0.15577006 -0.038537033 -0.071441896 0.057886217 0.16219738 -0.1483851 -0.14801456
0.14281546 -0.15210603 0.25136134 0.32310498 0.079373516 -0.03860921 -0.27183166 0.21728757
-0.0043203062 0.17407817 -0.10357066 -0.06029534 -0.18566248 -0.16945471 0.1138706 0.053538866
0.11788527 0.054619737 0.14811875 0.23409353 -0.025491923 0.047204863 -0.1396624 -0.014492704
-0.059333928 0.1810177 -0.08050074 -0.0189861 0.14537391 -0.06901193 0.1901413 -0.0476176
0.04229357 -0.11587236 0.0660141 -0.24934226 -0.11507202 -0.09360794 0.12943834 -0.027300306
-0.013173433 0.035191536 0.05125045 -0.13502154 0.10824637 -0.22782636 -0.09752629 -0.055880588
0.09029996 -0.10642097 -0.19884747 -0.08712068 -0.033694405 0.021263534 -0.17909282 -0.17291473
-0.050078828 -0.09924976 -0.0451657 1.5698133e-05 0.046057437 0.17351033 -0.09148 0.08566587
-0.07319485 -0.123441696 -0.02983722 0.09528275 0.024132133 0.04030023 -0.09913775 -0.250122
-0.096102014 -0.12572385 -0.08782508 -0.15802418 -0.23731047 -0.059159726 -0.39162472 -0.19692688
-0.10102526 -0.31795546 -0.0038044644 0.059668913 -0.21928763 -0.17376152 -0.14550379 -0.018940315
-0.119363144 0.3527314 -0.06864764 -0.045482755 -0.033520833 -0.18900916 -0.047207877 -0.020706564
-0.0152071435 -0.08069628 -0.23520447 0.07311446 0.0035539689 0.015835412 0.0023176663 -0.064743444
-0.11282271 0.115175016 -0.22634435 -0.052499816 0.013407641 -0.016713109 -0.08594213 -0.058582395
0.03185643 -0.0878447 -0.065979935 0.1223385 0.073321015 0.025790948 -0.18132709 -0.28650847
0.004562618 0.09380031 0.08972586 -0.12257715 -0.19851412 0.06927819 0.14443868 0.05305497
-0.020440757 0.11169066 0.035811685 9.014708e-05 -0.048264932 -0.1519142 0.13736816 0.005195004
0.13300301 -0.08075018 -0.040437456 0.025284981 -0.20078196 0.009169254 -0.23143494 -0.056991167
-0.048710447 -0.009195791 -0.08910685 -0.056579374 0.052986268 0.02059457 -0.08126342 -0.07853669
-0.19429561 -0.08738757 0.047674946 0.062429074 0.0058023855 -0.28021622 -0.15025635 -0.06980428
00000000: 8521 d9bd 2ec1 bfbc de49 ba3d cefb d1bd
00000010: c99d 27be d0dd d63b d667 d13d 11e6 bb3e
00000020: 8227 aebd 505a f53c d047 f13d 8062 123e
00000030: e230 2e3e 857a edba 5103 8c3d fbe2 7bbd
00000040: 37a9 333d f00e 94bd 3c08 e53d f71b 383d
00000050: 1d31 acbd f29a 943d c4e6 433e aafe 383d
00000060: 1647 10be 5f7f 27bd 80f2 cbbb aabe 06be
00000070: 0810 9dbc 8102 6abd 4269 6cbe a65d a5be
00000080: eb21 dc3d d31c 983d 338a b2bd 48b0 16be
00000090: 1972 443d 6995 6cbe 9b6c ae3d 70ee 203e
000000a0: c6e5 29be 5ac5 36be 29a7 4dbd fb9b 2a3e
000000b0: 7578 e13d 7034 c83e 5274 003d 43d3 b43d
000000c0: f319 2e3e 1a16 88be 60df e6bd 165f 183d
000000d0: 5b9f 003e 56c4 c93c 8493 d23d 8310 803c
000000e0: 08cb 143e db55 19be e1f0 863d 4e3d 09bd
000000f0: 50cc 583e d1b3 793b 2824 71bd e571 5b3e
00000100: b09c 923e 2a77 913c 360f 983e 6628 63be
00000110: 6b81 653d f125 b03d 6ae5 033e f0c1 76bd
00000120: 32c5 2b3d 952c b43c 5882 33be 0de6 e7bd
00000130: 23d5 813e 76bb e23d 0625 423e a4ff eb3d
00000140: b673 36bd 43ad 083e de7d fdbc 0898 283e
00000150: d28a adbd e4f8 37bc 6f28 213d 9218 abbd
00000160: e54e 62bd 3082 1f3e 02d9 1dbd 2150 92bd
00000170: 191a 6d3d 1217 263e 43f2 17be 2191 17be
00000180: 373e 123e afc1 1bbe 6fb2 803e 046e a53e
00000190: 958e a23d b124 1ebd 852d 8bbe a280 5e3e
000001a0: 5b91 8dbb 8c41 323e db1c d4bd 3ff8 76bd
000001b0: 4e1e 3ebe 8985 2dbe fd34 e93d 924b 5b3d
000001c0: d56d f13d f2b8 5f3d 71ac 173e 37b6 6f3e
000001d0: 70d4 d0bc e359 413d a903 0fbe ce72 6dbc
000001e0: 2208 73bd b45c 393e 92dd a4bd bd88 9bbc
000001f0: e6dc 143e 2056 8dbd 67b4 423e ac0a 43bd
00000200: 063c 2d3d 7d4e edbd 6732 873d 9453 7fbe
00000210: e1aa ebbd 85b5 bfbd 7c8b 043e e4a4 dfbc
00000220: 62d5 57bc 0025 103d feeb 513d 1643 0abe
00000230: 46b0 dd3d 504b 69be ddbb c7bd 0be3 64bd
00000240: 2fef b83d 3df3 d9bd ac9e 4bbe 546c b2bd
00000250: 2503 0abd dd30 ae3c 1c64 37be 8f10 31be
00000260: 751f 4dbd 7543 cbbd abff 38bd 7caf 8337
00000270: b9a6 3c3d b1ac 313e de59 bbbd 9671 af3d
00000280: 2ee7 95bd 00cf fcbd 306d f4bc 9a23 c33d
00000290: c0b0 c53c db11 253d bc08 cbbd fe0f 80be
000002a0: 22d1 c4bd c1bd 00be a3dd b3bd 17d1 21be
000002b0: 8401 73be 7851 72bd 0983 c8be 33a7 49be
000002c0: 55e6 cebd 0fcb a2be 5254 79bb 6467 743d
000002d0: f08c 60be 8aee 31be f2fe 14be b828 9bbc
000002e0: aa74 f4bd 3699 b43e 2297 8cbd 204c 3abd
000002f0: 244d 09bd 9e8b 41be 0c5d 41bd d0a0 a9bc
00000300: 6227 79bc 1744 a5bd 71d9 70be 09bd 953d
00000310: b4e9 683b 44b9 813c fde3 173b 3698 84bd
00000320: 980f e7bd e1e0 eb3d d0c6 67be 0c0a 57bd
00000330: b9ab 5b3c eee9 88bc 6d02 b0bd 18f4 6fbd
00000340: e37b 023d ece7 b3bd 7d20 87bd 9c8c fa3d
00000350: 5429 963d 8a47 d33c cfad 39be 3db1 92be
00000360: 0482 953b 601a c03d 31c2 b73d bb09 fbbd
00000370: 4947 4bbe b9e1 8d3d bce7 133e 2b50 593d
00000380: 6073 a7bc 13be e43d 46af 123d 580d bd38
00000390: 73b1 45bd 658f 1bbe 3daa 0c3e da3a aa3b
000003a0: f131 083e 5a60 a5bd bfa1 25bd 7322 cf3c
000003b0: c999 4dbe a43a 163c 48fd 6cbe 926f 69bd
000003c0: 9b84 47bd f1a9 16bc a77d b6bd c6bf 67bd
000003d0: 2108 593d f2b5 a83c 706d a6bd d8d7 a0bd
000003e0: 6ef5 46be 41f8 b2bd ce46 433d a1b5 7f3d
000003f0: f021 be3b 8078 8fbe cddc 19be 8cf5 8ebd

main.4.bias f4 [144]
0.05167826 -0.05743256 -0.13642025 0.09706576 -0.10923793 -0.35599002 -0.4760679 -0.2816499
-0.43383378 0.05582565 -0.0542082 0.1028714 -0.12768349 -0.49567267 -0.37109277 0.16129118
-0.31667995 -0.29557472 0.396387 -0.3335365 -0.1986291 0.2824158 -0.1953382 0.027962223
-0.25095502 0.031815473 -0.18269835 -0.04598895 -0.4293034 -0.24811697 -0.29672706 -0.3274839
0.1904108 -0.09872973 -0.36731604 -0.41172442 -0.23467742 -0.40573964 -0.065354384 -0.52509505
-0.45056328 -0.2924803 -0.0011674465 -0.18014437 -0.41600892 -0.087766945 -0.019995151 -0.008456997
-0.1851112 -0.24276237 -0.17432119 0.07215018 -0.25078198 -0.47002348 -0.26884353 0.007799017
-0.08649263 -0.25734752 -0.097163394 -0.15361297 -0.23745984 -0.39277378 -0.38166785 0.28385112
0.09583244 0.028536685 -0.21919134 -0.43461543 -0.32584032 -0.11698683 -0.5735248 -0.11379006
-0.36063612 0.18011187 -0.3202097 0.17348592 -0.38447514 -0.13630179 -0.18132754 -0.13369219
-0.01428102 0.12631649 -0.094962545 -0.0028839875 -0.31729472 0.012848673 -0.12076341 -0.47054702
-0.3443225 -0.12606958 -0.38447207 -0.15472762 -0.14993441 -0.15102538 -0.24445301 -0.048805192
-0.0913653 -0.25550064 -0.24886292 0.077327654 -0.22208428 -0.44421035 -0.15991387 -0.1470464
-0.029013801 -0.34743673 -0.1402993 -0.15883604 -0.10044738 -0.25105008 -0.07758178 0.024698846
-0.2030227 -0.18986438 -0.12172066 -0.29745993 0.09134821 -0.294138 -0.13986872 0.06346439
0.17836604 -0.21640177 -0.08103156 -0.27271768 -0.18002866 -0.068291605 -0.6915909 0.2915644
-0.27330306 -0.4956206 -0.3963463 -0.026327215 0.089487664 0.26035106 0.27918568 -0.29077867
-0.4636306 -0.30079454 0.05641628 -0.07164019 -0.23866475 -0.06978259 0.15417576 0.12721157
00000000: 95ac 533d 673e 6bbd c0b1 0bbe 6aca c63d
00000010: 23b8 dfbd 5344 b6be 2cbf f3be 6a34 90be
00000020: 761f debe 70a9 643d 6b09 5ebd 3eae d23d
00000030: 76bf 02be cfc8 fdbe dfff bdbe 8429 253e
00000040: e023 a2be 9255 97be 3df3 ca3e 4cc5 aabe
00000050: 6d65 4bbe ce98 903e bd06 48be 0811 e53c
00000060: 2d7d 80be f150 023d 4715 3bbe e95e 3cbd
00000070: a8cd dbbe 6012 7ebe 9cec 97be f8ab a7be
00000080: 0cfb 423e d032 cabd d910 bcbe 8bcd d2be
00000090: 474f 70be 1bbd cfbe 85d8 85bd a16c 06bf
000000a0: 3bb0 e6be fabf 95be 0105 99ba c477 38be
000000b0: 1fff d4be 28bf b3bd dfcc a3bc 378f 0abc
000000c0: ca8d 3dbe b396 78be 4181 32be 79c3 933d
000000d0: 7f66 80be eba6 f0be dca5 89be e58e ff3b
000000e0: 0c23 b1bd 0ec3 83be 9afd c6bd b84c 1dbe
000000f0: ac28 73be a519 c9be f869 c3be ef54 913e
00000100: cc43 c43d c4c5 e93c b273 60be ea85 debe
00000110: 8bd4 a6be cb96 efbd 85d2 12bf c30a e9bd
00000120: 4ca5 b8be 3f6f 383e 87f2 a3be 4ba6 313e
00000130: edd9 c4be b292 0bbe edad 39be 9be6 08be
00000140: f0fa 69bc 1c59 013e b97b c2bd 4801 3dbb
00000150: 7474 a2be 3e83 523c cf52 f7bd 8aeb f0be
00000160: 0a4b b0be 6218 01be 86d9 c4be eb70 1ebe
00000170: 6888 19be 66a6 1abe e451 7abe f4e7 47bd
00000180: bb1d bbbd fbd0 82be ecd5 7ebe f65d 9e3d
00000190: 106a 63be 8a6f e3be 76c0 23be 5593 16be
000001a0: 5aae edbc 3ae3 b1be 9faa 0fbe eaa5 22be
000001b0: 5bb7 cdbd a389 80be 32e3 9ebd 3c55 ca3c
000001c0: 2fe5 4fbe cf6b 42be ae48 f9bd ab4c 98be
000001d0: c514 bb3d 4299 96be bf39 0fbe 9ef9 813d
000001e0: 96a5 363e 6d98 5dbe e0f3 a5bd a7a1 8bbe
000001f0: 6f59 38be 78dc 8bbd 1a0c 31bf ee47 953e
00000200: 61ee 8bbe fcc1 fdbe e7ed cabe 2cac d7bc
00000210: 4f45 b73d bc4c 853e 6df1 8e3e f1e0 94be
00000220: fd60 edbe be01 9abe c214 673d 18b8 92bd
00000230: 8864 74be 2dea 8ebd 40e0 1d3e c043 023e

main.6.weight f4 [144, 144]
-0.038676232 0.09556144 0.025305964 -0.20088181 -0.03300236 -0.04586752 0.24890654 0.23624615
0.27636814 -0.03500697 0.25593308 -0.17226605 0.20477745 0.32462394 0.16697255 0.04594657
0.09784305 0.04049334 -0.69270974 0.3958121 0.075774126 -0.22583893 0.022978488 0.09204121
0.1464326 -0.021404661 0.12468517 -0.0034036953 0.13310803 0.060147427 0.009123797 0.20530075
-0.100901514 0.1366165 0.31511453 0.44058064 -0.05771327 0.30664113 -0.014046522 0.15145244
0.26010755 0.31247514 -0.012160393 0.07821888 0.21596904 0.20123899 -0.09906758 0.20680995
0.21917737 0.11523363 0.019604392 -0.022788059 0.009358723 0.28434712 0.05916549 -0.22174871
0.00879353 -0.019912172 -0.05691041 0.18177484 -0.0033620466 0.26569825 0.14949775 -0.09364462
0.0017353527 0.091456875 0.109161876 -0.041912798 0.2030109 0.0056410166 0.17293032 -0.06561635
0.22726305 -0.6495352 0.13417815 -0.11708306 0.21567965 0.090080805 0.08893728 -0.1905179
0.027183963 -0.029381786 0.008374414 -0.17530751 0.21177922 -0.09718897 0.067597464 0.36102378
0.06919123 0.05032289 0.20170479 0.2361846 0.00840341 0.08247499 0.05163635 0.09560651
0.14135459 0.22611092 0.14968133 -0.26913625 0.21858782 0.31316805 -0.01094287 -0.15506983
0.035936013 0.31740296 -0.06680901 0.23216183 0.098106004 0.0670808 0.19648595 -0.061950613
0.0371683 0.0032852627 -0.08729333 0.2210633 0.038837954 0.19111937 0.1480132 -0.25523645
-0.25513157 0.0057532894 0.063202195 0.22725973 0.12701203 0.065775126 0.33743516 -0.3874047
0.48148483 0.24696574 0.17095025 -0.28260106 -0.14916186 -0.118751585 -0.1016355 0.1922553
0.27951077 0.19671962 -0.25923508 -0.08653832 -0.22186394 -0.054527644 -0.10539874 -0.1556926
-0.0034878585 -0.058392737 0.15651286 -0.091208756 0.017909313 -0.059557296 0.04801716 -0.045608133
-0.005653514 0.102216035 0.22013366 -0.27046666 -0.048990462 0.079700805 -0.01651052 -0.015536052
-0.13189375 0.2494769 0.10559312 -0.027518574 -0.11121158 0.008122896 0.258163 -0.17662801
0.064887725 0.07577272 0.11668986 -0.07987482 -0.16763468 0.021629889 -0.0810226 0.058061987
0.031004243 0.09865934 0.02181174 0.3113852 -0.08571202 0.011840953 0.050795898 0.061899476
-0.068042904 -0.01202747 -0.03342249 0.10731149 0.03373798 0.025660852 0.11943541 -0.021017225
-0.061559122 0.13257621 -0.012888796 -0.15733798 0.20523101 -0.00065971346 0.008755012 0.08929829
0.20657635 -0.15802465 0.43825892 -0.030155633 0.34252018 8.767689e-05 0.071491264 -0.0003291009
-0.083301075 -0.13224308 0.1590315 -0.10252914 0.040813997 0.05493671 0.04780018 -0.24618003
0.0048390557 0.057849552 0.04896327 0.08142017 -0.03662182 -0.1915254 -0.11554221 0.010749543
0.052430004 0.020796582 -0.110638484 -0.12272407 0.030939862 -0.23725641 0.019949945 -0.07173964
0.056081466 0.23963174 0.0015519214 0.029440721 0.095365666 -0.039915346 -0.008129176 -0.122193344
-0.07936289 0.1401338 0.051112328 0.12941061 0.0042256797 -0.040999137 -0.1025369 -0.07568027
-0.056834515 0.13224678 -0.21583886 0.016745662 0.23216937 -0.05474879 0.07473296 -0.01717367
00000000: f86a 1ebd b7b5 c33d 744e cf3c f6b3 4dbe
00000010: 7c2d 07bd 95df 3bbd 5be1 7e3e 83ea 713e
00000020: 2080 8d3e 7863 0fbd a909 833e 8366 30be
00000030: 2eb1 513e 1c35 a63e dafa 2a3e 7832 3c3d
00000040: f061 c83d 58dc 253d 6d55 31bf e2a7 ca3e
00000050: 772f 9b3d 5242 67be 623d bc3c 1a80 bc3d
00000060: 6df2 153e d458 afbc f05a ff3d 8810 5fbb
00000070: 794d 083e 265d 763d fa7b 153c 5c3a 523e
00000080: 74a5 cebd 32e5 0b3e b156 a13e c993 e13e
00000090: c064 6cbd 1100 9d3e 6223 66bc 5916 1b3e
000000a0: d12c 853e befc 9f3e 633c 47bc 3831 a03d
000000b0: fd26 5d3e 9811 4e3e f2e3 cabd fdc5 533e
000000c0: 0870 603e 9cff eb3d 6499 a03c 06ae babc
000000d0: 5455 193c f295 913e 8357 723d 1812 63be
000000e0: bd12 103c da1e a3bc e41a 69bd 2f23 3a3e
000000f0: c855 5cbb 9a09 883e f015 193e c0c8 bfbd
00000100: c674 e33a be4d bb3d 4390 df3d c1ac 2bbd
00000110: 17e2 4f3e 47d8 b83b a514 313e dd61 86bd
00000120: a5b7 683e f047 26bf ff65 093e 3ec9 efbd
00000130: 20db 5c3e 497c b83d c024 b63d 2017 43be
00000140: e7b0 de3c 12b2 f0bc d734 093c d083 33be
00000150: a7dc 583e 030b c7bd 8a70 8a3d 1cd8 b83e
00000160: 22b4 8d3d 601f 4e3d b38b 4e3e 60da 713e
00000170: 75ae 093c a6e8 a83d a380 533d 59cd c33d
00000180: 42bf 103e 9f89 673e 1046 193e 3acc 89be
00000190: 7cd5 5f3e 9057 a03e b949 33bc a0ca 1ebe
000001a0: a431 133d a482 a23e 2ad3 88bd d5bb 6d3e
000001b0: cdeb c83d a961 893d 9d33 493e edbf 7dbd
000001c0: ca3d 183d 904d 573b d8c6 b2bd 6b5e 623e
000001d0: 8c14 1f3d ccb4 433e c690 173e 5aae 82be
000001e0: 9ba0 82be 1786 bc3b 2770 813d c6b6 683e
000001f0: 710f 023e 1cb5 863d 4dc4 ac3e e959 c6be
00000200: 2e85 f63e 96e4 7c3e 950d 2f3e 16b1 90be
00000210: e3bd 18be 0834 f3bd 4626 d0bd 93de 443e
00000220: 091c 8f3e de70 493e 76ba 84be 013b b1bd
00000230: 4d30 63be 6158 5fbd 4bdb d7bd e26d 1fbe
00000240: 8e94 64bb 392d 6fbd e844 203e a8cb babd
00000250: 8db6 923c 5af2 73bd a4ad 443d 98cf 3abd
00000260: 1d41 b9bb a456 d13d b86a 613e 9b7a 8abe
00000270: 39aa 48bd 2d3a a33d 1241 87bc ed8a 7ebc
00000280: 280f 07be df76 7f3e 3541 d83d a26e e1bc
00000290: e6c2 e3bd e515 053c f12d 843e f9dd 34be
000002a0: dbe3 843d ba2e 9b3d 18fb ee3d 6995 a3bd
000002b0: 6da8 2bbe 2a31 b13c 2def a5bd 68d2 6d3d
000002c0: 9cfc fd3c e80d ca3d 89ae b23c e26d 9f3e
000002d0: c989 afbd 8e00 423c 5c0f 503d 4e8a 7d3d
000002e0: 145a 8bbd de0e 45bc 05e6 08bd 20c6 db3d
000002f0: d630 0a3d b536 d23c 8d9a f43d 512c acbc
00000300: 6b25 7cbd 0fc2 073e 872b 53bc 351d 21be
00000310: 1428 523e 9ff0 2cba 2f71 0f3c 06e2 b63d
00000320: c088 533e 37d1 21be 7963 e03e f208 f7bc
00000330: ce5e af3e 2cdf b738 036a 923d 2d8b acb9
00000340: c199 aabd bb6a 07be 27d9 223e ccfa d1bd
00000350: 942c 273d 5105 613d 1fca 433d 9e16 7cbe
00000360: f190 9e3b a7f3 6c3d b68d 483d 9ebf a63d
00000370: c300 16bd 3c1f 44be 65a1 ecbd da1e 303c
00000380: d8c0 563d 985d aa3c 6e96 e2bd c256 fbbd
00000390: 9875 fd3c 58f3 72be 116e a33c 3bec 92bd
000003a0: aeb5 653d 0662 753e d769 cb3a ab2d f13c
000003b0: 134f c33d 467e 23bd 3c30 05bc 8140 fabd
000003c0: 0389 a2bd 3c7f 0f3e 295b 513d 3784 043e
000003d0: 9277 8a3b b6ee 27bd defe d1bd 42fe 9abd
000003e0: 4fcb 68bd b36b 073e dd04 5dbe 332e 893c
000003f0: cfbd 6d3e 4440 60bd 980d 993d ccaf 8cbc

main.6.bias f4 [144]
-0.26722434 -0.124885075 0.10536393 -0.12206789 -0.3914879 -0.16088045 -0.06262784 -0.36986485
-0.16854276 -0.019458339 -0.04121728 -0.21709721 -0.07355481 -0.08573235 -0.09252608 0.021547923
0.100681975 -0.13705634 -0.26030523 -0.11275045 -0.023755953 -0.22797318 -0.009055533 0.21951243
-0.28781477 -0.14495824 0.23256177 -0.3951665 -0.5283051 0.41483063 -0.16849568 0.066341855
0.03419507 -0.44115922 -0.14688441 -0.35788086 0.16260341 -0.31606606 -0.13776854 -0.42589924
-0.27401167 -0.5637783 -0.024351565 -0.60163075 -0.11709256 -0.13843581 -0.034370236 -0.45984653
-0.43826836 -0.17289147 -0.11414133 -0.22647782 -0.3961524 -0.16473882 0.015926868 -0.38693613
-0.1736389 -0.32383776 -0.29877895 -0.50965375 -0.092408516 0.17545874 -0.30374318 -0.032080293
-0.027546983 -0.40014932 0.023232276 -0.23212783 0.0838639 -0.3493938 0.004986523 -0.19696169
-0.06365997 0.06183502 0.1396843 -0.29766002 -0.07692484 -0.21120843 -0.42339897 -0.01206987
-0.16231708 -0.122340016 -0.14749658 0.040297307 -0.059775393 -0.19814184 -0.4001406 -0.32187462
-0.18198812 -0.5216934 0.022709595 0.0826029 -0.084057294 -0.36414564 -0.40812743 -0.22268897
-0.038758922 -0.08551684 -0.08387356 -0.13966838 -0.09559424 -0.28382578 -0.06309582 0.03030561
-0.31845284 -0.49547634 -0.2412651 -0.06780881 -0.6087452 0.047546893 -0.32467192 -0.11080161
-0.4875012 -0.16699897 -0.11825425 -0.24632783 -0.39421365 -0.0038066206 -0.038426295 -0.33444405
-0.21805511 -0.37846056 -0.23352842 -0.3186797 -0.487656 -0.21819858 0.3218114 -0.3103367
0.10000532 -0.04061102 -0.26535958 -0.1438411 0.10284126 -0.1108231 0.10562793 -0.13125767
-0.24068412 -0.24320558 -0.30657098 -0.3219301 -0.21639769 -0.531825 0.49566543 -0.31625366
00000000: a1d1 88be bfc3 ffbd 0bc9 d73d bbfe f9bd
00000010: 1a71 c8be d8bd 24be 0643 80bd ed5e bdbe
00000020: 7996 2cbe 1867 9fbc 73d3 28bd bb4e 5ebe
00000030: e7a3 96bd 7194 afbd 507e bdbd 4585 b03c
00000040: 5a32 ce3d 7f58 0cbe ba46 85be b5e9 e6bd
00000050: d89b c2bc cd71 69be a95d 14bc dec7 603e
00000060: 755c 93be ef6f 14be ac24 6e3e 4353 cabe
00000070: 013f 07bf ae64 d43e 228a 2cbe 3dde 873d
00000080: 2110 0c3d 9fdf e1be de68 16be 293c b7be
00000090: 8281 263e 69d3 a1be 3213 0dbe 770f dabe
000000a0: 424b 8cbe c653 10bf ef7c c7bc 7904 1abf
000000b0: 39ce efbd 1ec2 0dbe cec7 0cbd 0171 ebbe
000000c0: b664 e0be 760a 31be eec2 e9bd cde9 67be
000000d0: 7dd4 cabe 4bb1 28be 1079 823c 7e1c c6be
000000e0: 65ce 31be 10ce a5be 8ef9 98be ab78 02bf
000000f0: ad40 bdbd 75ab 333e 3a84 9bbe a066 03bd
00000100: 36aa e1bc 5fe0 ccbe 9d51 be3c ebb2 6dbe
00000110: d6c0 ab3d bfe3 b2be fd65 a33b 53b0 49be
00000120: 2960 82bd b846 7d3d 6709 0f3e e566 98be
00000130: c58a 9dbd 0647 58be c0c7 d8be b4c0 45bc
00000140: 7336 26be 678d fabd 5809 17be ca0e 253d
00000150: 0bd7 74bd b2e5 4abe 3bdf ccbe c0cc a4be
00000160: 185b 3abe b38d 05bf 7909 ba3c b62b a93d
00000170: 3b26 acbd 4c71 babe 14f6 d0be 9408 64be
00000180: adc1 1ebd 7423 afbd e7c5 abbd 3a05 0fbe
00000190: eac6 c3bd 9d51 91be 6238 81bd 7843 f83c
000001a0: 400c a3be 13af fdbe 330e 77be 58df 8abd
000001b0: bad6 1bbf 88c0 423d 663b a6be f4eb e2bd
000001c0: c299 f9be c701 2bbe 492f f2bd 5d3d 7cbe
000001d0: 5fd6 c9be 7f78 79bb e464 1dbd 403c abbe
000001e0: d749 5fbe 95c5 c1be 1322 6fbe fc29 a3be
000001f0: 0cae f9be 736f 5fbe 77c4 a43e 74e4 9ebe
00000200: 97cf cc3d be57 26bd 36dd 87be 154b 13be
00000210: 709e d23d 39f7 e2bd 7553 d83d 6968 06be
00000220: e675 76be e20a 79be dff6 9cbe 06d4 a4be
00000230: 5b97 5dbe af25 08bf dcc7 fd3e 00ec a1be

main.8.weight f4 [144, 144]
0.06487648 0.1056641 0.097649634 0.19592008 -0.07404655 0.23907761 0.18641707 -0.098568946
0.39093783 -0.0623966 0.004773435 0.18085867 -0.02393646 0.0045465846 0.023303501 0.08661092
0.055570316 -0.06828532 -0.14099818 -0.14486946 -0.2677443 0.25822106 0.15167616 0.04397284
0.10648508 0.124140665 -0.042641774 0.018947076 -0.111901045 0.09950348 0.09904123 -0.15844774
0.2983569 0.1631373 -0.10608969 -0.044357438 0.10422438 -0.2810396 -0.14199606 0.3766493
0.100018926 0.05568821 0.18878669 0.03232967 -0.16502936 0.03394177 0.2103435 0.094041765
0.06075023 0.22196066 0.13509142 0.3749757 0.073279284 -0.0969159 -0.04127121 0.11161174
0.074136935 -0.1033409 -0.13397172 -0.01571502 0.23226248 0.047972277 0.409562 0.15071566
-0.031088484 0.17204975 -0.16630821 -0.13403767 -0.11507604 0.13263567 0.21869229 0.06781866
0.28687954 -0.019866299 -0.12355027 0.14115308 0.3061319 -0.16347475 0.117027454 0.025067935
0.15775444 0.25794512 0.20530602 -0.10200043 -0.22473633 -0.01335236 0.034660775 0.17926104
0.2875296 0.12829548 -0.21609947 -0.22579128 0.21661375 0.1576619 -0.274845 -0.033192325
0.08901059 0.16406332 -0.15545277 -0.23714319 -0.22483763 0.10767521 -0.123451464 -0.029733276
0.026657952 0.06743037 -0.065931834 -0.013962544 0.1330599 -0.036192037 -0.037000813 0.0048442003
0.1664362 -0.12342761 -0.05217672 0.17326939 0.13595863 0.15018627 -0.037984136 0.13845754
-0.13604353 0.104058765 -0.01550743 -0.0032216595 0.19623189 0.123095594 -0.17248784 0.05448299
-0.02138367 -0.067347415 0.308739 -0.16925693 0.1475837 0.22306775 -0.21751125 0.23718056
0.17586178 0.23089358 -0.06416661 -0.102818765 -0.04824215 0.06304366 0.015129761 0.20982756
0.08897128 -0.39398628 -0.27226353 0.029302789 0.0024897836 -0.1330809 0.050668247 -0.09981313
0.11531463 0.1303222 0.027384227 0.09909977 -0.2636003 -0.5126305 -0.01872243 -0.23529892
-0.04009299 -0.21747746 -0.0659775 -0.06471221 -0.036900394 -0.02608113 0.22659484 0.025778467
0.052631386 -0.05295993 0.19875433 0.062716156 -0.094528146 -0.10197252 -0.035601843 0.17736219
-0.070739426 -0.08604126 -0.007546581 -0.20490615 -0.28581578 0.019274265 0.04609032 0.10171389
0.015123884 0.024753777 0.095049426 0.11394401 -0.095455654 -0.24385136 0.09201595 -0.03367044
-0.109716594 -0.016908394 0.067638144 -0.23565957 0.097390965 -0.39388508 -0.104872555 -0.22844703
-0.1308836 0.002265013 -0.1610876 -0.081100576 -0.018021021 0.12371095 -0.20824032 -0.14676979
0.13672379 0.116725534 -0.017392647 -0.2843157 0.012342302 0.10604489 -0.037553143 -0.42692152
0.23810565 -0.06527195 -0.06898036 -0.3203154 0.23135602 0.23529093 0.1260241 0.16009176
-0.17008121 -0.0020515416 -0.025935357 -0.23051934 -0.10973262 -0.033910815 -0.03211506 0.026475461
0.112334855 0.017814329 -0.37376094 0.06724998 -0.2865755 -0.033900086 0.025109304 0.2242588
0.10963259 0.295162 0.04617838 -0.39133677 0.08600762 0.057233684 0.0016040307 -0.23260295
0.042331636 0.00731267 0.17955491 -0.14337654 -0.067362435 -0.17858599 -0.17035206 0.042370714
00000000: f6dd 843d 6b66 d83d 88fc c73d 469f 483e
00000010: b8a5 97bd c3d0 743e 1ee4 3e3e 84de c9bd
00000020: 0129 c83e 9493 7fbd 7a6a 9c3b 0433 393e
00000030: 6516 c4bc 84fb 943b fce6 be3c 1161 b13d
00000040: b39d 633d 2dd9 8bbd d461 10be a958 14be
00000050: c815 89be 8d35 843e ff50 1b3e dd1c 343d
00000060: da14 da3d 763d fe3d 24a9 2ebd e636 9b3c
00000070: 602c e5bd 7bc8 cb3d 21d6 ca3d 2040 22be
00000080: 3cc2 983e 770d 273e 8d45 d9bd 25b0 35bd
00000090: 9773 d53d 6ce4 8fbe 6a67 11be 2dd8 c03e
000000a0: b9d6 cc3d 5219 643d 4c51 413e 1e6c 043d
000000b0: 75fd 28be 8706 0b3d 4964 573e f898 c03d
000000c0: 3cd5 783d a849 633e 6855 0a3e d1fc bf3e
000000d0: 7313 963d d87b c6bd 000c 29bd b294 e43d
000000e0: 1bd5 973d 65a4 d3bd e22f 09be c9bc 80bc
000000f0: 37d6 6d3e 947e 443d 1cb2 d13e 3555 1a3e
00000100: 47ad febc cf2d 303e b34c 2abe 2c41 09be
00000110: fdac ebbd a5d1 073e dff0 5f3e 82e4 8a3d
00000120: e0e1 923e a6be a2bc ed07 fdbd 6f8a 103e
00000130: 52bd 9c3e ed65 27be 17ac ef3d 455b cd3c
00000140: 618a 213e 6211 843e be3b 523e 9ae5 d0bd
00000150: 4821 66be dbc3 5abc 75f8 0d3d 3590 373e
00000160: 1437 933e e45f 033e 2e49 5dbe d435 67be
00000170: ffcf 5d3e 1f72 213e 7cb8 8cbe adf4 07bd
00000180: 2f4b b63d 3700 283e 032f 1fbe aad5 72be
00000190: d63b 66be d284 dc3d 1fd4 fcbd 3393 f3bc
000001a0: c761 da3c ef18 8a3d 4507 87bd 27c3 64bc
000001b0: db40 083e 1a3e 14bd 2a8e 17bd 19bc 9e3b
000001c0: 406e 2a3e 9dc7 fcbd 42b7 55bd 886d 313e
000001d0: bd38 0b3e 6eca 193e 4195 1bbd d0c7 0d3e
000001e0: ff4e 0bbe c31c d53d e012 7ebc 7a22 53bb
000001f0: 03f1 483e 8b19 fc3d a7a0 30be 8e29 5f3d
00000200: ce2c afbc 71ed 89bd 0a13 9e3e b051 2dbe
00000210: 2e20 173e df6b 643e 45bb 5ebe 76df 723e
00000220: 1c15 343e 5e6f 6c3e c969 83bd a592 d2bd
00000230: 9099 45bd 091d 813d d1e2 773c 09dd 563e
00000240: 9336 b63d 92b8 c9be 2066 8bbe 670c f03c
00000250: a32b 233b 5c46 08be 8289 4f3d d46a ccbd
00000260: 142a ec3d 2f73 053e e354 e03c d2f4 ca3d
00000270: 9ef6 86be c13b 03bf c85f 99bc 33f2 70be
00000280: 8c38 24bd 69b2 5ebe 361f 87bd d687 84bd
00000290: de24 17bd 18a8 d5bc 7a08 683e 5d2d d33c
000002a0: 0294 573d 83ec 58bd 4186 4b3e 5471 803d
000002b0: f997 c1bd f8d6 d0bd 3dd3 11bd 6f9e 353e
000002c0: d5df 90bd 6636 b0bd 4f49 f7bb ebd2 51be
000002d0: 7256 92be 10e5 9d3c 34c9 3c3d 5f4f d03d
000002e0: 2bca 773c 6fc8 ca3c 46a9 c23d 7a5b e93d
000002f0: 417e c3bd 2cb4 79be dc72 bc3d 04ea 09bd
00000300: 18b3 e0bd 7983 8abc de85 8a3d be50 71be
00000310: ea74 c73d 4eab c9be 6cc7 d6bd 05ee 69be
00000320: 5a06 06be 9d70 143b 26f4 24be 0f18 a6bd
00000330: d2a0 93bc 2b5c fd3d f33c 55be d24a 16be
00000340: 5201 0c3e cc0d ef3d 067b 8ebc d491 91be
00000350: 5e37 4a3c 102e d93d 53d1 19bd 7595 dabe
00000360: f8d1 733e 4dad 85bd 9345 8dbd 6100 a4be
00000370: 98e8 6c3e 1bf0 703e 760c 013e 18ef 233e
00000380: c529 2ebe 2873 06bb 6376 d4bc 430d 6cbe
00000390: 7fbb e0bd 11e6 0abd 158b 03bd 11e3 d83c
000003a0: d10f e63d 5bef 913c 985d bfbe 5cba 893d
000003b0: 06ba 92be d1da 0abd 07b2 cd3c 19a4 653e
000003c0: 0d87 e03d 791f 973e 8a25 3d3d 4b5d c8be
000003d0: c324 b03d de6d 6a3d 573e d23a 782f 6ebe
000003e0: f063 2d3d 1f9f ef3b 3edd 373e 4dd1 12be
000003f0: 51f5 89bd 3fdf 36be c570 2ebe ea8c 2d3d

main.8.bias f4 [144]
-0.23440008 -0.15713346 -0.29183856 -0.04276505 -0.17978156 -0.10703914 -0.14188355 -0.22145545
0.18538599 0.12313681 -0.2696968 -0.5043998 -0.086902484 -0.3747996 -0.20455435 0.42811617
-0.21221738 -0.14519945 -0.3147374 -0.58937526 -0.15513322 -0.18885742 -0.056280807 0.16666715
-0.23605247 -0.20266536 0.27977812 -0.11042772 -0.11403957 -0.004710992 0.26407057 0.19513361
-0.24403915 0.027367158 -0.012068514 -0.283045 -0.2836371 -0.017988382 -0.21897018 0.0023145324
-0.08563787 -0.14052556 0.2532533 0.19611968 0.06829753 0.32147333 -0.2887273 0.15427753
-0.16643809 -0.45779228 -0.2335036 0.061673325 0.24234228 -0.20691434 -0.29917002 -0.052382793
-0.009848149 0.15807858 -0.5717863 -0.13543423 -0.27162322 -0.067269 -0.3203625 0.08674262
-0.37869442 -0.3363625 -0.2898582 -0.31911424 0.19136329 -0.34642726 -0.45238355 -0.2748594
-0.071888715 0.12195962 -0.27736434 -0.003561638 0.2250898 0.048334334 0.00025624456 0.05904867
-0.07247966 0.11694696 -0.011035039 -0.3082823 0.03745243 -0.22548193 -0.014947908 -0.13602032
-0.33511212 -0.11988064 -0.53687 -0.2510694 0.086758874 -0.5391807 -0.24105193 -0.38642877
-0.27391517 -0.15657693 -0.010548465 0.019783672 -0.21882458 0.03573071 -0.05752871 -0.27502078
-0.2950332 -0.13345002 0.057434674 -0.38044176 0.08002522 -0.10921545 -0.30859318 -0.045771
-0.16366488 -0.43039775 -0.15620315 -0.3225523 0.05707271 -0.09122709 0.057815414 -0.47884017
-0.07446338 -0.34673008 -0.36747757 -0.16556795 -0.19389643 0.18555336 -0.08993419 0.09594103
-0.29865578 -0.14004873 0.06592819 -0.07382448 -0.2196631 -0.18556419 -0.37773994 -0.1997369
-0.13458113 0.050797805 -0.36442384 -0.42007414 -0.42442963 -0.4470194 0.18130027 -0.37254265
00000000: 9306 70be 98e7 20be dd6b 95be 682a 2fbd
00000010: a818 38be 5637 dbbd ec49 11be 38c5 62be
00000020: d3d5 3d3e 272f fc3d b315 8abe 5820 01bf
00000030: eef9 b1bd bce5 bfbe b276 51be 0b32 db3e
00000040: 834f 59be 2aaf 14be 4325 a1be 4ce1 16bf
00000050: 3edb 1ebe d763 41be b486 66bd cbaa 2a3e
00000060: bdb7 71be 8287 4fbe 143f 8f3e ee27 e2bd
00000070: 948d e9bd aa5e 9abb 4234 873e 1bd1 473e
00000080: 66e5 79be 1731 e03c 04bb 45bc 46eb 90be
00000090: e238 91be 5f5c 93bc b839 60be 69af 173b
000000a0: e862 afbd efe5 0fbe 6baa 813e 99d3 483e
000000b0: 93df 8b3d 2798 a43e 11d4 93be eefa 1d3e
000000c0: bf6e 2abe c063 eabe 911b 6fbe 2b9d 7c3d
000000d0: 9328 783e 5ae1 53be d02c 99be 578f 56bd
000000e0: 215a 21bc 5adf 213e 9660 12bf 45af 0abe
000000f0: 3312 8bbe 54c4 89bd 8e06 a4be 1da6 b13d
00000100: 3ce4 c1be b537 acbe 4b68 94be f162 a3be
00000110: bdf4 433e ea5e b1be d19e e7be 5fba 8cbe
00000120: 643a 93bd f7c5 f93d b302 8ebe 5f6a 69bb
00000130: f17d 663e 39fa 453d 9058 8639 05dd 713d
00000140: 3770 94bd e381 ef3d 4fcc 34bc 2dd7 9dbe
00000150: b867 193d bce4 66be 12e8 74bc e948 0bbe
00000160: d193 abbe fb83 f5bd 5070 09bf 2b8c 80be
00000170: a3ae b13d bf07 0abf 51d6 76be fed9 c5be
00000180: 9c3e 8cbe b455 20be 78d3 2cbc 5e11 a23c
00000190: 8d13 60be 5d5a 123d 3aa3 6bbd 86cf 8cbe
000001a0: 970e 97be 1fa7 08be 9f40 6b3d 43c9 c2be
000001b0: 43e4 a33d 5aac dfbd edff 9dbe 5f7a 3bbd
000001c0: c497 27be 185d dcbe b8f3 1fbe 9325 a5be
000001d0: 13c5 693d 45d5 babd dbcf 6c3d 8a2a f5be
000001e0: 4280 98bd 9b86 b1be 0526 bcbe a58a 29be
000001f0: c98c 46be b301 3e3e 6b2f b8bd bb7c c43d
00000200: 69e9 98be ef68 0fbe 5c05 873d 4a31 97bd
00000210: 5def 60be 8a04 3ebe 2167 c1be d487 4cbe
00000220: a3cf 09be 5c11 503d c395 babe f513 d7be
00000230: d74e d9be badf e4be c7a6 393e e9bd bebe
