trained networks/5306.pt (torch_old, 402021 bytes, 12 tensors)

main.0.weight f4 [144, 5]
000000 00 1f 45 be c7 0b f6 3d c3 cb 5e be af 03 d7 3e
       -0.19250107 0.12013965 -0.21757416 0.41994998
000010 3f 21 12 3c 42 22 94 3e c9 e0 75 3e 91 18 1a be
       0.008919059 0.28932387 0.2401153 -0.15048434
000020 7f 5b 19 be 75 a9 a6 3e 14 ff 71 be c9 5f af be
       -0.14976309 0.3255116 -0.23632461 -0.34252766
000030 4f ff 70 3d c1 a1 5e bd 4c 84 de be b4 fb 03 3f
       0.05883723 -0.05435348 -0.4346031 0.51555943
000040 54 d4 8a be d2 27 36 3e 61 2f b6 bd 87 25 ce 3c
       -0.27115119 0.17788628 -0.088957556 0.025164379
000050 8b 97 c6 3e 81 38 48 bd 72 e7 ec 3d 5f 03 a5 3d
       0.38787493 -0.04888201 0.11567582 0.080572836
000060 01 dc ea be f6 ac 23 be 10 c8 b1 3d 26 23 26 3e
       -0.45870975 -0.15983948 0.08680737 0.16224346
000070 08 01 a1 bd 21 83 1a 3e 3c 22 9e be 05 bc 05 3e
       -0.07861525 0.15089084 -0.30885494 0.13060005
000080 c7 f9 a4 bd ea 14 3c be fd 6c 88 3e 62 8b 88 3e
       -0.08055454 -0.18367353 0.2664565 0.2666884
000090 07 ac d8 3e cc 47 0c 3f fe 9e 91 bd ec 3a a3 be
       0.42318746 0.54797053 -0.071104035 -0.3188089
0000a0 4b 6c ca bd ba 7f a5 bd 21 32 a8 3c e6 af 58 3e
       -0.098839365 -0.080810025 0.020531716 0.2116085
0000b0 39 3d 26 3d d4 dc d3 be aa c9 d8 bc a2 17 1b 3e
       0.04058573 -0.41379416 -0.026463348 0.15145734
0000c0 bb 1e 88 bd dd 37 a2 3e bf 84 a0 3e 6b 6d 44 be
       -0.06646486 0.31683245 0.31351277 -0.19182365
0000d0 bf c3 77 bd c7 ef ef 3d 85 63 9f 3e b6 e5 27 be
       -0.060489412 0.11715656 0.31130615 -0.16396222
0000e0 ff ac 59 bc 6b 89 b0 be c4 30 0f 3e ea 3e 88 bd
       -0.013285874 -0.34479842 0.13983446 -0.06652625
0000f0 28 a9 00 bd 60 ec 69 be df a8 77 3e b6 c3 b8 be
       -0.03141132 -0.22844076 0.24185513 -0.36086816
000100 c2 c8 f5 be ba 2e b9 be f0 af c1 3e 9a 4d 8b be
       -0.4800473 -0.36168462 0.37829542 -0.27207643
000110 02 78 11 be 2c d4 6a 3e b5 d5 8c be bb 37 a7 be
       -0.14205936 0.229325 -0.27506796 -0.32659706
000120 99 16 b0 be ea ab 1c 3e 71 27 79 3e 53 4a 00 3e
       -0.3439224 0.15299955 0.24331452 0.12528352
000130 a9 46 dc bd 09 d9 5a be 65 e4 9a bd 83 02 fb be
       -0.10755665 -0.21371855 -0.07563094 -0.49025354
000140 52 c3 02 bc 84 83 e5 bd 7d d8 ca be 32 18 c9 3e
       -0.007981138 -0.11206725 -0.39618292 0.39276272
000150 1a 6b 82 3d 8e 30 70 be 97 35 5b be ca c6 c8 be
       0.06368084 -0.23456022 -0.21407162 -0.39214164
000160 26 12 0f 3e d8 df 12 3e 4b 17 a8 be 87 e3 84 3d
       0.13971767 0.14343202 -0.3283027 0.0648871
000170 1b 65 78 bc 38 47 f7 3e f0 18 64 3c 77 d5 4c be
       -0.015160824 0.48296523 0.013921961 -0.20003305
000180 bd 53 a0 3e 34 25 a1 be 2d f6 ec bd 5d c3 ff 3d
       0.31313887 -0.31473696 -0.11570392 0.124884345
000190 fd fa b1 be ca fa 80 be b3 dc df 3d 3c 64 de be
       -0.347618 -0.25191337 0.10930767 -0.43435848
0001a0 4a 01 cb 3e 79 42 24 be f1 95 6d 3e b8 c4 88 be
       0.3964942 -0.16040982 0.2320173 -0.26712584
0001b0 67 47 0b 3e c2 7b c7 be 0e b8 9b 3d 1f 3b cd 3d
       0.13601457 -0.38961607 0.07603465 0.10021042
0001c0 11 86 cd bd 7d 61 d7 3e 76 4f d8 3d 1a 1a d8 bc
       -0.10035337 0.42066565 0.10562031 -0.026379634
0001d0 2a 33 83 bc ae dd 56 3e 13 25 c1 be 28 44 9e 3d
       -0.016015608 0.20983002 -0.37723598 0.077278435
0001e0 74 44 ea 3e 85 41 8b 3e 3c 4b 26 bd fa 35 6d bd
       0.4575535 0.27198425 -0.040599093 -0.057912804
0001f0 66 48 fe be 91 7f 88 be b4 c1 a5 3c 30 62 9f be
       -0.4966461 -0.26659825 0.020233966 -0.311296
000200 e9 2c b5 be 88 14 bc be 26 a8 99 3e f7 11 51 3e
       -0.35385826 -0.36734414 0.300111 0.2041701
000210 d6 72 98 be cb 0b 1f 3e 36 ba c2 3e 7a e9 01 3e
       -0.29775113 0.15531842 0.38032693 0.1268672
000220 3c 21 c4 3d 6b 5f 58 3e 24 a4 07 3e 29 aa ed 3e
       0.095766515 0.21130149 0.13246208 0.46418884
000230 dd 8c b1 3e 3b 50 97 3d be c7 5f be 6b c6 d3 3e
       0.34677783 0.073883496 -0.2185354 0.41362318
000240 cf 58 5d 3e 7e 90 9a be 07 1c aa be f4 21 80 3e
       0.21615909 -0.30188364 -0.33224508 0.25025904
000250 da 3c dd be 40 7d 73 bd ed 2b a7 3e 31 8d 0b bf
       -0.4321049 -0.05944562 0.326507 -0.54512316
000260 ac db 48 be dd 8e 42 3d 29 3e 22 be 90 f3 ad 3d
       -0.19615048 0.047499526 -0.15844025 0.084937215
000270 14 bd a6 3e 75 ae 18 3c 6e e5 1f 3e b2 16 97 be
       0.3256613 0.009318938 0.15614864 -0.29509503
000280 6a 8a 65 be ed d4 8a 3d 86 32 85 be dd 3f 81 3d
       -0.22416082 0.067788936 -0.2601511 0.06311009
000290 da 42 0b 3e 35 b7 54 3e 82 f7 10 3d 5c 55 2c 3e
       0.1359972 0.20773013 0.03539229 0.16829437
0002a0 f6 75 c7 bd 3b e2 14 be 48 d6 2a 3e e5 a7 64 3e
       -0.09739296 -0.14539425 0.16683304 0.22329672
0002b0 9b 9e 4e be 73 e7 af 3e 96 71 80 3e eb 55 12 be
       -0.2017769 0.3435627 0.2508666 -0.14290588
0002c0 96 aa 80 3d 7e 72 d4 be e7 02 63 be 26 fb 88 3e
       0.06282537 -0.414936 -0.22169076 0.2675411
0002d0 01 f8 8f 3e 9f 3a c8 be f7 b7 bb be 7f 44 8a 3e
       0.281189 -0.39107224 -0.36663792 0.27005383
0002e0 b1 87 96 be 1b c3 47 3e 63 29 94 be 4e 33 b0 be
       -0.294004 0.1950802 -0.28937826 -0.34414142
0002f0 67 c1 bc 3d fc 76 50 be c1 bb c7 3e 0a d3 c5 3e
       0.09216576 -0.20357889 0.39010432 0.38637573
000300 6d 53 9b bc b8 4b ea bd fc db 94 3e a6 c7 5d be
       -0.018960679 -0.114402235 0.29074085 -0.21658191
000310 ba 20 46 be 23 f5 07 3e 75 91 15 3e 3f 20 6b be
       -0.19348422 0.13277106 0.14606269 -0.2296152
000320 4c cd d0 bd 8c 90 a8 3d 97 58 fd bb 6e 5c c1 be
       -0.10195407 0.08230695 -0.007731508 -0.3776583
000330 c4 8f b9 3e dc a4 81 be 46 04 ff be 45 fd ec 3e
       0.36242497 -0.2532109 -0.49807948 0.4628698
000340 b6 54 74 3e 11 88 69 be 63 4b ac be 74 bd 45 3d
       0.2386044 -0.22805811 -0.33651266 0.04827638
000350 c9 69 1f be 11 cb dc 3c fb e3 96 3d cc a5 f7 be
       -0.15567698 0.026952298 0.073677026 -0.4836868
000360 ea 75 ae be bf ea ed 3e 24 d7 65 be aa a1 aa bd
       -0.34074336 0.4646816 -0.22445351 -0.08331616
000370 15 a7 7c 3e 77 1d a4 3e 9d 32 bb be 65 1a c5 3e
       0.24673112 0.3205373 -0.36562052 0.384967
000380 2e 4a 64 3e 01 fb ed bd 6a 37 74 3e 75 7c 48 3e
       0.22293922 -0.11620141 0.23849264 0.19578727
000390 66 af 9a be 09 3f 21 bd f4 80 b2 3e 7a 37 00 bf
       -0.30211943 -0.039366756 0.34864008 -0.5008465
0003a0 d2 f9 28 bd 17 d4 9a be 72 96 a3 3e bb 84 a2 3e
       -0.041253872 -0.30239937 0.31950718 0.3174189
0003b0 86 10 31 3c 36 69 87 3e 72 ff b8 bc 7c b8 8e be
       0.010807162 0.26447457 -0.022582743 -0.27875125
0003c0 6a ef 00 be cc 8e b7 be 29 83 2a be cc d4 0e be
       -0.12591329 -0.35851133 -0.16651596 -0.13948363
0003d0 6e b3 da 3e 03 ff e7 bd ae 55 aa be 07 33 ec be
       0.4271502 -0.113279365 -0.33268493 -0.4613268
0003e0 f4 bd 92 be 71 8f c4 3e 7b ba dc be c9 95 9d be
       -0.28660548 0.38390687 -0.43111023 -0.3077834
0003f0 4c 9e a9 3e 2a 09 08 bf 8a 58 7d be 00 2d 92 3e
       0.33128583 -0.53138983 -0.24740806 0.28549957

main.0.bias f4 [144]
000000 7e 07 67 3e 7e e9 6b be 14 3b af 3d 26 8f 48 be
       0.22561452 -0.23038289 0.0855619 -0.19585857
000010 f4 cd 76 be 0d bb 27 be 69 6f 7b 3e 2a ed aa be
       -0.24102002 -0.16379948 0.24554218 -0.33384067
000020 37 b9 c0 3e 07 41 9a 3e bd f8 7e 3e 89 80 9b 3e
       0.37641308 0.30127737 0.24899574 0.30371502
000030 7d 16 23 bc f3 eb 74 ba ea 6a 01 3e 4e 78 5b be
       -0.009954092 -0.00093430205 0.1263844 -0.21432611
000040 33 4c f6 be a5 7d b6 3e 27 a9 07 3e 04 65 08 3e
       -0.4810501 0.35642734 0.1324812 0.13319784
000050 74 9b 84 be 0c ed 98 3e d1 e9 79 be 47 cb 9f 3e
       -0.2589985 0.29868352 -0.244056 0.31209776
000060 e6 28 79 be dc 3e dd 3d e4 09 55 be 13 40 fe bc
       -0.24332008 0.10803005 -0.20804554 -0.031036412
000070 31 7e 5c 3c ce 6c 45 3d e4 37 92 be ba ce aa 3d
       0.013457821 0.048199467 -0.28558266 0.08340211
000080 76 cf 13 3e 82 6f 9f 3e c8 3f 71 3e 69 b8 1b 3e
       0.14434609 0.3113976 0.23559487 0.15207066
000090 36 9a 2d be 64 f4 f5 bd 3d 60 17 3e 72 79 c4 3c
       -0.16953358 -0.120095044 0.14782806 0.02398369
0000a0 b3 89 b2 3e ee cd 9b be e4 e6 d0 3e 77 a8 95 bc
       0.3487068 -0.3043055 0.40801156 -0.018268807
0000b0 2d 97 85 3e ba 2e ab be 93 5a 7b bd cf 34 8f 3e
       0.260919 -0.33434087 -0.061365675 0.27969977
0000c0 f8 cc 88 3e 9a a9 a2 3e 70 cb 83 bd cc d7 57 bd
       0.2671888 0.3177002 -0.06435287 -0.052696034
0000d0 68 4b 4f bd b7 ce b5 3e 85 4a ab be d5 e4 a9 3e
       -0.050609022 0.35509273 -0.3345529 0.33182397
0000e0 5d a7 47 bd b4 45 03 bd 33 86 a6 3e 35 37 84 3e
       -0.048743594 -0.032048896 0.3252426 0.2582337
0000f0 51 ee 98 bc 49 4a f2 3d 0c 56 87 be db 07 50 be
       -0.018668326 0.11830575 -0.26432836 -0.20315497
000100 ca f9 d7 3e 68 4a 5a 3e 85 b5 dd 3e 53 8b 82 3c
       0.4218276 0.21317446 0.4330255 0.015935576
000110 22 bb 80 bd 98 c6 a3 bd c7 df 04 be 2c a1 34 3e
       -0.06285693 -0.07996863 -0.1297599 0.17639607
000120 70 3b 47 bc 6e ed ab 3d 22 9c e2 3d 68 b6 ef bd
       -0.012160167 0.083948955 0.11064936 -0.11704713
000130 48 65 42 be af 9d d7 3e 12 a8 b1 3e 24 20 89 be
       -0.18983948 0.4211249 0.3469854 -0.26782334
000140 01 a0 b7 be 2a 77 42 be bf 01 a2 3e 18 f4 af bd
       -0.3586426 -0.1899077 0.31641957 -0.08591479
000150 40 a5 9d bd 7f 9d 2c 3e 65 68 53 be c3 92 cd be
       -0.076975346 0.16856955 -0.20645292 -0.40151033
000160 62 9b ce be a5 91 16 3d a1 81 87 bd 36 7a 65 3e
       -0.40352923 0.03675999 -0.066165216 0.22409901
000170 62 70 5c bd b3 1e 6f 3e de cc 96 be 51 a6 86 be
       -0.053818114 0.23351555 -0.29453176 -0.26298764
000180 76 41 c1 be fd 59 83 3e 29 45 e1 3d 69 08 86 3e
       -0.37745255 0.25654593 0.109995194 0.2617829
000190 3a 64 9c be 5f 71 9c 3d 91 9f 9e 3e 75 7c 9c be
       -0.30545217 0.07638811 0.30981115 -0.30563703
0001a0 73 49 c4 be d3 6a 9e 3e 07 7f 05 3e de de 4d be
       -0.38337287 0.30940875 0.13036738 -0.20104548
0001b0 e7 33 81 be 62 4b 3d 3e b8 78 76 3e cf ae c6 3e
       -0.2523491 0.18485788 0.24069488 0.38805243
0001c0 4a 74 2f be 4e 06 83 bd 9a d0 a5 bd 87 75 ea 3c
       -0.17134205 -0.06397687 -0.08096428 0.028620495
0001d0 cf 21 52 3e 4a 1c 7c be 70 99 d2 3d 4c 85 ac 3c
       0.2052071 -0.24620166 0.10283172 0.021059655
0001e0 82 27 7f bd 93 9d 6a be 77 ca 4d be d3 dc d9 3d
       -0.062293537 -0.22911672 -0.20096765 0.10637822
0001f0 aa 71 31 be 93 43 b3 3e 0a b0 8d 3e 46 eb b3 3d
       -0.17328516 0.35012493 0.2767337 0.08785109
000200 82 87 2d 3d a3 e0 a5 3e bf b0 cb be a5 04 19 3e
       0.04236556 0.32397947 -0.39783284 0.14943178
000210 df 3e 9b 3e e6 aa e8 bd 25 72 5a 3e 8f d6 97 3d
       0.30321404 -0.11360721 0.21332605 0.07413971
000220 31 4f a3 bd 59 40 27 3d b4 68 15 3e 4a 44 a0 3d
       -0.07974089 0.04083285 0.14590722 0.07825525
000230 5a e4 b7 be 2e e2 84 3c f2 a5 dc be ee b6 ad be
       -0.35916406 0.016221132 -0.43095356 -0.33928627

main.2.weight f4 [144, 144]
000000 72 19 82 bd 01 ae 8b 3d 90 20 55 bd da 8b 9b 3d
       -0.063525096 0.06820298 -0.052033007 0.07595034
000010 66 bd fd ba 6f fa 80 bd 22 db ad bd ee eb ce bc
       -0.0019358813 -0.062977664 -0.08489062 -0.025258984
000020 a7 7a 4b bd 64 83 20 be 56 22 d7 bc 6d 58 95 3c
       -0.049677517 -0.15675122 -0.02626149 0.018230641
000030 46 7b a6 bd 35 c0 89 bd 47 a9 9e bd 66 dc c9 3d
       -0.08128981 -0.06726114 -0.07747131 0.09856491
000040 aa df a0 3d 70 09 08 bd 39 c5 f8 bd 10 89 2d bd
       0.078551605 -0.033212125 -0.12146992 -0.04236704
000050 61 44 85 bc 7e dd 6a bd 47 bb 46 3d 38 b3 a6 bd
       -0.016267957 -0.057340138 0.048518445 -0.08139652
000060 a6 eb 93 3d 5b 4b 18 bc 6e fe 67 3d c0 e3 5f bc
       0.07222681 -0.00929531 0.056639127 -0.01366514
000070 7a 32 b3 3d 51 d6 f4 3a 6a 96 09 3e d2 0e 39 bd
       0.08749862 0.0018679594 0.13436285 -0.04518015
000080 b2 74 46 3c fb f2 47 3d 2b 26 af bb 8a 16 d3 3c
       0.012112783 0.04881571 -0.005345126 0.025767583
000090 49 45 be 3d 34 03 0e 3e de f0 a6 bb 47 5f cc bd
       0.09290559 0.1386841 -0.0050946316 -0.0997911
0000a0 60 ed 3a 3d 53 51 92 3d e9 8c 0a be 11 f9 a6 bd
       0.045636535 0.071444176 -0.13530315 -0.081529744
0000b0 43 45 b5 3d 41 65 a0 3b 2b f2 72 3d c8 3d 43 3c
       0.08851101 0.004894883 0.05931298 0.011916585
0000c0 ff 3b 7b bd 6a 57 79 bd a4 46 79 bd fb c7 21 3d
       -0.061336514 -0.06087438 -0.060858384 0.039497357
0000d0 4b 72 39 3d d2 fc 56 3c 6e 6d 7e 3d ea 8f c3 bd
       0.045275014 0.0131218005 0.06211608 -0.09548934
0000e0 34 69 1d be d0 5d 05 3d 81 14 e3 bc 88 ad 55 3d
       -0.15372163 0.03256017 -0.027719738 0.052167445
0000f0 88 03 41 3d 53 f9 d5 3d 62 14 23 3e 49 39 4c bc
       0.04712251 0.104479454 0.15925744 -0.01246483
000100 7e bf 3e bd b9 f3 9f bd ea 8d 88 3c 03 14 d7 3d
       -0.04656934 -0.07810158 0.016669232 0.10501864
000110 2c e3 20 3b c8 d1 e1 3d 7f 08 51 3d 57 fb 09 bd
       0.0024549467 0.11026341 0.051033493 -0.033686962
000120 be 3e b3 3c 7a 08 89 bd 65 a0 17 3d 0b 96 c7 bd
       0.021880504 -0.0669107 0.0370182 -0.09745415
000130 4e c4 a0 3d 50 ca 74 bc f6 db ea 3c 3d f7 68 3c
       0.07849942 -0.014940813 0.028669339 0.014219102
000140 c2 16 bc 3d ed 48 df ba bd 9d ca bc 88 21 6f 3d
       0.09184028 -0.0017035283 -0.024733419 0.058381587
000150 a8 57 a7 3d 2d eb b7 3c 48 e5 7d bd f4 e4 da bd
       0.08171016 0.022451008 -0.061986238 -0.106882006
000160 47 d5 18 bb a8 f1 aa bd 41 90 12 be 91 8c b0 bc
       -0.0023320483 -0.083468735 -0.14312841 -0.021551402
000170 5e 57 81 bd f7 e1 5e 3d 89 6b 8e 3c ee 40 c4 bb
       -0.06315492 0.054414716 0.017385261 -0.0059891855
000180 83 de 11 3d a1 55 9d 3d e9 08 8a bd 78 15 c0 bc
       0.035612594 0.07682348 -0.06739981 -0.023447737
000190 1e 84 b5 3d ba fe 99 3d c5 af bb bd 88 87 72 bd
       0.0886309 0.07519288 -0.09164385 -0.059211284
0001a0 ab 7a e1 3d ca b5 10 be 97 2d b9 3d 9e 5f a1 3d
       0.11009725 -0.14131847 0.09041899 0.07879566
0001b0 72 72 d7 bb 85 0c e4 bc 1b 63 24 3d fe 5c 85 bc
       -0.0065749222 -0.027838001 0.040133577 -0.016279694
0001c0 ff 5d f6 3d 27 f8 c4 3d 02 27 1c 3d 66 37 23 be
       0.12029647 0.09617644 0.03812314 -0.15939102
0001d0 ab da 35 bc bd 5b 5d 3b 73 fb 8c 3d d3 fd 51 bc
       -0.011099498 0.0033776604 0.06883898 -0.012816864
0001e0 f9 8d e3 3d 62 90 4e 3d 75 8e e7 bd 88 7f 0c be
       0.111110635 0.050430663 -0.113064684 -0.13720524
0001f0 a2 0c ae bd dd fd aa 3d 08 6f d2 bd be ef c9 bd
       -0.08498503 0.08349202 -0.10275084 -0.0986018
000200 f9 55 9a 3d 67 0c 03 bd 76 30 a2 3d d3 99 3f bd
       0.07535929 -0.03199425 0.079193994 -0.046777558
000210 03 12 df bd ec 83 14 3e e4 2d b3 bd 1f f8 01 3e
       -0.10892107 0.14503449 -0.08748987 0.12692307
000220 ff f6 4d 3d 2c b4 91 3d 8f 1f 7e 3d 34 91 93 3b
       0.050284382 0.07114443 0.062041815 0.0045033935
000230 a1 e9 cf bb c1 85 0c be db 83 0a 3d db 2a 59 bd
       -0.0063449894 -0.13722898 0.033817153 -0.053019386
000240 c3 02 82 bd b6 e5 de 3d 9f e8 2b be b0 87 02 3e
       -0.06348183 0.10883658 -0.16787957 0.12747073
000250 3a 3a ae 3d 1b 97 7a bb de 54 27 bd d3 f9 14 3e
       0.085071996 -0.0038237039 -0.04085242 0.14548425
000260 eb 9d 2a bd e3 9b d1 bd 46 14 28 3d 04 18 34 bd
       -0.04165451 -0.10234811 0.04103496 -0.043968216
000270 4f 00 b1 bd 69 d1 29 bd 50 db b7 bd ef 2d 48 3d
       -0.08642637 -0.041459475 -0.089773774 0.04887193
000280 20 15 9b 3c fb f6 0a be 26 f5 11 3d 77 36 72 b9
       0.018930972 -0.13570778 0.035634182 -0.00023099208
000290 96 70 24 3d b5 d4 38 be de 32 ea 3d 31 e0 ad bd
       0.040146433 -0.18049891 0.114354834 -0.08490027
0002a0 25 b9 b6 bc 69 80 20 be ae 36 93 3d 84 76 01 3e
       -0.02230508 -0.15673985 0.07188164 0.12642866
0002b0 a8 d5 57 3d 00 d8 b6 bd 1b 00 a0 3d b5 c5 8b bc
       0.052693993 -0.089279175 0.0781252 -0.017062047
0002c0 42 c8 5d bd 9d 38 51 3d 91 0c 36 3d 7e c2 ba bd
       -0.05414606 0.05107938 0.044445578 -0.09119128
0002d0 5a 03 53 3d 1a 26 ce 3b 8e 17 03 bd 57 43 e4 bd
       0.05151687 0.006291163 -0.032004885 -0.111456566
0002e0 7e c7 40 bd b5 e8 07 bd af 23 ad bd e8 96 05 be
       -0.04706525 -0.03318091 -0.08454072 -0.13045847
0002f0 2c 37 80 bd cb 69 8c 3d 2b b1 87 3d d9 7d 36 3d
       -0.06260523 0.06856116 0.06625589 0.04455361
000300 d9 bb 3c bd 8c a9 87 3c a9 2e d6 bd e9 78 e1 3d
       -0.046077583 0.016560338 -0.104581185 0.1100939
000310 f6 a4 c7 3d f6 29 2b 3d 1c 17 c4 3d e4 52 d6 bc
       0.09748261 0.041788064 0.0957472 -0.026162572
000320 f5 cf 8a 3b 03 2c 2e 3b 02 71 c0 bd f6 7b 9a 3d
       0.004236216 0.0026576526 -0.093965545 0.07543175
000330 0a 84 d4 3c d0 fe e9 bd 62 93 35 3e 96 9f 10 3d
       0.025941867 -0.11425555 0.17732003 0.035308443
000340 87 42 d0 bd 92 b0 b1 bd 08 cb 3f bd 9f 2e b6 bc
       -0.10168939 -0.08676256 -0.046824485 -0.022239028
000350 8b 75 16 3d 46 2b c4 3d 28 ea ee bc ad f7 2a bc
       0.03673319 0.09578566 -0.029164389 -0.010435027
000360 23 66 01 3d fc c9 02 bd bb 3d d8 3c d3 e5 da bd
       0.031591546 -0.03193091 0.026396623 -0.10688367
000370 f6 56 9a bc 39 d1 d4 bc e8 0f 5c b9 35 0a ff 3d
       -0.018840294 -0.025978671 -0.0002098676 0.12453119
000380 a2 67 8d 3d cc 98 d6 3c a9 a5 5b bc 22 17 ab bc
       0.06904532 0.026195906 -0.013406196 -0.020885054
000390 3c 4b e0 3d 70 e4 1e 3d 36 91 e7 bc f4 c3 03 bc
       0.1095185 0.038792074 -0.028267484 -0.008042324
0003a0 d1 cd c5 3d 9d 08 d1 3c ba 17 a0 bd 02 a4 69 bd
       0.09658397 0.025516802 -0.078170255 -0.057041176
0003b0 61 75 85 3d 21 d1 2b bd 13 8d 4d bc ea ae 55 bd
       0.06516529 -0.041947488 -0.012545842 -0.052168764
0003c0 a4 11 2e bd 15 d4 bb 3c fd 4c 89 bd 0c 7a cd bd
       -0.042497292 0.022928277 -0.067041375 -0.10033044
0003d0 8d 06 3e bd d2 8d 59 bd 62 95 96 3c 3a 4c 3b 3d
       -0.046392966 -0.053113766 0.018381778 0.045726992
0003e0 39 30 8e 3d c3 6c 6b bd c5 0c 62 3d 41 06 d0 3d
       0.069427915 -0.05747677 0.05518796 0.10157443
0003f0 13 a6 25 3d 12 94 47 3d 06 bc 1b bd 06 cf bf bd
       0.040441584 0.048725195 -0.03802111 -0.093656585

main.2.bias f4 [144]
000000 11 1e d2 3c e0 3b c9 bc ca 9e 55 bc 03 41 90 39
       0.025649102 -0.024564683 -0.013038347 0.00027514258
000010 ae 04 43 3d b6 82 d0 bd f2 be df bd 4e 0e 53 3c
       0.047611885 -0.10181181 -0.10925092 0.0128818285
000020 00 31 63 3d 10 52 16 bd 1c 5d 53 3d 6e 4c a7 3d
       0.055466652 -0.036699355 0.051602468 0.08168875
000030 76 8c 34 bd eb b6 26 bd ce 21 41 be 91 8e 21 3e
       -0.044079266 -0.040701788 -0.18860552 0.15777041
000040 7b 52 42 3d 99 cb 88 3d 96 ce dd 3d e6 3f a9 bd
       0.04744194 0.06679458 0.10830419 -0.08264141
000050 8f 1c 3c bd 3b 54 22 be f0 92 1b be cb f4 92 bd
       -0.045925673 -0.15852444 -0.15192771 -0.07175597
000060 f1 e2 2c bd cc d4 f1 bd b7 eb 48 3d d2 94 1c 3e
       -0.042208616 -0.11808166 0.04905292 0.15291145
000070 80 95 5d bd 62 15 a5 b9 09 97 89 3d 2d bc e7 bc
       -0.054097652 -0.00031487184 0.06718261 -0.028287971
000080 a4 07 0b bb bb 0f 06 be be 9f ea bc df 8d 16 bb
       -0.002121427 -0.13091938 -0.028640624 -0.0022972745
000090 d7 18 87 bc ec e9 75 3d c8 26 4f 3d 8d b8 61 ba
       -0.016491337 0.06003754 0.050574094 -0.0008610569
0000a0 5f 1b 63 3d 9b de 67 bd 44 bc 0e be fb 7a 9d bb
       0.055446025 -0.056608777 -0.13939005 -0.00480592
0000b0 22 9f f4 bd f6 b0 56 3c be c8 34 bd be 14 1f 3b
       -0.11944415 0.013103714 -0.044136755 0.0024273838
0000c0 a2 bd 16 be eb c0 e0 bd a7 16 0b bd ff d9 0e be
       -0.14720777 -0.10974296 -0.03395715 -0.13950346
0000d0 85 df d7 3c 43 b2 e1 3d df 72 70 3c c4 b9 20 bd
       0.0263517 0.11020329 0.014675825 -0.03923966
0000e0 2d 4e 90 3c a4 08 e6 3c c8 0b 37 bd b7 83 9d bc
       0.017615402 0.028080292 -0.04468897 -0.019227846
0000f0 a8 1e ea bd 14 4e 03 3c 34 1a 8f bd 99 bd 7a 3c
       -0.114316285 0.008014221 -0.0698742 0.015303993
000100 af 06 58 bc cc 7f b1 bd 0c 18 8c 3d b3 f4 b8 bc
       -0.013185187 -0.086669534 0.06840524 -0.02257762
000110 dd 89 2c be 18 e3 6c 38 6a a5 a7 bd 4e 74 dd 3c
       -0.16849466 5.6478282e-05 -0.08185847 0.027032997
000120 5b ed 63 bd 89 36 0e bb e3 b8 f9 bc ff 5c df bb
       -0.05564628 -0.0021699986 -0.030483669 -0.006816506
000130 1b 25 cd 3c d2 74 75 bb 53 73 e5 bd 5c 71 8e bc
       0.025042107 -0.0037453664 -0.11203637 -0.017388038
000140 6a 9f 8c bd ec eb bb 3d 56 3f de bb 37 8c 74 bc
       -0.06866343 0.09175858 -0.0067824526 -0.014926008
000150 d4 ee bf 3d 62 55 bc bc a1 55 8e 3c c7 da 98 bd
       0.09371725 -0.022989932 0.017374815 -0.074636035
000160 88 1d fa bd dc f3 c7 bd 95 92 1a bd e4 da 89 3d
       -0.12212664 -0.09763309 -0.037737448 0.06731203
000170 67 e0 2c bd f5 f2 79 ba 8c 16 79 bc 8a ae 0d 3d
       -0.042206194 -0.00095347996 -0.0152031295 0.03459028
000180 a2 e5 15 bd cf f8 8c 3d 10 91 85 3c 7b c4 aa 3d
       -0.036595948 0.06883394 0.016304523 0.08338257
000190 26 d3 92 3c ae d2 c8 3d e3 2b a4 bd 44 42 4e bc
       0.017922949 0.09805809 -0.08016183 -0.012589041
0001a0 55 7d bb bd 66 a2 bd 3d 4f 34 09 bd 4c 03 31 3d
       -0.091547646 0.09259491 -0.03349715 0.043216035
0001b0 6d 93 89 bd 09 8f 07 bd b6 0b 23 3d ef c2 c7 3d
       -0.06717572 -0.033095393 0.03980609 0.097539775
0001c0 17 2e 62 3d da 28 8f bd d1 b3 9e bd ee 14 42 3d
       0.055219736 -0.06990214 -0.07749141 0.04738324
0001d0 57 63 f4 bd 79 cc 00 3d b3 81 df bb 64 02 8c bd
       -0.1193301 0.031445 -0.0068208813 -0.068363935
0001e0 a4 80 18 be 23 f5 a3 3d 5e e0 b7 bd 2f 16 1c 3d
       -0.14892823 0.080057405 -0.089783415 0.038107093
0001f0 18 a0 85 3c a9 d4 01 3e 39 78 cb bd dc d4 d7 3d
       0.01631169 0.1267878 -0.0993504 0.105386466
000200 92 17 ed bd 18 a9 db bd b6 ff 1b bd 1f b6 4f bc
       -0.11576761 -0.107256114 -0.03808566 -0.012677698
000210 60 31 14 3e c7 9b 4f be df 95 0a 3e 58 1e 74 bd
       0.1447196 -0.20274268 0.13533734 -0.05959925
000220 98 26 39 3d 79 e7 53 3d fd 07 47 bd b1 32 99 3c
       0.04520282 0.05173442 -0.048591603 0.01870093
000230 a2 b3 0b bc 5f a4 fe 3c fc b9 26 3d d4 28 cc bb
       -0.0085267145 0.031084238 0.040704712 -0.006230453

main.4.weight f4 [144, 144]
000000 27 92 6a bd f1 af a7 bd fd 4d 0a be f9 10 bc 3c
       -0.057268288 -0.08187855 -0.13506313 0.022957312
000010 75 d6 f9 3b 31 4e a6 3d 18 34 9b bc 77 0c 1d bd
       0.007624442 0.081203826 -0.018945739 -0.038341966
000020 51 35 f6 bd ea 33 fd bc dc ce 0e 3c 1a cb 95 bd
       -0.12021888 -0.030908544 0.008716311 -0.07314129
000030 74 3a 32 3c 46 21 41 3d 85 0b 43 3d 2f a3 08 bd
       0.010878194 0.047150873 0.047618408 -0.03335875
000040 71 94 a0 3d 7b df ba bd ca d6 49 3d 09 56 88 bc
       0.07840813 -0.09124657 0.049277104 -0.016642587
000050 86 2a 60 3d 64 f5 97 bb 2b 13 1b 3d c4 e6 39 3d
       0.054728054 -0.004637407 0.037860077 0.04538609
000060 40 62 3a 3d 49 04 76 3d 78 e0 9d 3c 5d a6 3e bd
       0.045503855 0.06006268 0.019272074 -0.046545375
000070 c0 d3 e1 bd 6c 7a fb bd 12 88 ed 3c 90 d5 b0 bc
       -0.11026716 -0.122792095 0.028995547 -0.02158621
000080 7f 05 81 bd 28 62 ab 3d 25 b2 8f bd 34 a5 c5 3d
       -0.062998764 0.08368331 -0.070164 0.096506506
000090 2f 1e 8e bd 01 33 23 bd 0b 2a 2d be 85 74 de bd
       -0.06939351 -0.039843563 -0.1691057 -0.10862068
0000a0 13 41 e5 3d 01 9e d3 bc fd 38 75 bd 39 08 d3 3b
       0.111940525 -0.025832178 -0.0598688 0.006440189
0000b0 16 62 8f bc 09 da 59 bd 82 98 db 3b 1f 71 e7 3c
       -0.017502826 -0.05318645 0.00670153 0.028252183
0000c0 72 bf 1a bd 8b 28 94 bd 89 02 a6 3c 25 db e2 bd
       -0.037780233 -0.072342955 0.02026488 -0.11076955
0000d0 4c 83 9a bd b8 c7 18 be f7 c0 6b 3d e7 7c 84 bd
       -0.07544574 -0.14919937 0.057557072 -0.06469136
0000e0 3a 10 a2 bd 08 7f 81 3d 91 7b 3a bd 9c d3 49 3d
       -0.07913251 0.063230574 -0.045528 0.049274072
0000f0 9b 66 ad 3d dd 73 b8 bd 43 a1 c6 3b 30 59 69 bc
       0.08466836 -0.09006474 0.0060617044 -0.014242455
000100 9e e8 01 bd 12 44 d9 bd c4 f3 17 bd f6 86 11 bc
       -0.03171598 -0.106086865 -0.037097707 -0.008882275
000110 6a 27 19 3c 94 b8 9f 3d 69 6a 99 3d d2 e3 4e bc
       0.009347776 0.07798877 0.07490999 -0.012627559
000120 96 d2 e3 bd 92 1b 41 3c f2 3f c7 bb 2d da 46 3d
       -0.111241505 0.011786358 -0.006080621 0.048547912
000130 1a 03 ba bd 3a 2d c3 bd b1 15 a7 bd a8 ab a2 3b
       -0.09082623 -0.09530111 -0.08158434 0.0049643107
000140 00 f6 c0 bc 2b 2d fe 3b a6 0d 53 3d 94 a4 f6 3c
       -0.023554802 0.0077568493 0.051526688 0.030107774
000150 b4 3f 35 be 74 b1 05 bd d3 d6 68 bd 3e fb 9b 3d
       -0.17700082 -0.032639936 -0.056845497 0.0761628
000160 08 56 c7 3d db ab fc 3c a5 08 7f 3d 53 61 25 be
       0.09733206 0.030843666 0.062264103 -0.16150407
000170 8e 5c 58 bc 85 d6 9b 3d fd 3d 5e 3d 3b 20 07 bd
       -0.0132056605 0.07609276 0.054258335 -0.03298972
000180 e4 6a 16 bd be e8 15 3c e1 81 6a bd df ba 47 3d
       -0.036723033 0.009149728 -0.05725277 0.0487622
000190 0f 33 db 3c c3 10 b5 bd 3a fd d5 3d 5b 9b 0c be
       0.026757745 -0.08841088 0.1044869 -0.13731138
0001a0 85 6f 84 3d 1d 0e 0d 3e 18 60 98 bc 7f 5d a1 3d
       0.06466583 0.13774915 -0.018600509 0.07879161
0001b0 76 49 57 3d 1f 6f fc bd 27 c7 e5 bd 44 8a 81 bd
       0.052560292 -0.12325882 -0.11219626 -0.063252
0001c0 6a 3b 1f be 50 7b 59 3d f1 67 35 bd 6f 5d 37 bd
       -0.15550008 0.053096116 -0.04428858 -0.04476684
0001d0 aa af 7f bd 3a fa a0 bd 16 c6 c9 3c 08 38 49 bd
       -0.062423386 -0.07860227 0.024630588 -0.0491257
0001e0 f2 78 86 3d 11 c0 1a be ec f8 15 bd 51 ab c8 bd
       0.06566037 -0.1511233 -0.036614344 -0.09798301
0001f0 3e 65 44 be f7 ec ff bc 30 cb 31 bc b0 d5 2d bb
       -0.19179246 -0.031240923 -0.010851666 -0.0026525073
000200 2c 89 96 3c e1 b1 d8 3c 78 35 21 bb 44 34 88 bd
       0.018375956 0.026452007 -0.002459852 -0.06650594
000210 54 1d 2b bd 45 68 99 bb 4f 4e b6 3b e7 3f bf bb
       -0.041776016 -0.0046816193 0.0055635343 -0.005836475
000220 56 95 40 3d c8 29 c8 3d 8c e2 2b 3d 7f 49 80 3d
       0.047017418 0.09773594 0.0419641 0.06264018
000230 ec fb 78 3d cd 99 df bb 09 7b 23 ba 6d f4 8c bc
       0.060787126 -0.0068237544 -0.000623629 -0.017206395
000240 63 76 e9 3c 2c c0 5d 3b a4 99 2f 3c d2 59 16 bc
       0.028498834 0.0033836467 0.010717783 -0.009176688
000250 6d b4 fd 3c 4d 8e 08 bd 9a ab 1a 3c 9b 0c 27 bd
       0.030969823 -0.033338834 0.009440327 -0.040783506
000260 4a 7e 16 be 28 89 a5 3d d0 05 a1 bc 62 b8 de bd
       -0.14696613 0.08082801 -0.019656092 -0.10875012
000270 ad f0 1b 3e b1 57 88 bd f9 2b 20 bc a0 bb 7b bc
       0.1522853 -0.06657351 -0.009776109 -0.0153645575
000280 df 94 7e 3d 22 79 8c bd cf 59 a3 3c 6d 5e 7f 3a
       0.062153693 -0.06859042 0.019940285 0.00097415486
000290 1c 08 13 3d d4 18 f1 bc 88 8f ed 3d 16 f3 0f 3d
       0.035896406 -0.029430784 0.11599642 0.035143934
0002a0 96 4b 08 3e eb 62 df 3d 06 1e 9c 3d 4e a3 62 3d
       0.13310084 0.10907539 0.07622914 0.05533152
0002b0 f7 80 b5 bc c8 0f 8e 3d 78 09 cc 3d a6 1c e9 3d
       -0.022156222 0.06936604 0.099627435 0.113824174
0002c0 7d 2d 01 3c 90 e7 6c 3d 6d c1 b5 bd 82 99 14 3d
       0.00788438 0.057838023 -0.08874784 0.03627921
0002d0 b4 a0 8e bc 61 dd d2 3b c5 f2 0f be 09 33 c3 bd
       -0.017410614 0.006435082 -0.14057453 -0.095312186
0002e0 fe 80 eb 3c b6 87 75 bd 1b 94 a1 3b 89 df 21 3d
       0.028748032 -0.059943877 0.0049309856 0.03951982
0002f0 68 85 78 bc d8 67 aa 3c 50 30 bf 3d c5 c1 51 3d
       -0.015168525 0.02080147 0.09335387 0.051210184
000300 20 c9 3c bc bf 8c d2 bd fd 28 52 3d 9f fe 1f bc
       -0.011522561 -0.102807514 0.05130862 -0.009765296
000310 18 56 11 bd e1 3d bf 3c b1 90 4d 3d be aa 2a 3d
       -0.035482496 0.023344936 0.050186817 0.04166674
000320 68 eb ca 3d 25 bd 92 3d b5 31 f2 3d fd 94 92 bc
       0.099081814 0.07164983 0.11825887 -0.017893309
000330 1d a6 f2 3c 7f a8 46 3c d0 17 98 bd 04 dd ea bc
       0.029620225 0.012125134 -0.07426417 -0.028669842
000340 ba 1f 1f bc e8 8f d3 bd 40 20 19 be ed 19 99 bc
       -0.009712154 -0.10330182 -0.14953709 -0.01868912
000350 97 81 2f bd 08 82 f5 3c 5a 76 b6 bb b7 e6 38 3e
       -0.042848196 0.02996923 -0.005568308 0.1805676
000360 6a 37 82 bd 4c 2e 5a 3d 1d 84 5d bc d8 f6 06 3d
       -0.06358226 0.05326681 -0.013520268 0.032950252
000370 77 5c 8a bc d6 69 4a 3c 04 10 d6 bd c6 97 10 3e
       -0.016889794 0.012354335 -0.104522735 0.14120397
000380 6d 57 c6 bd bb aa 36 3d a5 db 0c 3e 9d 94 e4 3d
       -0.09684644 0.044596415 0.13755663 0.11161158
000390 34 68 25 3d 56 b9 0f 3d d6 06 02 3b eb 2e 13 3e
       0.04038258 0.03508886 0.00198405 0.14373367
0003a0 ea 3b 07 3e 37 54 8d 3d 58 a4 6f 3d 7f 3b 83 bb
       0.13206449 0.06900828 0.05850634 -0.004004895
0003b0 dd f4 51 bc c4 c7 04 3e ac 7c 21 3d df a6 aa bc
       -0.012814728 0.1296683 0.039425537 -0.020831523
0003c0 cf 62 c9 3b 43 69 56 3d 49 48 08 3d 81 1f b8 bc
       0.006145812 0.05234648 0.03327206 -0.02247596
0003d0 57 de 1b 3e 9e 20 96 3d 37 0e d7 3d ad 4a 0c 3d
       0.15221535 0.0733044 0.10500758 0.034250904
0003e0 31 e6 52 bd 73 56 d0 bc fb 6b ca 3d 14 32 af 3d
       -0.05148906 -0.025431847 0.09883877 0.085544735
0003f0 85 70 58 3d c6 c1 2c bd d7 6a b4 3c 1d 42 80 3d
       0.052841682 -0.042176984 0.022023601 0.0626261

main.4.bias f4 [144]
000000 57 0d cc 3c 03 12 39 3d d7 e5 30 be fc 3c 00 be
       0.024908705 0.045183193 -0.17275177 -0.12523264
000010 f5 95 64 be 8b a2 0b 3e 0d 6e 16 3d 6f b7 31 be
       -0.22322829 0.13636224 0.036726046 -0.1735513
000020 f7 a8 c6 b9 f4 94 63 3d 0a 6a 65 bb 51 7b 81 be
       -0.00037891392 0.055561975 -0.003500583 -0.25289395
000030 66 e4 cb bc d6 80 8d bd 0c 8f 0c 3e 77 5e c6 3d
       -0.024889182 -0.06909339 0.13726443 0.096859865
000040 ea 28 4b 3c 31 bb d6 3d 0c 66 0c bd f5 95 54 3e
       0.012399891 0.10484923 -0.034277007 0.20760329
000050 37 0e ea 3c 89 78 30 be a5 14 12 bd 43 29 f7 3c
       0.028571231 -0.1723348 -0.03566422 0.030171042
000060 4b d9 91 bd 64 6d c3 3d 7f b3 13 be 6d c7 69 3c
       -0.071215235 0.09542349 -0.14423941 0.014268738
000070 bc df 8f bd 28 13 ba bd 94 2b 04 bd 97 de 36 3c
       -0.07025096 -0.09085685 -0.03226812 0.011161468
000080 4f a7 a8 3d 93 01 9f bd 6d 73 da bc f1 02 fd ba
       0.082350366 -0.07763972 -0.026666367 -0.0019303245
000090 91 7b ff bd 72 3f 62 be 8f 30 1f be 9d 75 ca bd
       -0.1247474 -0.22094515 -0.15545867 -0.09885714
0000a0 c3 63 17 be 34 b8 2b 3c 90 61 95 3d e0 1f ff bc
       -0.1478415 0.010480929 0.07293999 -0.031143129
0000b0 bf d3 c0 3d 09 d3 6e 3c 93 b0 23 bd 92 78 bc bd
       0.09415387 0.014576682 -0.039963316 -0.092026845
0000c0 d2 85 9c bd 40 cc 1c 3e 31 70 79 3e 12 18 92 bc
       -0.07642712 0.1531229 0.24359204 -0.017833743
0000d0 a3 cf 9e bd 2a 67 d9 bd 75 21 be bd 80 4f db bd
       -0.07754447 -0.1061538 -0.09283725 -0.10708523
0000e0 58 f5 cc bd 4b 7c 89 be 21 52 08 3d 77 1d 49 3d
       -0.10007733 -0.2685264 0.03328145 0.049100365
0000f0 da a3 1f 3d b9 24 89 be 6c 23 dd 3d bf a2 2f be
       0.03897462 -0.2678583 0.10797772 -0.17151926
000100 31 df cc 3d c3 00 27 be 07 18 7e bd ee 6f c4 3d
       0.10003508 -0.16308884 -0.062034633 0.095916614
000110 4a fa ba bd fc 6f bb 3d d6 ae c9 bd 14 b5 5b 3d
       -0.0912977 0.09152219 -0.098478004 0.053639486
000120 77 3b 4b 3e a0 bc 92 bd ec b2 7e bc 46 56 0f be
       0.19846903 -0.071648836 -0.015545588 -0.13997754
000130 a0 a6 4a 3d da c1 0b 3e 10 75 c1 3d 34 27 86 bc
       0.049475312 0.13648167 0.09446156 -0.016376115
000140 23 b6 01 be 6e 61 67 3d 04 aa 8b 3e 6a 03 34 be
       -0.12667136 0.0564894 0.2727815 -0.17579427
000150 f7 cb d7 3d ec 87 40 3e e5 23 06 3e 5d dc 22 bd
       0.1053695 0.1880185 0.1309963 -0.039760936
000160 91 dc 6f bc 7a 16 da bc e6 39 ff 3c 1a c8 1d bd
       -0.0146399895 -0.026622046 0.031155538 -0.03852091
000170 c8 f5 af bd ad 52 de bd 9c fb 87 3d 1d 5b 83 bd
       -0.08591801 -0.10855613 0.066397876 -0.06413863
000180 78 1c 3e 3e 2f ed 81 3d a0 53 93 3d d7 20 39 bd
       0.18565547 0.06344067 0.071936846 -0.045197334
000190 66 1a 0d 3e 60 80 30 be 5d 89 90 bd fa 49 87 bd
       0.13779601 -0.17236471 -0.0705745 -0.06605907
0001a0 63 79 0f bd 30 0e 67 bd db 2c 4b be 66 47 df bd
       -0.035027873 -0.056410015 -0.1984133 -0.1090229
0001b0 90 09 fa bd ae 00 a9 3d 55 ee c6 3c 5f 35 fb bd
       -0.12208855 0.08252083 0.024283567 -0.12266039
0001c0 65 e1 da bd 5d 82 68 be b8 28 8e bd 36 58 8f bd
       -0.10687522 -0.2270598 -0.0694136 -0.06999247
0001d0 48 ef 3a 3d d7 86 82 be a5 ee 9c bd dc ca c4 bc
       0.045638353 -0.254935 -0.07662705 -0.024022512
0001e0 2a 2a b6 3d e1 71 93 3d 94 75 12 3e bf 24 a5 bd
       0.08894761 0.07199455 0.14302665 -0.080636494
0001f0 71 dd c5 bd 2c ea 45 3e 27 55 ab bb 70 ff 44 bd
       -0.09661377 0.1932761 -0.005228657 -0.048095167
000200 72 d2 39 3d fb 06 9a bd c3 f1 f6 bd 00 9c 69 3e
       0.045366712 -0.07520863 -0.12057831 0.22813416
000210 86 1d 89 3d b8 e9 f0 3d 1d 0a bb bd ab e6 03 3e
       0.06695084 0.11763328 -0.09132788 0.12880962
000220 1b e5 63 bd 64 cb c1 bd f2 9e d4 3c 44 81 8e 3d
       -0.055638414 -0.09462622 0.025954697 0.06958249
000230 3e 8e c2 bd 22 16 2b 3d e7 e3 f2 3d 4c e2 60 3d
       -0.09499787 0.041769154 0.11859875 0.054903314

main.6.weight f4 [144, 144]
000000 cb 32 93 3d 6e ae de 3d 78 b1 95 bc 23 e7 9d bd
       0.07187422 0.108731136 -0.0182731 -0.077101015
000010 6c f1 d5 3d fa bb d5 3c c8 0c 02 bd 52 0a df bd
       0.10446438 0.02609061 -0.03175047 -0.1089064
000020 a8 78 4a 3d 04 b6 6a bc 75 eb 48 3c 89 ff 0f 3d
       0.049431473 -0.0143256225 0.012263169 0.035155807
000030 06 e1 f0 3d ac b0 a2 3d af 62 04 3e ac 89 db 3d
       0.1176167 0.07943854 0.1292827 0.10719618
000040 00 92 85 3d 88 6f b3 bd a3 14 e0 3c e5 38 11 3e
       0.06521988 -0.08761507 0.02735359 0.1418186
000050 f3 73 03 3e 06 93 9c bd 60 55 3f bd 65 36 01 be
       0.128372 -0.0764523 -0.04671228 -0.12618406
000060 36 9f 9e 3c 8c 44 a9 3d e8 a4 01 bd bd be 6d 3d
       0.019363027 0.082650274 -0.031651407 0.05804323
000070 63 bb 4c ba ec 8a 86 bd 0f 12 b7 3d e7 ee 06 3e
       -0.0007809905 -0.06569466 0.08938991 0.13177072
000080 7d 16 b3 3d c4 fe 9b bb cc 3b 28 3e 37 36 dc 3c
       0.08744524 -0.004760595 0.1642906 0.02688132
000090 e6 f1 5d bc b6 47 4a bd 89 c2 2d 3e 38 a4 7b bd
       -0.013546443 -0.049384795 0.1696874 -0.061435908
0000a0 80 48 56 3e f3 fb 23 3d c3 c5 72 3d 93 23 26 3e
       0.20926094 0.0400352 0.05927063 0.16224508
0000b0 4b 15 83 bd a7 a8 8f 3d dc bb 21 3d e4 d0 2a bd
       -0.06400546 0.0701459 0.039485797 -0.04170312
0000c0 7a 98 ba bd 6b 82 ad 3d 5a 25 11 3e 83 fb 8d 3c
       -0.09111114 0.08472141 0.14174405 0.017331844
0000d0 a3 5b e4 3d e8 7a 83 bd 21 1f 10 3e 2b 62 c2 3d
       0.11150291 -0.06419927 0.14074375 0.0949138
0000e0 ad 90 80 3e e2 aa 08 3d a8 bb d3 3d 17 c7 84 3b
       0.2511038 0.03336609 0.10338527 0.0040520537
0000f0 d6 7c f5 bc b7 16 55 3d 73 e0 09 3c 02 0c 95 3c
       -0.029966753 0.052023616 0.008415329 0.018194202
000100 8d 95 17 3e 2f d2 2d bd 43 00 3a bb 21 42 51 3e
       0.14803143 -0.042436775 -0.0028381504 0.20435382
000110 19 ab 8a bd f5 79 bd 3d 0d 82 5b bd 81 d7 98 bd
       -0.067709155 0.09251777 -0.053590823 -0.07462979
000120 da 0f f0 3d 3d 0d 53 3c ed 76 20 3d 05 d9 05 3e
       0.117217734 0.012881574 0.039175916 0.13071068
000130 13 44 26 3e 1b b8 c1 3d 65 01 93 3d 7c 3d 81 bb
       0.16236906 0.094589435 0.07178 -0.003944097
000140 7a 58 05 3c e3 55 b5 bc 7b 12 aa 3d a8 f7 90 bd
       0.00813877 -0.02213568 0.08304306 -0.07078487
000150 b7 10 4c 3d f8 33 0f 3e 97 60 1d 3e 32 8b e9 3c
       0.049820628 0.13984668 0.15368877 0.028508756
000160 f0 21 76 3d f7 2f f1 3d ff b5 3b 3e 0a e3 1c 3d
       0.06009096 0.11776727 0.18331145 0.03830246
000170 67 53 53 3c df 45 8d 3d 59 b0 64 bd cf 1e 5f 3d
       0.012898303 0.068980925 -0.05583224 0.05447274
000180 f4 2d d6 bd e2 0a d0 3d 07 09 b4 3d 9a e3 fc bc
       -0.104579836 0.10158326 0.08790784 -0.030870248
000190 34 15 f6 3b c6 d1 9b bd 69 d9 07 3d 51 df d3 3d
       0.007509852 -0.076083705 0.033166323 0.103453286
0001a0 24 28 63 3d ce a9 69 bc 4e 94 e1 3d 6f 83 da bd
       0.055458203 -0.014261676 0.11014615 -0.106696
0001b0 3a 1d 53 3a c1 3e 17 3d c1 f9 cc 3d 8f d1 93 3d
       0.00080533663 0.03692508 0.10008574 0.072177045
0001c0 d8 df 6d 3d 71 f3 29 3d af 7a 10 3d 25 b4 c2 bc
       0.058074802 0.04149193 0.03527325 -0.02376754
0001d0 d5 e6 d3 3d 3c 0f 1f 3a b0 f4 11 bd 04 8a bf bd
       0.10346762 0.0006067639 -0.035633743 -0.09352496
0001e0 05 25 fe 3d ab 41 22 3d 32 8d f0 3d 27 36 83 3b
       0.12409405 0.039613407 0.11745681 0.004004258
0001f0 f7 13 e8 bc 53 3f 85 bd 26 61 de 3d a9 bf 6f bc
       -0.028329832 -0.06506219 0.10858373 -0.014633098
000200 c3 ae 43 bb 7e 4a 3c 3e 97 3c b9 3d c3 73 20 3e
       -0.0029858805 0.18387792 0.0904476 0.1566916
000210 af f8 7b 3d 56 19 fd 3c a8 15 e9 bd a3 81 8a bc
       0.06151646 0.03089587 -0.11381084 -0.016907519
000220 9c c7 bd bd 09 3f 18 bd b2 a7 ea 3d f8 5b 0a 3e
       -0.09266588 -0.03716949 0.114577666 0.13511646
000230 e9 52 90 3b 55 6b 8d 3d ae 2e 0a bd b0 eb 8a 3b
       0.004404415 0.069052376 -0.033735923 0.004239522
000240 51 ab 09 bd 52 ca 92 bd 5b 1f 99 3d 9c c7 e5 3d
       -0.033610646 -0.07167496 0.07476684 0.11219713
000250 ee 20 10 3e fe 19 52 bd 4b 65 49 bc 65 73 d6 3d
       0.14075062 -0.05129432 -0.0122922165 0.104712285
000260 a2 3c bb bd 65 fb 6e 3d 50 56 1f 3c 3f 2e f8 3d
       -0.09142424 0.058345217 0.009725168 0.12118196
000270 f8 e2 33 3d 94 71 01 bd bc 78 dc bd 6f d7 bb bd
       0.043917626 -0.031602457 -0.10765216 -0.0917195
000280 8d 4e ec bc 64 25 ef bd 15 3d 66 3d de cf 0b be
       -0.02884605 -0.116770536 0.056210596 -0.13653514
000290 04 ce 10 3c 58 9e da 3d 51 d8 1c 3e c0 09 97 bd
       0.00883818 0.10674733 0.15316893 -0.073749065
0002a0 8c a7 0e 3c 20 09 21 3b 6f 4d 34 bd 23 d3 a0 bb
       0.0087069385 0.002457209 -0.04401916 -0.004907982
0002b0 7e 3a da 3c 22 c0 92 3d 48 bf 42 bd fd b0 9a 3d
       0.02663922 0.07165553 -0.0475457 0.07553289
0002c0 03 61 a3 3d 20 25 8b 3d 6d ba bf 3d 0c 33 1b bd
       0.07977488 0.067941904 0.0936173 -0.03789048
0002d0 bf 3f 61 3d 48 2e 99 3d 87 f4 d5 3d 9b c3 f2 3d
       0.054992434 0.074795306 0.104470305 0.11853715
0002e0 03 9f 66 bd 55 d1 51 3d 84 48 a1 bc 69 bc e2 3c
       -0.05630399 0.051225025 -0.019687898 0.027677732
0002f0 50 ae 53 bd d7 47 25 3d 2d 9b 1b be 99 f9 5c bd
       -0.05167991 0.040351715 -0.15195914 -0.053948972
000300 0c ad 8f 3d b7 98 8e bb af 0e df bd d8 21 69 bc
       0.07015428 -0.004351701 -0.108914725 -0.01422926
000310 7d b5 0a bc 02 e2 1d bd 2b e3 8d bd ed 9b 80 3d
       -0.008466122 -0.038545616 -0.069280945 0.062797405
000320 c0 50 55 3d 1d 70 c3 3d 4e 92 84 bd a5 71 61 3c
       0.052078962 0.09542868 -0.06473218 0.013760005
000330 58 79 f0 bd 0e 0c 27 3e 61 2d 8f 3d 17 ca e4 3c
       -0.117418945 0.16313192 0.06991077 0.027928395
000340 70 21 60 3d 05 2c a2 3d f2 3a c4 bc 6e 87 a9 bc
       0.05471939 0.07918552 -0.023953889 -0.02069446
000350 35 2d 2e bb b3 de af bb 67 5f ad 3c 11 9d b9 3d
       -0.0026577238 -0.005367124 0.021163655 0.09063161
000360 47 f7 1c bd df ef 4d 3d 0c 5c 8b 3c 9c 77 07 3e
       -0.03832176 0.050277587 0.017011665 0.13229221
000370 28 29 82 bc 1d 6d 2d bd 8e 76 9b bd fe 6a b2 3c
       -0.015888765 -0.042340387 -0.07590972 0.021779533
000380 10 3b 1c 3d 09 33 8a bd 03 24 db bc 2b 31 93 bd
       0.038142264 -0.067480154 -0.02675057 -0.071871124
000390 9e 96 f3 bc a6 fa b3 3b e7 7b 1b 3d d0 3b 23 be
       -0.029734906 0.005492526 0.03795996 -0.15940785
0003a0 b1 f2 dd 3a 13 76 0e bc f7 e5 49 bd 23 f5 e3 3d
       0.001693329 -0.008695143 -0.049291577 0.111307405
0003b0 b3 31 27 3c 19 54 48 3d 67 df 9a bd ca 7f 14 bd
       0.01020472 0.048908327 -0.07562142 -0.03625468
0003c0 8b 4a e6 bd 66 00 08 bd 29 2c 1c be d9 03 74 bd
       -0.11244687 -0.033203505 -0.15251221 -0.059573982
0003d0 35 1b 0f bd b3 44 18 3e dd e7 aa 3c d3 9e 2e 3e
       -0.034938056 0.14869957 0.020862514 0.17052774
0003e0 40 b7 3b bd 84 90 82 3c 8e 58 8c bc d7 af 88 3d
       -0.045829058 0.015938051 -0.01713207 0.06674164
0003f0 c7 27 f2 3d f8 94 8a bd ae df fd bd 32 db 3d bc
       0.11823993 -0.06766695 -0.12396179 -0.011587905

main.6.bias f4 [144]
000000 c2 36 70 3d 71 64 9e bd f6 a5 8a 3c 6d 8c 92 3d
       0.05864597 -0.077340014 0.01692484 0.0715569
000010 ed c9 f3 bc 33 79 74 bd 59 54 9e bd 71 77 7c bd
       -0.029759372 -0.059685897 -0.07730932 -0.061637346
000020 d9 a9 ad bd ab 70 0a bd d4 4e ab 3d 47 20 fd bc
       -0.084796615 -0.033798855 0.08364645 -0.03089918
000030 14 18 e8 bc 08 71 57 be 07 d4 19 bd 3e 2c 1a bc
       -0.028331794 -0.21039212 -0.03755572 -0.009409962
000040 de 25 b2 bd 80 4c 12 be 40 2e 5b be b9 d9 d1 3d
       -0.08698629 -0.14286995 -0.21404362 0.102466054
000050 6f ab d7 ba 72 a0 47 3e f4 33 a8 be c9 8e c5 bd
       -0.001645429 0.19494799 -0.32852137 -0.09646375
000060 e4 8b 38 3d 65 b9 20 bd 5d 4e 9d bd 58 1d f6 3d
       0.045055285 -0.039239306 -0.07680962 0.120173156
000070 ce 76 97 be 2f 82 95 be ac 25 a4 be 63 07 e2 3d
       -0.29582828 -0.29200885 -0.3205999 0.11036565
000080 b7 f8 32 be 87 d9 bb bd 2b 1a 5e be 4d 9f 4b bc
       -0.1747769 -0.091723494 -0.2168967 -0.012428117
000090 7c 38 9a bd b1 8f ba ba cf 6c 04 be 46 2f 1b bd
       -0.07530305 -0.0014233497 -0.12932132 -0.03788688
0000a0 bc e9 95 be 11 da 94 bd 2e ce 24 be ee 7f bd be
       -0.29279888 -0.07268155 -0.16094276 -0.37011665
0000b0 ff 0e ea bd 12 f7 d1 bc 2c fd 4c bd 28 ac 6f be
       -0.114286415 -0.025630508 -0.05004613 -0.23405516
0000c0 d6 bf 01 bd bd 87 cb 3d 96 98 94 3d a8 e4 00 bd
       -0.03167709 0.099379994 0.07255666 -0.031468064
0000d0 0f d1 c1 3c 9d 16 9c bd cd 7c 30 bd 5e f6 64 3d
       0.023659257 -0.07621501 -0.04308777 0.055899017
0000e0 7f f1 46 bd c9 31 13 be d7 9f 1e 3d b9 02 4e be
       -0.048570152 -0.1437446 0.038726654 -0.20118226
0000f0 df ea 81 bc f9 33 71 3e 5f 31 5c be 3b 30 d4 bd
       -0.015859066 0.23554982 -0.21503209 -0.10360762
000100 26 12 28 be 07 59 8c 3d 6e 24 47 be 9c 33 11 3e
       -0.16413173 0.06852918 -0.1944749 0.14179844
000110 ef d6 21 3b db b7 23 be 2f ed 50 3c 0d 26 98 bd
       0.002469476 -0.15988104 0.0127518615 -0.074291326
000120 04 f9 00 be 2a ca 3d be ae cb 8e be 41 cf 96 3d
       -0.12594992 -0.1853415 -0.2788977 0.07363749
000130 c1 56 39 3e bc 7f 1f 3e 3d a8 f5 bd 4d 37 17 3d
       0.180995 0.1557607 -0.119949795 0.036917973
000140 69 87 00 be 4c 56 0f bd 5f 76 ad 3d 1b 49 59 bd
       -0.12551655 -0.03499441 0.08469843 -0.053048234
000150 33 b1 46 bc 82 bc 21 be b1 9f 07 3e a4 75 12 3d
       -0.0121272085 -0.15794566 0.13244511 0.035756722
000160 e4 af db 3d 54 47 54 be db 36 77 bd 3e 52 13 3e
       0.10726908 -0.20730335 -0.06035505 0.14386842
000170 73 7f a5 bd 8f 05 c6 bd 6a 72 b8 bc 06 6c 50 be
       -0.0808095 -0.09669029 -0.022515494 -0.20353708
000180 1b 45 e4 bd 81 02 27 be 51 48 98 bc 38 13 cb 3c
       -0.11145993 -0.16309549 -0.01858917 0.024789438
000190 79 d2 0d be d0 e1 ac bd c5 cd 17 be 17 db a8 be
       -0.1384982 -0.08441508 -0.14824589 -0.32979652
0001a0 31 cf 64 be 6c ce 88 bd 21 db 7d 3d 9e 85 20 be
       -0.22344662 -0.06679997 0.061976556 -0.15675971
0001b0 1b 56 9b 3d 57 84 3e bd ca 85 23 be df aa 24 be
       0.07584783 -0.046512928 -0.15969005 -0.16080807
0001c0 f7 4a 94 be 21 d0 3b bd 00 26 3e 3d e4 96 2d bc
       -0.28963444 -0.045852784 0.04642296 -0.010595057
0001d0 74 d2 02 3e c1 55 76 3e 74 fe 4b be 28 16 84 be
       0.12775594 0.2405615 -0.19921285 -0.25798154
0001e0 a4 01 0b 3e 22 9b 4e 3d 70 df fa 3c 37 99 f6 bd
       0.13574845 0.050440915 0.030624121 -0.12040942
0001f0 12 e9 65 3e 2c 12 f0 bd c0 2a e6 bc c1 0d de bd
       0.2245219 -0.11722216 -0.028096557 -0.10842467
000200 e7 a8 3f be e5 df 8a 3d 1f bf 27 3e 0d 3d 56 be
       -0.18716775 0.06780986 0.163815 -0.20921727
000210 92 b4 1a bd 04 c4 1d be 83 eb 41 be 5f fe f0 bd
       -0.03776986 -0.15406805 -0.18937497 -0.117672674
000220 d5 f4 cc 3d 36 ba 55 3d 2f d4 8f 3d 1d a8 50 3e
       0.100076355 0.052179538 0.07022893 0.2037663
000230 01 01 86 be 65 b8 56 bd 45 95 97 be b2 0a 01 3e
       -0.2617264 -0.052421946 -0.2960607 0.12601736
