trained networks/5333.pt (torch_old, 826718 bytes, 10 tensors)

lstm.weight_ih_l0 f4 [512, 12]
000000 bd 96 8a 1b f3 b7 84 1a c2 ba 45 1a 8d b8 9d 99
       2.2927597e-22 5.4891106e-23 4.0889507e-23 -1.6307959e-23
000010 82 be 15 9a 09 54 81 1a 93 3f be 1a 78 43 2d 9a
       -3.096637e-23 5.3488916e-23 7.868487e-23 -3.5830062e-23
000020 de 0b 3e 99 57 96 7b 9a 1a a9 a7 1a e0 1a 97 9a
       -9.825166e-24 -5.2027027e-23 6.934278e-23 -6.2495555e-23
000030 a6 99 8a 1a 86 86 d3 9a 0b ae d5 99 ab 23 c1 1a
       5.7323695e-23 -8.748489e-23 -2.2093979e-23 7.9880554e-23
000040 f6 34 ab 1a 5a 33 ec 19 02 8d 69 9a 76 73 80 1a
       7.0809505e-23 2.4422569e-23 -4.8297176e-23 5.3126096e-23
000050 ad 0b a6 9a 82 9f b0 1a 75 61 6e 1a 6c 44 70 9a
       -6.8674854e-23 7.304959e-23 4.9295972e-23 -4.9686108e-23
000060 c5 03 9a 9a 12 04 64 1a 26 7a fb 17 99 55 ea 19
       -6.3699e-23 4.7152583e-23 1.6251329e-24 2.4229606e-23
000070 4a 4b 71 9a 95 ae ca 1a 3a a2 c7 9a c2 4b ad 1a
       -4.989845e-23 8.3827294e-23 -8.256656e-23 7.1673516e-23
000080 c6 5f 8f 1a 67 c9 88 1a 4d dc 62 98 d3 a3 8f 9a
       5.9298144e-23 5.6573665e-23 -2.9321039e-24 -5.9408086e-23
000090 5d 7e 0d 1b f2 d5 06 19 5f 2e 54 1a 0e 24 5a 9a
       1.1704077e-22 6.9708435e-24 4.387803e-23 -4.5110468e-23
0000a0 80 2c 80 9a 3f d9 5d 1a 69 b3 97 9a cb 40 17 9a
       -5.301145e-23 4.587722e-23 -6.274199e-23 -3.1278407e-23
0000b0 8b 05 c5 1a 4c 65 9e 9a 5c 57 b2 1a 8e 3f 0f 9a
       8.1486245e-23 -6.551092e-23 7.376021e-23 -2.9623046e-23
0000c0 ef 9b 62 9a 65 b1 bd 1a b1 3b 94 19 24 bc c3 1a
       -4.6861667e-23 7.8455164e-23 1.532695e-23 8.095407e-23
0000d0 79 c7 c5 9a e8 69 a2 9a 48 92 cf 19 ba 09 95 1a
       -8.1799556e-23 -6.717273e-23 2.1462381e-23 6.164067e-23
0000e0 be d3 6b 9a 23 bb 4d 1a e6 f7 bf 9a e7 09 58 1a
       -4.8767905e-23 4.2544174e-23 -7.939625e-23 4.4675752e-23
0000f0 5a b6 2c 1a ae 86 23 9a 0f c4 46 1a 1d 19 88 1a
       3.571607e-23 -3.3816403e-23 4.1103815e-23 5.6288854e-23
000100 a8 d1 08 19 0b 79 92 9a b3 a6 37 99 f3 24 8f 19
       7.073375e-24 -6.057974e-23 -9.494543e-24 1.4800777e-23
000110 a0 37 49 1a d0 06 67 99 8c 03 9d 1a e6 24 8b 9a
       4.161076e-23 -1.1943796e-23 6.493941e-23 -5.7548665e-23
000120 1a 08 1e 1a 8d b0 a2 1a 98 f0 89 99 84 d2 4e 9a
       3.268018e-23 6.728686e-23 -1.4262643e-23 -4.2769855e-23
000130 57 dd a6 99 9b 81 64 1a 44 56 7d 9a 7d 1a 32 1a
       -1.7253396e-23 4.725399e-23 -5.238886e-23 3.6830934e-23
000140 75 6f 59 9a 9e 94 2b 9a 56 be 9f 1a 3a 76 ff 19
       -4.4964583e-23 -3.5482023e-23 6.606836e-23 2.6414133e-23
000150 40 79 97 1a 22 36 d1 19 f7 78 83 18 62 31 8c 9a
       6.2648026e-23 2.1631958e-23 3.398485e-24 -5.7982425e-23
000160 29 c5 ae 1a 00 af d3 9a 72 9a 13 9a 2b ad 43 99
       7.228324e-23 -8.755028e-23 -3.0523647e-23 -1.0116235e-23
000170 8b 61 4b 9a 6d 09 86 9a 4a f9 79 1a d1 ad 37 1a
       -4.205821e-23 -5.543633e-23 5.1693367e-23 3.798392e-23
000180 09 92 14 99 e8 6c 96 99 fa 99 b0 9a b7 e7 43 9a
       -7.680912e-24 -1.5553623e-23 -7.3040656e-23 -4.0512233e-23
000190 12 6d 9b 19 b6 2a f7 99 06 a6 1c 99 40 98 d1 9a
       1.6070678e-23 -2.5556452e-23 -8.098539e-24 -8.668635e-23
0001a0 57 dc aa 1a 74 c7 47 9a 0d 3a 9a 1a 36 05 c2 99
       7.066633e-23 -4.1313352e-23 6.3786693e-23 -2.0061235e-23
0001b0 7c fd 40 1a 83 8a 13 9a 8c 5d 46 99 57 8e 3d 9a
       3.9909432e-23 -3.0510776e-23 -1.0255252e-23 -3.9199265e-23
0001c0 26 ab 6a 9a 2a c9 43 9a 20 47 71 1a 53 2d af 1a
       -4.852832e-23 -4.0487554e-23 4.9895086e-23 7.245153e-23
0001d0 4d fb a7 1a f5 9a 5f 9a 4c 29 66 1a 67 36 31 18
       6.947558e-23 -4.6240492e-23 4.7596245e-23 2.290418e-24
0001e0 4e 31 c1 9a e9 22 8f 9a b8 35 93 9a f6 48 62 98
       -7.9902585e-23 -5.9199814e-23 -6.088456e-23 -2.9246651e-24
0001f0 3b 24 87 99 b6 49 93 19 c1 b4 8c 1a 4b 29 bc 1a
       -1.3973306e-23 1.5229215e-23 5.8194667e-23 7.782169e-23
000200 1e 39 c5 99 c5 d8 4e 9a 13 81 2a 19 77 eb 75 9a
       -2.0392392e-23 -4.2774907e-23 8.81486e-24 -5.085502e-23
000210 ab 1d b7 1a b5 20 63 9a fc 87 f6 99 fe 49 58 99
       7.573496e-23 -4.696892e-23 -2.5490727e-23 -1.1181881e-23
000220 e5 36 20 1a 8f 1a ac 1a d2 f7 ae 1a 9b 8a 4d 1a
       3.3131568e-23 7.118044e-23 7.236509e-23 4.250497e-23
000230 86 dc 35 1a 41 ff 8b 9a 2e ce a2 1a 71 e4 97 1a
       3.760806e-23 -5.790144e-23 6.733473e-23 6.2821203e-23
000240 6c cc 13 9a f2 4e 91 1a 3e 9f 58 9a 67 68 55 18
       -3.0564018e-23 6.009814e-23 -4.4796388e-23 2.7582314e-24
000250 d9 f6 8a 1a 9a 28 4d 9a a3 a6 20 19 c7 24 d5 1a
       5.7474266e-23 -4.2425804e-23 8.305458e-24 8.815415e-23
000260 60 ca 83 9a 36 ec c0 1a be fe 77 9a ef 02 29 9a
       -5.4507285e-23 7.979096e-23 -5.1284182e-23 -3.495075e-23
000270 3d 82 00 1b 30 9f c5 9a c6 26 c5 9a a4 71 5c 9a
       1.0629994e-22 -8.173447e-23 -8.153993e-23 -4.5586732e-23
000280 4c e5 c7 1a ff a5 5a 9a 8d 7c 59 9a 0d d9 a5 9a
       8.267492e-23 -4.5215434e-23 -4.497516e-23 -6.8593065e-23
000290 6f 3b 96 99 ee fd cc 9a 0b a5 09 1a 80 9e 35 9a
       -1.5533642e-23 -8.478267e-23 2.8464257e-23 -3.7557958e-23
0002a0 3f 0a d7 19 12 d4 1b 1a b8 f2 86 99 ab bf 15 1a
       2.2234617e-23 3.2224558e-23 -1.3953309e-23 3.0967306e-23
0002b0 05 30 b5 9a 2a 8a c0 1a 94 20 e2 99 72 4d ca 98
       -7.4937425e-23 7.9632555e-23 -2.338101e-23 -5.2293976e-24
0002c0 8f 5c 8d 99 8f 22 22 98 f1 c6 ac 19 6b 81 44 99
       -1.4616442e-23 -2.0955457e-24 1.7864735e-23 -1.0159098e-23
0002d0 50 4f 1a 1b cc aa f0 19 54 55 b3 9a a7 0f cd 1a
       1.2764209e-22 2.4884403e-23 -7.417052e-23 8.48113e-23
0002e0 94 9f 67 1a 22 52 d6 1a 6d b7 45 9a e3 e4 92 9a
       4.7898587e-23 8.864102e-23 -4.0886815e-23 -6.075397e-23
0002f0 ab 25 d5 9a 56 a4 c8 9a 43 68 0a 1a ee 72 4c 1a
       -8.815559e-23 -8.298356e-23 2.8621953e-23 4.227905e-23
000300 7a cf 38 1a 8b 36 72 9a 65 fa 95 1a 4f a8 0b 9a
       3.8217906e-23 -5.0088487e-23 6.202949e-23 -2.8880485e-23
000310 d7 b4 f4 99 4e 4f f5 99 7d 55 ab 19 08 f7 b4 1a
       -2.530205e-23 -2.5364437e-23 1.7715514e-23 7.4845356e-23
000320 ce a8 b3 1a 81 01 00 99 f9 72 09 1a fe fe a2 9a
       7.4305384e-23 -6.617749e-24 2.842381e-23 -6.741359e-23
000330 80 21 e4 99 aa 69 af 9a b8 64 2f 99 11 72 15 9a
       -2.3588178e-23 -7.254901e-23 -9.067628e-24 -3.090462e-23
000340 fe d3 9a 9a 45 a3 43 1a 0c 45 ab 9a 82 79 ed 99
       -6.40354e-23 4.0456943e-23 -7.0835494e-23 -2.4554302e-23
000350 19 07 bd 1a 45 c3 9d 9a 37 42 85 1a 6d 7a b0 1a
       7.8180035e-23 -6.524915e-23 5.5114487e-23 7.2989683e-23
000360 d1 f2 3d 9a 52 20 af 19 70 31 24 9a 1f 74 df 99
       -3.928043e-23 1.810763e-23 -3.395434e-23 -2.310456e-23
000370 1b 8c 55 99 24 18 ff 19 b7 d1 4e 19 ef 04 55 19
       -1.1040136e-23 2.6376132e-23 1.0692302e-23 1.1012838e-23
000380 ad 84 7d 9a 41 f5 9e 9a 75 20 2e 9a 9e 53 c2 1a
       -5.2426348e-23 -6.57435e-23 -3.6008575e-23 8.037161e-23
000390 76 ef 8e 9a 98 af 16 1a a8 d3 a1 9a 1c ff 53 17
       -5.9116694e-23 3.1161116e-23 -6.692999e-23 6.849977e-25
0003a0 02 02 c2 9a ef a6 d7 99 20 59 01 19 a5 c0 59 1a
       -8.0239763e-23 -2.2297903e-23 6.687142e-24 4.5030165e-23
0003b0 d5 9c 42 98 0b c0 14 1a 62 f2 75 9a 7f 36 87 1a
       -2.5153092e-24 3.0760814e-23 -5.0860608e-23 5.5922735e-23
0003c0 38 95 68 9a 06 f8 50 1a 68 d1 7c 9a 98 fd b5 19
       -4.8097013e-23 4.3213744e-23 -5.2281536e-23 1.8817387e-23
0003d0 9b 9a d4 1a c2 8a e4 19 a3 d1 c5 98 fd 3a a5 19
       8.7930924e-23 2.3630691e-23 -5.1134985e-24 1.7084425e-23
0003e0 fc 7c 86 1a 07 1d 91 1a 99 3c f7 99 15 81 48 99
       5.5623024e-23 6.001749e-23 -2.5563677e-23 -1.03658256e-23
0003f0 f3 33 c5 9a ee 3b 88 19 d7 53 59 99 4d ba 4d 1a
       -8.156122e-23 1.4086276e-23 -1.1235568e-23 4.25435e-23

lstm.weight_hh_l0 f4 [512, 128]
000000 28 b0 bb 9a 0e bf f3 99 c7 88 85 1a 80 7f 27 99
       -7.762598e-23 -2.5202777e-23 5.5228486e-23 -8.659446e-24
000010 25 99 b3 1a fb 4e cb 99 47 a5 26 99 6f b1 86 9a
       7.4280083e-23 -2.1021608e-23 -8.615376e-24 -5.570776e-23
000020 77 e8 86 1a 90 ad cd 9a 8a 07 2f 19 5a f8 e7 19
       5.579667e-23 -8.506642e-23 9.0488105e-24 2.3985149e-23
000030 1d 5d d4 9a 57 55 9a 99 40 e9 39 9a 28 e6 33 1a
       -8.783158e-23 -1.5957695e-23 -3.844552e-23 3.720225e-23
000040 74 e0 59 9a e4 df 59 19 1d 4b 33 19 40 57 c3 19
       -4.505586e-23 1.12638514e-23 9.269252e-24 2.0197767e-23
000050 b9 71 8e 9a 05 06 cd 1a ba 55 86 9a b5 e6 92 9a
       -5.891355e-23 8.479574e-23 -5.55596e-23 -6.075691e-23
000060 ca 77 f4 19 a7 17 48 9a d0 ce 41 1a 05 58 b3 9a
       2.5277391e-23 -4.1378137e-23 4.0078526e-23 -7.417487e-23
000070 7d d9 db 19 8f 80 d4 1a a9 15 a1 1a c4 a8 f9 99
       2.2731912e-23 8.788884e-23 6.6623033e-23 -2.581416e-23
000080 3e f1 95 9a da 8f 9a 9a ec f1 d1 1a 3c bf 85 9a
       -6.2014703e-23 -6.392531e-23 8.683122e-23 -5.5316467e-23
000090 80 54 98 19 d3 4f b5 19 0e 2d 71 1a d0 b9 92 9a
       1.5750561e-23 1.8747202e-23 4.9874027e-23 -6.068438e-23
0000a0 b1 b8 23 9a 55 95 b4 19 c6 ce 18 99 65 95 1b 19
       -3.3856802e-23 1.8671879e-23 -7.899973e-24 8.043482e-24
0000b0 32 cd 0a 19 0d 87 c1 99 b2 ea b1 1a ed b6 f4 19
       7.175872e-24 -2.0010279e-23 7.3584655e-23 2.5302892e-23
0000c0 27 df e9 97 6e 1c a9 1a 58 a4 b3 9a cb 53 7c 19
       -1.5113604e-24 6.994269e-23 -7.4298176e-23 1.30450165e-23
0000d0 0e ee b3 19 89 6b 6b 1a 95 fb 18 9a 0f 90 0a 9a
       1.8604316e-23 4.8683727e-23 -3.163609e-23 -2.86541e-23
0000e0 16 4b bf 1a 7b f5 a7 9a c4 89 ae 9a 79 72 35 1a
       7.9117056e-23 -6.9466176e-23 -7.2187286e-23 3.7522393e-23
0000f0 e1 e6 9a 9a 21 36 37 1a ec e8 99 1a e1 c2 b5 97
       -6.406591e-23 3.7887238e-23 6.365562e-23 -1.1746045e-24
000100 d6 d9 37 1a cd 13 91 9a d2 5a 97 9a 41 97 3e 19
       3.801948e-23 -6.0002584e-23 -6.2598864e-23 9.853315e-24
000110 b8 23 a7 1a 75 2d c2 9a c1 85 98 9a 38 4e 9e 18
       6.912729e-23 -8.030996e-23 -6.308182e-23 4.0921023e-24
000120 5a e5 22 9a 79 88 d0 19 8d 85 42 1a aa b2 0f 9a
       -3.3686084e-23 2.1561817e-23 4.022614e-23 -2.971603e-23
000130 8d 65 12 19 6b 93 c7 19 a8 e4 88 9a 60 a4 9d 19
       7.568531e-24 2.063566e-23 -5.6617696e-23 1.629981e-23
000140 b0 72 33 99 5d 3c 9f 9a b6 85 b2 9a f6 12 9b 9a
       -9.277244e-24 -6.585838e-23 -7.3835096e-23 -6.413713e-23
000150 87 29 c6 1a d5 44 c2 1a 9a 33 b8 9a 5a bd fe 99
       8.195797e-23 8.0347724e-23 -7.6183983e-23 -2.6339463e-23
000160 b9 5a 04 9a b4 fc 70 1a 38 4e 53 1a 59 7c f2 19
       -2.7370245e-23 4.983497e-23 4.3696962e-23 2.5072437e-23
000170 87 05 13 9a 88 2f dd 18 e6 dd d7 1a 2b e9 54 99
       -3.0403352e-23 5.7175155e-24 8.928041e-23 -1.1007231e-23
000180 f7 c1 d3 19 d3 58 0b 9a d0 0e 9e 9a 66 e5 0a 1a
       2.189523e-23 -2.8816278e-23 -6.53712e-23 2.8723038e-23
000190 d0 9f ab 9a 17 e2 e1 99 a0 dc b6 9a 66 16 08 1a
       -7.0982133e-23 -2.3355772e-23 -7.5629875e-23 2.8142234e-23
0001a0 78 3e 0e 19 5f bb 1f 1a 17 c4 ca 9a 24 94 ad 1a
       7.3538434e-24 3.3031787e-23 -8.386204e-23 7.179046e-23
0001b0 6c 1c 5c 9a 37 8b 63 1a e6 80 71 9a fe 61 51 19
       -4.5517893e-23 4.7054957e-23 -4.9941755e-23 1.0824836e-23
0001c0 6e 87 89 98 71 b6 a9 1a 20 b6 84 17 9d 1e d0 96
       -3.555042e-24 7.019151e-23 8.576275e-25 -3.3623532e-25
0001d0 c8 78 ac 99 33 4c cc 1a ca ca 18 9a 59 fe b5 1a
       -1.7833166e-23 8.449553e-23 -3.1596675e-23 7.5270766e-23
0001e0 12 87 33 9a 46 b5 87 19 fb 55 5b 1a 9a 35 a8 19
       -3.712544e-23 1.4031889e-23 4.5357593e-23 1.7392442e-23
0001f0 bf f0 c4 9a 2d 07 b4 99 3f 71 8a 1a d4 11 a5 1a
       -8.1452646e-23 -1.8614462e-23 5.725842e-23 6.8271203e-23
000200 a1 94 75 9a 59 9c a7 9a 99 0c cb 1a ad a7 73 99
       -5.0784874e-23 -6.9322174e-23 8.3979185e-23 -1.25966674e-23
000210 ad 9e b3 1a 41 b5 c8 1a 20 cb c8 9a 3d 50 2b 1a
       7.428902e-23 8.301089e-23 -8.304623e-23 3.5426787e-23
000220 29 4f 48 9a eb 10 09 1a 41 3b 9f 1a c2 23 c3 1a
       -4.1422976e-23 2.8344602e-23 6.585659e-23 8.070788e-23
000230 b7 0e 93 99 71 13 d3 1a ee 32 b2 1a 94 0a a2 98
       -1.5205387e-23 8.7298964e-23 7.3701356e-23 -4.18867e-24
000240 88 b9 a0 99 8f 6a 56 1a 0e 84 e8 18 6c c6 3b 1a
       -1.6618548e-23 4.434024e-23 6.0103936e-24 3.8830978e-23
000250 e7 f1 11 1a 8e 24 ab 1a 96 21 6d 1a 7a 32 90 19
       3.0180704e-23 7.0783e-23 4.9037582e-23 1.4909638e-23
000260 3d 64 3a 9a e8 ef 96 1a 78 98 e9 99 5a c3 77 98
       -3.854487e-23 6.2426135e-23 -2.4153217e-23 -3.202263e-24
000270 3b 5f c5 1a 3b 87 cd 98 43 01 c9 18 94 f8 9f 99
       8.1631143e-23 -5.3127806e-24 5.1958556e-24 -1.6540615e-23
000280 6b 13 cd 9a df ac 98 18 2f f9 89 9a 70 3e c9 98
       -8.4817384e-23 3.9465634e-24 -5.706445e-23 -5.2020328e-24
000290 97 72 b9 19 8b d8 62 9a 4e 3c 23 9a aa 1b d7 9a
       1.9174834e-23 -4.6910627e-23 -3.3756324e-23 -8.896661e-23
0002a0 69 22 d7 18 5a 7b ac 18 6a c1 c9 1a ab 47 c2 9a
       5.5610943e-24 4.458551e-24 8.344413e-23 -8.0352305e-23
0002b0 eb 03 c4 1a 17 ee 92 9a 62 1d f7 99 59 d4 95 9a
       8.107003e-23 -6.076884e-23 -2.5551069e-23 -6.196802e-23
0002c0 f5 ce 8e 9a 1c b8 7e 1a 5f 82 4b 9a 3b 44 54 9a
       -5.906418e-23 5.267469e-23 -4.208473e-23 -4.389569e-23
0002d0 bd f5 9d 9a c7 f7 f3 99 0f 9c 14 9a c5 7e a5 1a
       -6.533069e-23 -2.5225688e-23 -3.0731746e-23 6.844721e-23
0002e0 45 5a 71 1a e2 0e 67 9a b1 e1 9c 1a 03 ec 82 1a
       4.991055e-23 -4.7781703e-23 6.488471e-23 5.414804e-23
0002f0 2a b6 0c 1a 0b 2e 23 9a c2 5a 8e 9a dc ae 18 99
       2.9098472e-23 -3.3744803e-23 -5.887645e-23 -7.893528e-24
000300 24 59 17 19 24 d4 ce 9a db 2c 89 9a 20 17 c3 1a
       7.824519e-24 -8.5542335e-23 -5.673434e-23 8.068747e-23
000310 03 31 d3 1a 27 11 9f 1a 68 af ce 9a 95 3b 6d 1a
       8.734674e-23 6.578857e-23 -8.548299e-23 4.905858e-23
000320 79 0b 2d 19 03 b0 8f 9a 35 22 cb 9a 20 37 38 1a
       8.946207e-24 -5.9427776e-23 -8.4014097e-23 3.8094838e-23
000330 e5 14 8d 19 31 0e af 1a e3 b9 15 19 ad 40 d4 1a
       1.4587498e-23 7.240123e-23 7.740659e-24 8.7785634e-23
000340 2e 46 0e 99 62 1c 1d 99 bd c2 95 9a 4b 83 0b 19
       -7.355401e-24 -8.122442e-24 -6.193957e-23 7.212646e-24
000350 22 e4 c3 1a c3 14 8e 19 5b 4d 8b 9a bd 5a 5f 99
       8.101868e-23 1.4690841e-23 -5.761403e-23 -1.1547154e-23
000360 c5 26 7e 1a 40 bb fb 99 19 64 c3 99 bf 30 c6 99
       5.2557287e-23 -2.6028421e-23 -2.0202957e-23 -2.0492409e-23
000370 da a4 b3 1a 25 04 14 9a 77 bc bc 9a 27 c0 a9 18
       7.4299e-23 -3.060903e-23 -7.805946e-23 4.38795e-24
000380 e5 14 27 97 d3 6a 78 1a 8d 8a a8 1a a6 be 88 99
       -5.3986983e-25 5.137149e-23 6.970701e-23 -1.4139073e-23
000390 17 97 d9 19 40 af 18 1a 20 8f ac 9a dc aa b2 9a
       2.2498299e-23 3.157443e-23 -7.1368764e-23 -7.389511e-23
0003a0 79 6d 89 99 bf 7a 2c 9a 69 6b f3 19 4d e6 42 1a
       -1.4209684e-23 -3.566792e-23 2.5168994e-23 4.0304295e-23
0003b0 6a 8d 80 9a 0b e7 70 1a 8b b2 bb 1a 82 5c c6 19
       -5.3168026e-23 4.9817472e-23 7.762984e-23 2.0510084e-23
0003c0 b2 e0 0a 9a 9d 9d 9a 96 c9 a7 84 1a b0 9b 50 1a
       -2.871924e-23 -2.497951e-25 5.486499e-23 4.3139155e-23
0003d0 62 7a 41 99 bc 38 05 1a c5 a0 e4 98 37 bd 71 9a
       -1.0002581e-23 2.7549585e-23 -5.9098954e-24 -4.999048e-23
0003e0 40 da 7f 1a 7d c6 9f 1a bc 06 07 18 d3 7b f6 19
       5.2909065e-23 6.6081534e-23 1.7451741e-24 2.5485816e-23
0003f0 ed a6 9d 1a 18 45 4d 19 2d 22 69 1a 8a b5 5e 1a
       6.520336e-23 1.0612205e-23 4.8210878e-23 4.605517e-23

lstm.bias_ih_l0 f4 [512]
000000 07 e0 0e 1b 00 e3 e1 98 27 a1 f1 98 6d 90 41 1b
       1.1818352e-22 -5.839035e-24 -6.2459762e-24 1.6011252e-22
000010 14 86 90 99 cd 70 57 1a 37 a2 77 98 5d 61 d7 19
       -1.4943405e-23 4.4552078e-23 -3.20059e-24 2.2269804e-23
000020 3b 5c cd 19 51 72 10 99 09 07 b2 1a 86 e8 20 1a
       2.1233755e-23 -7.4677115e-24 7.363044e-23 3.3275055e-23
000030 87 ef 66 18 c2 8b d5 18 d6 4f c5 1a 7d 99 10 1b
       2.9847734e-24 5.520033e-24 8.160627e-23 1.1960996e-22
000040 6e e9 01 1a ed b6 ce 1a 0d 67 8d 18 55 dc be 1a
       2.6865138e-23 8.5495136e-23 3.65517e-24 7.8938124e-23
000050 89 c2 5a 19 6e 9b 62 97 7b b3 bf 1a 29 44 f0 1a
       1.1309622e-23 -7.322072e-25 7.9285715e-23 9.937179e-23
000060 f4 8f 2a 1b cd 22 81 9a 2d 2e fa 1a 9a 78 9d 19
       1.4108584e-22 -5.3409373e-23 1.0347218e-22 1.628213e-23
000070 31 ba 36 98 09 eb 50 1a 0c 69 32 1a bf 37 12 97
       -2.3616951e-24 4.3203252e-23 3.6894393e-23 -4.7245506e-25
000080 63 58 84 9a ef 96 f3 99 0c b6 dc 1a 24 4f 9d 99
       -5.473672e-23 -2.5186573e-23 9.128398e-23 -1.6265384e-23
000090 67 69 4d 1a b3 46 ad 99 33 5f 25 19 e0 e8 4a 19
       4.247815e-23 -1.7916336e-23 8.5495254e-24 1.0490184e-23
0000a0 0d 62 1d 1b 70 90 1d 1a 4e 47 ce 18 ae ec 96 19
       1.3018418e-22 3.2583515e-23 5.332175e-24 1.560523e-23
0000b0 ba 64 2f 1a 2e c3 67 1a 36 63 97 9a ba 45 6e 9a
       3.6270518e-23 4.7927345e-23 -6.261242e-23 -4.927357e-23
0000c0 5a 6a 14 99 fb f9 b9 17 aa 0a 8d 99 45 a8 b7 1a
       -7.672898e-24 1.2018449e-24 -1.4583365e-23 7.595888e-23
0000d0 e6 8e bc 9a f5 f5 82 99 9e b4 a9 1a 6b 3d 4f 9a
       -7.798584e-23 -1.3541026e-23 7.0188565e-23 -4.285621e-23
0000e0 3e e7 00 9a d4 5a e5 1a 9d 5e d1 9a ba af 7c 17
       -2.6656576e-23 9.485892e-23 -8.659323e-23 8.164739e-25
0000f0 11 09 25 1a 1c 1d 78 19 ec da 8b 1a b6 bc a8 9a
       3.4128524e-23 1.2827178e-23 5.784274e-23 -6.978805e-23
000100 5c fc 6d 19 b8 2b 39 1a a1 fe 0e 1b a4 71 61 19
       1.2303576e-23 3.829242e-23 1.182824e-22 1.1655177e-23
000110 2d c5 f1 1a 01 1f 90 9a 07 bc d7 19 1b cf 7a 9a
       9.999382e-23 -5.9607094e-23 2.2306423e-23 -5.1866087e-23
000120 4b a1 37 9a 35 c7 21 19 9f af b2 9a fa 36 c0 19
       -3.7973804e-23 8.3637345e-24 -7.3902806e-23 1.987454e-23
000130 9e 30 92 1a 3a a8 0f 19 6a 6e 7d 9a f7 f8 0b 1a
       6.046273e-23 7.4269e-24 -5.2408366e-23 2.894564e-23
000140 48 63 06 1b 52 60 ca 1a a8 b9 d6 17 46 3d 9c 1a
       1.11163e-22 8.3700856e-23 1.3876292e-24 6.461908e-23
000150 8f 9f a8 9a 86 7f 97 1a 1b 7a b8 19 f2 4e 66 9a
       -6.974095e-23 6.265816e-23 1.9074472e-23 -4.7626657e-23
000160 2d 43 67 9a ca 55 75 9a 86 1b ed 1a ea ec 70 1a
       -4.7823945e-23 -5.0734112e-23 9.806537e-23 4.9822214e-23
000170 af c1 e3 99 d0 2c 32 1a bf cf 14 9a da 0d 8c 1a
       -2.3549478e-23 3.6845737e-23 -3.07735e-23 5.792502e-23
000180 a5 65 e8 19 c5 16 c8 1a cf 23 8e 9a f3 c8 ef 19
       2.4029292e-23 8.275485e-23 -5.8787675e-23 2.4793184e-23
000190 f6 03 a2 19 5d d1 e8 1a 73 13 e7 1a c0 95 69 98
       1.6752007e-23 9.6291196e-23 9.557078e-23 -3.0190149e-24
0001a0 f4 7c db 19 0f 51 10 1b ea 14 c0 19 ef 0a bb 1a
       2.2694537e-23 1.1937592e-22 1.9860782e-23 7.735905e-23
0001b0 c7 ad cb 1a 73 eb b1 99 c6 09 e6 19 df e3 d4 9a
       8.4239585e-23 -1.8396468e-23 2.378539e-23 -8.804929e-23
0001c0 2b e6 77 19 5c e5 af 99 1e fd 9d 9a 55 b8 8c 9a
       1.2816083e-23 -1.8187213e-23 -6.534261e-23 -5.820045e-23
0001d0 2f 7f 61 9a 0b d6 b5 1a 17 ff b5 97 b4 26 61 1b
       -4.6631648e-23 7.520565e-23 -1.1761245e-24 1.862407e-22
0001e0 5a 63 1d 1b dd f9 11 19 4e 40 0c 9a 6f 9f e6 1a
       1.3018838e-22 7.546784e-24 -2.9003266e-23 9.538335e-23
0001f0 4c 61 03 1a 65 21 5c 1a 31 53 98 99 93 8a 2b 1b
       2.716876e-23 4.552191e-23 -1.5750032e-23 1.4189564e-22
000200 a0 83 09 1b 32 a6 bd 1a 59 8b 32 1a 62 a4 97 1a
       1.1374905e-22 7.843707e-23 3.69221e-23 6.271771e-23
000210 f8 31 b6 9a 95 2a 3f 1a cc d5 d4 1a b4 8b 6a 1a
       -7.5354165e-23 3.9532272e-23 8.802655e-23 4.8502917e-23
000220 87 45 ec 19 ba 45 1b 9a b7 e9 ee 18 ed 5f 3d 1a
       2.442991e-23 -3.2109573e-23 6.175755e-24 3.9161772e-23
000230 82 8b 74 1a 49 95 af 1a 72 67 64 1a 1b 61 2b 9a
       5.057071e-23 7.2619487e-23 4.7232857e-23 -3.5440412e-23
000240 1d b4 e4 19 1e b0 6f 19 a8 68 76 1a 4d c0 c1 19
       2.3647395e-23 1.2391577e-23 5.0956148e-23 2.0033402e-23
000250 23 1c cb 1a 53 a5 ab 19 5c 38 06 1a 86 d6 4a 9a
       8.400429e-23 1.774776e-23 2.7756077e-23 -4.1945912e-23
000260 17 df 2d 1b a9 06 8d 1a 7b 74 3a 9a 22 12 ab 1a
       1.4382309e-22 5.8326993e-23 -3.855799e-23 7.075324e-23
000270 a0 fc 66 1a f5 96 01 1a 1b 28 93 9a 8a d7 61 9a
       4.7766954e-23 2.6798517e-23 -6.086257e-23 -4.670302e-23
000280 2e 85 ca 1a 6e 60 62 1a c8 c1 ab 19 b7 93 e1 99
       8.3760405e-23 4.68136e-23 1.7759253e-23 -2.3324116e-23
000290 4b 29 9e 9a 18 a9 a8 1a ed c8 81 1a 01 16 9e 9a
       -6.541398e-23 6.975636e-23 5.367776e-23 -6.538282e-23
0002a0 6c aa 0b 18 d7 b4 40 1a b8 a3 4b 1a ac 20 0d 1a
       1.805137e-24 3.985075e-23 4.2111667e-23 2.918451e-23
0002b0 1f 9c 8f 9a 71 5d a3 1a 21 92 03 1a a9 70 9d 19
       -5.939564e-23 6.756618e-23 2.7208207e-23 1.6278923e-23
0002c0 4a 65 15 1a 02 1d 8a 19 5b c4 21 99 75 88 9d 19
       3.08943e-23 1.4280582e-23 -8.3631586e-24 1.6288534e-23
0002d0 62 9f 56 99 f2 34 f6 99 a9 14 ce 19 11 14 02 9a
       -1.1095728e-23 -2.5457188e-23 2.1308245e-23 -2.689958e-23
0002e0 fa f8 ba 1a 78 f5 e6 99 6b f7 c2 1a b0 58 a1 1a
       7.733004e-23 -2.3880587e-23 8.0636245e-23 6.673132e-23
0002f0 54 10 69 19 52 35 0f 1a 78 67 74 1a 20 4e 81 9a
       1.2049115e-23 2.961478e-23 5.05416e-23 -5.347937e-23
000300 9f ea 5a 1a ee 88 fb 19 67 47 dc 1a cd 12 9c 99
       4.527087e-23 2.6008097e-23 9.1105224e-23 -1.6137616e-23
000310 25 4e 4e 9a 3a f7 1f 9a 2e c0 59 1a bf fd aa 19
       -4.2662926e-23 -3.3080137e-23 4.502979e-23 1.7680075e-23
000320 ed c6 03 18 64 30 dd 1a 29 91 1e 9a 47 b0 ed 1a
       1.7031785e-24 9.148164e-23 -3.2790894e-23 9.8305694e-23
000330 80 86 95 1a 78 15 61 1a 3e 99 0e 9a f5 28 a9 1a
       6.184225e-23 4.6546252e-23 -2.94887e-23 6.996293e-23
000340 d4 6d ac 98 47 2c 09 9a 68 33 1a 98 bb 65 6b 1a
       -4.4571856e-24 -2.8366703e-23 -1.9929987e-24 4.8679038e-23
000350 69 48 c9 1a 9d eb 53 1a 40 45 dc 1a ea 8d d8 19
       8.3248636e-23 4.3824104e-23 9.1101747e-23 2.2391195e-23
000360 7e d3 24 9a 31 29 a0 1a 90 19 97 9a b1 b0 7a 99
       -3.4085247e-23 6.6241e-23 -6.2493435e-23 -1.296038e-23
000370 bc 3d cd 19 50 58 a8 9a d8 e4 c5 9a 07 41 05 9a
       2.1221438e-23 -6.962585e-23 -8.184701e-23 -2.7556284e-23
000380 45 6d ea 19 56 bf 0e 1a a9 11 7b 9a af a7 6a 99
       2.4239167e-23 2.9519472e-23 -5.191985e-23 -1.213138e-23
000390 4f 8d 77 1a d3 fe 1d 1a 9b da 8a 19 9c 50 6c 9a
       5.119255e-23 3.2672684e-23 1.435716e-23 -4.8868772e-23
0003a0 47 93 03 9a 9c 00 bd 1a a1 3f a8 9a 1a 11 21 1a
       -2.7209135e-23 7.816955e-23 -6.958597e-23 3.3307834e-23
0003b0 17 cc a5 1a 6b 89 c1 99 1b ec 15 1b 96 62 ac 9a
       6.8572125e-23 -2.0011235e-23 1.2401281e-22 -7.129681e-23
0003c0 b7 ff c2 1a b0 8f 19 1a df 1c 8b 9a 9b 40 49 1a
       8.064965e-23 3.1755728e-23 -5.7535696e-23 4.1618014e-23
0003d0 0c 53 88 1a a9 76 8b 1a 58 c3 9d 1a 8d d1 2e 1b
       5.638245e-23 5.768076e-23 6.524927e-23 1.4460652e-22
0003e0 f6 30 a5 99 e3 6d d6 1a 3c 35 ad 1a 83 9e 85 98
       -1.7080375e-23 8.868586e-23 7.163713e-23 -3.453975e-24
0003f0 9d 3b 9d 1a 01 cc 33 1a ef 5a 82 1a 36 91 5c 1a
       6.502999e-23 3.7181125e-23 5.391365e-23 4.5612234e-23

lstm.bias_hh_l0 f4 [512]
000000 66 90 93 1a 57 c4 8b 1a 43 32 82 19 68 d0 4d 1b
       6.1031063e-23 5.7806257e-23 1.3461986e-23 1.7024542e-22
000010 1b 33 97 9a ab 6c c7 98 31 d4 81 1a a4 5b 77 1a
       -6.25347e-23 -5.155002e-24 5.3695963e-23 5.115243e-23
000020 ea b0 8d 9a 24 48 cf 1a 04 7d 83 99 ab a7 40 1b
       -5.8602053e-23 8.572974e-23 -1.3595576e-23 1.5936044e-22
000030 02 35 13 9a c4 c1 ea 99 4e de 91 1a 13 6d a1 1a
       -3.0441707e-23 -2.4273294e-23 6.032975e-23 6.676426e-23
000040 bb f7 fb 19 3d 4e 50 9a 3c c3 90 1a 0c e3 0c 9a
       2.605285e-23 -4.3076592e-23 5.987242e-23 -2.913473e-23
000050 ab d0 0e 1b 96 99 22 1a f6 cb e2 1a 3c d3 a8 9a
       1.1813389e-22 3.362488e-23 9.3800926e-23 -6.982444e-23
000060 68 ee 2f 1b c0 90 94 9a 46 84 d7 18 6b b6 b1 9a
       1.4552694e-22 -6.144522e-23 5.570976e-24 -7.3500196e-23
000070 38 99 87 1a 3c 6d 03 9a c3 62 18 1a e3 f8 1c 98
       5.608223e-23 -2.7178404e-23 3.1512642e-23 -2.0288183e-24
000080 82 f5 61 99 c9 ce b9 9a 43 58 be 1a ab 49 18 9a
       -1.1681807e-23 -7.6848286e-23 7.872475e-23 -3.1492372e-23
000090 c5 0d 94 1a 6d c5 c6 1a b6 85 ce 1a 26 4b a9 1a
       6.123361e-23 8.220984e-23 8.5415625e-23 7.001817e-23
0000a0 51 61 15 1b c0 a6 45 9a b3 1d 51 1a 57 3f 97 9a
       1.2356436e-22 -4.0873345e-23 4.3244178e-23 -6.255447e-23
0000b0 c7 d8 06 1a 49 c8 ad 9a d4 82 cc 9a d6 4d c9 9a
       2.7885662e-23 -7.18747e-23 -8.4583787e-23 -8.32574e-23
0000c0 c5 53 b5 1a 7f af ec 18 38 c8 c8 1a cb df 30 99
       7.499518e-23 6.1181776e-24 8.304153e-23 -9.144181e-24
0000d0 5d e3 f8 18 e4 12 1b 1a 18 c2 66 19 50 fd a8 9a
       6.4336076e-24 3.206851e-23 1.1929918e-23 -6.989242e-23
0000e0 2b f8 25 9a d9 1d 44 1a 2a 90 40 9a 2b 5d 3b 9a
       -3.432167e-23 4.055596e-23 -3.9821124e-23 -3.8745954e-23
0000f0 07 42 11 9a 43 2a 91 1a c8 11 cb 9a 83 4e b6 1a
       -3.0038634e-23 6.003887e-23 -8.398756e-23 7.540028e-23
000100 78 7d 6e 1a b5 54 5f 1a 34 6e 0c 1a 1a 59 59 1a
       4.93186e-23 4.6183745e-23 2.9040343e-23 4.4946524e-23
000110 bb 54 89 1a f6 28 d0 99 b6 23 34 99 68 3c 9d 9a
       5.679876e-23 -2.152324e-23 -9.312994e-24 -6.503127e-23
000120 40 12 af 99 70 f4 06 9a 89 bc 9c 97 ff 69 f2 1a
       -1.8101947e-23 -2.7908006e-23 -1.0128857e-24 1.002601e-22
000130 df 2c 75 99 17 27 fc 99 e1 a6 9b 9a 70 38 ee 1a
       -1.2675265e-23 -2.6071978e-23 -6.4376105e-23 9.852567e-23
000140 2f 2b 57 19 dc c3 2b 9a c3 a9 a9 9a a4 67 f9 99
       1.112396e-23 -3.5520185e-23 -7.0171027e-23 -2.5787857e-23
000150 58 e6 8d 9a ca 51 cf 1a 53 59 f5 1a 0f 4f 8d 9a
       -5.8688374e-23 8.574533e-23 1.01473936e-22 -5.844396e-23
000160 51 6f 98 1a 0e 5c 4d 9a 6d 16 65 98 bd 31 65 9a
       6.304557e-23 -4.2467368e-23 -2.9608878e-24 -4.7396268e-23
000170 e2 12 3e 9a 26 4a 95 9a cd 14 ca 9a 43 97 4d 19
       -3.9306333e-23 -6.174475e-23 -8.357885e-23 1.0628799e-23
000180 32 88 93 9a 35 d2 95 9a 94 df 9c 19 aa e5 f6 99
       -6.101781e-23 -6.1964563e-23 1.6220324e-23 -2.5528564e-23
000190 a6 5e a9 18 26 f3 66 9a cd ff b6 9a 0c f9 f0 99
       4.3781047e-24 -4.77593e-23 -7.5686704e-23 -2.4916008e-23
0001a0 7a 22 2c 17 a0 53 3c 1a 84 75 8d 9a 38 6e 76 98
       5.5619713e-25 3.894504e-23 -5.850609e-23 -3.1850401e-24
0001b0 6d 98 52 98 88 e7 c6 99 39 00 cd 1a b2 77 a8 9a
       -2.721882e-24 -2.0566235e-23 8.478637e-23 -6.967655e-23
0001c0 62 bd 9a 1a 5d 9b 86 9a a9 2f 4a 9a 4e f1 99 19
       6.399887e-23 -5.5672104e-23 -4.181112e-23 1.5917291e-23
0001d0 e5 ad 2e 1a 72 9d 87 18 11 3e 2d 9a 1a 11 93 1b
       3.6122828e-23 3.505566e-24 -3.5825698e-23 2.4330162e-22
0001e0 05 be 13 1b b5 ac c3 1a eb 00 6a 1a bb 1a 3c 9a
       1.2220954e-22 8.092913e-23 4.8390807e-23 -3.889908e-23
0001f0 43 c7 a6 1a db 8b 8a 1a 89 b1 89 9a f2 86 d1 1a
       6.8977916e-23 5.730141e-23 -5.6948695e-23 8.665839e-23
000200 10 2c 15 1b 6a 92 cc 1a e0 1b ed 19 2a 99 08 1a
       1.2339228e-22 8.460897e-23 2.4516484e-23 2.8247866e-23
000210 bc dc a1 1a 93 71 cb 99 1b 22 08 9a 48 1b 79 9a
       6.6944655e-23 -2.103558e-23 -2.815169e-23 -5.151403e-23
000220 a7 20 95 9a ed 93 c5 9a f8 86 75 9a 3b 84 bb 99
       -6.167771e-23 -8.171628e-23 -5.077384e-23 -1.9388754e-23
000230 08 99 da 1a 04 0d 37 9a ce f7 a4 1a a6 09 32 99
       9.040992e-23 -3.7854027e-23 6.822916e-23 -9.204333e-24
000240 c2 dc c2 9a fa 39 ca 1a d2 9e 3e 9a 96 4a b0 1a
       -8.059317e-23 8.363891e-23 -3.9419373e-23 7.2912394e-23
000250 8b f2 93 9a a1 86 f1 19 73 dc 51 98 07 e1 e2 99
       -6.1189624e-23 2.4973192e-23 -2.7123915e-24 -2.345874e-23
000260 b7 61 47 1a 6c 1b 4f 9a 38 0f 87 9a 4a ac 5a 9a
       4.123117e-23 -4.2828748e-23 -5.585928e-23 -4.5220517e-23
000270 03 18 dc 1a 0d d7 9b 9a 2a 45 86 9a 24 27 df 18
       9.102866e-23 -6.445393e-23 -5.553284e-23 5.768367e-24
000280 36 c1 c4 97 80 a2 c5 9a f2 2a 8a 99 e7 e4 e3 1a
       -1.2714976e-24 -8.1739823e-23 -1.4286211e-23 9.425481e-23
000290 f3 06 93 19 19 1d 19 9a e5 80 d3 99 a9 0b 9b 19
       1.520225e-23 -3.1663163e-23 -2.1868949e-23 1.6031334e-23
0002a0 87 5c 99 1a 7f a3 ab 9a c4 6f 3a 19 32 60 c7 1a
       6.34288e-23 -7.0988085e-23 9.6385455e-24 8.245988e-23
0002b0 25 8d cf 1a 78 6a d0 99 cf 28 99 1a 36 e0 85 1a
       8.5841225e-23 -2.1549698e-23 6.3345247e-23 5.536974e-23
0002c0 57 bf b2 1a a9 db a3 1a b5 4c a0 1a f4 56 92 9a
       7.39282e-23 6.77701e-23 6.6298376e-23 -6.0524665e-23
0002d0 7f 46 cf 9a ae f5 bd 99 5d 8e 8d 18 20 6a 55 9a
       -8.5727086e-23 -1.9641371e-23 3.6591396e-24 -4.4133095e-23
0002e0 35 85 c0 9a 74 da 28 1a 3c 57 c8 1a e4 48 84 1a
       -7.9624546e-23 3.491805e-23 8.2858996e-23 5.471168e-23
0002f0 7b 58 53 9a 55 f2 40 9a fb 8a aa 1a a5 f7 ab 98
       -4.370525e-23 -3.9900424e-23 7.053489e-23 -4.445252e-24
000300 86 63 d8 1a 8b e0 0f 99 e1 be 9c 9a 72 b1 0d 9a
       8.9496295e-23 -7.438273e-24 -6.482847e-23 -2.9301456e-23
000310 d8 6e 88 1a d6 11 07 9a b7 9b 64 9a f7 7e bd 9a
       5.642736e-23 -2.7931753e-23 -4.727508e-23 -7.837369e-23
000320 1e fe 16 98 47 57 8f 1a 7c 8e af 19 18 2f b6 1a
       -1.9515342e-24 5.928442e-23 1.8152125e-23 7.534952e-23
000330 07 68 91 9a 8f 0f 9f 9a 99 40 93 9a 32 c1 72 99
       -6.013866e-23 -6.5785995e-23 -6.090214e-23 -1.2550122e-23
000340 4f 4f ec 1a bb f0 a7 18 d6 59 8a 9a 55 77 e8 19
       9.773544e-23 4.3411564e-24 -5.72206e-23 2.4036436e-23
000350 28 1d 8d 19 0d bf f1 98 c4 12 6e 9a 28 57 c3 9a
       1.4590834e-23 -6.248995e-24 -4.9232405e-23 -8.079092e-23
000360 e2 c2 66 9a 63 95 48 1a 70 2f 85 1a 0d 7c c7 1a
       -4.772031e-23 4.1479704e-23 5.508415e-23 8.2504886e-23
000370 49 77 4a 9a ca c6 2c 9a 5f 01 75 9a 9e d8 f5 19
       -4.186898e-23 -3.5729347e-23 -5.066592e-23 2.5419897e-23
000380 e0 21 8d 1a 5b 3e c1 19 e3 1a 05 1a 48 ab c8 99
       5.837096e-23 1.9980917e-23 2.7525474e-23 -2.0748695e-23
000390 7e ed ad 1a 9c f6 e0 19 ae 04 e5 1a e2 5e 40 9a
       7.193481e-23 2.3260662e-23 9.471974e-23 -3.9781315e-23
0003a0 90 c9 de 19 9c d4 9f 1a 1d 3f c9 9a ac 24 85 9a
       2.3035672e-23 6.610435e-23 -8.3233617e-23 -5.506676e-23
0003b0 76 21 a2 1a 5e 80 9a 9a 9d e6 23 1b f4 4d 4f 19
       6.705569e-23 -6.3900296e-23 1.3557559e-22 1.0717392e-23
0003c0 fc 50 bb 1a ce c2 8c 1a c8 01 0e 9a 23 2b ce 1a
       7.7472225e-23 5.8217367e-23 -2.936635e-23 8.5269294e-23
0003d0 da 52 b0 99 ac 7d 90 99 87 5c d7 99 bf e5 2b 1b
       -1.8231437e-23 -1.494001e-23 -2.226785e-23 1.4219023e-22
0003e0 ec 6e fd 1a f3 b2 d2 1a 75 73 b1 9a 01 f1 89 9a
       1.0481755e-22 8.714307e-23 -7.3392015e-23 -5.7051235e-23
0003f0 2e 0d a3 9a e4 61 49 1a ea 0b ed 99 0e fa bd 1a
       -6.743651e-23 4.16449e-23 -2.4510038e-23 7.857255e-23

lstm.weight_ih_l1 f4 [512, 128]
000000 58 f5 95 a4 d0 4f aa a2 a2 62 17 a3 3c 4c a6 24
       -6.503408e-17 -4.6163097e-18 -8.206613e-18 7.212017e-17
000010 4b 76 cb a3 99 91 65 a4 a8 85 b6 a3 c1 e0 11 23
       -2.2059403e-17 -4.9779786e-17 -1.9789085e-17 7.908059e-18
000020 d9 44 76 23 47 1c af 23 3b d8 97 23 6f 89 69 24
       1.3350266e-17 1.8985514e-17 1.646303e-17 5.0640232e-17
000030 32 c7 95 a3 ca cf ef a3 21 c3 1f 22 f8 ec 2f 24
       -1.6238975e-17 -2.6000434e-17 2.1651819e-18 3.8147796e-17
000040 59 ca ce 21 61 a2 1a 24 05 e7 e4 a3 41 c7 b8 a2
       1.4012664e-18 3.3530967e-17 -2.481765e-17 -5.008427e-18
000050 82 95 0e a4 8b 00 c2 22 23 d6 4e a4 18 2c bf a3
       -3.091798e-17 5.258438e-18 -4.485051e-17 -2.0726936e-17
000060 98 3c 8e 24 a9 0d 08 a4 a0 09 30 24 30 d4 7f a3
       6.168533e-17 -2.950187e-17 3.817207e-17 -1.386851e-17
000070 f8 c9 8e 23 ae 4e d9 23 00 3c 95 22 22 c9 97 a3
       1.5481208e-17 2.356051e-17 4.045006e-18 -1.6456636e-17
000080 4f 57 76 a3 d2 9c cf 22 d9 76 5c 24 f4 47 0b 24
       -1.3354175e-17 5.6273502e-18 4.7805563e-17 3.0201767e-17
000090 7b 18 16 22 58 ba ea 23 7c f1 4f a3 78 6c 10 a4
       2.034175e-18 2.544925e-17 -1.1272629e-17 -3.13169e-17
0000a0 cb 28 63 a4 2f 2c 08 24 c5 48 04 a3 c8 0e 3d 23
       -4.925733e-17 2.9527724e-17 -7.171144e-18 1.02488406e-17
0000b0 9d 8a d3 23 12 e1 8a 1e c7 e4 ea 22 a1 8b 3f 22
       2.2935371e-17 1.4704405e-20 6.3668055e-18 2.5959246e-18
0000c0 b0 3a 52 22 62 55 3b 22 4b b0 b7 a3 29 4d f8 22
       2.8491376e-18 2.5388427e-18 -1.9915563e-17 6.730223e-18
0000d0 a5 40 05 a3 f2 03 65 23 f9 28 4d 21 50 4f 3f 22
       -7.2236335e-18 1.241495e-17 6.951093e-19 2.5927315e-18
0000e0 1a cd db 23 1d 2b 44 24 96 a5 32 a2 7a f6 e9 a3
       2.3830891e-17 4.2537244e-17 -2.4211159e-18 -2.5366298e-17
0000f0 48 a6 d4 a1 f8 0f 23 a3 e8 55 48 23 11 0c 01 23
       -1.4409693e-18 -8.839629e-18 1.0860213e-17 6.995659e-18
000100 72 ce 02 a4 91 3b e1 a2 f2 bf 25 24 e8 f5 3f a4
       -2.8364122e-17 -6.104944e-18 3.5941256e-17 -4.1624814e-17
000110 2e e5 00 24 83 2a f0 a3 79 61 b3 a3 ad 97 d1 22
       2.79497e-17 -2.6038857e-17 -1.94485e-17 5.6810156e-18
000120 b0 63 3f a4 d4 f7 67 a3 1c 6b 4f 23 1d 9d f6 23
       -4.150096e-17 -1.2575015e-17 1.1244174e-17 2.6737914e-17
000130 df 7e 28 24 79 41 db a3 5b 90 84 a3 2b 03 fc 23
       3.6536657e-17 -2.3771756e-17 -1.4372606e-17 2.7323236e-17
000140 f4 8c 21 a4 7b 05 0f 24 62 73 df a3 e7 78 5e a3
       -3.5030702e-17 3.1012824e-17 -2.4226575e-17 -1.2060246e-17
000150 6d 47 a5 a3 90 32 56 22 16 f5 ea 23 fb fb ff 22
       -1.7919586e-17 2.9029176e-18 2.5474129e-17 6.9384683e-18
000160 41 1c 74 a2 02 ba a6 23 91 bc 0b 24 02 0e 17 23
       -3.3083124e-18 1.8076533e-17 3.0300542e-17 8.188693e-18
000170 c7 2b 32 24 d2 75 15 a3 7a a9 70 23 10 db ac 23
       3.8634678e-17 -8.102256e-18 1.3046314e-17 1.8741054e-17
000180 37 9b b8 23 d4 b4 e6 a3 02 2f 82 a3 88 1e 29 24
       2.0015056e-17 -2.5013234e-17 -1.4114537e-17 3.6671894e-17
000190 4c e3 40 a4 ab e2 c5 a3 db 92 c2 a3 aa 51 59 a2
       -4.182589e-17 -2.145478e-17 -2.1095718e-17 -2.9452217e-18
0001a0 88 67 29 23 92 b0 74 24 4f e6 0f 23 84 e6 ca a3
       9.183432e-18 5.3058627e-17 7.800815e-18 -2.1998511e-17
0001b0 ac cd 29 24 17 aa b4 a3 1a c1 8b a4 15 c9 fa a1
       3.6820244e-17 -1.9587675e-17 -6.060877e-17 -1.6993885e-18
0001c0 c6 db f7 23 88 83 09 24 eb 56 4e 23 cb 33 4c 22
       2.6872871e-17 2.981855e-17 1.1185688e-17 2.7674574e-18
0001d0 e1 71 dd a3 f9 94 d9 a3 1b 9e 3b a4 b0 90 ad 24
       -2.4009098e-17 -2.359028e-17 -4.0683082e-17 7.52719e-17
0001e0 b7 96 29 24 b5 2b 7c 20 d8 9a aa a2 f0 b1 f7 23
       3.6773694e-17 2.1359692e-19 -4.624254e-18 2.6855153e-17
0001f0 5a f7 ff a3 5d 8e 41 a4 75 26 b5 a3 41 a4 6c a4
       -2.7751913e-17 -4.197079e-17 -1.9640347e-17 -5.131347e-17
000200 3f 31 8a a5 f7 f0 9c a3 5b 80 0b a4 11 3f 99 25
       -2.3972554e-16 -1.7015606e-17 -3.0249542e-17 2.6584005e-16
000210 c5 7e bb a4 77 8a 53 a5 eb 30 a8 a4 f1 6c 06 24
       -8.131308e-17 -1.8348246e-16 -7.2941256e-17 2.9148895e-17
000220 32 ef 62 24 2a 5d a1 24 c3 ec 8b 24 ba 34 57 25
       4.9208545e-17 6.9980446e-17 6.068273e-17 1.8666142e-16
000230 5e 07 8a a4 57 fd dc a4 08 38 13 23 f0 1d 22 25
       -5.986044e-17 -9.5838966e-17 7.980751e-18 1.4061403e-16
000240 31 8e be 22 64 7f 0e 25 6b f0 d2 a4 b7 47 aa a3
       5.1650154e-18 1.2359698e-16 -9.1480266e-17 -1.846181e-17
000250 8f 64 03 a5 58 c6 b2 23 c6 99 3e a5 e6 29 b0 a4
       -1.139651e-16 1.93828e-17 -1.6531973e-16 -7.639881e-17
000260 0f 13 83 25 3e bf fa a4 6e 37 22 25 9f bf 6b a4
       2.2737792e-16 -1.08744194e-16 1.407004e-16 -5.111981e-17
000270 39 94 83 24 fe 3f c8 24 74 85 89 23 e2 de 8b a4
       5.706329e-17 8.684458e-17 1.491009e-17 -6.065922e-17
000280 10 00 63 a4 9c 50 bf 23 6d 27 4b 25 3f 59 00 25
       -4.922283e-17 2.0742401e-17 1.7620801e-16 1.1132468e-16
000290 7d 4f 0a 23 e7 4e d8 24 d6 a0 3f a4 13 16 05 a5
       7.497827e-18 9.3808733e-17 -4.1552756e-17 -1.154339e-16
0002a0 c1 54 51 a5 0e f7 fa 24 35 cf f3 a3 b9 37 2e 24
       -1.8156576e-16 1.08838744e-16 -2.6433868e-17 3.7777435e-17
0002b0 38 f0 c2 24 82 6a 80 1f 5f 75 d8 23 d6 80 30 23
       8.4541035e-17 5.438631e-20 2.3468476e-17 9.568261e-18
0002c0 69 bb 41 23 eb a0 2c 23 82 43 a9 a4 53 ce e4 23
       1.0502237e-17 9.358214e-18 -7.340643e-17 2.4807191e-17
0002d0 cf 97 f5 a3 29 0c 53 24 8f 13 3d 22 5d 48 30 23
       -2.6627247e-17 4.5763632e-17 2.562463e-18 9.556303e-18
0002e0 bb 8c ca 24 65 c4 34 25 35 a1 24 a3 88 99 d7 a4
       8.784194e-17 1.5679052e-16 -8.924595e-18 -9.350148e-17
0002f0 16 f7 c3 a2 3d 43 16 a4 60 9c 38 24 8a d4 ed 23
       -5.311647e-18 -3.2583018e-17 4.0031095e-17 2.5785605e-17
000300 2f 13 f1 a4 25 8d cf a3 05 bd 18 25 f0 e5 30 a5
       -1.0454959e-16 -2.2502762e-17 1.3247941e-16 -1.5343472e-16
000310 17 8f ed 24 8a 50 dd a4 33 4d a5 a4 77 25 c1 23
       1.0302477e-16 -9.597991e-17 -7.1688124e-17 2.0940969e-17
000320 b4 5c 30 a5 0f c0 55 a4 4f 22 3f 24 60 41 e3 24
       -1.5296976e-16 -4.6349693e-17 4.1445583e-17 9.855631e-17
000330 83 45 1b 25 fa 0b ca a4 1a 51 74 a4 58 3b e8 24
       1.3467658e-16 -8.7623825e-17 -5.2977762e-17 1.00714494e-16
000340 5a df 14 a5 89 cb 03 25 d5 e9 cd a4 3d 03 4d a4
       -1.2912628e-16 1.1431399e-16 -8.9300705e-17 -4.4455032e-17
000350 86 4d 98 a4 2a 63 45 23 a6 84 d8 24 51 e3 eb 23
       -6.605082e-17 1.070039e-17 9.389978e-17 2.5575023e-17
000360 69 f5 60 a3 8f a3 99 24 a0 c4 00 25 ad 32 0b 24
       -1.2195032e-17 6.663025e-17 1.116885e-16 3.0183744e-17
000370 7b 30 24 25 ab ba 09 a4 b8 c6 5d 24 fe 4a 9f 24
       1.4241158e-16 -2.9865253e-17 4.8090057e-17 6.90823e-17
000380 33 1e aa 24 45 98 d4 a4 43 ef 6f a4 4f d9 1b 25
       7.377691e-17 -9.21983e-17 -5.2027526e-17 1.3517734e-16
000390 81 be 31 a5 2e 5a b6 a4 09 4e b3 a4 27 42 48 a3
       -1.5416848e-16 -7.908269e-17 -7.776107e-17 -1.085603e-17
0003a0 61 1b 1c 24 37 7c 61 25 f3 9a 04 24 48 f9 ba a4
       3.38503e-17 1.9557725e-16 2.8754184e-17 -8.108694e-17
0003b0 6d 79 1c 25 88 7c a6 a4 42 c8 80 a5 fc 16 e7 a2
       1.3571984e-16 -7.220199e-17 -2.234016e-16 -6.263701e-18
0003c0 24 65 e4 24 07 71 fd 24 a9 24 3e 24 58 2e 3c 23
       9.905058e-17 1.09912736e-16 4.1230735e-17 1.0201314e-17
0003d0 99 10 cc a4 c2 82 c8 a4 ea e4 2c a5 24 f1 9f 25
       -8.8499015e-17 -8.6957686e-17 -1.4996181e-16 2.7745507e-16
0003e0 71 47 1c 25 9a 63 68 21 13 37 9d a3 00 3e e4 24
       1.3555048e-16 7.873648e-19 -1.7045299e-17 9.898427e-17
0003f0 56 df eb a4 41 5e 32 a5 cf ee a6 a4 c1 11 5a a5
       -1.0229335e-16 -1.5470973e-16 -7.239558e-17 -1.8914501e-16

lstm.weight_hh_l1 f4 [512, 128]
000000 20 28 8a b6 00 44 04 b7 4d 0d cc b5 06 ca c6 b4
       -4.1173917e-06 -7.883646e-06 -1.5203055e-06 -3.7027365e-07
000010 4c 5b fc 36 03 a7 0a 36 b1 96 9c 34 ba f3 22 b7
       7.5208136e-06 2.0660816e-06 2.9166907e-07 -9.7126995e-06
000020 e4 7e 04 b6 94 bc 59 b6 06 31 b9 b6 86 6d a8 36
       -1.9743393e-06 -3.2445287e-06 -5.5191367e-06 5.0195404e-06
000030 17 a5 e4 36 ec cf cb 36 d3 0d d7 b6 c8 90 c6 36
       6.8141485e-06 6.0740767e-06 -6.4091087e-06 5.9177146e-06
000040 75 d5 d6 b6 de 6e 41 b7 f3 5c 02 b5 0d 9f 32 b6
       -6.4025467e-06 -1.152951e-05 -4.856403e-07 -2.6616647e-06
000050 15 e9 ae 36 8e bd f1 b6 33 05 d1 36 f3 55 a7 b6
       5.2127384e-06 -7.2044268e-06 6.2292906e-06 -4.9869936e-06
000060 50 5d 96 36 10 48 36 b7 b5 00 34 b7 cf a8 1c b7
       4.4812114e-06 -1.0864824e-05 -1.0729001e-05 -9.337628e-06
000070 09 73 47 36 c3 0c 0c b7 bb 70 2b 37 80 58 4c b6
       2.972027e-06 -8.347622e-06 1.0218641e-05 -3.0449883e-06
000080 63 3a ad 36 15 93 cf 36 ca 3a cd 36 ee 46 b9 b6
       5.162599e-06 6.1862033e-06 6.11632e-06 -5.521687e-06
000090 00 0c f0 b6 23 c4 7a b6 c1 22 08 37 a0 99 cd b6
       -7.1539544e-06 -3.736707e-06 8.1143235e-06 -6.1273604e-06
0000a0 9d ff 3c b5 c6 64 1d 37 b7 a8 22 b7 0f 97 f6 36
       -7.0407424e-07 9.381392e-06 -9.695234e-06 7.348957e-06
0000b0 7c e4 9a 33 8b 13 11 37 4f 7a 38 b5 ec 01 64 b6
       7.212745e-08 8.647224e-06 -6.8723324e-07 -3.3975766e-06
0000c0 bd 18 b6 36 a7 37 c9 36 16 83 e1 36 24 1b 71 33
       5.4269026e-06 5.9967456e-06 6.720783e-06 5.613687e-08
0000d0 dc f7 17 b7 ad 6d f6 b4 be 32 7f 36 3f 65 dc b6
       -9.058011e-06 -4.590087e-07 3.8027497e-06 -6.5682975e-06
0000e0 b1 9b d3 35 76 1c bc 36 7d 5d ab b6 63 09 5f b6
       1.5766037e-06 5.60615e-06 -5.1070806e-06 -3.3235053e-06
0000f0 3f 1b 02 36 95 ec 74 36 26 26 53 36 ee 5d c4 b6
       1.938737e-06 3.6496542e-06 3.1463655e-06 -5.85219e-06
000100 fd 92 b4 b6 ca 1b c3 b6 ea 6c 2c 37 6d 77 5d 36
       -5.3815297e-06 -5.814688e-06 1.0277357e-05 3.3001081e-06
000110 02 42 cb 34 16 ed e1 36 64 f2 35 35 1b 96 57 36
       3.7859724e-07 6.733123e-06 6.778048e-07 3.212487e-06
000120 bf d6 70 b6 89 d6 44 37 77 5c 26 b7 c7 a0 d4 b6
       -3.5887786e-06 1.1732461e-05 -9.9159e-06 -6.3368093e-06
000130 08 fd df 36 31 e9 47 b6 b1 3a 37 b6 36 12 ff b6
       6.6753746e-06 -2.9789046e-06 -2.7303288e-06 -7.6017122e-06
000140 7e 7a c9 b6 36 15 9a b6 e1 c5 42 36 d7 b8 1e b7
       -6.0045268e-06 -4.592027e-06 2.9023433e-06 -9.46057e-06
000150 42 ab b3 35 6f 8f e6 b4 37 ac 2c 37 4e 44 3e 36
       1.3386382e-06 -4.29452e-07 1.0292096e-05 2.8351965e-06
000160 52 64 09 b7 e0 f1 47 36 3a 69 a3 b5 cd ee 18 b6
       -8.189194e-06 2.97941e-06 -1.2175071e-06 -2.2788765e-06
000170 4c 4f eb 34 65 86 f6 b6 8f 78 2a b7 ee 14 b3 35
       4.3829857e-07 -7.347017e-06 -1.0160859e-05 1.3342631e-06
000180 b8 d8 0f b6 42 f5 db b6 a1 36 b4 36 13 82 00 b6
       -2.1434807e-06 -6.5552604e-06 5.3707777e-06 -1.91492e-06
000190 3a df dd b6 6f c7 ac 36 40 a6 0c b7 30 5f 3d b7
       -6.6123002e-06 5.1492166e-06 -8.383358e-06 -1.128744e-05
0001a0 87 94 8d b4 da 49 f9 36 99 01 d8 b6 52 b5 08 36
       -2.6371364e-07 7.4293757e-06 -6.4374876e-06 2.0371122e-06
0001b0 b2 9a 4d 36 89 fe 3b b7 c7 82 12 37 7b 31 cb b4
       3.0637425e-06 -1.1205332e-05 8.732727e-06 -3.7847698e-07
0001c0 94 bf b1 b6 c4 b2 71 b6 7c 2c b1 b6 74 43 69 36
       -5.2973137e-06 -3.6015854e-06 -5.2801897e-06 3.4758968e-06
0001d0 32 3a 0e b6 86 61 a7 b4 aa 2f 8b 35 8f c6 fc b5
       -2.1193523e-06 -3.1177132e-07 1.0370179e-06 -1.8833251e-06
0001e0 58 aa 1d 36 a7 12 ea 36 c0 64 e2 36 96 c3 bc b6
       2.3493976e-06 6.975915e-06 6.7470537e-06 -5.625606e-06
0001f0 83 e9 d7 36 db db 37 37 e6 d1 88 b4 12 f2 e8 b6
       6.4346837e-06 1.0958839e-05 -2.5484695e-07 -6.9423195e-06
000200 05 68 7c b7 84 a6 f1 b7 ca 65 ba b6 6c 96 b5 b5
       -1.5044589e-05 -2.8806979e-05 -5.5550818e-06 -1.3529329e-06
000210 88 86 e6 37 8d 50 fd 36 4b 0a 8f 35 5a dc 14 b8
       2.7480783e-05 7.549365e-06 1.0657326e-06 -3.5491168e-05
000220 54 10 f2 b6 9c e6 46 b7 7c 2c a9 b7 60 db 99 37
       -7.214063e-06 -1.1855413e-05 -2.0167085e-05 1.8341176e-05
000230 d6 dd d0 37 fd 2e ba 37 ce 72 c4 b7 f6 62 b5 37
       2.4898833e-05 2.2194808e-05 -2.341848e-05 2.1622964e-05
000240 47 3f c4 b7 19 b5 30 b8 60 2b ee b5 14 2a 23 b7
       -2.3394487e-05 -4.213033e-05 -1.7745006e-06 -9.725354e-06
000250 35 c7 9f 37 51 d4 dc b7 6b f0 be 37 3b dc 98 b7
       1.904704e-05 -2.6324911e-05 2.2761718e-05 -1.8222365e-05
000260 9c 5b 89 37 7c 84 26 b8 1d 6f 24 b8 8f 1c 0f b8
       1.6374332e-05 -3.970087e-05 -3.920413e-05 -3.4120454e-05
000270 99 30 36 37 d2 de ff b7 fd 9d 1c 38 de a9 3a b7
       1.085936e-05 -3.0502128e-05 3.7340436e-05 -1.1126014e-05
000280 2d 3e 9e 37 ed 9d bd 37 a0 78 bb 37 81 3f a9 b7
       1.886402e-05 2.2604096e-05 2.2348308e-05 -2.0175941e-05
000290 17 47 db b7 78 11 65 b7 d0 b8 f8 37 46 d0 bb b7
       -2.6139938e-05 -1.3653531e-05 2.9649964e-05 -2.2389122e-05
0002a0 53 a5 2c b6 3f c8 0f 38 74 98 14 b8 72 41 e1 37
       -2.5726229e-06 3.428035e-05 -3.5427933e-05 2.6852565e-05
0002b0 09 7e 8d 34 a6 87 04 38 b3 84 28 b6 c5 47 50 b7
       2.6355e-07 3.1597585e-05 -2.5111192e-06 -1.2414476e-05
0002c0 ba 58 a6 37 b8 ce b7 37 00 01 ce 37 96 3e 5c 34
       1.9830059e-05 2.191156e-05 2.455758e-05 2.0511865e-07
0002d0 fe d2 0a b8 36 1b e1 b5 1e 1e 69 37 78 54 c9 b7
       -3.3098266e-05 -1.6771726e-06 1.3894894e-05 -2.4000401e-05
0002e0 98 4c c1 36 93 d5 ab 37 ef 88 9c b7 30 bd 4b b7
       5.760765e-06 2.0484242e-05 -1.8660414e-05 -1.21437915e-05
0002f0 60 b3 ed 36 da ba 5f 37 b4 e1 40 37 7d 61 b3 b7
       7.0840324e-06 1.3335341e-05 1.1496642e-05 -2.138386e-05
000300 98 f3 a4 b7 1e 3a b2 b7 17 83 1d 38 86 4d 4a 37
       -1.9663756e-05 -2.1246316e-05 3.7553804e-05 1.2058188e-05
000310 ff ab b9 35 c8 61 ce 37 7d 34 26 36 dd ee 44 37
       1.3833632e-06 2.4602647e-05 2.476648e-06 1.1738125e-05
000320 48 00 5c b7 51 d0 33 38 71 f8 17 b8 e8 3c c2 b7
       -1.3113087e-05 4.2870935e-05 -3.6232585e-05 -2.3154964e-05
000330 28 9e cc 37 27 9e 36 b7 5b 60 27 b7 ca 02 e9 b7
       2.4392342e-05 -1.0884868e-05 -9.97641e-06 -2.7777063e-05
000340 de 0b b8 b7 7a c0 8c b7 bc eb 31 37 d8 fd 10 b8
       -2.1940035e-05 -1.677893e-05 1.0604908e-05 -3.4568686e-05
000350 7a 1f a4 36 6c 9c d2 b5 d5 bd 1d 38 36 ce 2d 37
       4.891245e-06 -1.5691744e-06 3.760851e-05 1.0359616e-05
000360 73 04 fb b7 45 a5 36 37 7d 46 95 b6 b2 b2 0b b7
       -2.9923604e-05 1.0886525e-05 -4.448752e-06 -8.326651e-06
000370 d1 f2 d6 35 fd 32 e1 b7 fa ba 1b b8 ff 95 a3 36
       1.6014911e-06 -2.6845833e-05 -3.7129015e-05 4.8752404e-06
000380 8d 66 03 b7 26 ee c8 b7 79 9e a4 37 a5 c6 ea b6
       -7.832085e-06 -2.3952754e-05 1.9624118e-05 -6.9968687e-06
000390 dc ac ca b7 00 d5 9d 37 45 7c 00 b8 74 fe 2c b8
       -2.416077e-05 1.8815044e-05 -3.0633313e-05 -4.1244974e-05
0003a0 7a 54 81 b5 c9 b9 e3 37 aa 51 c5 b7 3b c3 f9 36
       -9.635835e-07 2.7147022e-05 -2.3522258e-05 7.443506e-06
0003b0 0c d1 3b 37 ec bc 2b b8 f6 d5 05 38 1b 9d b9 b5
       1.1194741e-05 -4.0945524e-05 3.1908938e-05 -1.3829298e-06
0003c0 b2 5f a2 b7 95 c9 5c b7 50 d8 a1 b7 38 15 55 37
       -1.9356467e-05 -1.3159956e-05 -1.9293424e-05 1.270073e-05
0003d0 f2 eb 01 b7 c9 e5 98 b5 21 4a 7e 36 49 e6 e6 b6
       -7.7439345e-06 -1.1391759e-06 3.7892098e-06 -6.881343e-06
0003e0 a3 06 10 37 a8 d3 d5 37 48 cf ce 37 f9 6f ac b7
       8.584614e-06 2.5490139e-05 2.4653637e-05 -2.055614e-05
0003f0 d1 3b c5 37 33 f5 27 38 7b f6 79 b5 a7 cc d4 b7
       2.3512084e-05 4.0044262e-05 -9.3118405e-07 -2.5367668e-05
