trained networks/5696.pt (torch_old, 484808 bytes, 18 tensors)

lstm.weight_ih_l0 f4 [256, 12]
000000 0a 2e b8 b6 4e 4c 3c 37 1c 68 7b b6 05 c5 28 b7
       -5.488987e-06 1.1223439e-05 -3.7462514e-06 -1.00594525e-05
000010 57 be 48 b7 8f 77 55 37 93 1c 53 37 89 2b 86 b6
       -1.1965246e-05 1.2723626e-05 1.2583233e-05 -3.9985794e-06
000020 e6 8e 34 b7 77 34 1b b6 b0 34 4b b7 58 53 a5 35
       -1.0762107e-05 -2.3127338e-06 -1.211201e-05 1.2317714e-06
000030 75 b9 15 b6 c6 e8 a3 b6 6d 1b 8e 35 5c f0 c8 36
       -2.231068e-06 -4.884877e-06 1.0587806e-06 5.988446e-06
000040 69 2e 52 b7 55 34 87 b6 7b 82 47 36 65 0a 56 37
       -1.2527781e-05 -4.0294058e-06 2.972926e-06 1.2757814e-05
000050 8b 4f 53 37 29 00 2b b7 6d 99 8e b5 3c 14 ee b5
       1.25951e-05 -1.0192432e-05 -1.0624477e-06 -1.7738271e-06
000060 92 da 44 b7 4d 79 06 37 69 5b 29 37 07 fd 25 36
       -1.17334e-05 8.015265e-06 1.0094468e-05 2.4734197e-06
000070 35 39 4f b7 2f f0 15 37 11 f2 5e b7 c9 47 15 b6
       -1.2351481e-05 8.937014e-06 -1.3288592e-05 -2.2244515e-06
000080 44 b7 45 b7 0c b6 f9 b6 88 90 c4 36 1c c5 2e 37
       -1.1784785e-05 -7.4419713e-06 5.858081e-06 1.0417101e-05
000090 63 a3 1f 37 e6 2b b7 b5 c0 ce 0d 37 90 56 00 37
       9.51518e-06 -1.3647339e-06 8.452393e-06 7.649549e-06
0000a0 69 ad 1e b7 34 e1 4a 37 ae ee 33 b7 98 32 24 b7
       -9.457909e-06 1.2092572e-05 -1.0724803e-05 -9.7869415e-06
0000b0 a2 92 35 b7 43 a9 28 37 bc f4 f2 36 b9 29 a7 b4
       -1.0822581e-05 1.005299e-05 7.240653e-06 -3.113653e-07
0000c0 85 e0 28 37 8a 4b ba b6 4f 9f 56 b7 11 1c dc 36
       1.0065855e-05 -5.552026e-06 -1.2792486e-05 6.5597783e-06
0000d0 27 41 23 36 14 e2 24 37 91 dd eb 34 5b 74 7c 36
       2.4326816e-06 9.8278e-06 4.3933372e-07 3.7618654e-06
0000e0 99 14 42 b7 be 02 a6 b6 91 db de b6 43 6d 26 37
       -1.1568097e-05 -4.9475047e-06 -6.6416765e-06 9.9198105e-06
0000f0 2f 83 4c b7 8b 78 55 37 31 ae a1 36 cb 04 7c 36
       -1.2189891e-05 1.2723855e-05 4.8184525e-06 3.7553716e-06
000100 c2 5f 39 b6 f2 8b 34 37 7d 28 54 b7 49 21 52 37
       -2.7622887e-06 1.076142e-05 -1.2645612e-05 1.2524725e-05
000110 31 5f cb b6 b2 5a 33 36 51 d4 69 b6 3b cc 9e b6
       -6.060953e-06 2.672587e-06 -3.484329e-06 -4.7325425e-06
000120 83 2c 97 36 9b 8c 4f b7 97 9a 51 b7 4c 91 fb 36
       4.5053325e-06 -1.2370899e-05 -1.2493364e-05 7.4972977e-06
000130 8a c4 33 37 88 68 06 b7 ee f8 8c b6 b3 14 da 36
       1.0714992e-05 -8.0113605e-06 -4.2013044e-06 6.499316e-06
000140 0b c0 ca b6 e6 d1 82 b6 56 f8 33 b7 4f 7a 24 33
       -6.042426e-06 -3.8987373e-06 -1.0727052e-05 3.8295465e-08
000150 d7 6c 14 b7 8d 62 63 b6 e7 08 9d 36 03 22 1a b4
       -8.846829e-06 -3.3883e-06 4.680001e-06 -1.4354741e-07
000160 e3 ec 0e 36 7f 47 14 b7 a8 34 08 37 06 9c 3d 37
       2.1297535e-06 -8.838134e-06 8.118492e-06 1.1301605e-05
000170 a7 09 4d 35 cd eb 58 37 78 25 ea 35 ee f9 b9 b6
       7.6382497e-07 1.2929505e-05 1.7445263e-06 -5.5425253e-06
000180 d7 e6 23 b7 fd 08 49 b7 16 0a 3e b7 9f 83 5d b7
       -9.769304e-06 -1.1982626e-05 -1.1327231e-05 -1.3203272e-05
000190 d8 e2 4d 37 56 74 45 37 da db 32 37 ae a6 36 37
       1.2271768e-05 1.1769202e-05 1.0660815e-05 1.08868535e-05
0001a0 1c e0 e5 35 0e 32 36 37 8f 29 57 b7 a9 21 ea b6
       1.7127054e-06 1.08597e-05 -1.2824675e-05 -6.977662e-06
0001b0 4e 5f 38 37 d7 f5 17 36 25 25 24 b7 e1 11 9a b6
       1.09894445e-05 2.264385e-06 -9.78381e-06 -4.591639e-06
0001c0 d5 1c e1 36 93 3f 5a 37 f4 d8 e7 36 a1 ee 8c 36
       6.708879e-06 1.3008615e-05 6.909593e-06 4.200105e-06
0001d0 1a 59 0b b7 32 3a 3a 37 eb 44 94 35 37 43 42 b7
       -8.305791e-06 1.1100014e-05 1.1046917e-06 -1.1578951e-05
0001e0 0d 46 47 b7 58 84 27 b7 04 34 cc 34 d7 65 dc 36
       -1.1877634e-05 -9.984789e-06 3.8035807e-07 6.5683666e-06
0001f0 c8 d4 44 b7 52 9f b0 36 b8 8d 0e b6 da 9e 36 37
       -1.1732052e-05 5.263756e-06 -2.124214e-06 1.0885031e-05
000200 4c c5 f1 36 d7 cb 40 37 27 ca 05 b5 ec 13 03 b7
       7.205328e-06 1.1491552e-05 -4.984053e-07 -7.812847e-06
000210 70 78 ea b6 81 2d dd 36 47 b8 c1 b5 d6 92 23 b7
       -6.987764e-06 6.5916106e-06 -1.4433252e-06 -9.749745e-06
000220 83 33 c3 33 63 69 18 37 ab 35 27 37 ef 8b 25 b7
       9.089765e-08 9.084443e-06 9.966471e-06 -9.867347e-06
000230 7c a9 f5 b6 5e 01 8d b5 8c c3 f6 b6 ff 8c 17 b7
       -7.3212996e-06 -1.0505717e-06 -7.354136e-06 -9.03313e-06
000240 6d 5e 59 b6 6d 83 4e 36 75 df ff 36 7e 44 a7 b6
       -3.2390483e-06 3.0772892e-06 7.625606e-06 -4.9849614e-06
000250 9f 05 0d b7 2c 2f 7b b5 8a 6a 3c 37 74 8c 05 37
       -8.405564e-06 -9.357343e-07 1.1230479e-05 7.96012e-06
000260 1a 2d 25 b7 62 9b 39 b6 eb e4 02 b6 c2 75 b5 b6
       -9.845267e-06 -2.7657593e-06 -1.9504757e-06 -5.407929e-06
000270 c4 e9 86 b6 52 ac 29 b7 aa c7 3d b6 25 0a a2 36
       -4.020725e-06 -1.0113306e-05 -2.8279414e-06 4.829157e-06
000280 7c a7 ec b6 0f bc 1e b7 51 37 ff 36 f1 a9 5a b7
       -7.052846e-06 -9.46132e-06 7.606032e-06 -1.303338e-05
000290 88 e2 07 b7 29 71 9d 36 2d ba db 36 f1 79 ac b5
       -8.0993705e-06 4.692138e-06 6.5483823e-06 -1.2850488e-06
0002a0 d5 c9 cb 36 23 f9 59 37 63 ba 17 37 6b 93 59 36
       6.073368e-06 1.2992215e-05 9.043698e-06 3.2421328e-06
0002b0 47 f6 2a 37 3e b2 37 b6 73 11 4f 37 ab 3d 1a 37
       1.01901305e-05 -2.7372876e-06 1.2342224e-05 9.1934735e-06
0002c0 72 2e 33 37 2b 69 19 b7 d4 fa 7c 36 5b 2e d9 36
       1.0680045e-05 -9.143997e-06 3.7696927e-06 6.4725004e-06
0002d0 bf e1 20 34 cf dc 9a 35 48 82 00 37 d4 69 21 b7
       1.4983287e-07 1.1538158e-06 7.659728e-06 -9.620988e-06
0002e0 8b 12 5d b7 46 c1 38 b7 f6 94 36 b7 93 a0 fe b6
       -1.3176944e-05 -1.1012255e-05 -1.0882728e-05 -7.588483e-06
0002f0 1e b5 a2 b5 7c e5 f1 b5 36 d3 3c 36 af c6 19 36
       -1.2122653e-06 -1.8022688e-06 2.8137124e-06 2.2914426e-06
000300 ad 72 57 b7 3c 2b f8 b5 e0 d2 80 b6 7c 93 cc 36
       -1.2841699e-05 -1.8490023e-06 -3.8392463e-06 6.096843e-06
000310 9b 15 11 37 1b f4 11 b7 43 84 a2 b5 f4 e5 4c 36
       8.647704e-06 -8.699509e-06 -1.2108434e-06 3.053222e-06
000320 e1 d7 c4 35 72 83 04 b7 68 34 80 36 cd ab 61 36
       1.4665967e-06 -7.898418e-06 3.820798e-06 3.3627614e-06
000330 b9 77 a3 b4 ce f6 8a b5 dd 48 07 36 47 64 fe b4
       -3.0448226e-07 -1.0353631e-06 2.015898e-06 -4.7384148e-07
000340 7a eb b1 36 a7 4a 40 37 c6 14 bb b6 4c 7c 07 b7
       5.302424e-06 1.1461473e-05 -5.5754526e-06 -8.075567e-06
000350 06 ca a5 b6 8d 5e 17 b7 72 95 38 b7 07 76 dd 33
       -4.940902e-06 -9.022316e-06 -1.100205e-05 1.03125835e-07
000360 97 d4 2a b6 6c b6 fe b6 9e 53 b3 35 8c e0 77 36
       -2.5455718e-06 -7.5910266e-06 1.3360875e-06 3.6936572e-06
000370 fc 8c 6f 36 1a 43 df b5 eb 30 99 36 3a 5a 82 35
       3.569584e-06 -1.6634324e-06 4.56545e-06 9.712014e-07
000380 4d 23 44 36 d5 45 50 36 b9 a8 cb 36 45 36 46 36
       2.9226824e-06 3.1035063e-06 6.0695133e-06 2.9535888e-06
000390 36 e3 b5 b6 a0 02 01 b7 d7 55 43 b7 81 d1 19 37
       -5.420671e-06 -7.68961e-06 -1.1642892e-05 9.16829e-06
0003a0 49 c7 15 37 4e 31 3c b7 eb 04 2f 36 94 e6 df b6
       8.927492e-06 -1.1217153e-05 2.6079895e-06 -6.6727607e-06
0003b0 6e 70 3a 37 c0 5c 63 36 cd 3a 4e b6 ca a2 de 36
       1.1112641e-05 3.3879624e-06 -3.0730619e-06 6.6350667e-06
0003c0 d4 ac 28 b6 8a 74 45 b7 ae a1 5d 37 ae ad 35 35
       -2.513455e-06 -1.1769249e-05 1.32102705e-05 6.768049e-07
0003d0 2b 06 13 b7 1e 05 4a b7 3c 53 f3 32 41 8a 2a 35
       -8.763319e-06 -1.204133e-05 2.8326774e-08 6.353112e-07
0003e0 7c 81 fb b6 d1 ef be 36 7c 8f fa 35 f6 ac b6 36
       -7.495457e-06 5.6903596e-06 1.8668211e-06 5.444158e-06
0003f0 b1 7f 9d 36 47 ea 1c 37 ea 8f 3e b5 fa 3c 30 b7
       4.69383e-06 9.3528715e-06 -7.098994e-07 -1.0504615e-05

lstm.weight_hh_l0 f4 [256, 64]
000000 30 94 61 34 a9 b9 93 b6 89 f2 de b6 57 af 1a b7
       2.1008668e-07 -4.402555e-06 -6.6443504e-06 -9.21994e-06
000010 97 f0 96 b6 43 04 fc b6 ee 9f 8e b6 36 83 2f 37
       -4.4983567e-06 -7.5106814e-06 -4.250548e-06 1.0461363e-05
000020 ec ae 5d b6 76 25 46 b7 e2 4b 0b 37 12 a1 c1 36
       -3.3033384e-06 -1.1810442e-05 8.3027135e-06 5.7705993e-06
000030 40 e9 65 36 45 f2 11 b7 05 e6 28 b7 81 70 16 b6
       3.4259429e-06 -8.699081e-06 -1.0067136e-05 -2.2417228e-06
000040 fd 60 13 37 17 fa 56 36 dd 5f 9b b5 58 80 c3 b6
       8.784465e-06 3.2034056e-06 -1.15763e-06 -5.826394e-06
000050 59 11 ce b6 c7 f2 96 b6 92 35 b6 b6 5a e7 b7 34
       -6.141298e-06 -4.4986114e-06 -5.430259e-06 3.4254737e-07
000060 f8 47 80 b6 ff 87 17 37 3b 23 21 37 86 88 34 b7
       -3.8230755e-06 9.031965e-06 9.6045505e-06 -1.0760623e-05
000070 0e bc 85 34 92 cf a0 36 8c 8c 08 b7 be 91 07 36
       2.4910008e-07 4.792536e-06 -8.138955e-06 2.02014e-06
000080 a5 37 27 b7 99 17 1b 37 20 33 4a 37 5a d4 b8 b6
       -9.966931e-06 9.244214e-06 1.2052042e-05 -5.5083483e-06
000090 b9 99 69 b6 ee 4a 37 37 8f da e1 36 a2 78 b7 36
       -3.4809184e-06 1.0925096e-05 6.730966e-06 5.4678685e-06
0000a0 86 5e 3a 37 72 5f 3b 37 9e 39 ac b6 70 53 86 b6
       1.1108472e-05 1.1168291e-05 -5.132707e-06 -4.0032246e-06
0000b0 a7 d4 de b6 bc f6 f1 36 62 26 2e 37 b7 eb 5c 37
       -6.6408716e-06 7.2110834e-06 1.0380145e-05 1.31679035e-05
0000c0 94 eb 2a b7 f9 dd 5d 37 c1 10 db 36 a6 70 25 b6
       -1.0187639e-05 1.32243085e-05 6.528659e-06 -2.4652486e-06
0000d0 6b d1 2b b7 ec a3 ec 36 d1 3b 02 37 25 2c 11 b6
       -1.0241153e-05 7.052431e-06 7.762531e-06 -2.163238e-06
0000e0 55 6d 1d 35 c3 48 d3 b6 ca 98 bd b6 4e 74 3e 36
       5.8646157e-07 -6.2967606e-06 -5.650426e-06 2.8379905e-06
0000f0 42 bd 2a b7 60 01 81 b5 33 99 18 b7 ef c5 4a b7
       -1.0176855e-05 -9.611649e-07 -9.0955755e-06 -1.2086223e-05
000100 65 99 18 37 31 33 97 36 a3 47 68 36 48 87 29 b6
       9.095621e-06 4.50611e-06 3.4612392e-06 -2.5261706e-06
000110 fa 76 3e b6 cc ad a0 b6 e4 bb 20 37 b9 36 13 37
       -2.838146e-06 -4.788604e-06 9.58049e-06 8.774624e-06
000120 6c 7f 73 36 19 d5 52 37 b5 11 46 b7 61 71 5c b7
       3.628399e-06 1.2566591e-05 -1.1805842e-05 -1.313942e-05
000130 17 5d 24 b7 4e 6b 5d b5 dd 64 eb 36 f3 e8 e7 b6
       -9.796836e-06 -8.2485064e-07 7.015288e-06 -6.9114553e-06
000140 77 64 56 b7 20 f1 4c 35 2e ce b7 36 04 ea 7f b6
       -1.2778785e-05 7.6346805e-07 5.4778275e-06 -3.8134176e-06
000150 1e 7c 39 b7 2c ad fb b5 71 af df b5 dd 75 55 34
       -1.1055758e-05 -1.8751357e-06 -1.6665855e-06 1.9880049e-07
000160 59 1d c5 b5 9a dd a3 b6 82 da 3d 36 3e f6 20 b7
       -1.4686185e-06 -4.8835764e-06 2.8290383e-06 -9.594076e-06
000170 ed 69 1a b6 54 23 46 37 37 cc c7 b6 50 8a 8a 36
       -2.3009445e-06 1.1809945e-05 -5.954436e-06 4.128822e-06
000180 26 0e b0 b6 6e 4b dd 36 87 b3 51 36 70 fd 8d b6
       -5.246856e-06 6.5950944e-06 3.1247926e-06 -4.2316315e-06
000190 2b c1 5c b7 92 55 37 b4 77 7f 9b 36 8e 02 4c 37
       -1.3157997e-05 -1.7074333e-07 4.634199e-06 1.2159942e-05
0001a0 c7 18 14 37 87 1f 88 36 36 c2 2f 37 0e 34 24 37
       8.827256e-06 4.056786e-06 1.0476031e-05 9.787282e-06
0001b0 50 ef 0e b7 04 87 0b 37 6d 9a 51 36 26 9c 10 37
       -8.519579e-06 8.316481e-06 3.1233315e-06 8.619425e-06
0001c0 dc ea ee 36 c5 61 9d b5 92 ce 3c 33 57 cd 26 b7
       7.120294e-06 -1.1725866e-06 4.3960036e-08 -9.94218e-06
0001d0 76 52 22 37 b8 74 01 37 eb a7 1f b7 24 43 aa b6
       9.675152e-06 7.716175e-06 -9.516235e-06 -5.074211e-06
0001e0 a6 4c 38 b7 cb 37 2f 37 fa 52 b2 b6 4e e7 b7 36
       -1.0985101e-05 1.0443803e-05 -5.314473e-06 5.4807524e-06
0001f0 fd 7d 83 b4 be 2b 35 b7 37 0b 4f 37 a1 2f 57 b7
       -2.449232e-07 -1.0798625e-05 1.2340773e-05 -1.2826088e-05
000200 25 ac a3 36 61 a1 14 35 47 ef 54 35 24 5d 44 b5
       4.877819e-06 5.5369134e-07 7.932435e-07 -7.315123e-07
000210 89 60 0d 36 59 76 1a b7 1c 94 8d b6 a1 b1 56 36
       2.1066828e-06 -9.20667e-06 -4.2193697e-06 3.1991879e-06
000220 15 0b 52 37 37 a4 1d 37 06 6c 48 37 2d 79 61 b6
       1.2519556e-05 9.3961635e-06 1.194608e-05 -3.3598146e-06
000230 80 e1 80 b6 4b f9 5a 36 b5 e8 3e 37 f6 ae e2 b6
       -3.840949e-06 3.262964e-06 1.1379064e-05 -6.755693e-06
000240 77 fd 58 b7 d8 85 05 b7 75 e1 27 b4 42 d4 b5 b6
       -1.2933618e-05 -7.958581e-06 -1.5635108e-07 -5.4189304e-06
000250 40 2e 80 35 1b 69 2d 37 8b 06 12 b7 6f 2b 3f b7
       9.550204e-07 1.0336075e-05 -8.7038015e-06 -1.13946e-05
000260 34 a0 4a b7 5a 6f 8f b6 7e 64 2b 37 73 e2 01 b7
       -1.2077438e-05 -4.274695e-06 1.0215792e-05 -7.7417235e-06
000270 de 62 45 b7 23 5c 95 36 67 37 49 37 a8 59 81 36
       -1.1765134e-05 4.451272e-06 1.1993433e-05 3.854937e-06
000280 0e bf cc b6 ce f8 3c b6 e7 18 e2 35 2b c7 81 36
       -6.1019155e-06 -2.8159006e-06 1.684556e-06 3.867686e-06
000290 45 9a 45 37 b9 3d 2f b7 77 40 1e 36 1c d6 4c 37
       1.1778034e-05 -1.0445184e-05 2.3581358e-06 1.2209199e-05
0002a0 98 4f c3 b6 1d b1 11 37 2e 6f 30 b7 c3 34 08 b7
       -5.820719e-06 8.683911e-06 -1.05163035e-05 -8.118516e-06
0002b0 e7 05 16 b5 f3 d4 c7 b4 b9 30 99 34 3b bb 0c 37
       -5.5887944e-07 -3.722158e-07 2.853392e-07 8.388243e-06
0002c0 80 19 00 35 db 3a 9f b6 5c 7a fa b6 c6 36 b4 35
       4.7720823e-07 -4.745421e-06 -7.464825e-06 1.3426986e-06
0002d0 94 11 09 37 2f ce 4e b7 50 4e 44 b7 87 d9 9f 35
       8.169929e-06 -1.2326563e-05 -1.1700744e-05 1.1909732e-06
0002e0 cc d6 6e b4 7a 3a 3a 37 75 05 0a b7 90 5b 67 36
       -2.224362e-07 1.1100079e-05 -8.2267115e-06 3.4474979e-06
0002f0 4e 11 38 37 c1 cf e7 b5 ad d4 57 37 c7 75 a7 b6
       1.0971284e-05 -1.7271306e-06 1.2864516e-05 -4.990699e-06
000300 9f 05 51 b7 93 8f 29 36 9d 6a 5a b7 b0 b1 00 35
       -1.24586795e-05 2.5266534e-06 -1.3018635e-05 4.7942285e-07
000310 37 94 1e b7 b9 40 2e 37 7b aa d4 36 2e 08 bd 36
       -9.452043e-06 1.0386278e-05 6.337939e-06 5.633591e-06
000320 0c 3b f5 36 23 8e 2c b6 75 d7 ae b6 56 6d cd b6
       7.308443e-06 -2.5712732e-06 -5.2106866e-06 -6.1222045e-06
000330 a4 e7 cb b6 29 ef ac b6 f4 7b 45 b7 b6 d9 20 b7
       -6.076838e-06 -5.1538414e-06 -1.1770975e-05 -9.587433e-06
000340 c3 d2 e2 b6 d8 60 c0 b6 41 2c a1 b3 a9 2f 53 b6
       -6.7598608e-06 -5.73332e-06 -7.5051965e-08 -3.1469192e-06
000350 4c 05 ef 36 f4 72 46 b7 50 02 08 b7 b6 dc 3f b7
       7.1233717e-06 -1.1828484e-05 -8.10677e-06 -1.1435875e-05
000360 02 a5 3b 37 4e c8 b5 b6 1c 63 8e b5 ac a4 ec b6
       1.1184487e-05 -5.417539e-06 -1.0608669e-06 -7.0525184e-06
000370 90 f0 48 b7 31 ae 99 36 4f 23 8f b5 5c 9f f0 b5
       -1.1976939e-05 4.580034e-06 -1.0664606e-06 -1.7927773e-06
000380 0c f0 40 b7 97 e2 fc b4 2a 05 35 37 35 8d 1d 37
       -1.1499982e-05 -4.7103524e-07 1.0789643e-05 9.390807e-06
000390 be 87 05 37 eb 5f 57 36 c7 4f 1e b6 61 7e 57 b7
       7.959023e-06 3.2093328e-06 -2.3590271e-06 -1.28444235e-05
0003a0 d0 0b a1 36 18 9e 0d 37 6a c2 3a 37 5a 02 be b6
       4.799549e-06 8.441064e-06 1.11317295e-05 -5.662715e-06
0003b0 2e 09 30 37 71 46 03 b7 03 0c cb b6 34 8b 25 37
       1.0492555e-05 -7.824609e-06 -6.05127e-06 9.867177e-06
0003c0 b8 63 e4 b5 a5 fd 1e 36 0e f5 46 36 ac 74 f7 35
       -1.7016346e-06 2.3691475e-06 2.964694e-06 1.843689e-06
0003d0 7e 35 bb b6 ce 54 3b b7 2f b3 5a 36 6e 17 3c 37
       -5.5792616e-06 -1.1165814e-05 3.258883e-06 1.1211128e-05
0003e0 2a ca a1 36 d3 cb 68 b5 27 ea 8f 36 c0 20 45 37
       4.821709e-06 -8.672334e-07 4.288991e-06 1.174974e-05
0003f0 44 56 5e 37 76 22 a7 36 65 5e 09 b7 97 77 62 36
       1.3252316e-05 4.9809996e-06 -8.187814e-06 3.3746235e-06

lstm.bias_ih_l0 f4 [256]
000000 49 3f a6 36 4c 25 76 36 61 93 85 b6 ac 4d 78 36
       4.954553e-06 3.6678566e-06 -3.980866e-06 3.700009e-06
000010 6a d5 33 b7 ce 21 07 37 96 99 0c 36 62 83 a5 35
       -1.0718921e-05 8.054498e-06 2.0951024e-06 1.2331695e-06
000020 bc 05 f9 b6 0c 6b c9 b6 6b 13 dd b6 be ae 39 b7
       -7.421446e-06 -6.0027287e-06 -6.588574e-06 -1.1067545e-05
000030 4d e0 16 b7 86 e1 b2 36 da c1 c3 b6 6a 6a b2 b6
       -8.992921e-06 5.3310678e-06 -5.83402e-06 -5.3172016e-06
000040 04 06 8e 35 ba 21 44 37 5d 67 0e 37 1d df 51 b7
       1.0581575e-06 1.1690363e-05 8.487926e-06 -1.2509318e-05
000050 29 37 d9 35 5e 91 04 35 b5 95 22 b7 f6 f9 4c b7
       1.6183814e-06 4.938537e-07 -9.690809e-06 -1.2217546e-05
000060 83 a0 fd 34 9c be f3 36 ee 08 3d b7 c4 7f 24 37
       4.724171e-07 7.264154e-06 -1.1267357e-05 9.8049095e-06
000070 26 de 35 b6 5c db f6 b6 1c 05 f4 34 d7 95 5e b6
       -2.710041e-06 -7.356908e-06 4.545226e-07 -3.3167796e-06
000080 33 02 14 35 72 ba e2 b6 97 af 51 b7 3d 4e de b5
       5.5137497e-07 -6.75703e-06 -1.2498253e-05 -1.6563059e-06
000090 1f 56 9f b6 ac ca 6e b6 60 75 5f 36 2c f1 f1 b6
       -4.748595e-06 -3.5582734e-06 3.329791e-06 -7.210436e-06
0000a0 42 70 64 b6 b1 7f de 35 8f 04 03 b7 94 c0 ff b6
       -3.403999e-06 1.6577452e-06 -7.80927e-06 -7.6220113e-06
0000b0 9c 88 6c 34 c7 10 97 36 37 ed 59 b5 a0 47 01 35
       2.2028911e-07 4.502104e-06 -8.118399e-07 4.8160473e-07
0000c0 d1 43 47 b7 d2 0e 3b b7 5b 7c ad b5 72 0d 2c b6
       -1.1877114e-05 -1.1149519e-05 -1.2925697e-06 -2.5637823e-06
0000d0 dd 31 86 36 80 d7 00 37 dc da f5 b4 e2 b5 32 b7
       3.999316e-06 7.6795695e-06 -4.5794047e-07 -1.0651975e-05
0000e0 2c be 45 b6 c5 f4 40 b7 5a 52 36 b6 f1 62 25 b6
       -2.9465982e-06 -1.1501082e-05 -2.7168048e-06 -2.4644507e-06
0000f0 f9 81 19 b7 d7 1d a4 b6 65 6f d7 36 51 38 51 35
       -9.149772e-06 -4.8910547e-06 6.4204673e-06 7.794052e-07
000100 e9 8e fe b5 71 66 a2 36 ca d8 33 b7 9c 1a 75 35
       -1.8966067e-06 4.839902e-06 -1.0719707e-05 9.1308334e-07
000110 85 ff 5b b7 51 ea 28 37 96 e0 3b b7 2b 4e 11 b6
       -1.311291e-05 1.0068136e-05 -1.1198359e-05 -2.1652183e-06
000120 9b 3a c0 36 ae ff 31 37 ea c6 34 37 64 32 3f 37
       5.7288685e-06 1.0609552e-05 1.0775149e-05 1.139622e-05
000130 89 13 96 36 39 ef c1 b6 69 d9 1f b7 1b 46 9f b5
       4.4726225e-06 -5.7796974e-06 -9.527758e-06 -1.1866827e-06
000140 89 94 12 b5 b8 51 80 b3 78 54 0c 37 d7 16 52 37
       -5.4605385e-07 -5.975329e-08 8.364317e-06 1.2522293e-05
000150 33 4e d0 36 d0 e9 0c 37 ac dc ed b6 7b 25 54 35
       6.2079866e-06 8.399089e-06 -7.08884e-06 7.9030696e-07
000160 3d 00 2a b7 8c 87 f2 36 b4 ed 27 b7 8d 1e 05 b5
       -1.0132845e-05 7.2279418e-06 -1.000932e-05 -4.959082e-07
000170 8f a2 53 b7 6d d6 1e 37 1b 9b 8d 34 d2 54 4c b7
       -1.2614429e-05 9.467459e-06 2.637615e-07 -1.2179096e-05
000180 aa 37 ba 36 5e ea 48 b7 7c df f3 b6 d0 c8 09 b7
       5.549712e-06 -1.1975497e-05 -7.2679813e-06 -8.212592e-06
000190 fe 26 33 b7 92 db 2f b7 a5 a5 c5 34 1b a8 d0 36
       -1.067831e-05 -1.04819355e-05 3.6814632e-07 6.218453e-06
0001a0 4e f9 06 37 dd 21 0a 34 8f 22 cb 35 03 d6 ea b4
       8.045068e-06 1.2864571e-07 1.5134736e-06 -4.374161e-07
0001b0 46 91 38 b4 43 82 d0 36 3d 5a ad b6 2f 46 9a b6
       -1.7189186e-07 6.2140475e-06 -5.166307e-06 -4.597728e-06
0001c0 7e a8 e8 b4 35 5b 51 37 3b 30 d7 b6 a5 1d 21 b7
       -4.3335962e-07 1.2478607e-05 -6.413114e-06 -9.60325e-06
0001d0 46 73 3e b7 06 9b af b6 db 73 1b b3 71 e8 12 b7
       -1.1351722e-05 -5.2334535e-06 -3.619412e-08 -8.756398e-06
0001e0 9f f8 dc 35 49 8d 1d b7 0d 36 9a 36 57 7c 11 37
       1.6463636e-06 -9.390825e-06 4.59585e-06 8.671624e-06
0001f0 bf 02 e4 b4 29 bb 1e b7 39 a7 d1 b6 36 79 a1 b6
       -4.2470307e-07 -9.4611105e-06 -6.2481527e-06 -4.8122847e-06
000200 bd 25 4e b7 ee e8 4a 37 05 54 13 b5 fd d9 cb b6
       -1.2287343e-05 1.2094371e-05 -5.488403e-07 -6.0752486e-06
000210 97 06 52 37 f5 a7 a6 36 fd 7b 11 b7 f0 a5 8a 36
       1.251851e-05 4.9667383e-06 -8.671542e-06 4.132038e-06
000220 a9 7b 5c 37 3f 89 d7 31 70 2d 43 b6 3b 36 58 b7
       1.3141814e-05 6.2729266e-09 -2.9083712e-06 -1.288723e-05
000230 f7 45 23 b7 f5 04 9f b6 4e 6e 0f b7 93 0c 2a b6
       -9.731847e-06 -4.7391463e-06 -8.5491465e-06 -2.5339293e-06
000240 03 25 cc 36 d6 f7 25 b7 01 ac 55 37 d1 34 20 b6
       6.0839825e-06 -9.89247e-06 1.2735837e-05 -2.38726e-06
000250 e6 8d 6e 36 2d 66 21 37 2e 13 37 37 0f 39 11 b6
       3.554736e-06 9.6201375e-06 1.0912116e-05 -2.1639896e-06
000260 09 69 b1 36 b3 24 a2 35 bc 13 f1 b6 a8 71 31 37
       5.2872388e-06 1.2080621e-06 -7.184657e-06 1.0576485e-05
000270 1f c0 12 37 ea 21 2e 37 76 8e 32 b7 d6 67 3b b7
       8.74701e-06 1.0379104e-05 -1.0642796e-05 -1.1170245e-05
000280 6b 18 11 b7 3d 6a 9a b6 99 07 2a b7 e8 f5 fa b5
       -8.648359e-06 -4.6019254e-06 -1.0134559e-05 -1.869802e-06
000290 6a b0 a8 36 5c d3 e4 b6 79 73 e6 b5 75 db 13 37
       5.0273275e-06 -6.819535e-06 -1.7169942e-06 8.812979e-06
0002a0 6b 21 dd 36 58 3e 65 35 e7 cb 16 37 1a 11 3c b7
       6.5902036e-06 8.539987e-07 8.988171e-06 -1.1209655e-05
0002b0 54 03 b5 36 b0 eb ae b6 8d 74 5b b7 31 4b 39 b6
       5.394608e-06 -5.2130417e-06 -1.3080554e-05 -2.7610915e-06
0002c0 e2 29 17 36 a5 ba 05 37 e1 87 a0 b6 c5 7e 99 36
       2.2525132e-06 7.970874e-06 -4.78419e-06 4.5745132e-06
0002d0 69 65 07 37 23 59 a3 36 f6 af 22 b7 e9 6d e8 34
       8.070238e-06 4.8681554e-06 -9.696922e-06 4.3293338e-07
0002e0 9a bb bb 36 90 a3 45 b7 36 5e b9 b5 8f 8f 02 b7
       5.594874e-06 -1.1780197e-05 -1.3810993e-06 -7.782029e-06
0002f0 c2 80 ad b6 5a 4a 48 b7 08 4a a6 34 67 93 c6 b5
       -5.170791e-06 -1.193824e-05 3.0973774e-07 -1.4795049e-06
000300 8c 30 49 b7 41 95 9d 35 ce 2f 2a 37 11 a1 82 36
       -1.1991837e-05 1.174085e-06 1.014392e-05 3.8930525e-06
000310 85 fd c3 36 72 71 28 36 6c 23 f8 36 19 8e 1a 36
       5.8409664e-06 2.5099985e-06 7.3950996e-06 2.30305e-06
000320 3d 9f ca b6 1c a6 78 b6 06 f9 3a 37 bf 79 c7 36
       -6.038607e-06 -3.7051568e-06 1.1144444e-05 5.9448353e-06
000330 18 2f 01 b7 b6 4f 46 37 37 11 49 37 31 51 9c 36
       -7.699964e-06 1.1820279e-05 1.1984542e-05 4.658614e-06
000340 25 74 19 b6 11 42 69 b6 a1 26 5b b6 57 45 50 b6
       -2.2866382e-06 -3.4758161e-06 -3.2656028e-06 -3.1034776e-06
000350 8d 31 5d 37 83 5f 96 b6 d7 27 4b b7 b5 43 2b b7
       1.3184163e-05 -4.4814674e-06 -1.2109019e-05 -1.02081585e-05
000360 f3 f7 a4 b6 f0 99 5f 37 1e 66 ba b5 bf ae 5d 36
       -4.916446e-06 1.3327677e-05 -1.38878e-06 3.3033282e-06
000370 6a a6 10 37 1e 7f b0 36 de ee 41 36 d5 50 ca b6
       8.621815e-06 5.260007e-06 2.889828e-06 -6.029479e-06
000380 ac 7e 05 b7 a2 7f 36 37 08 6d 81 36 60 73 22 b7
       -7.956911e-06 1.0877762e-05 3.8571925e-06 -9.682815e-06
000390 db 95 5c b7 31 fe 20 b7 18 d3 0b 37 b0 9a a7 36
       -1.3147913e-05 -9.595927e-06 8.334195e-06 4.994996e-06
0003a0 7e 40 a1 36 b1 95 4a b7 1d 27 4e b7 e8 16 cd 36
       4.805682e-06 -1.2074991e-05 -1.2287664e-05 6.1121427e-06
0003b0 4a a7 0b 37 cd 14 54 b7 49 d4 51 b7 cc 30 f6 36
       8.323996e-06 -1.2641028e-05 -1.2506797e-05 7.337052e-06
0003c0 1b cd 29 36 7f 05 86 b6 e7 0b 59 b7 c0 cb 5d 37
       2.530235e-06 -3.994151e-06 -1.2936979e-05 1.3220066e-05
0003d0 ed c1 28 b7 2d fc 95 b6 9e 94 b1 b6 1c a8 6e 35
       -1.0058732e-05 -4.469903e-06 -5.2923124e-06 8.890654e-07
0003e0 bb 6c 44 36 ff 4d 15 b7 f5 d3 16 37 7e eb e1 b6
       2.9269565e-06 -8.899252e-06 8.990047e-06 -6.7329374e-06
0003f0 83 a9 8c 36 f9 c2 84 b6 13 c4 c4 36 d9 e8 cc b6
       4.192059e-06 -3.9566044e-06 5.8640812e-06 -6.106781e-06

lstm.bias_hh_l0 f4 [256]
000000 e9 d6 58 36 dc 24 fe 36 97 7a 5f b7 4c b4 fa b6
       3.2311602e-06 7.574081e-06 -1.33203785e-05 -7.47157e-06
000010 8c 9b f2 36 b6 c9 32 37 2f 5a c5 b5 07 b2 92 36
       7.23027e-06 1.0656591e-05 -1.4703891e-06 4.371864e-06
000020 a2 67 a6 b6 0f e6 d8 b6 98 08 8b 36 81 29 2c b7
       -4.95925e-06 -6.464084e-06 4.1435233e-06 -1.0261662e-05
000030 c3 6a 5c b7 c2 8c 33 37 7f 69 88 36 46 67 38 b7
       -1.3137879e-05 1.0702004e-05 4.065397e-06 -1.09913e-05
000040 79 af d9 b6 fd 2b 16 b7 c6 eb 0b 36 9d 2c 11 b7
       -6.4875317e-06 -8.9509385e-06 2.0849852e-06 -8.653061e-06
000050 21 27 e5 36 0c b9 f0 b6 af 95 03 37 65 8c d5 35
       6.829287e-06 -7.1740997e-06 7.843059e-06 1.5910597e-06
000060 ac 9b 4b b7 49 b3 4b b6 9c fe 78 b6 39 03 d0 36
       -1.2135988e-05 -3.0353715e-06 -3.7103082e-06 6.199258e-06
000070 27 f4 9e b6 15 2a da b6 26 75 a9 b5 0b 47 4f b7
       -4.73719e-06 -6.5018053e-06 -1.2625576e-06 -1.2354702e-05
000080 5f 58 a5 b5 ff 64 41 37 6c 7a ec 36 bc f6 f9 36
       -1.2319177e-06 1.1527211e-05 7.0476e-06 7.449502e-06
000090 e8 20 09 b7 0e 16 3a b7 f8 67 0f 37 72 ee b9 36
       -8.173498e-06 -1.1091599e-05 8.547671e-06 5.5411883e-06
0000a0 5e db c1 b6 fd 07 4c b7 f3 7f 17 36 d5 cc c2 b6
       -5.777386e-06 -1.2161207e-05 2.257523e-06 -5.805496e-06
0000b0 d7 73 55 b7 02 67 c7 b6 36 d0 b3 36 c7 d9 55 37
       -1.272276e-05 -5.942654e-06 5.3588547e-06 1.2746495e-05
0000c0 12 21 ba b6 8d c8 4e b6 ba b8 b6 b6 87 e8 2a 37
       -5.547082e-06 -3.0813128e-06 -5.4455277e-06 1.0186929e-05
0000d0 34 4a 03 b7 1c 05 ac b6 38 60 4a 37 c6 b5 33 36
       -7.825485e-06 -5.1265943e-06 1.2062541e-05 2.6778885e-06
0000e0 35 e1 84 b6 fc b3 f0 b6 bf 28 56 37 20 35 44 b7
       -3.960124e-06 -7.1735103e-06 1.2764881e-05 -1.16948795e-05
0000f0 cb 37 4e 37 47 f4 51 b5 71 a3 59 b7 b4 91 48 b7
       1.2291547e-05 -7.821404e-07 -1.2972262e-05 -1.1954853e-05
000100 75 9d 24 b6 82 d4 03 b7 fc c2 c6 b6 e9 72 1f 37
       -2.4529556e-06 -7.857687e-06 -5.923559e-06 9.503893e-06
000110 1d cc 5b 37 83 25 57 b7 06 54 24 36 e3 40 2d b7
       1.3100941e-05 -1.28237325e-05 2.4486812e-06 -1.0326711e-05
000120 6b fb 14 b7 5d 73 19 37 f7 6e d6 36 50 69 41 b7
       -8.880025e-06 9.146371e-06 6.390615e-06 -1.1528216e-05
000130 e9 36 1a b7 d7 89 15 37 58 d5 00 b7 61 93 9d 35
       -9.1919e-06 8.913185e-06 -7.6790675e-06 1.1740304e-06
000140 2c 49 21 b5 ae 85 39 b6 9f 99 28 37 23 07 d3 b6
       -6.0083653e-07 -2.764496e-06 1.0049348e-05 -6.289121e-06
000150 1c 40 c7 b6 11 d5 10 b6 d7 ab 91 36 e2 2a b3 b5
       -5.9381255e-06 -2.1581693e-06 4.3413415e-06 -1.334902e-06
000160 f6 cc 37 b7 8e 6d 8a b5 05 65 4e 36 9f 52 c9 b6
       -1.0955371e-05 -1.0313686e-06 3.0755193e-06 -5.999885e-06
000170 30 89 20 b7 e3 52 8c b5 34 64 27 b7 ae 53 38 35
       -9.568685e-06 -1.0454936e-06 -9.977306e-06 6.866711e-07
000180 e5 80 15 37 86 aa 5e 37 49 6f c7 b6 18 55 29 b6
       8.911103e-06 1.3271934e-05 -5.9436175e-06 -2.5232493e-06
000190 dc 77 7a 36 39 f6 a3 36 92 29 3c b5 f6 3d bc b6
       3.732267e-06 4.8864426e-06 -7.009595e-07 -5.61005e-06
0001a0 91 31 04 37 8f b6 1c 36 67 23 14 37 6c 05 7b 36
       7.879354e-06 2.3352075e-06 8.82973e-06 3.740507e-06
0001b0 79 00 02 b7 c4 e8 84 b6 19 a1 1b 37 4c 02 f2 b5
       -7.748714e-06 -3.961004e-06 9.276228e-06 -1.8031074e-06
0001c0 b2 2c 34 b7 89 3b d2 b4 38 20 fc b6 4b 4a 0a 37
       -1.07392425e-05 -3.9158866e-07 -7.513936e-06 8.242739e-06
0001d0 30 18 4c b7 8b 06 ae 36 9a 8a b9 36 97 cf 45 b7
       -1.2164979e-05 5.186366e-06 5.529565e-06 -1.1790448e-05
0001e0 7b c5 5d b7 69 11 41 b7 7b 38 10 b7 67 4b 19 36
       -1.3218606e-05 -1.150775e-05 -8.596219e-06 2.2842667e-06
0001f0 10 47 0f b6 66 a9 29 35 35 ad ce b6 3f 26 84 36
       -2.1350024e-06 6.3203913e-07 -6.1594424e-06 3.938359e-06
000200 f9 b7 bc b4 47 8f 24 37 a6 d4 3a b7 3a 2b 0c 36
       -3.5151587e-07 9.808521e-06 -1.1135975e-05 2.0886787e-06
000210 ef 8a 49 b7 f6 eb 3c 37 7a 80 4f b7 6d 9e 54 b7
       -1.2012882e-05 1.1260612e-05 -1.2368075e-05 -1.2673071e-05
000220 ba c3 18 37 46 da 86 36 e6 ca b4 36 20 8b b6 b5
       9.105477e-06 4.0189216e-06 5.3880385e-06 -1.3600547e-06
000230 ad 1d e9 b5 95 a4 28 37 63 16 c8 b6 a5 a7 d9 36
       -1.736849e-06 1.00519e-05 -5.9630706e-06 6.4866204e-06
000240 1a 3e 5f b2 17 03 88 35 4e dc 11 35 e2 4f ef 36
       -1.2994429e-08 1.0133689e-06 5.4337295e-07 7.1320546e-06
000250 ec 31 03 36 11 8e 8a b5 28 ae 0d b7 93 89 59 37
       1.954958e-06 -1.0323148e-06 -8.444804e-06 1.2966239e-05
000260 3b 00 4c 37 47 b6 2f b6 0c d0 32 37 6b 49 0f 37
       1.2159401e-05 -2.6183131e-06 1.06580665e-05 8.540558e-06
000270 c7 62 55 b7 13 68 17 37 e7 a5 00 b7 c1 5e e0 b6
       -1.2718788e-05 9.024533e-06 -7.668022e-06 -6.686751e-06
000280 75 69 8d b6 19 cc 44 b7 c2 b7 b5 36 a2 d3 19 37
       -4.2144043e-06 -1.1730031e-05 5.4156126e-06 9.168785e-06
000290 67 83 18 b7 c2 9c 32 37 61 51 56 b7 1d d6 8e 36
       -9.0905005e-06 1.0646125e-05 -1.27743415e-05 4.256856e-06
0002a0 45 a8 93 35 d9 2c 21 b6 d9 bf 1e 37 6e ed c4 b5
       1.1001326e-06 -2.4016974e-06 9.462202e-06 -1.4672239e-06
0002b0 a1 87 09 34 82 17 31 b7 f9 db 5b 37 9c 98 7d 36
       1.2808461e-07 -1.05554955e-05 1.3104634e-05 3.7788768e-06
0002c0 c2 c7 e2 35 bd 6f dc 36 4b 01 80 b6 4c 61 92 b6
       1.6896449e-06 6.569519e-06 -3.814848e-06 -4.362466e-06
0002d0 77 38 53 37 30 82 9c 36 e3 66 90 b6 33 e6 d4 b6
       1.2589727e-05 4.664318e-06 -4.303512e-06 -6.344891e-06
0002e0 27 42 24 b7 f5 6a ac b5 ec 35 21 37 a3 85 13 37
       -9.790564e-06 -1.2846127e-06 9.6089025e-06 8.7929975e-06
0002f0 43 92 1e b7 31 e1 9f 36 b8 0e 58 37 cf 00 58 b7
       -9.451588e-06 4.764785e-06 1.287803e-05 -1.28747915e-05
000300 3c b3 ee 36 bd 70 c0 b6 76 dd 4d 37 90 ec 84 b6
       7.1138184e-06 -5.7351704e-06 1.2270515e-05 -3.961446e-06
000310 e3 f0 95 36 5a f9 3a 36 7d 86 a1 b6 9b be 5b 37
       4.468589e-06 2.7861302e-06 -4.8138304e-06 1.3097796e-05
000320 1c 4f e0 b6 39 e5 da b6 4f 51 44 b7 0f 89 98 34
       -6.6849298e-06 -6.5235913e-06 -1.17014415e-05 2.841193e-07
000330 07 2c dd 36 19 e4 64 b6 d9 80 17 b7 ac 2b ec b6
       6.5914387e-06 -3.4107418e-06 -9.030301e-06 -7.038432e-06
000340 a7 84 18 37 24 0e 22 b5 ee 38 b7 b4 d3 14 4d 37
       9.0907915e-06 -6.037028e-07 -3.4127828e-07 1.2223801e-05
000350 f7 38 ca b6 45 7e d0 36 14 6a c5 36 2c fc 0d b5
       -6.0267007e-06 6.2135828e-06 5.8834066e-06 -5.289355e-07
000360 4c 6d 71 36 d7 f6 11 b7 2c 12 75 b5 b0 7f 47 b7
       3.5975418e-06 -8.700145e-06 -9.1296056e-07 -1.1891054e-05
000370 43 9b d6 b3 b2 0a 35 37 c3 25 1f 37 53 f8 9b 36
       -9.9933935e-08 1.0790931e-05 9.485931e-06 4.6482687e-06
000380 a6 1b 33 b7 da b3 39 b7 6c 90 49 b7 3b ec d9 36
       -1.0675669e-05 -1.1068734e-05 -1.2014159e-05 6.494605e-06
000390 90 ce 07 37 fa 61 0d 37 4c 9f f1 b6 66 85 36 37
       8.094721e-06 8.427067e-06 -7.2009043e-06 1.0879105e-05
0003a0 b2 6c b3 36 3f 96 5b 37 b8 2d 01 b7 20 a6 df b5
       5.3472695e-06 1.3088399e-05 -7.699644e-06 -1.6663143e-06
0003b0 75 1d 1b 37 6a 0f 4b 37 a9 44 5a 37 6c bc f0 36
       9.245578e-06 1.2103332e-05 1.3009799e-05 7.1744926e-06
0003c0 06 d7 b5 b6 95 c4 52 b7 0b ec dc b5 c2 f9 bb 36
       -5.4192524e-06 -1.2562746e-05 -1.6459975e-06 5.60211e-06
0003d0 df 5e 95 34 ce 13 62 b6 86 4b 38 36 ba c5 bb 36
       2.782244e-07 -3.3688152e-06 2.7462097e-06 5.5960527e-06
0003e0 df 9c 13 b7 55 d0 d3 b6 71 f5 4f 36 f6 12 34 37
       -8.798407e-06 -6.312543e-06 3.098827e-06 1.0733251e-05
0003f0 a5 e1 4f 37 35 b8 54 b7 8f c5 53 36 50 ee 00 36
       1.2390698e-05 -1.2679074e-05 3.1556444e-06 1.9212202e-06

lstm.weight_ih_l1 f4 [256, 64]
000000 1f 36 17 b7 e3 ac 03 36 82 b4 8b 36 73 b4 47 b7
       -9.012902e-06 1.9621154e-06 4.1635367e-06 -1.1903338e-05
000010 b1 52 18 b6 3c 3b 79 36 0b 5f 91 b4 fb 38 40 b7
       -2.2697898e-06 3.713837e-06 -2.7077508e-07 -1.1457359e-05
000020 1a 38 ca 36 95 51 4b 37 33 17 04 37 f7 e7 05 37
       6.0266e-06 1.2118738e-05 7.873215e-06 7.981426e-06
000030 a9 c8 21 37 55 31 5d 35 06 3a 42 37 5e ad 3d b7
       9.643068e-06 8.2400703e-07 1.1576811e-05 -1.1305643e-05
000040 a4 eb bf 36 05 1a 05 b7 2f 5d 92 b6 14 f8 48 35
       5.7196758e-06 -7.933476e-06 -4.361987e-06 7.4866807e-07
000050 40 84 3f 36 0d 78 14 b7 41 72 27 b7 3c 15 f4 36
       2.8538198e-06 -8.849439e-06 -9.9805775e-06 7.2742387e-06
000060 95 a3 cc b6 fa 6c fe b6 6e d5 35 b6 00 20 60 35
       -6.098717e-06 -7.5824764e-06 -2.7095334e-06 8.349307e-07
000070 3d 06 9a b4 15 b0 58 b7 cc 0b 77 b6 e0 1d 00 37
       -2.8689274e-07 -1.2915601e-05 -3.6812735e-06 7.63635e-06
000080 ba bf 27 36 8d 49 57 b4 9d c7 e6 b5 ec a9 06 37
       2.4996539e-06 -2.0050193e-07 -1.719443e-06 8.026585e-06
000090 1a 69 46 b6 7a a0 83 35 c8 b1 e0 b5 e6 55 0f 37
       -2.9565476e-06 9.806965e-07 -1.6741042e-06 8.543464e-06
0000a0 bf 33 49 b6 b8 a0 e3 b6 65 b0 da 36 57 b2 12 35
       -2.9981454e-06 -6.7838373e-06 6.5174413e-06 5.4648757e-07
0000b0 df 32 99 36 8e 51 fd b6 02 58 b4 36 a0 8b 81 36
       4.5656775e-06 -7.549482e-06 5.3746635e-06 3.860754e-06
0000c0 d1 ff 1d b7 6f b4 fd b5 52 3d 2d 37 02 f9 4b b6
       -9.417491e-06 -1.8902482e-06 1.0325881e-05 -3.0394299e-06
0000d0 78 f3 8f 33 bf 28 16 36 a6 e1 b6 36 a7 a6 94 b6
       6.703243e-08 2.237546e-06 5.4502916e-06 -4.4301446e-06
0000e0 61 24 c3 36 fb 3d db b6 1f ff e1 36 26 68 36 37
       5.815688e-06 -6.533924e-06 6.7352225e-06 1.0872294e-05
0000f0 96 5a 34 37 c2 3a 31 b7 82 10 c0 b6 8c 0a 6d b5
       1.0749927e-05 -1.0563703e-05 -5.7239677e-06 -8.830473e-07
000100 82 50 34 b6 c5 57 07 b7 60 da 87 b6 96 f1 33 b6
       -2.6868952e-06 -8.0670625e-06 -4.0487357e-06 -2.68137e-06
000110 62 f5 ab 36 fd 2d 0e b7 20 f9 26 b7 05 3d eb 36
       5.1247634e-06 -8.474567e-06 -9.952375e-06 7.0106494e-06
000120 24 64 49 b7 84 d3 e4 b5 d3 33 d9 b6 a4 cd a6 b5
       -1.2003849e-05 -1.7048883e-06 -6.473137e-06 -1.2427813e-06
000130 ea 0e 46 37 5a 0a ac b6 29 da 5c b7 77 36 57 b7
       1.1805192e-05 -5.1272045e-06 -1.3163816e-05 -1.282768e-05
000140 97 a4 92 b6 ea 16 b6 36 1c 45 f4 b6 25 06 08 37
       -4.3703e-06 5.42669e-06 -7.279812e-06 8.107662e-06
000150 1c 2b 45 36 2c 3e f0 b6 9c 28 76 36 7a 2e b4 33
       2.938038e-06 -7.159795e-06 3.6680494e-06 8.390357e-08
000160 77 86 9e b6 ae 16 39 b7 ee bf 3d 37 61 e2 81 b6
       -4.7244207e-06 -1.103214e-05 1.1309965e-05 -3.8708536e-06
000170 26 59 ea 34 73 8d 02 37 7c 54 f6 36 f1 c1 13 b6
       4.365076e-07 7.7815375e-06 7.3412066e-06 -2.2017596e-06
000180 d0 70 cb b4 bc 31 ef 35 ba cb 23 b7 25 49 23 37
       -3.7893778e-07 1.7821362e-06 -9.762991e-06 9.732587e-06
000190 cc 4f 2d b6 ef 95 14 b6 ff 66 ff 34 b3 e7 46 b4
       -2.5825457e-06 -2.2140991e-06 4.757239e-07 -1.8524479e-07
0001a0 d0 7f ec b6 9b df 2c 37 c5 72 4d b7 dc ed f7 36
       -7.0482274e-06 1.0304061e-05 -1.2245674e-05 7.388864e-06
0001b0 e0 e2 0f 37 f3 e1 89 b6 4d ad 1c 37 fd ad 48 37
       8.576288e-06 -4.109222e-06 9.338674e-06 1.1961439e-05
0001c0 5c cf 0a b7 66 04 42 b5 33 35 0a b7 85 f0 43 b7
       -8.273721e-06 -7.227703e-07 -8.237827e-06 -1.1678906e-05
0001d0 26 d5 b8 35 ad 75 5d b7 7b f9 1f b7 6c c3 f6 36
       1.3771103e-06 -1.3200025e-05 -9.535225e-06 7.3541214e-06
0001e0 d2 2a 3d 37 00 b5 02 37 2b 77 65 36 36 68 69 36
       1.1275248e-05 7.790746e-06 3.4193024e-06 3.4780364e-06
0001f0 d0 94 00 37 a9 a6 07 b7 39 81 11 37 ef 71 aa 36
       7.664043e-06 -8.085431e-06 8.6727605e-06 5.0796584e-06
000200 ae 93 3a b7 5b 2e 1a b7 4d 9a 09 37 49 6d 60 36
       -1.1120848e-05 -9.189908e-06 8.201762e-06 3.3442213e-06
000210 13 ae 14 37 65 a9 1c b7 b8 ca 00 37 d7 9c 1b b6
       8.862017e-06 -9.337765e-06 7.676594e-06 -2.3188093e-06
000220 1e 65 bb b5 7a c0 38 37 04 4c 2d b7 3f 73 8e b5
       -1.3962015e-06 1.1012069e-05 -1.0329302e-05 -1.0613365e-06
000230 12 97 de b6 2b 4b e4 36 ad 1e 40 b7 13 f2 9b b6
       -6.6337025e-06 6.80368e-06 -1.1451234e-05 -4.647541e-06
000240 dc a4 fa b6 42 79 30 b6 4f 3b 2e b7 9b 81 48 b7
       -7.4697728e-06 -2.6296625e-06 -1.0385017e-05 -1.1951105e-05
000250 0f 96 62 b3 5e f1 38 b7 30 e7 80 b6 fb 1b 19 b7
       -5.2756203e-08 -1.1023452e-05 -3.841611e-06 -9.126025e-06
000260 fb f3 ad 32 d4 57 27 b7 a8 6a 08 37 15 a0 96 36
       2.02508e-08 -9.974425e-06 8.1310645e-06 4.4889844e-06
000270 73 fc 5c 37 21 21 43 36 c7 e2 1c 37 53 45 0d 37
       1.31718e-05 2.9076548e-06 9.351125e-06 8.420396e-06
000280 02 cc 3b 37 79 40 ec b4 76 7e 5e b7 dc 1d fa 36
       1.1193568e-05 -4.4005336e-07 -1.3261675e-05 7.4540567e-06
000290 53 cd 24 b7 36 f6 31 36 6a 13 ec b5 17 a1 d2 36
       -9.8229675e-06 2.651837e-06 -1.758902e-06 6.277241e-06
0002a0 42 50 47 37 21 44 2a b7 da 6f 42 37 90 83 00 37
       1.1880011e-05 -1.0148652e-05 1.1589344e-05 7.660026e-06
0002b0 7c 94 77 b6 f5 4b 17 37 49 75 52 b7 f0 78 e2 36
       -3.6892297e-06 9.0179865e-06 -1.2544283e-05 6.749404e-06
0002c0 d9 ed d5 36 e3 20 5b 37 54 20 e6 b6 67 20 40 b7
       6.375584e-06 1.3061074e-05 -6.8582976e-06 -1.1451636e-05
0002d0 da ba bb b6 4d 3e 13 37 19 55 a4 b5 a6 94 48 b7
       -5.5947867e-06 8.776388e-06 -1.2243719e-06 -1.1955539e-05
0002e0 ff cf 25 b7 71 f0 59 b7 3a d3 2f b2 fe 60 35 36
       -9.883194e-06 -1.299019e-05 -1.0234368e-08 2.7027559e-06
0002f0 fb 94 dc 36 71 8d 98 b6 75 24 c5 b5 2d 05 d9 b5
       6.5738545e-06 -4.546419e-06 -1.4688254e-06 -1.6169266e-06
000300 c0 a9 4a b7 e1 6e d3 b6 82 73 35 36 f9 f2 d0 b3
       -1.2079661e-05 -6.301198e-06 2.7038336e-06 -9.729951e-08
000310 05 33 16 b7 36 b7 3d 37 9e e8 25 b6 8b be e3 35
       -8.952576e-06 1.1307935e-05 -2.4722317e-06 1.6968273e-06
000320 67 7a d5 b6 01 7e 9f b6 cc af 71 b6 51 0f a4 b4
       -6.362144e-06 -4.753238e-06 -3.6014126e-06 -3.0558525e-07
000330 f7 d4 4e b6 b8 d1 c1 b5 22 94 4d 37 b1 ba 06 b6
       -3.0820354e-06 -1.4440657e-06 1.2253442e-05 -2.0076225e-06
000340 af d8 4e b7 46 01 38 37 cf 76 02 b6 0a 44 06 b6
       -1.2329007e-05 1.0967551e-05 -1.9440665e-06 -2.000716e-06
000350 52 c8 3d b7 99 16 08 37 16 44 03 b7 16 fe 0f b7
       -1.1311919e-05 8.111493e-06 -7.824061e-06 -8.582623e-06
000360 6c 1a f0 b6 9a c1 04 36 e3 44 59 b7 9c 0f ae b6
       -7.1556333e-06 1.9782224e-06 -1.2950247e-05 -5.1874213e-06
000370 b3 c2 cd 36 49 69 e4 36 aa 7e bb 35 ac 6d f2 36
       6.132142e-06 6.8071863e-06 1.396945e-06 7.2249295e-06
000380 2c 00 6e 36 11 fd 5a b7 92 0f 38 b7 3c a1 fb 36
       3.5464864e-06 -1.3052734e-05 -1.097088e-05 7.499153e-06
000390 06 6f 3f b7 38 3b 01 b7 b6 7e ac b6 be 3c 44 b7
       -1.1410337e-05 -7.702787e-06 -5.1407505e-06 -1.1696653e-05
0003a0 46 13 4b b7 a2 9e 32 b6 76 53 bd b6 96 cf a2 36
       -1.210423e-05 -2.6616403e-06 -5.642355e-06 4.8521424e-06
0003b0 73 6e 9c b6 37 2a 57 b7 ab 18 17 37 d3 a1 a2 36
       -4.6620203e-06 -1.28248275e-05 9.006045e-06 4.846815e-06
0003c0 12 3f 26 37 c1 1b 92 b4 de 5d b1 36 88 e8 8a 36
       9.909056e-06 -2.7214813e-07 5.2859386e-06 4.1397907e-06
0003d0 d7 93 54 37 d6 d8 c9 b5 16 5c ba b6 99 0b 1d 37
       1.2670606e-05 -1.5038775e-06 -5.553952e-06 9.3606295e-06
0003e0 c0 dd e9 b4 bc 08 f7 b6 af 80 0f b7 43 fb 2a b7
       -4.3560976e-07 -7.3621904e-06 -8.553426e-06 -1.0191291e-05
0003f0 10 7f 44 b6 5f f1 eb 36 4a 81 3e 37 38 b8 2e b7
       -2.9280236e-06 7.031645e-06 1.1354985e-05 -1.04141e-05

lstm.weight_hh_l1 f4 [256, 64]
000000 09 ea 46 37 41 fb 11 37 b6 55 31 b7 91 0a 4e b7
       1.185621e-05 8.701173e-06 -1.0569978e-05 -1.2281017e-05
000010 f3 fe 4b b7 53 4a 1f 37 ad 23 cb 36 03 fe 7d 36
       -1.2159103e-05 9.4944435e-06 6.0540247e-06 3.7847792e-06
000020 5c d6 48 b7 6c 53 fb b5 12 47 be b6 71 06 ff b6
       -1.1970838e-05 -1.8725236e-06 -5.670715e-06 -7.600342e-06
000030 2c bc f1 b5 80 06 8d 35 24 32 8a b6 7c ce ec 36
       -1.8010664e-06 1.050721e-06 -4.1185576e-06 7.057386e-06
000040 6c 51 f1 35 36 f3 34 b7 ae 18 3a b6 50 13 00 37
       1.7979596e-06 -1.0785463e-05 -2.7730525e-06 7.633891e-06
000050 b3 1c a1 b6 e6 33 26 35 ad f3 96 34 93 33 5f 36
       -4.801515e-06 6.191534e-07 2.8116975e-07 3.325961e-06
000060 11 66 9d b6 1e 27 bf b5 57 25 d1 b6 c1 8c 20 37
       -4.6908467e-06 -1.4241994e-06 -6.2330323e-06 9.569515e-06
000070 80 e9 c4 36 6c dc 42 37 a9 7f 1b b7 75 3b 55 b6
       5.868438e-06 1.1614622e-05 -9.268443e-06 -3.1774082e-06
000080 b2 78 36 b7 af 96 54 37 f9 da d6 36 07 70 5a 35
       -1.0876147e-05 1.2671268e-05 6.4031888e-06 8.137435e-07
000090 5c 5f ea 36 7c 52 f9 36 4d 75 21 b6 d1 db 46 37
       6.9848447e-06 7.4303807e-06 -2.4059148e-06 1.18529e-05
0000a0 f7 f4 27 b7 ca 72 24 36 07 4a 8c 36 26 7c b4 b5
       -1.0011011e-05 2.450472e-06 4.180943e-06 -1.3447177e-06
0000b0 a7 04 cf b6 9b 44 53 37 2c e8 6e b6 29 2c 97 35
       -6.1696223e-06 1.25925535e-05 -3.5599905e-06 1.1263229e-06
0000c0 cf 9c 0f b7 c2 e7 3b 37 43 4a 06 b6 fe 50 b9 36
       -8.559974e-06 1.1200029e-05 -2.0010782e-06 5.5228584e-06
0000d0 3e 76 3d b7 17 5a 1e 37 89 de 8d b6 a2 32 3e b7
       -1.1292808e-05 9.43851e-06 -4.228034e-06 -1.1336671e-05
0000e0 7e 39 37 37 34 03 0e 37 b2 3d 32 37 23 c5 2c b7
       1.0921036e-05 8.464605e-06 1.0623991e-05 -1.0297898e-05
0000f0 5e 16 38 37 32 9c 22 b6 9a 54 3c 35 a9 05 18 37
       1.0972462e-05 -2.4230799e-06 7.015857e-07 9.061224e-06
000100 ba bc 81 b6 fc 1d 71 b6 41 c7 1d 37 73 1a 1b b7
       -3.8664703e-06 -3.5929252e-06 9.404322e-06 -9.244878e-06
000110 6c 5b de b6 cb 80 11 37 75 a0 ca 36 6d 5f 1d 37
       -6.6267585e-06 8.67266e-06 6.038749e-06 9.380147e-06
000120 b7 13 26 37 1c be 29 37 7d e9 1e b7 fb 9e 1d 37
       9.898961e-06 1.0117448e-05 -9.471897e-06 9.394945e-06
000130 8b 45 2f 37 6e 9f 3b b5 b6 d0 31 b6 cd cf 6a 36
       1.0447005e-05 -6.989493e-07 -2.649654e-06 3.4989673e-06
000140 1c 5e 48 b7 99 a3 61 b6 e8 1d 01 37 f2 53 40 37
       -1.19428405e-05 -3.362284e-06 7.695962e-06 1.1463637e-05
000150 5f 42 25 37 da b2 8f 36 10 70 4a b7 0c 04 0e b6
       9.85022e-06 4.282553e-06 -1.206623e-05 -2.1162004e-06
000160 71 2c 05 b7 b0 31 80 b6 eb 0a 49 35 34 bb 8d 35
       -7.937765e-06 -3.8204817e-06 7.489422e-07 1.0559802e-06
000170 df 1d 48 34 35 bb a6 b3 3b 70 21 37 78 3c 09 37
       1.8637319e-07 -7.76403e-08 9.6224785e-06 8.179915e-06
000180 da 48 3e 37 de 74 43 37 2d d5 56 35 73 46 0d 37
       1.1341845e-05 1.1650116e-05 8.0031424e-07 8.420658e-06
000190 5d d8 c6 b6 bf 51 1a b6 c9 d8 cf b6 3c a1 ee 36
       -5.926048e-06 -2.299537e-06 -6.194318e-06 7.111723e-06
0001a0 81 67 15 b7 f3 f5 14 b7 74 9e 0e b7 33 db 5c b7
       -8.905191e-06 -8.878752e-06 -8.500752e-06 -1.3164058e-05
0001b0 09 fe 5c 37 de dd 2f 36 02 55 b7 36 6a c0 3c 34
       1.3172169e-05 2.6206176e-06 5.463721e-06 1.7578864e-07
0001c0 4c a0 ed b5 4f a0 5b b7 ed 20 5d b7 a6 b7 b6 b6
       -1.7704529e-06 -1.3090742e-05 -1.3180293e-05 -5.445402e-06
0001d0 40 85 49 37 41 87 dc b6 c3 47 9b b4 d2 d1 22 b6
       1.2011558e-05 -6.5722566e-06 -2.8923213e-07 -2.4262013e-06
0001e0 d3 e4 4e 36 3e 90 47 b7 bf 88 1f 37 df d7 06 b7
       3.0829585e-06 -1.1894908e-05 9.508977e-06 -8.037284e-06
0001f0 d8 e6 29 37 bb 01 ae b6 bc 8a f7 36 e1 cd 8e b6
       1.01269325e-05 -5.1858055e-06 7.3773244e-06 -4.2558972e-06
000200 47 16 db b6 cc af 2e 34 9f e2 e7 b4 32 bf b0 36
       -6.529302e-06 1.6268967e-07 -4.3191991e-07 5.267467e-06
000210 6a da 37 37 d0 55 80 35 2b b0 ac b6 fc 32 fb b6
       1.09585035e-05 9.561718e-07 -5.146508e-06 -7.4863183e-06
000220 db be 43 b5 6c 46 f7 36 92 a8 22 36 6b e3 da 36
       -7.292089e-07 7.369372e-06 2.4238002e-06 6.523381e-06
000230 37 b4 c1 35 10 02 83 36 45 0b 17 37 f0 6a ab 34
       1.443207e-06 3.9043443e-06 9.002925e-06 3.192904e-07
000240 c6 4b 3d b7 09 55 d7 b6 e7 1e eb b6 5d db 9a 36
       -1.128292e-05 -6.4173987e-06 -7.0071433e-06 4.615095e-06
000250 74 b1 10 37 4c a8 a0 36 65 d5 63 35 b9 9f d9 35
       8.624385e-06 4.787964e-06 8.487462e-07 1.6214245e-06
000260 5c a7 f3 b4 3e 78 bb 36 ea 39 06 37 bc ed ec 36
       -4.5384047e-07 5.5870323e-06 8.000507e-06 7.061024e-06
000270 ae f7 3c b7 e1 8d 1b b7 ab 5b 15 b7 9c e4 ec b6
       -1.1263341e-05 -9.271754e-06 -8.902435e-06 -7.0599617e-06
000280 66 d1 3b 37 1c 3c 71 36 28 06 05 37 f9 09 03 37
       1.1194823e-05 3.5946787e-06 7.928851e-06 7.81053e-06
000290 64 62 5f b7 9c 96 c1 b6 66 d2 aa 36 dc bd fb b6
       -1.3314744e-05 -5.7693815e-06 5.0908884e-06 -7.5024855e-06
0002a0 d0 4e e1 36 f1 71 ca b6 85 c3 19 35 e9 f6 1d b7
       6.7146975e-06 -6.0333336e-06 5.728146e-07 -9.4154175e-06
0002b0 3b d7 43 b7 e3 a2 26 37 ad a9 95 36 b0 0c fe 36
       -1.1673018e-05 9.932296e-06 4.460299e-06 7.571267e-06
0002c0 3d dc 55 b5 69 87 56 b6 d1 1f 4b b7 0e 13 5f b6
       -7.966917e-07 -3.1967304e-06 -1.2107151e-05 -3.324068e-06
0002d0 12 0a 30 b7 d4 53 ac 36 43 ed de b5 01 88 95 b4
       -1.0492762e-05 5.1357583e-06 -1.6609341e-06 -2.785237e-07
0002e0 db aa e3 b6 20 71 20 b7 07 89 0c b7 6c 1f f6 b6
       -6.7850174e-06 -9.563082e-06 -8.376554e-06 -7.3350293e-06
0002f0 16 ab a5 b4 9d 3c c2 35 4e f4 0e b7 5f d9 4b 37
       -3.0858126e-07 1.4471767e-06 -8.520741e-06 1.21503535e-05
000300 d7 9f 13 37 c6 ab e8 36 cb 8f 61 b6 37 7f 07 37
       8.799098e-06 6.934136e-06 -3.3611311e-06 8.076247e-06
000310 75 95 9b b6 e1 3b 0a b7 d7 57 4a b7 6c be 79 36
       -4.636759e-06 -8.239383e-06 -1.206059e-05 3.7214731e-06
000320 dc 93 71 b6 ea cc a1 b5 15 e6 66 b6 59 57 26 b7
       -3.5997864e-06 -1.2055073e-06 -3.4406596e-06 -9.914708e-06
000330 b6 31 09 b7 ab c8 42 37 ff 29 1b 37 de 16 28 36
       -8.177411e-06 1.1610023e-05 9.248498e-06 2.5047261e-06
000340 d8 a1 40 35 e2 f4 3f b6 65 ae 9c b6 94 a7 c9 36
       7.176109e-07 -2.8603758e-06 -4.6694645e-06 6.0097755e-06
000350 7c c5 73 b5 07 6d c9 b6 ac 20 75 b6 c0 0c 80 36
       -9.081193e-07 -6.0029593e-06 -3.6526862e-06 3.8161816e-06
000360 be f3 33 b7 bb 08 1c b6 64 d7 83 b5 85 b0 2d 37
       -1.0725982e-05 -2.3250893e-06 -9.822948e-07 1.0352703e-05
000370 7a 74 bc b6 ef f5 0b 37 7a e0 28 b7 fd d7 5a b6
       -5.6163963e-06 8.3423065e-06 -1.0065845e-05 -3.2610253e-06
000380 7a 22 37 b7 7a 95 20 b7 dc 44 76 b5 77 f8 82 36
       -1.0915677e-05 -9.571546e-06 -9.1742345e-07 3.903227e-06
000390 4d d1 dc b6 2b a2 47 b6 e7 14 20 36 49 77 ce 34
       -6.5808767e-06 -2.9747705e-06 2.3854025e-06 3.8457281e-07
0003a0 aa ca aa 35 7f f4 c6 b6 32 ad b9 36 9c 1d 78 b6
       1.272497e-06 -5.929323e-06 5.5335922e-06 -3.6972115e-06
0003b0 fe 79 3f b7 6d 54 1e b7 9f 81 9e b4 b6 4d 5e 37
       -1.1412891e-05 -9.437191e-06 -2.9524105e-07 1.3250325e-05
0003c0 57 62 dd 36 65 83 21 34 80 f7 00 37 c9 02 c1 b5
       6.5977615e-06 1.5042095e-07 7.68702e-06 -1.4380431e-06
0003d0 fb d4 05 b7 51 d2 6b b6 8a 1d 46 36 19 9b 97 b5
       -7.977006e-06 -3.514015e-06 2.9521493e-06 -1.1295516e-06
0003e0 9c db 21 37 65 b9 16 b7 0c 08 23 b7 1c 6e 09 b7
       9.64748e-06 -8.983862e-06 -9.717431e-06 -8.191473e-06
0003f0 29 98 99 36 e5 aa d7 b6 db cf 51 35 92 4f ba b6
       4.577469e-06 -6.427394e-06 7.8161037e-07 -5.552495e-06
