trained networks/6173.pt (torch_old, 484808 bytes, 18 tensors)

lstm.weight_ih_l0 f4 [256, 12]
00000000: a722 b43d e0fb 393d 3775 96bd 6d1c 93bd
00000010: ca74 5e3d 625c 3dbd e2fc 8dbd f1a4 a43d
00000020: f3da cabc 48e7 2c3d 6d9b 2fbd a160 d4bd
00000030: 7ccb 64bd d997 913d 8c04 013d c143 a3bd
00000040: 8f3e c73d f182 66bd 0696 253d 451f 933d
00000050: 2e30 bc3d dc0f 13bd 389d 10bd 594b d4ba
00000060: 4953 583d ee0a 833d bffd 793d 67e5 02bd
00000070: a94e b6bd 0136 8e3d 48d3 b83c 8416 8dbd
00000080: 0db2 b5bd 49fc 9bbd ff7a 9cbd 34d3 823d
00000090: 6d66 993d d442 913d a8d7 b83d 6bbd 863d
000000a0: 4533 afbd 388e 63bd 28a1 04bd c72e 82bd
000000b0: f059 1c3b e7e0 94bd da28 a6bd de23 a13d
000000c0: 544e 9a3b d86c b5bd ab0b 4ebd d50c bbbd
000000d0: 205b 4b3d 2660 9e3d 9409 a23c bfeb 3a3d
000000e0: 9e80 8a3c 623d c63d 6190 373d 9cdb c6bd
000000f0: e332 6e3d a477 a93b 25ae 50bb 072f b13d
00000100: eb96 79bd ce50 483c f9d8 79bd 28f3 a7bb
00000110: 906c 12bd 91a7 d2bd 63a5 6e3d 34d2 8fbd
00000120: 6506 da3c ee37 d4bc 1102 2ebc f68f 9dbd
00000130: dc4d bb3d ac7a 1bbd 1bf8 d83c 33c3 b5bd
00000140: 6aca d13d 2483 ccbd 362e d4bc 7c4a d13d
00000150: 9c58 25bd c47c 7cbc 2af8 65bc 920a 873d
00000160: 2fe5 45bd a549 6a3d 34a2 28bd 52c4 813c
00000170: 5743 3abc ca49 a5bd 30d8 b63c 5db5 b53d
00000180: 4f32 cbbd ab2d 2f3d aaa1 763d bf37 fabc
00000190: b66a b5bd 7b7b d63d 1cf1 3b3d 13be 8e3a
000001a0: 9e1f 3b3d cdc9 8fba 32c8 183c ce70 c0bc
000001b0: db80 b03c d81c a03d 3d34 5d3d 153c 38bd
000001c0: 93fe c1bc ace7 193d e3af 583c 4d84 e7bc
000001d0: 2635 ab3d 6eb5 923d 3134 6a3c f1fb 813d
000001e0: 0816 bc3c 9ca2 32bd 1435 9abd b4a7 c5bd
000001f0: 61df 76bd 8f4b aebd a026 853d 9568 883d
00000200: c414 9b3b 8666 913d efe3 c3bc 067b 933d
00000210: 1c53 bebd 5eed 39bb 53a9 fbbb bb85 953d
00000220: f13c 99bd c23f d23d 8a7b d3bd 9a60 ebbc
00000230: bf1c 21bd d110 3e3d c4b6 b03d 3bb7 6cbd
00000240: d2ec 62bd e713 8cbd c546 44bd a234 c93d
00000250: afe8 1d3d 7c3b 4c3d 3a0f 81bd 932e bdbd
00000260: 2dd4 b73c 7aa2 643d 6023 b1bd 173c 953d
00000270: c710 babd d66c a7bd bc87 823c 955c 2c3c
00000280: 81ce 073d 08fd aebd 0151 9bbc f2f9 aa3c
00000290: dd59 0ebd 6730 58bd 1fa4 59bd 9a3a e73b
000002a0: ab6e a63d 3229 46bd 82da c13d 748c 953d
000002b0: 4492 e3bb c661 60bc 3504 82bd aa44 783d
000002c0: bd43 903d ea70 8f3b a20b 273d c0c5 c03d
000002d0: dca7 b8bd f3ed 0c3c 2261 8b3c 393f d0bd
000002e0: 3bce abbd 133d 4ebc 2b69 ddba 3997 00bd
000002f0: 3c84 41bd ba27 cf3d c4ee 98bd f151 763c
00000300: ccf9 8abd 2d30 9c3d 6740 23bd e553 9abc
00000310: 7085 1cbd 3252 c83b 8fc5 a43d 4e86 853d
00000320: 26e0 ba3d 8b8d 8fbd 24db 85bd cf99 963d
00000330: 0d9b 9fbd 72bc 7ebd 32e2 363d 51f7 6f3c
00000340: bd55 53bd 3483 a03d d5b2 68bd 7967 47bc
00000350: 84df f5bb f750 1dbd cb98 573d 027c 93bd
00000360: 2e2b 9e3d c194 72bd 5f34 c83d 6e97 8ebc
00000370: e68c ca3b 2087 fcbc 86be be3d 73a4 ad3d
00000380: 6afb 283d 1a65 4b3d fef2 81bd 4562 803d
00000390: 72e8 a73d cd59 1abb 238d 9dbc eea5 b73d
000003a0: 1a37 afbc 4771 d23d 1d5a e6bc a56d 073d
000003b0: 672e bbbc e0aa ac3d a24f 2cbd f4ca 42bd
000003c0: cbc7 96bd 5f85 71bd 6117 293d 5606 b0bd
000003d0: 6d81 74bd d289 6a3c 8835 88bd 84bf c43d
000003e0: fa65 8a3d 731b 8e3d 0d32 753d 10a3 d43d
000003f0: fa33 833c a4ec 8abd 7528 4fbd 07e9 acbd
0.08795672 0.045406222 -0.07346576 -0.07183156 0.054310597 -0.04623068 -0.06932999 0.080392726
-0.024762606 0.042212754 -0.042872835 -0.10369993 -0.05585812 0.07109041 0.031498477 -0.079719074
0.09728729 -0.05627722 0.040426277 0.071836986 0.09188877 -0.035903797 -0.035306185 -0.0016196772
0.052813802 0.06398569 0.061033007 -0.031957056 -0.08901722 0.06943894 0.022561684 -0.0688906
-0.08871851 -0.07616479 -0.07640647 0.0638794 0.07490239 0.070928246 0.09025508 0.06579097
-0.08554701 -0.055555552 -0.032380253 -0.06356578 0.0023857318 -0.07269459 -0.081132606 0.07868169
0.0047090445 -0.08858651 -0.050304096 -0.09133307 0.04964745 0.077331826 0.019779958 0.04563498
0.016907033 0.096796766 0.044815425 -0.09709856 0.058153998 0.005171733 -0.003184208 0.08651548
-0.060934942 0.012226297 -0.060997937 -0.005125422 -0.035748065 -0.10285867 0.058263194 -0.07022515
0.026614377 -0.025905576 -0.01062061 -0.07693474 0.0914571 -0.037958786 0.026485493 -0.08875122
0.102436855 -0.099859506 -0.025900941 0.10219285 -0.040367708 -0.015410606 -0.014036218 0.06593813
-0.04831427 0.05719914 -0.041170314 0.015840683 -0.011368594 -0.08070715 0.022319883 0.08872483
-0.09921705 0.04276816 0.06021277 -0.03054416 -0.08858244 0.10472771 0.045884237 0.0010890387
0.04568445 -0.0010970175 0.009325074 -0.02349129 0.021545818 0.078180015 0.054004896 -0.044979174
-0.02368096 0.037574455 0.013225528 -0.028261328 0.08359747 0.07163511 0.01429467 0.06346882
0.022959724 -0.043612108 -0.07529655 -0.096511275 -0.060271624 -0.085105054 0.06501508 0.066605724
0.0047327 0.07099633 -0.023912398 0.07201199 -0.092931956 -0.0028370242 -0.007680097 0.07300898
-0.07482327 0.10266067 -0.103262976 -0.028732587 -0.039334055 0.046402756 0.0862861 -0.05779193
-0.05540163 -0.068397336 -0.047919054 0.09824492 0.038551982 0.049861416 -0.06301732 -0.09237399
0.02244004 0.055819012 -0.08649325 0.07286852 -0.09085231 -0.08175056 0.015933864 0.01052012
0.03315592 -0.08544356 -0.018959524 0.020871136 -0.03475367 -0.052780535 -0.053135034 0.0070565464
0.08126577 -0.04837913 0.09465505 0.0730218 -0.0069449265 -0.013695186 -0.06348459 0.06061236
0.0704417 0.004377474 0.04078258 0.09412718 -0.09016392 0.008601653 0.01701409 -0.10168309
-0.08388945 -0.012587803 -0.0016892304 -0.031394217 -0.04724525 0.10114999 -0.07467416 0.015034185
-0.06785926 0.07626376 -0.03985634 -0.018838832 -0.038213193 0.006113314 0.08045494 0.06519757
0.09124784 -0.07009419 -0.065359384 0.073535554 -0.077932455 -0.062191434 0.04464931 0.014646367
-0.05159544 0.07837525 -0.056811173 -0.012170666 -0.007503452 -0.038407292 0.05263595 -0.07201387
0.077230796 -0.059223894 0.09775614 -0.017406192 0.006181347 -0.030826151 0.09313683 0.08478632
0.041255392 0.049656965 -0.06345175 0.062687434 0.08198632 -0.002355206 -0.019232338 0.089671955
-0.02138858 0.10275512 -0.028119141 0.03306355 -0.022849275 0.08431029 -0.04206813 -0.047556832
-0.07362326 -0.058965083 0.04128206 -0.085949585 -0.059693743 0.0143150855 -0.06650835 0.09606841
0.06757732 0.06938829 0.059862185 0.10382664 0.016015995 -0.06783417 -0.050575692 -0.08442884

lstm.weight_hh_l0 f4 [256, 64]
00000000: f4c2 6bbc 3542 c93d bfad 6bbd 9c95 e9bc
00000010: 0708 16bd 92fb b83d 8910 cf3d 95ca 293c
00000020: ee49 24bb ada2 4cba 337c bb3c 8e86 b83d
00000030: 180f 243d 73c8 c33d 0fb1 8dbd 1d73 4d38
00000040: 8811 7d3d ca35 113d 9409 68bd 7739 d7bc
00000050: 37ae 97bc 8df8 d43d ac8c 8a3c 575a c63b
00000060: d8bc 663d 0057 8b3d c8ab aabd d1b1 40bc
00000070: aac5 b33d e36f 9bbd 8eec 093d 8fa2 b0bd
00000080: f277 593d 9054 57bd 9b62 613c 3cb6 573d
00000090: 7dda 9fbd a366 07bd ccaf 28bc ca68 c7bc
000000a0: ddb6 40bd f645 cd3d 5042 cdbd 2904 793d
000000b0: 80fa f23c 1646 bd3c c683 b43d d574 273c
000000c0: 4ffd b13d 7994 6fbb 6ad3 7f3d 9334 c33d
000000d0: 301d a4bd 5050 abbd eda8 b83d 28c9 5f3d
000000e0: 443c 49bd 3b29 3d3d e7b1 a0bd 7201 a1bc
000000f0: b495 023d 34a9 bfbd 641e fabb 956d 95bd
00000100: 7b11 4039 b88e 183d 49af 5abc 5d1e babd
00000110: 86c1 763c 7bdf 20bd de21 133d 735d d03d
00000120: 3459 e73c 520e 38bc 2c33 1f3c 1fa7 d33c
00000130: 3d22 943d 74f8 c43d 454a 83bd 6622 123d
00000140: 68d6 acbd 0b41 0bbd 7c02 0b3d eeb3 d43d
00000150: 2c46 ac3d ea52 c03d 70c1 0fbd 11fd b23d
00000160: 1611 22bd c840 a63d ee37 ee3c 568e 3a3d
00000170: 7500 81ba 38c3 8cbd f1fc d2bd 0e2e 3cbd
00000180: 5ff8 89bd c0af 9f3c 4a52 d43d bc79 f23a
00000190: cb3e 483d ae11 a7bd 942e 9dbd a399 383d
000001a0: d99b 99bd ecc4 a83d b08e 0a3b cb20 ecbb
000001b0: b483 4c3d bfe5 c8bd 1822 64bd 104b 8dbd
000001c0: 4bef a03d c291 223d 4a74 27bc 9de7 133d
000001d0: 70c7 60bd e5dc e8bb cdf4 073d b210 4bbd
000001e0: 3ff8 c6bd 79c5 bebc ab61 a53d 4bfa c9bd
000001f0: 890d 303c 732b 913d 4524 323d 0c6d fc3b
00000200: c63d 73bc ee86 4e3d 8ff8 873d 65be 18bd
00000210: fda6 a5bc aa27 9a3d 5682 163c f7cf 1bbc
00000220: d302 f23c d402 f23c 4d35 b3bd acc6 033d
00000230: ed43 143d be10 843d 93b4 1bbd 9002 65bd
00000240: 25e3 e73c 0975 c6bb 0045 fd3c 1933 523c
00000250: 03ca 3e3d be9b f8bc d8bd d13d fa50 91bd
00000260: 9a6b c2bc 6b9e 28bd 8744 413d a8ae 0cbd
00000270: 5ab2 52bc 7d03 e13c 2235 6abd 4d94 2abc
00000280: 82c0 45bd 862e 54bd 2f71 a1bd d75e 39bd
00000290: 825d d6bc 77e8 8b3d 261e cd3d d6f9 853d
000002a0: 63e2 97bd 81cf 603d c763 93bd 9b69 f23c
000002b0: 7399 af3d 861c 82bd d5e4 d53a c6b9 51bd
000002c0: c14e 28bd 1515 34bd 52e3 a93c 3040 613d
000002d0: d0f7 973d 84a5 5f3d 763f b13d 29a4 bcbd
000002e0: 8d46 a63d d889 723d 0a32 c7bd b6f3 46bd
000002f0: 848f 52bd 2308 cb3d dfa3 d03c 922b 9ebd
00000300: 86e4 cdbd a4f7 223c 29df c53d 01c5 85bd
00000310: 539a 8c3d 7771 84bc 9c06 b0bd 6f74 11bd
00000320: b77d 88bd f6c2 9a3c e39b 943c a9db 80bd
00000330: 3b11 743d 12a6 293b f6d2 ea3c a331 513d
00000340: b5aa 36bd ed64 ba3d e9d1 583d 596e 84bb
00000350: 0440 85bd 3f53 9c3d a916 98bd 76c5 ab3d
00000360: f25f e23c 96fa cebc 707d a8ba dd01 89bd
00000370: 72b8 393c 7a88 5f3b b935 1b3d 3181 b53c
00000380: a850 0f3d 4b67 2dbd 5faf babd fb44 af3d
00000390: b7b2 dd3c 8845 2cbd 049e 683d 45a1 8dbd
000003a0: 7cb2 c8bc 097c 10bd 84c3 1b3d e3ea 8b3d
000003b0: 69b0 8f3d d510 643d bd56 16bd 3af5 0b3d
000003c0: 47cd 0a3d 6a0d ac3d 739f 9e3d dc20 633c
000003d0: 91d7 173d de47 463b 9b0d 84bc 1546 2839
000003e0: 687a 03ba 2654 a3bc 141b 08bd 46f0 bcbd
000003f0: 4634 313c 1e49 8fbd 7b7a 6abd 63f7 843d
-0.014389742 0.09827081 -0.057538744 -0.028513722 -0.03662875 0.09032358 0.10110576 0.010363241
-0.002506848 -0.0007806223 0.022886371 0.09010039 0.040053457 0.09559717 -0.06918537 4.8983016e-05
0.061784297 0.035451688 -0.05664976 -0.026272519 -0.01851569 0.1039897 0.01691278 0.00605325
0.05633244 0.06803703 -0.08333546 -0.011761145 0.08777936 -0.075897 0.03367286 -0.086247556
0.053092904 -0.05257088 0.0137564195 0.052664027 -0.07805345 -0.033056866 -0.0102958195 -0.02434196
-0.047049392 0.100231096 -0.10022414 0.060794983 0.029660463 0.023104709 0.08814196 0.010220726
0.08690893 -0.0036557002 0.06245748 0.09531512 -0.080133796 -0.08364928 0.09016595 0.054635197
-0.04912974 0.0461819 -0.07846432 -0.01965401 0.03188105 -0.09358445 -0.0076330174 -0.07296292
0.00018317059 0.037245482 -0.013347455 -0.090878226 0.015060788 -0.039275628 0.03592097 0.10174074
0.028240778 -0.011233883 0.00971679 0.025836525 0.07233093 0.09617701 -0.0641065 0.035677336
-0.08439332 -0.033997577 0.033937916 0.10385881 0.08411822 0.093908146 -0.035096586 0.08739675
-0.039567076 0.08117825 0.029079404 0.0455459 -0.0009842055 -0.068731725 -0.10302151 -0.04594236
-0.06736826 0.019492984 0.10367258 0.0018499414 0.04888801 -0.08157669 -0.076749 0.045068394
-0.07500429 0.08240685 0.0021142177 -0.0072060577 0.04993029 -0.098094456 -0.055696577 -0.06899083
0.078581415 0.039689787 -0.010220597 0.036109556 -0.0548777 -0.007106411 0.033192445 -0.04957647
-0.09715318 -0.023287522 0.08075269 -0.09862193 0.0107454145 0.070883654 0.04349162 0.007703429
-0.014846271 0.050421648 0.06639206 -0.03729095 -0.020221228 0.075270966 0.009186348 -0.009510032
0.029542362 0.029542364 -0.08750401 0.03217189 0.03619759 0.06448506 -0.038014006 -0.055910647
0.028306553 -0.006056432 0.03091669 0.012829565 0.046579372 -0.030347701 0.10241288 -0.07095523
-0.023732949 -0.041166704 0.047184493 -0.034346253 -0.012859905 0.027467484 -0.057179578 -0.010411334
-0.048279293 -0.05180218 -0.07882916 -0.045256462 -0.026167635 0.068314485 0.10015516 0.06541793
-0.07416227 0.05488539 -0.071967654 0.029591372 0.0857419 -0.06353097 0.0016318808 -0.051202558
-0.04109073 -0.043965418 0.020738278 0.054992855 0.07420313 0.054601207 0.08654682 -0.092109986
0.08118925 0.05921349 -0.09726341 -0.048572265 -0.0514064 0.09913661 0.025468765 -0.07723154
-0.10053353 0.009946737 0.09661705 -0.06531716 0.068653725 -0.016167386 -0.08595011 -0.03551143
-0.06664603 0.018891793 0.018140739 -0.06291897 0.059586745 0.002588634 0.028665047 0.051072728
-0.044596393 0.09101281 0.05293456 -0.004041475 -0.06506351 0.076330654 -0.07426197 0.08387272
0.02763364 -0.025265973 -0.0012854766 -0.066898085 0.011335479 0.0034108446 0.03789303 0.02215633
0.03498903 -0.042334836 -0.09115481 0.08558079 0.027062757 -0.042058498 0.05679132 -0.06915525
-0.02449917 -0.03527454 0.038028255 0.068319105 0.070160694 0.055680115 -0.036703814 0.034169413
0.033887174 0.08400996 0.07745256 0.013862815 0.037070815 0.0030255239 -0.016119769 0.00016047836
-0.00050154934 -0.019937586 -0.03322895 -0.09225516 0.010815686 -0.06996368 -0.057245713 0.06492498

lstm.bias_ih_l0 f4 [256]
00000000: 0ad6 9e3d fcd5 873d 18fb 9cbd 26aa a93c
00000010: 5938 3dbd 5111 253d 6a31 6f3c e7b4 963c
00000020: 7baa 00bb e901 1e3d 1bdd bbbd e86b c03d
00000030: fd90 ab3d 67c3 a5bc e87d d63d 5cc0 1abc
00000040: ece1 773c e454 a2bd ba65 a1bd 12e6 c63d
00000050: 72df a63d 4d50 01bd 4c62 c5bd 4009 16bc
00000060: baa1 18bd b176 893c cebb cebd fa2a 913d
00000070: c0e5 00bd 041c 21bd 9a36 d43b d227 063d
00000080: cea1 333c 296b daba afb7 2ebd b5e6 f83c
00000090: 77fd 373d 2e39 f03b 26a7 6e3d 3589 92bc
000000a0: 8099 82bd aa0a 053d fb1d 6f3d 5c6a 183c
000000b0: bb42 fcbb 032e a8ba d0cb 66bd 96c6 7c3d
000000c0: 8971 9d3d 723c c2bd 3db2 e1bc 1ad6 8d3d
000000d0: c5ba 56bc 2e28 193d d302 9b3d 3ea5 74bc
000000e0: acb4 a0bd 2613 7fbd 7d4e ae3c d354 0f3d
000000f0: b748 c23d 6ad2 01bd 4c01 4fbd b443 3b3d
00000100: f16d 28bd 3c0d ddbc 7829 3bbc dffe a5bd
00000110: 2a73 f0bc e9f8 34bd 7d85 5abc ea65 8dbd
00000120: c029 bbbd d880 563c ae70 0d3d b4cf 56bd
00000130: 6cd1 d23c 45d6 b43d c9ac af3b 7f97 b0bd
00000140: c8bc 0bbc 9711 0d3d 38e7 b7bd 97cc d53d
00000150: c2c4 54bd b6a1 983d cf24 383c 1672 acbd
00000160: a8b0 99bd a767 c4bd 40f7 943d e49b b93d
00000170: 79a3 30bd 72de a7bc c25b dd3b 682d 07bd
00000180: 7627 95bc 0d05 98bc 691d 8a3c 5ff2 79bd
00000190: 80df febc 416d 863d 39ae 803d 2d6e 013c
000001a0: 4304 cabd 7211 9b3d bbac 3bbd 78c7 abbd
000001b0: b202 39bd acc3 193d a226 bb3d dcfd af3c
000001c0: bd69 c6bd 4f94 4d3d f528 633d 67fd b4bd
000001d0: 8473 76bd 6065 c9bd 379a b8bd e6bd b43d
000001e0: 441c b23d 1f3e ac3d a36d 40bd f199 ba3d
000001f0: 5ba3 123c 4010 5fbd 8b08 cbbd a76a 1a3d
00000200: 8e04 3b3d 7867 27bc 2b6c 983a 0453 b8bc
00000210: b9b0 01bd 4481 8c3d 590e 94bd 50d0 bf3d
00000220: b3cf 5b3d 2c76 b9bd 69ce 73bd d0a2 673d
00000230: 7d53 bdbd 7dfc 703d 8059 60bc f579 acbb
00000240: fa34 8e3d 9ec8 943d f3ee bdbd f9ad 803d
00000250: c569 d8bc 26b7 e83c 31e0 9ebd 385f a13d
00000260: 2152 d03d ad65 80bd 22d1 9bbd 7911 6c3d
00000270: 534b 75bc 610d 23bd a0ce 813d 6902 8d3c
00000280: 43d2 cb3d 798d 1fbd 9940 5a3d e917 0fbd
00000290: 696b 3f3d a3d1 803d c96b 6d3d 0497 94bd
000002a0: 72f6 3dbd f781 abbd 76e0 413d b7ee a33d
000002b0: 711a 0dbd 334c b6bd 75f5 5a3d e248 c9bd
000002c0: c4c2 f7bc d7eb 3cbd a1d4 c53d 845d e7bc
000002d0: 3c55 b63d 8f03 39bd 08b4 c9bd 68b3 b6bd
000002e0: cf92 32bd a310 a6ba b0ed 65bc 84f4 5b3c
000002f0: 8887 913c 27be 6a3d ca63 c2bd 55cc f33b
00000300: 9e45 4fbd 62a1 53bd d360 b93d 4144 683d
00000310: 20aa 3bbd 02e6 aebd 0dd0 8fbd 5263 813c
00000320: 7bea 94bd 79fb d33d 6098 0bbc 7a7e 1a3d
00000330: 5fe1 0b3d 08a4 f7bc e733 e73c 54c8 11bd
00000340: d56b 4c3d 68fa 85bd 4002 0a3d 158c 873c
00000350: fb19 cebd 6c26 b7bc 650a 03bd 2255 b0bb
00000360: baf3 33bc 6828 b4bd ceaa 593c afd8 51bd
00000370: 3d23 3a3d ba40 c8bd 6e7b 3cbc 22e1 a63d
00000380: 51eb 573d db61 a73d 9abd f93c 90ed 64bd
00000390: dd54 b2bd 9cc4 96bb ab2d 28bd 0961 babb
000003a0: 976e 06bd a698 8dbd 1293 51bc 38ec d9bc
000003b0: 61ff bc3c 3fdd 9e3d 1e74 0ebd 6bcd d43c
000003c0: 679c 753d e6c2 6b3d 5d90 a8bd f5f4 5bbd
000003d0: ac66 03bd 2bc4 8bbd ea68 bcbd 06f9 5dbd
000003e0: 8189 a43c 049c 803b aa6f 163d 51c1 a6bd
000003f0: e9c2 1b3d 39fc c43d dfab 45bd 82de 6b3b
0.077556685 0.06632611 -0.0766508 0.020711016 -0.046196315 0.040299717 0.014599184 0.018396808
-0.0019632864 0.03857604 -0.09173032 0.093955815 0.08377264 -0.020234777 0.104732335 -0.009445276
0.015129548 -0.07926348 -0.07880731 0.09711851 0.081480876 -0.03157072 -0.09637889 -0.009157479
-0.03726361 0.01678023 -0.10094415 0.07088275 -0.031469107 -0.03933336 0.0064762356 0.03275282
0.01096387 -0.0016664016 -0.042655643 0.030383447 0.044919457 0.007331035 0.058264874 -0.017887691
-0.06376934 0.032480873 0.0583782 0.009302702 -0.0076983846 -0.0012831095 -0.056346714 0.061712824
0.07687671 -0.09484185 -0.027550811 0.06925602 -0.013106053 0.037391834 0.07568898 -0.014931975
-0.078469604 -0.06227412 0.02127766 0.034993004 0.094865255 -0.031694807 -0.050538346 0.045718864
-0.041120473 -0.02698385 -0.011423461 -0.081052534 -0.02935179 -0.04418269 -0.01333749 -0.06904204
-0.091388226 0.013092242 0.034531288 -0.052444175 0.025734626 0.08829931 0.005361174 -0.086226456
-0.008528896 0.034440603 -0.08979648 0.10439413 -0.051945455 0.07452719 0.011239245 -0.08420198
-0.07504398 -0.095900826 0.07273722 0.09062937 -0.04312465 -0.020491812 0.006755323 -0.033002287
-0.018207293 -0.018557096 0.016859727 -0.06102216 -0.031112432 0.06563807 0.0628323 0.007899803
-0.09864094 0.07571687 -0.045819025 -0.08387655 -0.045168586 0.037540123 0.09138228 0.021483354
-0.09688137 0.050190266 0.05545898 -0.08837395 -0.060168758 -0.09833789 -0.09013789 0.08825283
0.086967975 0.08410286 -0.046979558 0.09111393 0.00895008 -0.054458857 -0.09913739 0.037699368
0.04565864 -0.01021754 0.0011628916 -0.022500522 -0.031662676 0.06860593 -0.07229299 0.09365904
0.053664874 -0.090557426 -0.05952302 0.056551754 -0.0924444 0.05883454 -0.013693213 -0.005263562
0.06943698 0.07264827 -0.092740916 0.06283183 -0.026417622 0.028407644 -0.07757605 0.0787949
0.10171915 -0.06269393 -0.07608248 0.05763385 -0.014971572 -0.03980768 0.06338239 0.017213063
0.099522136 -0.03895328 0.05328426 -0.034934912 0.046733294 0.06289985 0.05796412 -0.072553664
-0.046377607 -0.08374398 0.047333203 0.080045156 -0.034449045 -0.089012526 0.053456742 -0.098283544
-0.030244239 -0.046123352 0.09659696 -0.028242834 0.08902976 -0.04516941 -0.09848791 -0.08920938
-0.04359704 -0.0012669753 -0.01403372 0.013424996 0.017764822 0.05731025 -0.094916895 0.0074401298
-0.0506035 -0.05166758 0.09051671 0.056705717 -0.04581654 -0.08539964 -0.070221044 0.01579443
-0.07271286 0.10350699 -0.008520216 0.037718274 0.034150477 -0.030229583 0.028222991 -0.03559144
0.049907524 -0.06541902 0.033693552 0.016546289 -0.10063549 -0.022357188 -0.031992335 -0.0053812424
-0.010983402 -0.087967694 0.013285352 -0.051232036 0.045443762 -0.097779706 -0.011504037 0.081484094
0.05271465 0.08172961 0.030485917 -0.05589062 -0.08707593 -0.0046010744 -0.041059177 -0.005687837
-0.03282031 -0.06913881 -0.012791412 -0.026601896 0.023070993 0.07757043 -0.034778707 0.025976857
0.05996361 0.057558917 -0.0823066 -0.053700406 -0.032080337 -0.068245254 -0.09199698 -0.054192565
0.020085098 0.0039248485 0.036727585 -0.08142341 0.038027678 0.0961842 -0.048259612 0.003599078

lstm.bias_hh_l0 f4 [256]
00000000: 2914 4a3d 8dd5 b13d 63af 08bc 8e88 ac3d
00000010: 64c0 a63d c947 bdbd ffef a03d 507e 0abd
00000020: 763e 943c 1411 943d 5934 b8bd d693 133d
00000030: 71a6 a03b 0a08 84bc 1c97 64bd 67d8 b7bc
00000040: 0570 7bbd 2281 20bd 3ffb a63d d82d bbbc
00000050: 50e0 30bd f758 7fbd 0aa9 233d 2920 4f3d
00000060: c7ec 4dbd cfdd d13d 04a3 a6bd c2ec b9bd
00000070: 42f5 33bd f368 a53d bb39 893d 899e 80bc
00000080: e4c8 053d 2b2a 0bbd d1a1 9b3d 08fb c13c
00000090: 8ea5 d4bd 1dd8 743d 5991 7fbd 6240 acbd
000000a0: eb06 d13d 8941 bbbd 7785 aa3d dd8b a3bd
000000b0: 6384 cfbd 1e5f c03d fbeb dd3c 6fd4 4e3d
000000c0: d492 843d b547 f23b 29c6 c93d 9c87 523d
000000d0: d288 27bd f482 d33d 00f9 13bd 5a06 11bd
000000e0: 5e09 0d3d 15ad 54bd 28bb a5bc 17fd b53d
000000f0: 1831 673d 986a 88bd 15d6 96bd 0104 493d
00000100: 05b4 ba3d 0800 b5bc 38a3 4b3d d71e a8bd
00000110: 695e 6f3c f735 8a3d 5200 43bd c5bd 00bc
00000120: 9e6b d1bd 5f62 88bd 2491 c9bc 00ff 99bd
00000130: f94d 1a3b e292 a9bd 6221 1ebd 3c14 9dbd
00000140: 33dc 7bbd 7589 af3d 5e09 11bd 3759 c93c
00000150: 387b 8dbb 6849 913c 47b6 353d a2ce bd3d
00000160: c45a d9bb 7bd3 fbbc b329 9ebd 9b5e 813d
00000170: dfeb c0bd eeec 143d 00e5 9e3c 2c3c 39bd
00000180: e9a8 0dbc d250 a53d ece7 1fbc bbef c93d
00000190: 7e04 123a 885e 4fbd 2987 c7bd 097a a43d
000001a0: 06ca 653d 10d8 c63d 1b5c 3e3d e1e1 8a3d
000001b0: 7eff 6b3d 3d03 683d e938 13bd fe1f 32bd
000001c0: 18ee 543d e666 b6bd e4b7 1f3d 93b9 b43d
000001d0: bb36 ca3c 2c2c d63c 993f cebd 43e3 25bd
000001e0: fa8b 943d 18e8 37bc 3818 8dbd dcb7 e73c
000001f0: ff88 de3c f8ef 993d ad30 483d ecf9 983d
00000200: 755f f3bb 950a 993d 6d9a 033d f3e6 ca3d
00000210: d862 893d 91f7 4c3d 1a3e cbbd f526 0fbc
00000220: 4082 e8bc 9e3f ae3d 4af9 8bbc e158 b0bd
00000230: 4783 7e3d f2e9 843d d7cc 43bb 713e 6fbc
00000240: 8665 2ebd af66 8b3c b531 ccbd 0b94 d5bd
00000250: b830 353d 2a0f d23d 71f6 a5bd 884c a63c
00000260: 5e32 923d 28de 683b 4719 02bc 3b19 75bb
00000270: 7a7a fabc 69f1 383d ca88 cebd c498 a23d
00000280: 5666 7ebd b0ff 163d bab1 5f3d d09d 963d
00000290: c73b afbc 9c51 053c eab9 27bd acd3 a8bd
000002a0: 9c42 4dbd 9f90 6cbd 7386 e8bc 4ca2 d7bb
000002b0: 3d3f 9a3c c60a 7e3d 35ad ccbd 6737 073d
000002c0: 8be8 3dbd cd34 dcbc 23d8 1b3c 88bb 333d
000002d0: 5ca5 e5ba 0ffa debb 6c7b e73b a0df 1f3b
000002e0: 0e86 38bd c9e1 57bd 880e d23d 0de1 ccbd
000002f0: 3221 c73d 1441 8a3d 0bd8 94bc ed6f 2d3d
00000300: acb8 cc3d 7998 383d 362d a4bd 0ce9 a93c
00000310: e3e6 c03d 630c 0bbd 6b9a e03a 562f c23d
00000320: 1179 cd3c 2464 663d ebf4 c4bd 5f3d a8bd
00000330: a264 4c3c e272 1cbd 7212 9e3c 76af a23c
00000340: 5eff 47bd 6666 e6bc 17ef 6d3d fa25 1a3d
00000350: 55bc 893d 9c7c 753d 8e50 a5bd f739 c63d
00000360: 4369 92bd d705 a03c 22d7 32bc 7d0d cbba
00000370: 1361 103d b1ea 29bd 40db 623c 6db0 f13c
00000380: 4177 ac3b 0062 bc3d 08fd 8a3c 5482 a03d
00000390: 0072 9f3c 93ae b93d 87eb 8ebd 03f3 5b3c
000003a0: 1370 3abd 7591 89bd 57b0 be3c 0901 2ebc
000003b0: c66a ba3d 6bd2 5c3d d4bf 3abd 8c90 c4bd
000003c0: 8383 ac3c 05d7 c9bd 3e8c 173d ec0b e93c
000003d0: feca 273d aded 6cbb 7aef 07bd d593 4d3d
000003e0: 3ef0 083d 6574 a83b 795d ac3c 5ffb d3bd
000003f0: 46fe 183c 9155 09bb 3dfa 68bd 5e80 d6bb
0.049335632 0.0868331 -0.008342597 0.08424483 0.08142164 -0.092422076 0.078582756 -0.033811867
0.01809619 0.0722982 -0.089943595 0.03602966 0.004902654 -0.016117115 -0.05580817 -0.022442056
-0.061386127 -0.03918565 0.0815339 -0.022849008 -0.04318267 -0.062340703 0.03995613 0.05056778
-0.050274637 0.10247385 -0.081365615 -0.09078361 -0.043935068 0.08076658 0.06700464 -0.015700595
0.032662287 -0.03397576 0.075992234 0.023679271 -0.103831396 0.059776414 -0.062394474 -0.084107175
0.102063976 -0.09143359 0.08326238 -0.07985661 -0.10132673 0.09393142 0.027090063 0.05049556
0.06473318 0.007393802 0.09852249 0.05139886 -0.040901966 0.10327712 -0.036126137 -0.035406448
0.03443276 -0.051922876 -0.020230845 0.08886164 0.056443304 -0.06660956 -0.07365052 0.049076084
0.09116367 -0.022094741 0.049716204 -0.08209007 0.0146099115 0.06748574 -0.047607727 -0.007857745
-0.102256045 -0.06659388 -0.024605341 -0.075193405 0.002354501 -0.08279969 -0.038606055 -0.07669875
-0.061489295 0.0857114 -0.035409324 0.024578674 -0.0043176673 0.017735198 0.044363286 0.09267928
-0.0066331346 -0.03074049 -0.07722797 0.06316873 -0.09419989 0.036358766 0.019396305 -0.0452234
-0.008646228 0.08072056 -0.009759884 0.09860178 0.00055701274 -0.05062726 -0.09742577 0.08031089
0.056100868 0.097091794 0.046474557 0.06781364 0.057616703 0.056643713 -0.035942946 -0.04348754
0.051984876 -0.08906345 0.03899373 0.08824458 0.0246843 0.02614411 -0.10070724 -0.040499937
0.07253261 -0.011224769 -0.06889385 0.028285913 0.027164934 0.075164735 0.048874546 0.07469544
-0.007427151 0.074727215 0.032129694 0.09907331 0.06708306 0.050040785 -0.09923954 -0.008737315
-0.02838242 0.08508228 -0.017086644 -0.08610702 0.062136915 0.06489934 -0.0029876733 -0.01460229
-0.04257729 0.017016737 -0.09970418 -0.104286276 0.044235915 0.102567986 -0.081036456 0.020300165
0.07138513 0.0035532806 -0.007940597 -0.0037399072 -0.03057598 0.0451521 -0.10084684 0.07939294
-0.062109314 0.036864936 0.054612853 0.07354319 -0.021390809 0.008137133 -0.040948786 -0.08243498
-0.05011235 -0.05775511 -0.028384423 -0.0065806266 0.018828982 0.062021993 -0.09993974 0.03301182
-0.04636435 -0.026880646 0.00951198 0.043880016 -0.0017520594 -0.0068047117 0.0070642736 0.0024394765
-0.04504972 -0.05270556 0.10256678 -0.100038625 0.097231284 0.06750694 -0.018169424 0.04234307
0.09996161 0.045067284 -0.08016436 0.020741008 0.09419038 -0.03394736 0.0017135864 0.09481685
0.025082143 0.056247845 -0.09617027 -0.082148306 0.012475165 -0.0381955 0.019295905 0.019859057
-0.04882752 -0.028125 0.058089342 0.037633874 0.067253746 0.05993329 -0.08072005 0.09679025
-0.07148983 0.019534035 -0.0109155495 -0.0015491691 0.035248827 -0.041483585 0.013846219 0.029503072
0.0052632396 0.091983795 0.016966358 0.07837358 0.01946354 0.090665005 -0.06978517 0.013424638
-0.04551704 -0.06717197 0.023277445 -0.010620364 0.09102397 0.053911608 -0.045593098 -0.09597883
0.021058803 -0.09855465 0.03699898 0.028448068 0.040965073 -0.0036152408 -0.033187367 0.05018981
0.033432238 0.0051408284 0.021040665 -0.103506796 0.009337967 -0.0020955543 -0.05687927 -0.0065460643

lstm.weight_ih_l1 f4 [256, 64]
00000000: 865f d5bd 4243 aabd 77c9 99bb fff9 c6bc
00000010: 37de bfbd e00e b93d c64b 7abd 73d6 543d
00000020: 866e ddba 2dc6 b3bd f63b c43d 65f5 9fbd
00000030: 7f40 de3b 410a 14bd e888 bdbd 7ab0 c5ba
00000040: 871d 32bd ab3c 1f3d 69e6 8cbb a092 253c
00000050: 04d1 0fbc ae12 503d df00 5fbd 010c 433d
00000060: 6666 cbbd c9ca 58bd 8cfd 113d fe1c aa3d
00000070: fac7 3cbd 6fdb adbd ce3f 3d3d 7b3b 7dbd
00000080: 83e5 703d 1edd 633d 7b92 973d 4025 aebd
00000090: d912 243d 8894 ca3d 8862 d2bd ad5b 353d
000000a0: 6e38 1dbd 11ca d43c 1d23 c8bd 8fb1 b2bd
000000b0: e4ab 8bbc 0130 3dbd cc89 603d 5980 3cbd
000000c0: 3778 9dbd 12ef bebd 4338 103c b5d3 d7bc
000000d0: d1fa 4a3c c3fa a03d 021d 87bd 5a2c 343d
000000e0: 7697 cd3c 666f 5d3d a629 843d 0fee d43c
000000f0: 8185 23bd 0636 2ebd 66ec 2fbc 6476 98bd
00000100: 19c1 d53d 570c 59bc c7db 86bd d0da 88bd
00000110: 2946 88bb 93da 9bbd 52b1 76bd b6ba ca3d
00000120: 136b d4bc a8d2 4a3c 210c b0bc 1c0b 5d3c
00000130: 7411 ad3b dfc8 473d a57d b93d 33d3 45bc
00000140: 5a79 e23c 0ea9 ea3c 3be7 da3c cc36 c63d
00000150: fa09 64bd 0332 be3d c4dc c2bb 4667 98bc
00000160: 7c74 eabb 9ae5 443d a9d3 1abd 5e5b c4bc
00000170: a00c 61bd 5953 8a3d 6c98 d43d 58a3 b93d
00000180: f805 9b3d 19b2 a3bc ca13 35bd 1234 87bd
00000190: 930e 66bd 5da9 c6bd 6eea d33d ba78 bd3d
000001a0: 08a5 b4bd 9d3f 83bd 5bdd 5ebc 085f 273d
000001b0: d285 003d 29b2 a43c 1527 9e3d d103 6f3d
000001c0: d4e8 3ebd f3b8 d1bc 9381 91bc 1316 e63c
000001d0: 1222 3dbc 0ad5 c03d 55bd 0dbc a76b 803d
000001e0: 92d3 9d3c 2969 143d 67ca b93b 1f3a 8b3d
000001f0: 43c4 813d 8829 a83d 1a36 9a3d 0e80 c3bd
00000200: bf8b c8bd f33c 3cbc 7ce1 d3ba 8b6f fabc
00000210: 79b5 53bd 8eed aebd 862f b23d 7922 9a3d
00000220: c11e cfbd a97a 413d 8702 18bd e84e abbd
00000230: 3eb7 293d b40f 86bd 25bb 2e3d 6f0f 613d
00000240: 2a42 6a3d 95f5 abbd a629 f43c 8efe 803d
00000250: 7987 a3bd 1053 cb3d 4ba5 cc3d 78b4 a2bc
00000260: 3138 123d 84df cfbd 477c 833d 3da6 1cbd
00000270: 70dd 4e3c 4c98 0e3d c039 be3c 7824 253d
00000280: c20e 6c3d 3290 14bd 8bba 393a a234 cebb
00000290: 6c94 2dbd d3cd 67bd 673a 8dbd 5813 523d
000002a0: f228 a03d b59c dc3c c23a d3bc be3f 743d
000002b0: 11cc f4bc 0b09 65bd 6546 ba3b ec8d f0bc
000002c0: ab91 9ebd 1cff 443d faa0 a63d b013 243c
000002d0: e650 8d3d 9682 1ebd 540c cf3d b189 383d
000002e0: 3bef 49bd fa02 bebd 02cf 1dbd 0e15 133d
000002f0: a0ba bb3d ca24 75bd 8c5e 96bc 575d 2bbd
00000300: b1db 6b3d 694f 873d c171 f4bc e4d7 a13c
00000310: bdbd c63d a12d d0bd 6e99 d6bd 038c 38bc
00000320: 49e1 0b3d 1888 cdbc 5518 afbd acbf e5bc
00000330: 7871 863d 9e7a 13bc 6685 a43d bc72 c4bd
00000340: ce29 a63d 5fbe 3c3d 9a8d 1bbd bf4a 653c
00000350: fefb 98bd d1d2 96bd cda0 63bd ea0b b1bd
00000360: 110f 15bb c6ad 933d e07f 68bd 515f af3d
00000370: 5ace 623d d8df a0bb 1c79 b1bb f994 8bbd
00000380: 4632 84bc 88cc 88bc f5d8 1dbc b2c1 97bc
00000390: cacc b0bc 8f7f 753c 7854 933d 9bd8 733d
000003a0: 0eea 61bd 7143 993d 66ba cd3d 0c21 7abd
000003b0: 87cb 283d 8e4a 3cbd 6d06 39bd a41b d43d
000003c0: af6d b1bd a68d c8bd 2c0d c63c dd08 4c3c
000003d0: fbca 94bd 85a2 b13d 8e4c aa3d 0611 af3d
000003e0: 17b9 ba3c b822 bfbd cc3c 0a3d 22ec 32bd
000003f0: 4fd1 543d b6c2 613d eb2e c3bd 2d78 6dbc
-0.1041861 -0.0831361 -0.004693206 -0.02428913 -0.09368556 0.0903604 -0.06110742 0.051962327
-0.00168939 -0.087780334 0.09581749 -0.07810477 0.006782591 -0.03614259 -0.092546284 -0.0015082501
-0.04348519 0.038876217 -0.004299928 0.010105759 -0.008777861 0.050799064 -0.05444419 0.04761887
-0.0993164 -0.052927766 0.03564219 0.08306311 -0.04608915 -0.08489119 0.046203427 -0.061824303
0.05881263 0.055630796 0.07400986 -0.085031986 0.040057037 0.09891611 -0.102726996 0.044276882
-0.038383894 0.025975259 -0.09772322 -0.08725273 -0.017049737 -0.04618836 0.054818913 -0.04602084
-0.07688945 -0.09322943 0.008802476 -0.026346067 0.012388901 0.07860329 -0.0659733 0.04398761
0.025096636 0.054061316 0.06453256 0.025992421 -0.03992224 -0.04253199 -0.010737514 -0.07444456
0.10437221 -0.013247571 -0.06584888 -0.0668236 -0.0041587544 -0.07610049 -0.0602277 0.098988935
-0.025929963 0.012379326 -0.021490159 0.013491418 0.0052816216 0.04877555 0.09057168 -0.01207428
0.027645756 0.028645065 0.026721587 0.096784204 -0.055673577 0.09286883 -0.0059467275 -0.018603932
-0.0071549993 0.048070528 -0.03779951 -0.023969349 -0.05494368 0.067541786 0.10380635 0.090643585
0.07569498 -0.019982385 -0.044208325 -0.066017285 -0.056166243 -0.09700272 0.10347448 0.092515424
-0.0882054 -0.06408618 -0.01360258 0.040862113 0.03137762 0.020104485 0.07722298 0.05835325
-0.04660876 -0.025600886 -0.017761981 0.028086698 -0.0115437675 0.09415634 -0.008651097 0.06270533
0.019265924 0.0362331 0.00566988 0.06798195 0.06336262 0.082110465 0.0752985 -0.09545909
-0.097922795 -0.011489141 -0.0016165222 -0.030570766 -0.051686738 -0.08541404 0.087004706 0.075261064
-0.10113288 0.04723612 -0.037111785 -0.083646595 0.04143452 -0.06545964 0.042658944 0.05494636
0.057192005 -0.083964504 0.029805016 0.062985525 -0.07984824 0.09927952 0.09992465 -0.019861445
0.03569812 -0.10150054 0.064201884 -0.038244475 0.012626037 0.03481321 0.023220897 0.040317982
0.05763126 -0.036270328 0.0007084987 -0.0062928954 -0.042377874 -0.056592774 -0.06895905 0.05128798
0.0782031 0.026930192 -0.025784854 0.0596311 -0.029882463 -0.055916827 0.005684661 -0.029364549
-0.07742628 0.048094854 0.081361726 0.0100144595 0.06900196 -0.038698755 0.10109773 0.045053188
-0.049300414 -0.092779115 -0.038527496 0.03590875 0.09166455 -0.059849538 -0.01835563 -0.041837063
0.05758256 0.06606943 -0.029839398 0.019756265 0.097041585 -0.10164953 -0.10478483 -0.01126385
0.034150396 -0.025089309 -0.08549563 -0.028045498 0.06564611 -0.009001402 0.08033256 -0.09592196
0.08113442 0.04607999 -0.03797684 0.013994872 -0.07469939 -0.07364429 -0.055573273 -0.086448506
-0.0022744576 0.07210879 -0.056762576 0.08563102 0.055372573 -0.0049094968 -0.0054160487 -0.06815524
-0.016137253 -0.01669909 -0.009634246 -0.018524978 -0.021582026 0.014984026 0.071938455 0.059532743
-0.055154853 0.074835666 0.10045318 -0.061066672 0.041209724 -0.04596954 -0.045172144 0.103568345
-0.086634986 -0.09792642 0.024176203 0.012453285 -0.07265278 0.08673576 0.08315383 0.08548169
0.022793336 -0.09332794 0.033749387 -0.043682225 0.051957425 0.05511733 -0.09530433 -0.014493984

lstm.weight_hh_l1 f4 [256, 64]
00000000: 9f71 a83d f839 17bd ecfe 3b3c c498 92bc
00000010: f8ab cd3d d1f7 59bd f4bc 12bd 1528 b8bd
00000020: 282c b23d d75b 4b3d 3a61 be3c 58ba abbd
00000030: 4479 c23d 15d1 b4bd 9b30 2f3d 550f aebc
00000040: a54d cdbc 36c6 2e3d fada 733d 0f07 5dbd
00000050: 8419 44bd f291 9a3d 1c98 82bd 6690 a53d
00000060: dd7a b03d 4b33 8e3d 9fa1 bfbd c703 a93d
00000070: 782b 96bd 6c73 4bbd 9025 d1bd e6bf c13d
00000080: 11a0 f63b f43d 91bd 81cf 4f3d 9f15 82bc
00000090: 71b1 083d 9bbe 4ebc ced9 ca3d aedf ab3d
000000a0: 7bac e33c aad9 b93d 5764 84ba 93c0 883d
000000b0: da05 ab3d 151d a7bc 971c 21bc fc03 babb
000000c0: 21ac 3cbd c07a 06bc a41f c1bc f594 c03d
000000d0: dea0 853d edf9 8dbd 9add 9ebd 2e82 753d
000000e0: 6e3e a33d ca27 83bd 7006 963d eecd 773d
000000f0: e73d 0b3d 1e62 d4bc 4aea a93d 9b19 02bc
00000100: ba92 32bd bc89 603d 0007 1a3d 5d2f d4bd
00000110: 4373 79bd caed 7c3c e806 b9bd e981 84bd
00000120: 68c5 9fbc 0b9a 0cbd dd51 5bbd 6882 16bc
00000130: e84b 7d3b 08f8 a0bd c9dd 8d3d c827 0abd
00000140: 7dab b3bd edad 59bd 8817 d1bc 4be3 b63c
00000150: aa99 b5bd b9a3 a5bd 4ff7 84bd 2da4 8e3d
00000160: d6b7 5abd 5ce3 5bbd 71ad 70bd fea6 a53a
00000170: 4096 8abd 615b 60bc cdfe a93d 5685 433d
00000180: d48a a4bd 7dc3 a8bc 5efc 13bd b7a9 06bd
00000190: ce57 3cbd 9692 443d 4b5b cbbd 95d8 73bc
000001a0: f9b4 cfbd 5d90 a93c 815d 8ebd 2be4 87bc
000001b0: b0aa febc 506a 33bd 3fa0 80bd 100f 903d
000001c0: c26e 583d f57d 34bd 1953 d13d bdf2 28bd
000001d0: 5a79 1a3d b3e9 6f3d d56b 14bd 50e6 c9bc
000001e0: b811 4dbd 8b91 80bd 025d 68bd 172d 80bd
000001f0: 1a15 c9bd 3944 67bc 4f80 aabc 5895 a2bd
00000200: 43c6 a53d d836 b03d 025e bc3c 6abc d23d
00000210: 947f 133d 945a abbd 5950 813d da60 fb3c
00000220: d6f2 85bd 42f5 8fbd 4b0d 9ebd ba4d cbbd
00000230: 6471 4a3d 3612 533d a749 db3c 9c37 cabd
00000240: a1f2 0e3d 115d 29bd 1700 1bbd d1fe cabc
00000250: d417 a6bd 06eb a83c b66e a9bd a008 933d
00000260: 5f91 d1bc 0ea9 1e3c b33f c53d 9763 a2bc
00000270: 4c76 d2bd b38b 4e3c b125 bfbd abd4 c1bc
00000280: 1d39 61bd a2af 48bd 80ed 193d 1cf4 6c3d
00000290: b9be adbd f56c 9cbd f11d c73c 8852 b1bd
000002a0: f0b0 553d d9ce 363d 81fe 53bd 208a d53c
000002b0: 3759 49bd 3dd5 adbc feec 983d aca7 cdbd
000002c0: cc0c 06bc 199d 02bd 4f64 24bb 3491 8a3d
000002d0: 59ce 9a3d 3a23 803d 3483 d43b b7c9 72bd
000002e0: afe7 003d 5bb2 11bd 6678 1d3d 5b2b 7bbc
000002f0: e350 203d 2cbf 2fbd b772 923d d616 06bc
00000300: 105d 51bd e854 153d f221 c43d 4c87 7fbd
00000310: 1298 ce3d 70c5 a63d d06f 7e3d ab9f 96bd
00000320: 08ad 6f3d d8b7 85bd 498c 0ebc a6e9 b1bd
00000330: 9b27 0dbd dc0d cabd 7758 893d 4407 a9bc
00000340: 0782 4a3d a0c5 863d 8914 4e3d 9d0b 243d
00000350: cafd d13d cfa2 833d 4b6c 583d d263 a83d
00000360: 4381 18bd 4905 043d 7b45 a6bd 8a80 62bd
00000370: eb58 83bd 9f4b b93b a5dd c43d d06e 94bd
00000380: 84ee ba3d 7994 88bd fcf3 c8bd 6594 c1bd
00000390: 43f5 853d 84bc 673d b8e1 3d3d 211a c0bd
000003a0: cb42 c33b c093 533d 34c2 a43d 510e 553d
000003b0: 3651 f43c 6d82 8fbd 6bb7 6abd 0ee4 87bd
000003c0: 6c46 353d 6294 3cbb 049e c63c 7226 36bd
000003d0: b9a9 cbbd 1dc3 d0bd 0ced c23d 795b 5dbd
000003e0: 68b2 38bd 2360 c9bd 1e6c 30bd 8d78 3d3d
000003f0: 0f8f a0bc 5bdd ccbc 9172 423d 76bc 7ebd
0.082247965 -0.036920518 0.011474352 -0.01789511 0.10042566 -0.05321485 -0.03582473 -0.0899202
0.086998284 0.049648132 0.02323972 -0.083851516 0.09495786 -0.08828942 0.042770963 -0.021247545
-0.025061438 0.042669497 0.059535004 -0.05396181 -0.047875896 0.07547368 -0.06376669 0.080841824
0.08617184 0.06943377 -0.09356999 0.082526736 -0.0733251 -0.04967062 -0.102122426 0.0946043
0.0075264056 -0.07091895 0.050735 -0.01587945 0.033372346 -0.012618686 0.09904824 0.08392273
0.027792206 0.09074719 -0.0010100704 0.066773556 0.083507255 -0.02039961 -0.0098334765 -0.0056767445
-0.046062592 -0.008207977 -0.023574658 0.09403411 0.065248236 -0.06932435 -0.07757111 0.059938602
0.07970892 -0.064040735 0.073254466 0.060499124 0.03399458 -0.025925692 0.0829664 -0.007940675
-0.04359696 0.054818854 0.037604332 -0.10360596 -0.060900938 0.015437553 -0.090345204 -0.06470091
-0.01950331 -0.034326594 -0.053544868 -0.009186365 0.003864998 -0.07859808 0.06927068 -0.033729345
-0.08772943 -0.053144384 -0.025523916 0.022325179 -0.088672 -0.08087868 -0.06492483 0.06964908
-0.053397976 -0.053683624 -0.058759157 0.0012638269 -0.06766939 -0.013693661 0.083005525 0.04773458
-0.08034292 -0.020601029 -0.036129348 -0.032876696 -0.045982175 0.047991358 -0.09929522 -0.01488318
-0.1014194 0.02069872 -0.06951428 -0.016588291 -0.03108725 -0.04380256 -0.062805645 0.07034123
0.052840002 -0.044065434 0.10220928 -0.04124712 0.037713386 0.058572482 -0.03623565 -0.024645954
-0.050065726 -0.0627776 -0.056729324 -0.062586 -0.09818478 -0.014115387 -0.020813135 -0.07938641
0.08094456 0.086042106 0.022994045 0.102898434 0.03601034 -0.08366886 0.06314153 0.03068583
-0.06540458 -0.07029201 -0.07717379 -0.099269345 0.049424544 0.05153104 0.026768519 -0.09873888
0.034899358 -0.04134852 -0.037841883 -0.024779709 -0.081100136 0.02061988 -0.082730696 0.071793795
-0.025582014 0.0096838605 0.0963129 -0.019822879 -0.102764696 0.012606549 -0.09333361 -0.023660978
-0.054986108 -0.04899562 0.037580013 0.05784999 -0.08483643 -0.076379694 0.02430627 -0.0865832
0.052170694 0.04463086 -0.051756386 0.02606684 -0.049157348 -0.021219844 0.07467078 -0.100417465
-0.008181762 -0.0318881 -0.0025084203 0.067659765 0.07558889 0.06256719 0.006485367 -0.0592744
0.03147095 -0.035570484 0.0384449 -0.015330161 0.03913964 -0.042906925 0.07150786 -0.008184155
-0.051114142 0.036457926 0.09576787 -0.06238489 0.10087599 0.08143127 0.06211835 -0.07354673
0.058514625 -0.06529206 -0.008700439 -0.08687143 -0.0344616 -0.09865925 0.067063265 -0.020633347
0.04944041 0.06580663 0.050312553 0.040050138 0.102534845 0.06427538 0.05283765 0.08222164
-0.03723265 0.032231603 -0.08118721 -0.055298366 -0.06413444 0.0056547667 0.09612588 -0.07247698
0.091275245 -0.06668944 -0.09812161 -0.09452132 0.065409206 0.056576267 0.04635784 -0.09379984
0.00595889 0.051654577 0.08044854 0.052015606 0.02982388 -0.070072986 -0.057303827 -0.06635295
0.044256613 -0.0028774966 0.02424527 -0.044470258 -0.099444814 -0.10193465 0.09517869 -0.054042313
-0.045092016 -0.0983279 -0.04307186 0.046257544 -0.019599466 -0.025007894 0.04747254 -0.06219145

lstm.bias_ih_l1 f4 [256]
00000000: 27f9 68bd e4ef 1c3d 4116 80bd 5452 cf3c
00000010: 92ba bd3d 9de7 ae3d 0a03 b03d 93bc f63b
00000020: eac3 c6bd bdcb 3a3d 665c 903d 3370 64bd
00000030: f446 393c 0aab cd3d ec68 91bd f753 95b9
00000040: 1a57 293d 9e7d 173d 81c7 c0bd 379a f43c
00000050: e089 3fbc 042c 473d 3b6a b9bd 3c5c e63c
00000060: fbdd 723d c68a a0bb c6ad 673d 1601 5b3d
00000070: 2e68 993d 3d94 313d d113 62bd 1c87 4c3d
00000080: 09a9 4fbd 9232 723d ac8c c6bc 5bce a23d
00000090: 32bf ad3d 40b4 583d b712 353c 04df 68bd
000000a0: e812 9cbd 0406 33ba 2997 86bd 1ad3 8cbd
000000b0: b0a0 aebd d32c 82bd 010e ce36 523c b4bb
000000c0: f4c6 9cbd 0be9 e93c 2c65 f5bc 7f93 0fbd
000000d0: f0fa 533d e244 053d 9653 46bd 4d1e 313d
000000e0: 6575 abbd c25d 703c a32d 74bd 4cd4 83bd
000000f0: 2edb fe3c 9e7f 883d a251 f73b 2fcf d0bd
00000100: e32c a9bd 1acf 84bc c1e8 a33d d491 01bc
00000110: db84 0fbd ccf5 d53d 6cf3 4abd 67ae 293d
00000120: f78b 4d3d c207 b13d 173b b13c 839b aebd
00000130: bd15 36bd 6967 4abd b57c d4bd 90e8 933b
00000140: 8c63 97bd 5017 d73c b0bc 4bbd 5159 233c
00000150: 1090 ce3d 77e3 d53d f20d 8b3d 0b77 943c
00000160: 88fa 13bd 85c1 d33d 7622 e33c 5594 c63c
00000170: e2b7 3dbd 05d4 c4bd 0a5a 6cbd d2b6 763d
00000180: 93c8 3b3c e065 debc e67d d03d b62b ca3d
00000190: bd13 a93c eeb9 8a3d 18be 8bbd ec78 c43d
000001a0: efe9 7dbd 42ce c5bd e581 89bd eaad 7a3d
000001b0: 814f e1bc fd99 adbd 1181 4a3d 36f3 a4bd
000001c0: fa85 503d 8f9e a83c b329 71bd 7d52 eb3c
000001d0: d291 07bd e4e5 ca3d 8fbf 2dbb e2c2 1abd
000001e0: f374 44bd dd8b 3b3b f346 b4bd 0818 753d
000001f0: ad1a 1f3d f17c 72bb dabb e1bb fa97 8a3d
00000200: 6591 913d 042a 763d 9c6b a8bd 4927 c03d
00000210: 25bc 8f3d 8b67 86bd 501b 493c 22d3 803d
00000220: ccc8 b93d 713c c33c aa4c 4d3d 8645 b93c
00000230: a017 c13d eeb6 a0bd b263 00bb 541c 8c3d
00000240: d914 213a fa67 d9bd 90d5 79bc c9a2 93bd
00000250: d591 cb3d c521 993d 8596 c8bb 2aad d23c
00000260: e53d 623d beb2 1fbd cfd9 993c 91a0 6c3d
00000270: 9492 d9bc 21a1 523d 994d 15bc 00b4 61bd
00000280: 299f 3b3d 02c7 ccbd 37bf b93d a02c 0cbd
00000290: 1326 953d 39b5 bb3d 0dd0 ccbd a6e3 083d
000002a0: 37fe bbbd 9f21 c4bd a865 dc3d 73d3 ffba
000002b0: 3c16 9cbd 8519 88bb f1e9 c8bd 7ea5 ce3d
000002c0: bb13 91bd 41f5 523d 07e0 f8bc c91f d43c
000002d0: 2190 bfbd 6dc5 933d 7fe8 813d ea03 58bd
000002e0: c20b 863d d534 c6bd f750 95bc 916e ff3c
000002f0: 48f6 21bd 02dd cbbd f1b3 70bc 9a05 663c
00000300: 07c6 053d 30d2 913d b88b 8ebd 5b82 00bd
00000310: 7550 bb3d e549 873d b245 d13d e262 4d3c
00000320: ea6b d13c 8eb8 a73c 3a05 3ebd 0569 69bd
00000330: 4497 0e3c 7dcc 553d a6fe e0bc 8379 b73d
00000340: f2f4 c53d c28e 94bb 00d4 4cbd c28b d6bd
00000350: 63b8 5b3d f4b6 853d abe0 a33d c6df 6abc
00000360: 8017 a33c c0c6 3f3d 42b6 ba3d 295a 303d
00000370: f5d6 e0bc fb23 61bd 8c5e eb3c d159 893d
00000380: d109 ba3d 418c a43d 1164 dabc be65 49bd
00000390: a1fb 363b 807b 8c3c 9fa0 8e3d b01f e23b
000003a0: e17e 91bd 1965 4ebd 8da9 20bd e47a ee3c
000003b0: 8dd7 c4bd 5a23 183d 8426 adbd bdce df3c
000003c0: 6b5e 143d 3af7 a1bd ac6a f63c d111 cd3d
000003d0: 8316 b4bd 98f1 943d 05b6 94bc 0249 9abd
000003e0: 96e8 c5bc 01d3 073c 7909 25bb ec26 be3c
000003f0: 191f 0aba 800d b73d f458 393d bf64 433b
-0.056878235 0.038314715 -0.062542446 0.025307812 0.09264101 0.085402705 0.0859433 0.007529804
-0.097053364 0.045604456 0.070488736 -0.055771064 0.01130842 0.10042389 -0.071000904 -0.00028482053
0.041342832 0.036985032 -0.09413052 0.029858692 -0.011690587 0.04862596 -0.09053465 0.028120153
0.05929373 -0.0048993556 0.056562208 0.053467833 0.07490574 0.04335426 -0.05519468 0.049933538
-0.050698314 0.05913026 -0.024237 0.079495154 0.08483733 0.052906275 0.011051825 -0.05685331
-0.076207936 -0.00068292045 -0.065718 -0.06876202 -0.085267425 -0.06356206 6.1409087e-06 -0.005500355
-0.07655135 0.028553506 -0.02995547 -0.035052773 0.051752985 0.032536395 -0.048419558 0.043241788
-0.083720006 0.014670791 -0.059613835 -0.06436977 0.031110372 0.06664966 0.007547573 -0.10195767
-0.082605146 -0.016212035 0.08003379 -0.007908303 -0.03503881 0.10447273 -0.04954855 0.04142609
0.05018231 0.08644058 0.021634622 -0.08525755 -0.044454325 -0.049415026 -0.103753485 0.0045138076
-0.07392034 0.026256233 -0.049740493 0.009970025 0.100860715 0.10443776 0.06789769 0.01812317
-0.036127597 0.10339645 0.027726393 0.024240652 -0.046317942 -0.09610752 -0.057703055 0.060232945
0.011461395 -0.027148187 0.10180263 0.098716184 0.020639295 0.067737445 -0.06823367 0.095933765
-0.061990675 -0.09658481 -0.067142285 0.061201014 -0.02750373 -0.084766366 0.049439494 -0.08054201
0.05090902 0.02058342 -0.058877658 0.028725857 -0.03309805 0.099071294 -0.0026511883 -0.03778351
-0.047963094 0.00286173 -0.08802595 0.05983737 0.0388438 -0.003700074 -0.0068888487 0.067672685
0.0710781 0.060098663 -0.0822365 0.09382493 0.070183076 -0.06562718 0.012274578 0.062902704
0.09071502 0.023832532 0.05012194 0.02261616 0.09428334 -0.07847391 -0.0019590673 0.06841341
0.0006144769 -0.10615535 -0.015248671 -0.07208783 0.09939925 0.07477144 -0.006121459 0.025717337
0.05523481 -0.03898882 0.018780617 0.057770316 -0.026559152 0.051423196 -0.009112739 -0.055103302
0.045806084 -0.09998895 0.090696745 -0.034222245 0.07282653 0.09165425 -0.1000062 0.033420227
-0.09179347 -0.09576725 0.10761577 -0.0019517973 -0.07621428 -0.004153433 -0.09810246 0.10090159
-0.070838414 0.051503424 -0.030380262 0.025894063 -0.09353662 0.0721539 0.06343173 -0.052738108
0.065452114 -0.09678046 -0.018227084 0.031180652 -0.039541513 -0.09954263 -0.014691339 0.014039421
0.032659557 0.07120168 -0.06960243 -0.031374317 0.09146205 0.06605891 0.102183715 0.0125357825
0.025564153 0.020473745 -0.046391703 -0.05698492 0.008703057 0.05219697 -0.027465176 0.089587234
0.0966586 -0.0045336196 -0.050006866 -0.104758754 0.05364264 0.06529036 0.080018364 -0.014335578
0.019908667 0.046820402 0.09116794 0.043054733 -0.02744625 -0.054965954 0.028731607 0.06706584
0.090839036 0.08034564 -0.026659044 -0.049169295 0.0027920979 0.017148733 0.0696423 0.00690075
-0.07104278 -0.050389383 -0.039224196 0.029111333 -0.096114255 0.03714309 -0.08454612 0.02732026
0.036222856 -0.07908483 0.030080162 0.10013164 -0.08793356 0.07272643 -0.0181532 -0.075334564
-0.024158757 0.008290053 -0.0025182648 0.023211919 -0.0005268916 0.08938122 0.045250848 0.0029814688
