trained networks/6174.pt (torch_old, 484808 bytes, 18 tensors)

lstm.weight_ih_l0 f4 [256, 12]
0	0xbcdb3cec	-0.026762448
1	0xbd0fbcfc	-0.03509234
2	0x3cd3eecc	0.025870703
3	0x3daa8d02	0.08327676
4	0x3cc07a25	0.023495743
5	0x3d0a99e1	0.033838157
6	0xbd62b881	-0.055351738
7	0x3d913df8	0.07091898
8	0xbd670ebc	-0.056410536
9	0xbd93e23a	-0.07220884
10	0xbdd109f3	-0.10206976
11	0xbc90cad6	-0.017674845
12	0x3d913ace	0.07091294
13	0x3c055c11	0.008139626
14	0xbcdf2a3c	-0.027241819
15	0xbc2600ca	-0.010132024
16	0xbd93e032	-0.07220496
17	0x3c64b451	0.013959006
18	0x3dc41949	0.09575135
19	0xbc7804de	-0.015137879
20	0x3cffdc88	0.031233087
21	0x3daffb51	0.08592857
22	0xbceb61ba	-0.028733123
23	0x3db1557b	0.08658882
24	0x3d9db702	0.077009216
25	0xbd7ae0c3	-0.061249506
26	0x3d530fce	0.051528744
27	0xbdad3538	-0.08457416
28	0x3dba0e1b	0.09084722
29	0x3d0ff50a	0.035145797
30	0xbdc33373	-0.095312975
31	0xbc9bcd04	-0.019018658
32	0xbc2f2fd3	-0.0106925545
33	0xbd82737c	-0.06369683
34	0xbd2ff42d	-0.042957474
35	0xbdb49d38	-0.088190496
36	0xbd91bd02	-0.071161285
37	0xbcae2245	-0.021256575
38	0xbcfd565b	-0.030924967
39	0xbdc504b0	-0.09620035
40	0x3db7536a	0.08951457
41	0xbd736519	-0.059422586
42	0xbd300291	-0.042971198
43	0x3d37c628	0.04486671
44	0xbdab105b	-0.08352729
45	0x3d8bba7c	0.068226784
46	0xbd3a649c	-0.045506105
47	0xbae9f112	-0.0017848334
48	0x3c8b0657	0.016970797
49	0x3d56285a	0.052284576
50	0x3d2d4a47	0.042307165
51	0xbb8d147d	-0.004305421
52	0xbd54b952	-0.051934548
53	0x3d499808	0.049217254
54	0x3d5b500e	0.053543143
55	0xbdcdc103	-0.1004658
56	0x3d8a2182	0.06744672
57	0x3d7f1a3b	0.062280875
58	0xbd710af8	-0.05884835
59	0xbd55971c	-0.052146062
60	0x3ab689c9	0.0013926561
61	0x3d48e044	0.049042
62	0xbd1c4dda	-0.038160183
63	0x3bd557a5	0.006510692
64	0x3d050759	0.03247771
65	0xbcb5c814	-0.022190131
66	0xbcf7228a	-0.030167837
67	0x3d6626c0	0.0561893
68	0xbd83423e	-0.06409119
69	0xbda7177e	-0.08158778
70	0xbc31581f	-0.010824232
71	0xbd096585	-0.033544082
72	0xbd59d58b	-0.053182166
73	0xbd1f8462	-0.03894461
74	0xbdcbb262	-0.09946133
75	0xbdbb29c1	-0.09138823
76	0x3c4c3dd9	0.0124659175
77	0x3ce53f59	0.027984308
78	0x3bdc34b3	0.0067201494
79	0xbd0d4348	-0.034487993
80	0x397f3ddc	0.0002434174
81	0x3d93295f	0.07185625
82	0xbcf87158	-0.030327484
83	0x3dc77174	0.09738436
84	0x3dbc12e6	0.09183292
85	0x3c6f0319	0.014588141
86	0xbd7c885a	-0.061653472
87	0xbcca37f7	-0.02468489
88	0xbd1e7a46	-0.038690828
89	0x3d9986b5	0.074963965
90	0x3ac9e188	0.0015402297
91	0x3d0ab883	0.03386737
92	0xbdac350e	-0.08408557
93	0xbdc3b67d	-0.09556291
94	0xbd602ebd	-0.054732073
95	0x3da26656	0.07929675
96	0x3c4ec5e8	0.012620427
97	0x3da4a551	0.08039344
98	0xbd361378	-0.04445216
99	0x3cf132b3	0.02944312
100	0x3d741736	0.05959245
101	0xbd3b6281	-0.045748238
102	0xbd773d20	-0.060361028
103	0xbdcd01b2	-0.10010089
104	0xbdcc816c	-0.09985623
105	0xbd8ef19a	-0.069796756
106	0xbc72ad3e	-0.014811812
107	0xbd372185	-0.0447097
108	0xbdb55b26	-0.08855276
109	0xbd8066ae	-0.062695846
110	0xbdae9b7d	-0.08525751
111	0x3dabe823	0.08393886
112	0xbd2f5f5f	-0.042815562
113	0x3cff14e3	0.03113789
114	0x3dbb705d	0.09152291
115	0xbcab0872	-0.02087805
116	0xbbce4655	-0.0062950053
117	0x3d4be068	0.049774557
118	0xbd7ad785	-0.06124069
119	0x3d43370e	0.047659926
120	0xbd8caee1	-0.06869293
121	0x3d66f513	0.056386065
122	0x3dcbd3fa	0.09952541
123	0xbbf85379	-0.00757831
124	0x3dc591ea	0.096469715
125	0xbdd079a9	-0.10179455
126	0x3d412fa0	0.04716456
127	0xbd63ab0d	-0.05558305
128	0xbc0f68e0	-0.0087530315
129	0xbd1b0acf	-0.037852105
130	0x3dc69763	0.096968435
131	0xbccbb42e	-0.02486619
132	0x3da5ea00	0.081012726
133	0xbdd0579f	-0.101729624
134	0xbd887d99	-0.06664581
135	0xbdd6f24b	-0.104954325
136	0x3b17cede	0.0023164074
137	0xbd8a3616	-0.06748597
138	0x3d92dff5	0.07171623
139	0xbdb69b7b	-0.08916374
140	0xbdc7a5ca	-0.09748419
141	0xbd52c08a	-0.05145315
142	0x3dd4a310	0.10382664
143	0xbceef947	-0.0291716
144	0xbd8022b2	-0.062566176
145	0xbd690d2f	-0.05689734
146	0xbcd398e9	-0.02582975
147	0xbd50412c	-0.050843403
148	0xbd89c95c	-0.067278594
149	0x3be68074	0.007034356
150	0x3db90b52	0.09035362
151	0xbcad1b7b	-0.021131268
152	0xbd999a07	-0.075000815
153	0xbcd95c6b	-0.026533326
154	0xbd410cbc	-0.047131285
155	0x3dadab26	0.084799096
156	0xbdb37098	-0.0876171
157	0xbdc407fe	-0.09571837
158	0x3c83042c	0.0159932
159	0x3daae038	0.083435476
160	0x3c117448	0.008877821
161	0x3cbc0eb9	0.022956239
162	0xbcf4cf68	-0.029884055
163	0x3b369bc4	0.002786384
164	0x3d627581	0.05528784
165	0xbc1b8832	-0.009492921
166	0xbc4c5cc0	-0.012473285
167	0x3cf70347	0.03015293
168	0xbc03a9fd	-0.008036134
169	0x3dbfe17f	0.09369182
170	0x3c991454	0.018686451
171	0x3dc2ec7b	0.09517761
172	0xbd29e245	-0.041475553
173	0xbd094d7c	-0.03352116
174	0xbadd099d	-0.0016863827
175	0xbcc73df9	-0.024321543
176	0xbd266b9e	-0.040629975
177	0xbdc14b42	-0.094381824
178	0xbcc91baf	-0.024549333
179	0xbd82faa0	-0.06395459
180	0xbb3a5e95	-0.0028437723
181	0xbd81d671	-0.063397296
182	0x37166053	8.963124e-06
183	0x3dcdf578	0.10056585
184	0x3d16f763	0.03685702
185	0x3d940ce5	0.07229022
186	0x3c8321f0	0.016007394
187	0xbd895728	-0.06706077
188	0xbd63548e	-0.05550056
189	0x3d60ebd6	0.05491241
190	0xbd5025be	-0.050817244
191	0xbc7e68ec	-0.015527945
192	0xbd8580ff	-0.06518745
193	0xbd806a3f	-0.06270265
194	0x3d498ce0	0.049206614
195	0x3dbd1e1f	0.09234261
196	0xbbf7ab79	-0.007558283
197	0xbd4360d1	-0.047699753
198	0x3d5efac2	0.05443836
199	0x3d2215ed	0.03957169
200	0xbd34d9a9	-0.04415289
201	0x3d779a87	0.060450103
202	0xbc892bb3	-0.01674447
203	0xbda476ef	-0.08030497
204	0x3d893e5f	0.067013495
205	0xbd8a1a1a	-0.0674326
206	0x3d89bbee	0.06725298
207	0x3d293362	0.041308768
208	0xbdcb704e	-0.0993353
209	0x3d14876d	0.036261965
210	0x3dc8f027	0.098114304
211	0xbce10b6c	-0.027471267
212	0x3dc245a2	0.09485938
213	0xbd26c796	-0.040717684
214	0xbafb6632	-0.0019180237
215	0x3d8b2e59	0.067959495
216	0x3c1f3d93	0.00971927
217	0x3c4c61c9	0.012474486
218	0x3d89e566	0.067332074
219	0x3d88569a	0.06657143
220	0x3d20f6f7	0.039298024
221	0x3b95e00c	0.0045738276
222	0x3c0315e1	0.008000822
223	0x3dae3d64	0.08507803
224	0x3d8707fb	0.06593319
225	0xba9fbc8a	-0.0012186926
226	0xbd567780	-0.052360058
227	0xbd5d66ae	-0.054053
228	0x3cc183d8	0.023622438
229	0x3d933efe	0.07189749
230	0x3d2386a3	0.03992332
231	0x3c88eee8	0.016715482
232	0xbd333f2e	-0.043761425
233	0xbda427cc	-0.08015403
234	0x3d92c7af	0.07166993
235	0xbdaaa144	-0.0833154
236	0xbd177fe6	-0.036987208
237	0x3dc49a99	0.095998
238	0xbd894fcf	-0.067046754
239	0xba1d9b91	-0.0006012256
240	0xbd36c50d	-0.044621516
241	0x3d090d86	0.033460163
242	0xbd4739ac	-0.048638985
243	0xbc990e96	-0.018683713
244	0xbbc03ece	-0.005866862
245	0xbd2ba124	-0.041901723
246	0xbdd5c31e	-0.10437606
247	0xbcf13325	-0.029443333
248	0xbdb0d8ea	-0.08635123
249	0xbdc9cec6	-0.09853892
250	0x3cc228a4	0.02370102
251	0xbcd4571d	-0.025920445
252	0x3d568c9c	0.05238019
253	0x3d8d9ab9	0.06914277
254	0xbc615b55	-0.013754685
255	0xbd6879d2	-0.056756802

lstm.weight_hh_l0 f4 [256, 64]
0	0xbcdf135c	-0.027230911
1	0xbc3c2992	-0.0114845205
2	0xbd382a64	-0.0449623
3	0xbc7520fa	-0.0149614755
4	0x3b857f6b	0.0040740273
5	0xbda8aac6	-0.082356974
6	0x3c8667db	0.016406944
7	0x3cf0ee9f	0.029410658
8	0x3dc3b16f	0.09555327
9	0xbdbca44f	-0.09211027
10	0xbc3cc2bd	-0.011521039
11	0xbd54c189	-0.051942382
12	0xbda2c181	-0.07947064
13	0x3c89e7fa	0.016834248
14	0xbd913fb8	-0.070922315
15	0x3d7b347f	0.06132936
16	0x3da01d75	0.078181185
17	0x3d12599b	0.035729986
18	0xbbd48e8a	-0.0064867185
19	0xbcdcda85	-0.026959667
20	0xbdbbd35e	-0.091711745
21	0x3c8d3bfe	0.01724052
22	0x3d9b19c6	0.07573275
23	0x3d1fc3a8	0.03900495
24	0xbc1a16f4	-0.0094048865
25	0x3db25844	0.087082416
26	0x3d8bc981	0.06825543
27	0x3da8fd8b	0.082514845
28	0xbda3dac6	-0.08000712
29	0xbdbacd23	-0.09121158
30	0xbda10701	-0.07862664
31	0xbdaf2a34	-0.085529715
32	0xbcc38bfc	-0.02387046
33	0xbd41f0e3	-0.047348868
34	0xbda8e6a1	-0.08247114
35	0x3d6f951b	0.058491807
36	0x3c20f0a1	0.009822995
37	0xbcdfa72c	-0.027301393
38	0x3d8cd88c	0.068772405
39	0x3d0fd76e	0.03511756
40	0xbdb9c79c	-0.090712756
41	0xbd8bf6ac	-0.06834158
42	0xbdb05b88	-0.08611208
43	0xbca5b1c8	-0.020226374
44	0xbbb6da03	-0.0055801882
45	0x3d45cc7a	0.048290707
46	0x3b5925a0	0.0033133999
47	0x3dbad03f	0.09121751
48	0xbcb2e520	-0.021837771
49	0x3d812277	0.06305402
50	0xbdb3f65f	-0.08787226
51	0x3da16877	0.07881253
52	0xbd2e6045	-0.04257228
53	0x3dcc5ced	0.09978662
54	0xba20bfe9	-0.00061321125
55	0xbd62f3a8	-0.05540815
56	0xbdd29d89	-0.10283954
57	0x3dc26c4c	0.09493312
58	0xbcd68b6d	-0.02618953
59	0xbda8690b	-0.0822316
60	0x3c7ca60a	0.015420446
61	0xbdafdc21	-0.08586908
62	0x3d31d16b	0.043412607
63	0xbdce5f38	-0.10076755
64	0xbdd0a151	-0.10187019
65	0xbdad5ecc	-0.08465347
66	0x3d678015	0.056518633
67	0x3d870ac5	0.06593851
68	0xbd18647e	-0.03720521
69	0xbb854e59	-0.0040681777
70	0x3dbd0a6c	0.092305034
71	0xbdba9ebf	-0.0911231
72	0xbdbf9777	-0.093550615
73	0x3da6ab56	0.081381485
74	0xbd111894	-0.03542383
75	0x3da81362	0.08206822
76	0xbdcff7ca	-0.10154684
77	0xbd5d69e4	-0.054056063
78	0x3d99ba7d	0.07506273
79	0xbd84af20	-0.06478715
80	0xbdc8ec55	-0.09810702
81	0xbdbc3e33	-0.09191551
82	0xbdc9e1a0	-0.09857488
83	0x3c76fbea	0.015074709
84	0x3d30034a	0.042971887
85	0x3dace04c	0.08441219
86	0xbd06f02e	-0.032943897
87	0xbcdcf377	-0.026971562
88	0x3d70446e	0.05865901
89	0xbd81e68b	-0.06342801
90	0xbd958c3a	-0.07302137
91	0x3d33f8b8	0.04393837
92	0xbd5b349d	-0.053516973
93	0xbdbc3d5d	-0.091913916
94	0xbd8271f6	-0.063693926
95	0x3d39617b	0.04525898
96	0xbd413577	-0.04717013
97	0xbc9fe351	-0.019517573
98	0x3dae1af7	0.08501237
99	0x3cc3819c	0.023865514
100	0xbd93d00b	-0.072174154
101	0xbd896644	-0.06708959
102	0x3dc1a948	0.09456116
103	0x3d86bce8	0.06579
104	0x3d1ecc1b	0.03876887
105	0xbc038045	-0.008026187
106	0xbda135fc	-0.07871625
107	0xbd9a441d	-0.07532523
108	0x3d7d854e	0.061894707
109	0xbdc3ae12	-0.09554686
110	0x3d7a684a	0.061134614
111	0xbc2ae42d	-0.010430378
112	0xbd9cf6be	-0.0766425
113	0xbd74e524	-0.059788838
114	0x3db4b32e	0.08823238
115	0x3d5346e9	0.051581297
116	0xbc875482	-0.016519789
117	0x3b0a303d	0.002108588
118	0xbdc9bb5e	-0.098501906
119	0x3d683133	0.056687545
120	0x3da519bb	0.08061548
121	0xbd2ac26b	-0.041689318
122	0xbd483852	-0.048881836
123	0x3d9903ba	0.07471414
124	0xbd217772	-0.039420553
125	0xbd11f275	-0.035631616
126	0xbda2641a	-0.07929249
127	0xbcb990f0	-0.02265212
128	0xbdaeb651	-0.08530868
129	0x3db582e0	0.08862853
130	0x3c923985	0.017849693
131	0xbc022952	-0.007944422
132	0xbd9e4927	-0.077287965
133	0xbd5aacf3	-0.053387593
134	0x3cd1124b	0.025521418
135	0x3d6536c0	0.055960417
136	0x3d4e3a4d	0.05034857
137	0x3c720dd0	0.014773801
138	0x3db2f6ff	0.08738517
139	0x3cd1ec9c	0.02562552
140	0xbd900e53	-0.07033982
141	0xbb156b20	-0.0022799447
142	0x3cbc607b	0.022995224
143	0xbb13cadf	-0.002255134
144	0xbdcab193	-0.09897151
145	0xbd9be9e4	-0.076129705
146	0x3dae421b	0.08508702
147	0x3d939a45	0.07207159
148	0xbdc9468a	-0.098279074
149	0x3d103114	0.035203055
150	0x3d2be9a3	0.04197086
151	0x3c9c6aa0	0.019093812
152	0xbd99a185	-0.075015105
153	0x3d9ed763	0.077559255
154	0xbdc51528	-0.09623176
155	0x3ce58608	0.028018013
156	0x3d8fc9a7	0.07020884
157	0xbc93b8db	-0.018032482
158	0x3ce07c8c	0.027403139
159	0xbd095b03	-0.03353406
160	0x3dcc39ca	0.0997196
161	0x3db6f405	0.08933262
162	0x3d2a1dfc	0.0415325
163	0xbd93ed77	-0.07223027
164	0x3dc8affa	0.0979919
165	0xbd9582b6	-0.07300322
166	0xbcd67ce0	-0.026182592
167	0x3dc780a5	0.09741334
168	0x3dc868be	0.09785603
169	0xbda6da24	-0.08147076
170	0x3dd32ae6	0.103109166
171	0x3d233db9	0.039853785
172	0x3dd021d2	0.10162701
173	0x3d8e3b09	0.06944854
174	0xbcedcbf0	-0.029027909
175	0x3ce1c0cb	0.027557751
176	0xbbe564d1	-0.0070005436
177	0xbd715792	-0.058921404
178	0xbd1ce6e8	-0.038306147
179	0x3d59c9da	0.053171016
180	0x3c6b180d	0.014348996
181	0x3cff68ad	0.031177843
182	0x3d439742	0.047751673
183	0x3da3e21c	0.08002111
184	0x3dbfdcad	0.093682624
185	0xbb9aa5fc	-0.004719494
186	0x3d93dfbf	0.072204106
187	0xbc236cce	-0.0099746715
188	0x3c916f04	0.017753132
189	0xbd0c7653	-0.03429253
190	0x3dbb0b55	0.09133021
191	0x3da6f47c	0.081521004
192	0x3d1c8686	0.03821423
193	0x3d308935	0.0430996
194	0xbc9434a6	-0.018091511
195	0xbc9efe4c	-0.019408368
196	0xbc9ceff0	-0.01915738
197	0x3da33f62	0.07971074
198	0x3c902240	0.017594457
199	0x3d04719d	0.032334913
200	0xbc3888d4	-0.011263091
201	0xbd57f76b	-0.05272619
202	0x3daa1af2	0.08305921
203	0xbd26f267	-0.040758517
204	0x3da25548	0.07926422
205	0xbdaf0a5a	-0.08546896
206	0x3cc9e3cd	0.024644757
207	0xbdbf1e6c	-0.093319744
208	0xbdb81295	-0.08987919
209	0x3dd27d90	0.102778554
210	0xbcaaf3f4	-0.020868279
211	0xbdd20c63	-0.10256269
212	0x3d65d00a	0.056106605
213	0xbc8a9012	-0.016914401
214	0x3cf4491b	0.029820016
215	0x3dd4ad42	0.10384609
216	0x3d30e791	0.04318959
217	0x3c7ed262	0.015553089
218	0x3c24c41c	0.010056522
219	0xbd6ebf69	-0.05828801
220	0xbc24ca35	-0.010057976
221	0xbd9e3531	-0.07724989
222	0xbd81272a	-0.06306298
223	0xbdd5abcb	-0.104331575
224	0x3d245197	0.040116873
225	0xbdd0d9ad	-0.10197768
226	0xbd4348e2	-0.04767693
227	0xbdbd95bf	-0.092570774
228	0xbc0ef677	-0.008725754
229	0xbdd5952c	-0.10428843
230	0xbd81eb04	-0.06343654
231	0xbd6c35c0	-0.057668447
232	0x3ccc7b8d	0.024961257
233	0xbca2dd41	-0.019880893
234	0xbc4a0578	-0.012330405
235	0xbca0852a	-0.019594748
236	0x3dc4362d	0.09580646
237	0xbc86001b	-0.016357472
238	0xbd066ff3	-0.032821607
239	0xbbd59e04	-0.006519081
240	0xbd18d4ad	-0.0373122
241	0x3db5007c	0.08837983
242	0x3d456b08	0.048197776
243	0x3d161070	0.03663677
244	0xbd195bcb	-0.037441056
245	0x3db1417f	0.086550705
246	0x3bda2ba7	0.006658036
247	0xbd51f3b3	-0.0512578
248	0x3d9646f2	0.073377505
249	0xbd93cde5	-0.07217006
250	0xba60e19e	-0.00085785415
251	0xbdadfab1	-0.08495081
252	0x3d980959	0.07423658
253	0xbdc47d0f	-0.095941655
254	0x3cab452c	0.020907007
255	0xbcd95d3b	-0.026533714

lstm.bias_ih_l0 f4 [256]
0	0xbd026d4d	-0.03184252
1	0x3d3c6852	0.045997925
2	0x3db2f790	0.08738625
3	0x3d5c747e	0.053822033
4	0x3cc51780	0.024059057
5	0x3cd745e4	0.026278444
6	0x3dc48991	0.09596551
7	0x3db3f809	0.08787543
8	0xbc1ccc11	-0.009570138
9	0x3ce10f1b	0.027473023
10	0xbd4ff318	-0.05076894
11	0xbdd7288e	-0.10505782
12	0x3d0a6ff6	0.03379818
13	0x3d59c6be	0.05316805
14	0x3dcabf8a	0.098998144
15	0x3dceb313	0.100927494
16	0xbc990e93	-0.018683707
17	0x3d4cbebc	0.049986586
18	0x399f0332	0.00030329224
19	0xbdc75be5	-0.09734324
20	0x3d820d40	0.063501835
21	0xbcd0a419	-0.025468873
22	0xbbdf67d7	-0.0068177986
23	0xbcef26b1	-0.029193254
24	0x3d39b101	0.04533482
25	0xbd303eed	-0.04302876
26	0xbc031a33	-0.008001852
27	0x3dcf39f9	0.10118479
28	0x3db27ed3	0.08715596
29	0xbd7e2fcb	-0.062057298
30	0x3dd57022	0.10421778
31	0x3ca4ff3c	0.020141236
32	0x3b491a4d	0.0030685843
33	0xbd3075c6	-0.043081068
34	0xbd5863ed	-0.05282967
35	0x3cd52bac	0.026021801
36	0xbcb98b45	-0.022649417
37	0xbc83852d	-0.016054714
38	0xbd67b2ea	-0.05656711
39	0xbdd6c172	-0.104861155
40	0xbd0be50e	-0.03415399
41	0xbdbf9d8b	-0.09356221
42	0x3c36cc47	0.011157102
43	0x3dcdbdec	0.1004599
44	0xbbcf5fa1	-0.0063285385
45	0xbd1395fe	-0.036031716
46	0x3da7cb77	0.08193105
47	0xbd18f57f	-0.0373435
48	0xbd0d7dac	-0.03454368
49	0x3d657e79	0.056028817
50	0xbc95a779	-0.018268334
51	0x3dbe53a4	0.09293297
52	0x3cca951c	0.024729304
53	0x3b556c39	0.0032565726
54	0xbd878dfc	-0.06618878
55	0xbcdd223d	-0.026993865
56	0xbd90b6fa	-0.0706615
57	0x3cb2f422	0.021844927
58	0x3d5a8ea1	0.053358678
59	0x3b0a672f	0.002111863
60	0xbc3e81ab	-0.011627595
61	0x3da33acc	0.07970199
62	0xbd292c8e	-0.041302256
63	0x3d40c430	0.0470621
64	0xbd973397	-0.07382887
65	0x3db79d12	0.08965506
66	0xbd8cfb06	-0.068838164
67	0xbdc9fae4	-0.09862307
68	0x3ac83def	0.0015277247
69	0x3d554fbc	0.052077994
70	0x3d2801d2	0.04101736
71	0x3c9c7082	0.019096617
72	0x3d0a9aa8	0.033838898
73	0xbdd2f069	-0.10299761
74	0x3db64a1c	0.08900854
75	0xbd8745a7	-0.06605082
76	0xbdb38ffb	-0.087676965
77	0x3d849534	0.06473771
78	0xb9b21585	-0.0003396684
79	0xbca73eeb	-0.020415744
80	0xbdade2e9	-0.08490545
81	0x3dcd0d62	0.10012318
82	0xbdba9e99	-0.09112281
83	0x3dc1a9db	0.094562255
84	0x3c91923e	0.017769929
85	0xbdd10ab6	-0.10207121
86	0x3bdd474c	0.006752884
87	0x3d6b3275	0.057421166
88	0xbc888eb0	-0.016669601
89	0x3d681867	0.056663897
90	0xbc057ebd	-0.008147893
91	0xbd54f1f6	-0.051988564
92	0x3d85a2a3	0.06525161
93	0xbdb75afe	-0.08952902
94	0x3db0b384	0.0862799
95	0xbd7c27cc	-0.06156139
96	0xbd67524b	-0.056474965
97	0xbce7c02b	-0.028289875
98	0xbd2f8017	-0.042846765
99	0xbd7b5533	-0.06136055
100	0x3d04b6e3	0.032400977
101	0xbc2c0331	-0.010498808
102	0x3d0dd063	0.03462256
103	0xbd390fbf	-0.045181032
104	0x3dc9addf	0.098476164
105	0x3d99053f	0.07471704
106	0xbd94ff70	-0.07275283
107	0xbd62b67e	-0.05534982
108	0xbb980ea5	-0.0046404176
109	0xbc823da3	-0.015898531
110	0x3da334a8	0.07969028
111	0xbc006be8	-0.007838227
112	0xbd7d1816	-0.06179055
113	0xbd656e41	-0.05601335
114	0xbd274074	-0.04083295
115	0xbdbb1623	-0.091350816
116	0x3dc0a39c	0.09406206
117	0x3d5fd009	0.054641757
118	0x3d65851b	0.056035142
119	0xbd9eb751	-0.077498086
120	0xbd9838f3	-0.07432737
121	0xbc3f70c3	-0.011684599
122	0x3c75c2b5	0.015000035
123	0xbdd07cc6	-0.10180049
124	0xbd7fc525	-0.06244387
125	0x3c98fbbf	0.01867473
126	0xbd86c258	-0.06580037
127	0x3d72f4da	0.05931554
128	0xbda294fc	-0.07938573
129	0x3d82b883	0.06382849
130	0x3d06a2e5	0.032870192
131	0xbcfe9b87	-0.03108002
132	0x3db14375	0.086554445
133	0xbd1f1832	-0.038841434
134	0xbd13d51e	-0.036091916
135	0xbd228430	-0.039676845
136	0xbd318102	-0.043335922
137	0x3d840097	0.06445425
138	0xbd872026	-0.06597929
139	0xbc443ead	-0.011977834
140	0xbdaf8e7c	-0.085720986
141	0x3d625061	0.055252437
142	0xbd93e8e4	-0.07222155
143	0xbd9ef0ae	-0.0776075
144	0xbdc22eac	-0.09481558
145	0xbcb79d56	-0.02241389
146	0x3d2beb9d	0.041972745
147	0x3dadc418	0.084846675
148	0x3c7ebc00	0.015547752
149	0xbdc6992d	-0.09697185
150	0xbdd78038	-0.10522503
151	0xbda73fe3	-0.08166482
152	0xbd390d63	-0.045178782
153	0xbd8771b3	-0.06613483
154	0x3d66e428	0.05636993
155	0xbd8f4847	-0.06996208
156	0xbd347a90	-0.044062197
157	0xbd6233c9	-0.055225167
158	0xbc84e8a3	-0.016224211
159	0x3dd84a03	0.105609916
160	0xbcd09733	-0.025462722
161	0x3d14e24a	0.03634862
162	0xbd8680c8	-0.06567532
163	0xbd8813e8	-0.06644422
164	0x3d99abc2	0.07503463
165	0x3dc12320	0.09430528
166	0xbd0bdf97	-0.03414878
167	0xbd997214	-0.07492462
168	0xbccf5b60	-0.025312126
169	0x3c9bf749	0.019038813
170	0x3cdcfcf9	0.026976096
171	0x3d3abbd9	0.0455893
172	0xbdc541f5	-0.09631721
173	0xbd865329	-0.0655883
174	0xbb07738f	-0.0020668244
175	0xbd1d2ac5	-0.038370866
176	0x3d203027	0.03910842
177	0x3c32b84f	0.0109082
178	0xbc876e77	-0.016532166
179	0xbd280c28	-0.041027218
180	0x3cf3020c	0.029664062
181	0xbdb3935e	-0.087683424
182	0xbd32ae65	-0.043623347
183	0xbd3b1d06	-0.045681976
184	0x3d9ab1b7	0.07553428
185	0x3d7a334a	0.06108407
186	0x3d2db184	0.04240562
187	0x3d311906	0.043236755
188	0x3db788c7	0.08961635
189	0x3d9bcb6b	0.07607158
190	0x3d6e4563	0.05817164
191	0x3d852389	0.065009184
192	0x3d741ffb	0.05960081
193	0x3db2a471	0.08722771
194	0x3bcaf4e0	0.006193742
195	0xbdbc6d0d	-0.09200487
196	0x3da11d1a	0.07866879
197	0x3cda8f67	0.026679708
198	0x3dae5aee	0.08513437
199	0xbdb0b725	-0.08628682
200	0xbd01426c	-0.031557485
201	0x3c654efc	0.013995882
202	0xbdca7b36	-0.09886782
203	0x3d444342	0.047915705
204	0x3c18b8ea	0.009321431
205	0xbdc13c46	-0.09435324
206	0xbd9337fe	-0.07188414
207	0xbdd2f80a	-0.10301216
208	0xbc912ca4	-0.017721482
209	0xbd1cc628	-0.038274914
210	0x3da5bd11	0.08092702
211	0x3a979859	0.0011565789
212	0xbd24efb0	-0.040267646
213	0xbcb06565	-0.021532724
214	0xbc7a74b9	-0.015286618
215	0x3dc9ab39	0.09847111
216	0x3d5375b1	0.05162591
217	0xbdb712d2	-0.089391366
218	0xbd819ce1	-0.063287504
219	0xbdd23a83	-0.102650665
220	0xbd169486	-0.036762737
221	0xbd0156f3	-0.03157706
222	0xbc01b5da	-0.007916892
223	0xbd1ea280	-0.03872919
224	0x3b307747	0.0026926564
225	0xbd0571da	-0.03257928
226	0xbc17a0cf	-0.009254648
227	0x3c324965	0.010881756
228	0xbc9a20b3	-0.01881442
229	0xbd86b13c	-0.065767735
230	0xbdb24909	-0.087053366
231	0xbd0b9487	-0.034077194
232	0xbd91750a	-0.071024016
233	0xbd74ee68	-0.059797674
234	0xbd02503f	-0.03181481
235	0x3d9fa1b1	0.07794512
236	0xbbfa6d2a	-0.007642408
237	0xbd956748	-0.0729509
238	0x3cff1b24	0.031140871
239	0x3d92ebe6	0.071739
240	0xbd8b68d0	-0.06807101
241	0xbdcb63aa	-0.09931119
242	0xbd8a98e6	-0.06767444
243	0x3dba7f24	0.091062814
244	0xbdad7d2e	-0.08471142
245	0x3d860399	0.06543655
246	0xbd5b9bb2	-0.05361528
247	0x3d002041	0.03128076
248	0x38e8e97f	0.00011106114
249	0xbab3ee03	-0.0013727549
250	0x3cb05ea1	0.021529498
251	0x3ce520b6	0.0279697
252	0xbbf0337a	-0.0073303552
253	0x3d08a441	0.03335977
254	0x3da25d92	0.07928003
255	0x3d9e2213	0.07721343

lstm.bias_hh_l0 f4 [256]
0	0xbc411c3c	-0.011786517
1	0x3d675d40	0.056485415
2	0xbc4fb526	-0.0126774665
3	0xbd842b17	-0.06453531
4	0xbcf0c0a9	-0.029388743
5	0xbd859e07	-0.06524282
6	0xbcc36401	-0.023851397
7	0xbdab2b86	-0.08357911
8	0xbd19d86f	-0.037559923
9	0xbd7cac11	-0.061687533
10	0x3db16961	0.086626776
11	0xbdaa1f52	-0.08306755
12	0x3d428771	0.04749245
13	0x3cf1ec84	0.029531725
14	0x3dae3dcf	0.08507883
15	0x3cddafce	0.02706137
16	0x3c826da5	0.015921423
17	0xbd18384f	-0.037163075
18	0x3dac8875	0.084244646
19	0xbd7e21f4	-0.0620441
20	0xbc8b5701	-0.01700926
21	0x3c2db335	0.010601808
22	0x3d34a6d7	0.044104423
23	0xbdae8f3b	-0.08523413
24	0x3d938f90	0.07205117
25	0xbb994598	-0.0046774857
26	0x3d08d627	0.033407357
27	0x3cd6f0a4	0.026237793
28	0xbca9748e	-0.02068546
29	0x3da93e9d	0.08263896
30	0xbd77cb17	-0.060496416
31	0xbda2d151	-0.0795008
32	0xbd33d657	-0.043905582
33	0xbcdb9379	-0.026803719
34	0xbd45b49e	-0.048267953
35	0xbd8ff095	-0.07028309
36	0x3da87d65	0.08227042
37	0xbd892860	-0.06697154
38	0xbdcd1062	-0.100128904
39	0x3d1ff1e5	0.039049048
40	0xbd6967a6	-0.056983612
41	0x3dc05ef1	0.09393109
42	0x3d93e9cf	0.0722233
43	0xbd7f0844	-0.062263742
44	0xbdb00c4a	-0.08596094
45	0x3d9c48c7	0.07631069
46	0x3a8bbabb	0.0010660508
47	0xbca5993e	-0.020214673
48	0xbb8dbcbb	-0.004325477
49	0x3c33a828	0.010965385
50	0x3d9cb2e3	0.076513074
51	0xbdd56035	-0.10418741
52	0xbd658547	-0.056035306
53	0xbdb51e83	-0.0884371
54	0x3dad6c8f	0.084679715
55	0xbd506ca7	-0.05088487
56	0x3cd08199	0.025452422
57	0x3dc57018	0.09640521
58	0xba939c67	-0.0011261821
59	0x3bc3df73	0.005977565
60	0xbdbe3d0a	-0.09288986
61	0xbdbb1956	-0.09135692
62	0xbd7d7023	-0.06187452
63	0x3cad8a59	0.021184133
64	0x3ac8b98f	0.001531409
65	0x3d6ad287	0.05732968
66	0xbca48faf	-0.020088045
67	0x3cc1c7a3	0.023654765
68	0x3d6ac4a7	0.05731645
69	0xbd5a907d	-0.05336045
70	0xbda5a1e4	-0.08087519
71	0xbbadd637	-0.0053050774
72	0x3d262090	0.040558398
73	0x3d9bc265	0.07605437
74	0x3d9cff5b	0.07665893
75	0x3cdfa655	0.027300993
76	0x3d3ced9d	0.046125043
77	0xbdb1aac1	-0.08675147
78	0xbd9e7fff	-0.07739257
79	0x3d85d3c2	0.0653453
80	0x3d4919a2	0.04909671
81	0xbdcc2744	-0.09968427
82	0xbdd1b099	-0.102387615
83	0xbb764828	-0.003757963
84	0x3d9eafbc	0.077483624
85	0x3d72c332	0.059268184
86	0xbc6fca1b	-0.014635588
87	0xbcbd570a	-0.023112793
88	0x3db92933	0.09041061
89	0xbcbeeb8d	-0.023305679
90	0x3c1903e9	0.009339311
91	0x3d1fac90	0.038982928
92	0x3b38bc23	0.002818831
93	0x3d3e4e22	0.046461232
94	0xbdccec3c	-0.10005996
95	0xbd9174f7	-0.071023874
96	0x3c101956	0.008795103
97	0x3db3f61d	0.08787177
98	0x3d5bb504	0.053639427
99	0x3c86ad1c	0.016439967
100	0xbda48707	-0.08033567
101	0x3c49c687	0.012315399
102	0xbdc9b790	-0.09849465
103	0x3c922cb2	0.017843578
104	0x3db16664	0.086621076
105	0x3dae3663	0.08506467
106	0x3d1ae571	0.03781647
107	0x3dc184cc	0.09449157
108	0x3c22f109	0.009945163
109	0x3d957f4d	0.07299671
110	0x3d2db932	0.042412944
111	0x3d7d2d12	0.06181056
112	0xbcbb5dcd	-0.022871876
113	0xbce02347	-0.027360572
114	0x3ce1b1ef	0.027550666
115	0x3ad22766	0.001603347
116	0xbd830723	-0.063978456
117	0x3aa62585	0.0012675977
118	0x3d01c722	0.03168405
119	0x3dd15ed2	0.10223164
120	0x3d9a1bfc	0.07524869
121	0xbda0b547	-0.07847076
122	0x3dd67ce9	0.104730435
123	0x3cfbbf28	0.030730799
124	0x3b9cd9f7	0.0047867256
125	0x3ae19177	0.001720949
126	0xbd6f3d2a	-0.05840794
127	0xbd5c0c65	-0.053722758
128	0x3d094612	0.03351409
129	0xbdce40d5	-0.100709595
130	0xbd8c43b5	-0.068488516
131	0xbd9017d3	-0.07035794
132	0x3a86f828	0.0010297345
133	0xbd308cfa	-0.043103196
134	0x3d3575f5	0.044301946
135	0x3ca44c29	0.020055847
136	0xbcf50e10	-0.029913932
137	0xbd8c8df9	-0.06863017
138	0xbc0083bc	-0.007843908
139	0x3dd31dc5	0.103084125
140	0xbdac00cf	-0.08398592
141	0xbd559a5d	-0.052149165
142	0x3dafb459	0.085793205
143	0xbdb70de0	-0.08938193
144	0xbda51674	-0.08060923
145	0x3d620d17	0.055188265
146	0xbd1aabd8	-0.03776154
147	0x3d25d68e	0.04048782
148	0xbd9a668d	-0.07539091
149	0xbd81efe0	-0.06344581
150	0xbc02df5d	-0.007987824
151	0x3d4406b3	0.04785795
152	0xbda5e826	-0.081009194
153	0x3cd7bf09	0.02633621
154	0x3d0cbe12	0.034360953
155	0x3cd799c6	0.026318442
156	0x3da51116	0.080598995
157	0x3d9b64fe	0.07587622
158	0xbdbe4773	-0.092909716
159	0x3d41964d	0.04726248
160	0xbd8f609f	-0.07000851
161	0xbd1afdf4	-0.037839845
162	0xbd518d81	-0.05116034
163	0x3bea5a02	0.007151843
164	0xbda77b13	-0.081777714
165	0x3d0ec631	0.03485698
166	0xbcee0a32	-0.029057596
167	0x3dd357a2	0.10319449
168	0x3d949f27	0.072569184
169	0xbcdf88c2	-0.02728689
170	0xbd8a7961	-0.067614324
171	0xbd0d22a6	-0.03445687
172	0x3d93ecf4	0.072229296
173	0xbd40a4d4	-0.047032192
174	0xbdbf1f94	-0.09332195
175	0xbd80d6a1	-0.06290937
176	0x3949dce0	0.00019251136
177	0x3d975973	0.07390108
178	0x3d599177	0.05311724
179	0x3dcae1ee	0.09906374
180	0xbdb85171	-0.08999909
181	0x3cea6e1e	0.028616961
182	0x3da71a56	0.0815932
183	0xbda0d05d	-0.07852242
184	0xbd1f8926	-0.038949154
185	0xbd32677a	-0.043555714
186	0xbcdd1766	-0.026988696
187	0x3da3268a	0.07966335
188	0x3c099d98	0.00839939
189	0x3da502eb	0.08057197
190	0x3c4a8956	0.012361845
191	0x3d8bc8a4	0.068253785
192	0x3cc9e06d	0.024643147
193	0x3cd0f35c	0.025506668
194	0x3d05c977	0.032662835
195	0x3c8bb12e	0.01705226
196	0x3cdef42a	0.027216036
197	0x3d769994	0.060205057
198	0xbd817645	-0.06321386
199	0xbac6f1ca	-0.001517826
200	0xbdb8d647	-0.09025245
201	0x3d06bca3	0.03289474
202	0xbc132463	-0.008980843
203	0x3d9b440a	0.07581337
204	0x3ca40d45	0.020025859
205	0x3d4eefb8	0.050521582
206	0x3ccb200f	0.02479556
207	0x3ce001cc	0.027344607
208	0xbda9e3fb	-0.08295437
209	0xbd6b7a63	-0.057489764
210	0xbaaf0d65	-0.0013355432
211	0xbd8c1387	-0.06839662
212	0x3cfed32c	0.031106554
213	0xbdcf9c28	-0.10137206
214	0x3d2b5987	0.041833427
215	0xbcbebc57	-0.023283167
216	0xbd277a4d	-0.04088812
217	0xbb96a8cf	-0.0045977603
218	0x3b813bf6	0.0039439155
219	0xbdcaf78e	-0.099104986
220	0x3dbb017f	0.09131145
221	0xbdc7cfa0	-0.09756398
222	0x3d7c5cc1	0.061611895
223	0x3db48c8d	0.088158704
224	0x3d6df4f7	0.058094945
225	0xbda8f751	-0.08250297
226	0x3d9fe712	0.07807745
227	0x3da206e2	0.07911469
228	0xbd8f7302	-0.07004358
229	0x3d160cf2	0.03663344
230	0x3d5b1074	0.053482488
231	0xbdaa0dcb	-0.08303412
232	0xbcffc561	-0.031222047
233	0xbd7cc415	-0.061710436
234	0x3d63eabe	0.05564379
235	0x3d9a7558	0.07541913
236	0xbdada07d	-0.08477876
237	0x3c8c9441	0.017160537
238	0xba842caa	-0.0010084112
239	0x3b82ea5c	0.003995223
240	0x3d99760b	0.07493218
241	0x3ce732ed	0.028222525
242	0xbd85ea0e	-0.06538783
243	0x3dbe3685	0.092877425
244	0xbd896fd1	-0.067107804
245	0x3d690ede	0.056898944
246	0x3d2a0c1c	0.041515455
247	0xbdd33117	-0.103120975
248	0x3be38e4d	0.006944454
249	0x3d830c01	0.06398774
250	0x3d259f15	0.040434916
251	0xbca2e8b0	-0.019886345
252	0x3dd21c8b	0.102593504
253	0x3b3439cb	0.0027500268
254	0x3dcfbff2	0.101440325
255	0x3d8b8a47	0.06813484

lstm.weight_ih_l1 f4 [256, 64]
0	0x3ca6116a	0.020271976
1	0xbd9b4389	-0.07581241
2	0x3dc5e28c	0.09662351
3	0x3c84b5b3	0.016199922
4	0xbcd44f83	-0.02591682
5	0xbd28d539	-0.04121897
6	0xbd8e0c88	-0.06935984
7	0xbd94abc4	-0.07259324
8	0x3ca5e0f2	0.020248864
9	0x3ca38e8c	0.019965433
10	0x3d973366	0.0738285
11	0x3cb16649	0.021655219
12	0x3c578014	0.013153095
13	0xbd2e40ad	-0.04254215
14	0xbc51a2d8	-0.012795173
15	0x3d36f726	0.044669293
16	0x3c6aeb34	0.014338303
17	0x3dab0b11	0.0835172
18	0x3cb08c71	0.021551343
19	0x3d15052e	0.036381893
20	0x3d81e8ad	0.063432075
21	0xbcd138fc	-0.025539868
22	0xbdd5550d	-0.10416613
23	0x3d588656	0.052862488
24	0x3d0a6c29	0.033794556
25	0xbd864334	-0.06555787
26	0x3d95ea33	0.073200606
27	0xbda1f1c1	-0.07907439
28	0x3d7fc190	0.062440455
29	0xbd23fd6e	-0.04003661
30	0x3dafc4a0	0.08582425
31	0x3d4c5824	0.049888745
32	0x3d37e760	0.04489839
33	0x3d14e29b	0.03634892
34	0x3da9af99	0.08285446
35	0x3c5ef572	0.013608323
36	0xbdd3a4ac	-0.10334143
37	0xbd69a563	-0.05704249
38	0x3c506b75	0.012720932
39	0xbdc5f9ae	-0.09666763
40	0xbaf13331	-0.0018402097
41	0xbcb3c46c	-0.021944247
42	0xbdd54bbe	-0.10414837
43	0xbd7f9c06	-0.062404655
44	0xbc2dfdbf	-0.01061958
45	0xb8a461aa	-7.838321e-05
46	0xbd407c3d	-0.046993483
47	0x3ad0ea7c	0.0015939022
48	0xbd34bd9c	-0.044126138
49	0x3d4f84ce	0.05066376
50	0x3cebac27	0.028768612
51	0xbd021721	-0.03176034
52	0x3da1b9e5	0.07896785
53	0x3d5c31d7	0.05375847
54	0x3b58098b	0.0032964672
55	0x3d98c3cc	0.0745922
56	0x3d7f2e3a	0.062299944
57	0xbdc1ccce	-0.094628915
58	0xbd22004e	-0.03955107
59	0x3d6d0123	0.057862412
60	0x3d149857	0.036278095
61	0x3cc047fb	0.023471823
62	0x3dd1b041	0.10238696
63	0xbd921333	-0.07132568
64	0x3cf31c59	0.029676603
65	0xbdb7b9f1	-0.089710124
66	0xbd3fe453	-0.046848606
67	0x3d89aa67	0.06721955
68	0xbc324abf	-0.010882079
69	0x3d8adf15	0.06780831
70	0x3dc7ea0b	0.09761437
71	0xbdcc1913	-0.0996572
72	0x3db3905c	0.08767769
73	0xbdc009e2	-0.09376885
74	0x3d6ba372	0.05752892
75	0x3d7361e3	0.059419524
76	0x3c1fa404	0.009743694
77	0xbd9652f8	-0.07340044
78	0xbccf20d0	-0.0252842
79	0xbd4dbcb6	-0.050228797
80	0x3d891e40	0.06695223
81	0x3d82cdba	0.063868955
82	0xbdbb4a17	-0.09144991
83	0xbd06fc18	-0.03295526
84	0xbdcf96e1	-0.101362
85	0x3da33cd1	0.07970584
86	0xbcdf7c13	-0.027280843
87	0x3da93cc7	0.082635455
88	0x3d9f16bd	0.07768009
89	0xbd7d2ba0	-0.061809182
90	0x3d6df8d1	0.058098618
91	0x3da5e191	0.08099664
92	0xbd82b0ab	-0.06381353
93	0x3c21863f	0.009858667
94	0xbdb57fc9	-0.08862264
95	0x3dbf57c1	0.093429096
96	0x3c9805b3	0.018557405
97	0xbdca3686	-0.09873681
98	0x3d5a1922	0.053246625
99	0x3d6e58ae	0.05819004
100	0xbd2f633a	-0.04281924
101	0xbd106f83	-0.035262596
102	0x3d5dacf8	0.054120034
103	0xbb0918f7	-0.0020919421
104	0xbd153fa0	-0.03643763
105	0xbd436adb	-0.047709327
106	0x3d6e3972	0.058160253
107	0xbdb19e53	-0.08672776
108	0xbb66d556	-0.0035222373
109	0x3d41ab5c	0.04728256
110	0x3d058e36	0.032606326
111	0xbd38ebc3	-0.045146715
112	0x3d8a1ce0	0.06743789
113	0xbdc7846c	-0.09742054
114	0x3d45548d	0.048176337
115	0xbda33638	-0.07969326
116	0x3d0c5bcd	0.034267236
117	0x3d97cb28	0.07411796
118	0x3d5acbb2	0.053416915
119	0x3d797f8a	0.060912646
120	0x3cb09a74	0.021558024
121	0x3dd29ade	0.10283445
122	0x3dcbe874	0.09956446
123	0x3da256c9	0.07926709
124	0xbd280d82	-0.041028507
125	0x3d1967a1	0.037452344
126	0xbc1acfd5	-0.009448965
127	0x3d04e457	0.032444324
128	0xbd71e464	-0.0590557
129	0x3b282115	0.0025654484
130	0xbc53e05f	-0.012931912
131	0x3ca5fdd0	0.020262629
132	0x3bf49841	0.007464439
133	0xbda53d8c	-0.0806838
134	0x3d1f29d4	0.03885825
135	0xbc6ab736	-0.014325907
136	0x3d39dd7c	0.04537724
137	0xbd8374d1	-0.06418765
138	0xbc160dc6	-0.009158557
139	0xbdccc0f7	-0.099977426
140	0xbd74dd30	-0.059781253
141	0xbc2b248a	-0.010445723
142	0xbda401b6	-0.08008139
143	0xbd8d57fe	-0.06901549
144	0x3d15ca8c	0.036570117
145	0x3d86004d	0.06543026
146	0xbc605833	-0.013692903
147	0x3d6bdc8f	0.057583388
148	0x3c7334ba	0.014844114
149	0xbd20cf81	-0.03926039
150	0xbc1a4d9c	-0.009417918
151	0xbda28d11	-0.079370625
152	0xbdd46db8	-0.1037249
153	0x3db65cac	0.089043945
154	0x3dd5a175	0.10431186
155	0x3d48522e	0.048906498
156	0x3d7714e3	0.060322654
157	0xbd32e8b1	-0.043678943
158	0xbda5ac86	-0.08089547
159	0xbdd53e73	-0.10412302
160	0x3d9f43f4	0.07776633
161	0xbd8195b8	-0.06327385
162	0xbdb949d1	-0.090472825
163	0xbd474a96	-0.048655115
164	0xbdc7bc4a	-0.0975271
165	0x3d48d9cc	0.049035832
166	0xbd9e2352	-0.077215806
167	0xbd00be77	-0.03143164
168	0xbd9c32ab	-0.07626852
169	0xbd7ea456	-0.06216844
170	0x3dd5c133	0.104372405
171	0x3da85d58	0.08220929
172	0xbd896a6d	-0.06709752
173	0xbd15e131	-0.036591712
174	0xbcc11d6c	-0.0235736
175	0x3ce19119	0.027535008
176	0xbdb4b22f	-0.08823048
177	0x3d71966b	0.05898134
178	0x3d83fed6	0.064450905
179	0x3d19dfa3	0.037566792
180	0xbd0663e9	-0.032810125
181	0xbd90d3da	-0.070716575
182	0x3d9d751e	0.07688354
183	0x3c4ab1f0	0.012371525
184	0x3c06305a	0.008190239
185	0x3d6926a4	0.056921616
186	0xbd02e353	-0.031955075
187	0x3db720d0	0.08941805
188	0x3b7c2d0f	0.0038479005
189	0xbdc0b84c	-0.09410152
190	0x3d0ccb8c	0.034373805
191	0x3dbffe0a	0.09374626
192	0x3da756ac	0.08170828
193	0x3dcca56f	0.099924915
194	0x3d356b66	0.044291876
195	0xbd67cc77	-0.056591477
196	0xbd4e30fd	-0.050339688
197	0xbd65fda7	-0.056150105
198	0x3d2bc7a1	0.041938428
199	0xbda26110	-0.079286695
200	0xbd89a5d6	-0.06721084
201	0xbd87a361	-0.06622959
202	0xbdc21e40	-0.09478426
203	0x3d6bd158	0.057572693
204	0x3dc2cf7f	0.09512233
205	0xbd345912	-0.044030257
206	0x3daed63e	0.08536957
207	0x3d01f67f	0.031729218
208	0x3d52e0e5	0.051484007
209	0x3d965e20	0.07342172
210	0xbd3bec78	-0.04587981
211	0x3dcf8da4	0.10134438
212	0x3d41c7ed	0.047309805
213	0x3db924ae	0.09040199
214	0x3db8ccbb	0.09023424
215	0xbd393fc1	-0.045226816
216	0x3c5230dd	0.012829033
217	0x3d8187d1	0.06324733
218	0x3d0fe9aa	0.03513495
219	0x3d857c71	0.06517876
220	0xbb9e31a7	-0.0048276964
221	0xbd5b3605	-0.053518314
222	0x3d99aeb9	0.07504029
223	0xbd986bad	-0.074424125
224	0x3cdfdc4a	0.027326722
225	0x3d95f7e1	0.0732267
226	0xbce1b3ba	-0.02755152
227	0x3d949b32	0.07256164
228	0xbd8a3693	-0.067486905
229	0xbd496e2c	-0.049177334
230	0x392a92a7	0.00016267096
231	0xbd4fd65a	-0.05074153
232	0xbd79410a	-0.06085304
233	0x3dc99337	0.09842532
234	0xbc751df2	-0.014960753
235	0x3da0e03c	0.07855269
236	0xbcf94e67	-0.030432893
237	0xbd029ca6	-0.031887673
238	0xbd0db8ef	-0.034600195
239	0xbd942ed0	-0.07235491
240	0xbd92d011	-0.07168592
241	0x3d38f1b2	0.045152374
242	0x3d3c83a5	0.046023984
243	0x3daa263c	0.08308074
244	0xbc4b5728	-0.012410916
245	0xbc25ed00	-0.010127306
246	0x3db0d51c	0.086343974
247	0x3b9970d7	0.004682641
248	0x3c9e665f	0.019335924
249	0x3c23ee04	0.010005478
250	0x3d975c86	0.07390694
251	0xbd606fab	-0.054793995
252	0xbc1d3d0b	-0.009597073
253	0xbdb45a2e	-0.08806263
254	0x3dd01d50	0.10161841
255	0xbbb0cad7	-0.005395274

lstm.weight_hh_l1 f4 [256, 64]
0	0x3cca0c84	0.024664171
1	0x3d4d807f	0.05017137
2	0xbd9e77d2	-0.07737698
3	0xbd14c3f3	-0.036319684
4	0xbd5dbec1	-0.054136995
5	0x3d219605	0.03944971
6	0xbd33d057	-0.04389986
7	0xbd9fb52c	-0.07798228
8	0x3d8b788f	0.06810104
9	0xbc65cb72	-0.014025556
10	0x3d48cb08	0.04902175
11	0x3daed82c	0.08537325
12	0x3d24e71b	0.04025946
13	0xbd34f358	-0.044177383
14	0xbdae53dd	-0.085120894
15	0xbd62a270	-0.055330694
16	0xbdce08ba	-0.10060258
17	0x3db8dfd5	0.090270676
18	0xbc572c24	-0.013133083
19	0xbcb21b40	-0.02174151
20	0x3d88dae0	0.06682372
21	0x3da9c306	0.08289151
22	0x3d879702	0.06620599
23	0x3d2aa010	0.041656554
24	0xbd639e6d	-0.05557101
25	0x3ccabf4f	0.024749426
26	0x3da27ca1	0.07933927
27	0xbd7c81f5	-0.061647374
28	0xbdbb895f	-0.09157061
29	0xbdb8f5ea	-0.090312794
30	0x3d873be5	0.06603221
31	0x3cb5b717	0.02218203
32	0x3d88db5d	0.06682465
33	0xbd7bb6a7	-0.061453488
34	0xbdb566d2	-0.08857502
35	0xbc7088ab	-0.014681022
36	0x3d5c4a61	0.05378187
37	0xbd3d5f49	-0.04623345
38	0x3ce0847f	0.027406929
39	0xbd6908fa	-0.056893326
40	0x3cb96ec4	0.022635825
41	0xbd54dc8c	-0.051968142
42	0xbd99772f	-0.074934356
43	0xbd74004a	-0.05957059
44	0xbd7dc8d4	-0.061959103
45	0xbd07b7cd	-0.03313427
46	0xbd1199d7	-0.035547104
47	0xbd9ffaf9	-0.07811541
48	0x3cd891ee	0.026436772
49	0xbdc331d0	-0.09530985
50	0x3d500b9a	0.050792314
51	0xbd5b8aff	-0.053599354
52	0x3d54a227	0.051912453
53	0x3cbd9d48	0.023146287
54	0xbdab6a4a	-0.083698824
55	0xbc85045c	-0.01623743
56	0xbd31e846	-0.043434404
57	0xbdc09b5c	-0.094046324
58	0xbd579d74	-0.052640393
59	0xbd54a5b8	-0.051915854
60	0xbd9ecf32	-0.07754363
61	0x3bfcf987	0.0077201757
62	0x3d1c0cc9	0.03809813
63	0x3d3afeca	0.045653142
64	0x3ce41013	0.027839696
65	0xbcf3b3db	-0.029748848
66	0xbd58ca6c	-0.05292742
67	0xbd2c3f54	-0.042052582
68	0xbd88cf4c	-0.06680164
69	0x3db81994	0.08989254
70	0xbb8ff987	-0.0043937596
71	0x3dd6bb5c	0.10484955
72	0xbd4188ef	-0.04724973
73	0xbd2a73a3	-0.041614186
74	0x3c887ea1	0.016661944
75	0x3dba744a	0.09104212
76	0x3d057bc6	0.032588743
77	0x3da438d3	0.08018651
78	0xbd87cf65	-0.06631354
79	0x3d81fb58	0.06346768
80	0x3d44405e	0.047912948
81	0xbd990c4a	-0.07473047
82	0xbdc52894	-0.0962688
83	0x3d82ab2a	0.06380303
84	0xbdd15fd7	-0.10223358
85	0xbd48860c	-0.048955962
86	0xbd52fd32	-0.051510997
87	0xbd9cb08d	-0.07650862
88	0x3c9957c5	0.01871861
89	0xbd7140cb	-0.058899682
90	0x3d72cd97	0.059278097
91	0xbd461d75	-0.048367936
92	0x3c5ee555	0.013604482
93	0xbd94235b	-0.07233306
94	0x3ca34b2d	0.019933308
95	0x3c094c19	0.0083799595
96	0x3d1755e1	0.036947135
97	0x3ca28952	0.01984087
98	0x3dbb7126	0.09152441
99	0xbc873e72	-0.016509268
100	0x3dd57a7c	0.10423753
101	0xbd090d02	-0.03345967
102	0xbcab93e1	-0.020944538
103	0x3ca5e483	0.020250564
104	0xbd61433e	-0.054995768
105	0x3d83d364	0.06436804
106	0xbd26f268	-0.04075852
107	0xbd789587	-0.060689475
108	0xbd537ec3	-0.05163456
109	0xbd68fee6	-0.056883715
110	0x3da4a782	0.08039762
111	0xbd87bfb9	-0.06628365
112	0x3dc6fce3	0.09716203
113	0xbcd8a5c7	-0.026446236
114	0x3c7218d1	0.0147764245
115	0x3dca97d9	0.09892244
116	0xbd3fd842	-0.0468371
117	0xbd965578	-0.073405206
118	0x3cc0089b	0.023441603
119	0x3d6fcaa3	0.05854286
120	0xbd97bd16	-0.07409112
121	0xbc8ec8b6	-0.01742969
122	0xbd545d5a	-0.05184684
123	0xbd64bc61	-0.055843715
124	0x3c81b4c7	0.015833272
125	0xbd8d0142	-0.068850055
126	0x3d49f0e7	0.049302008
127	0xbd0e2ef7	-0.034712758
128	0x3cbc844d	0.023012305
129	0xbc2736ce	-0.010205938
130	0xbdb3c06b	-0.08776935
131	0x3dcd6c76	0.10030453
132	0xbd1a73d3	-0.037708115
133	0xbd86eadb	-0.06587764
134	0x3d89637d	0.06708429
135	0xbd94b087	-0.072602324
136	0xbd853208	-0.06503683
137	0x3c889356	0.016671818
138	0xba00688d	-0.0004898392
139	0xbd86d84c	-0.06584224
140	0xbda4e178	-0.08050817
141	0xbd85c0eb	-0.06530937
142	0x3c55e171	0.013054238
143	0xbd270bb7	-0.040782657
144	0xbd50fec6	-0.05102422
145	0xbd58955d	-0.05287682
146	0xbdd4dc5e	-0.10393594
147	0x3cccfc62	0.02502269
148	0x3d4cf253	0.050035786
149	0xbd456d56	-0.048199974
150	0xbb347fc5	-0.0027541977
151	0x3d8a93ba	0.06766458
152	0x3c0bd49e	0.008534579
153	0x3d0c1d1b	0.034207445
154	0xbd2eb6bf	-0.04265475
155	0x3cf34093	0.029693877
156	0xbc7d397e	-0.015455602
157	0x3dd4ca30	0.10390127
158	0x3d846b85	0.0646582
159	0x3dc0bf72	0.09411515
160	0x3c908503	0.01764155
161	0x3b9bff48	0.0047606565
162	0xbd9e4646	-0.07728247
163	0x3d66ebe5	0.05637731
164	0xbd0e1f37	-0.034697738
165	0xbd63531e	-0.05549919
166	0x3dac2251	0.08404983
167	0xbd818a21	-0.06325174
168	0xbcc2514e	-0.02372041
169	0xbce3296f	-0.027729718
170	0x3dbcb785	0.09214691
171	0x3d1e2d7e	0.038617603
172	0xbdab4be2	-0.08364083
173	0xbd6a1e9c	-0.057158098
174	0xbd8be21f	-0.068302386
175	0xbdd1fed7	-0.10253685
176	0xbd8c6e29	-0.06856949
177	0x3c0454ba	0.008076841
178	0x3c0ffb4e	0.008787943
179	0x3c15d0ec	0.009144049
180	0x3c8c6c61	0.017141523
181	0x3da29943	0.079393886
182	0x3db67e5d	0.08910821
183	0xbdaf638d	-0.0856391
184	0xbdcc74af	-0.09983193
185	0x3dd2d215	0.10293976
186	0xbce15dc2	-0.027510528
187	0xbac3353b	-0.0014893183
188	0xbd9ccad3	-0.07655873
189	0xbceb8c24	-0.028753348
190	0x3d513596	0.051076494
191	0xbb6a1f27	-0.0035724135
192	0x3dd0dc12	0.10198225
193	0xbd0acc69	-0.033886347
194	0xbda80c16	-0.0820543
195	0x3cd5f01a	0.026115466
196	0x3dcd16ed	0.10014138
197	0x3d3c8a0a	0.04603008
198	0x3d819967	0.06328087
199	0x3dcff614	0.101543576
200	0x3bc369c8	0.005963538
201	0x3d6e2123	0.05813707
202	0x3d38d15d	0.04512154
203	0x3d714ae9	0.05890933
204	0x3ce1ecbd	0.027578706
205	0x3cd54fef	0.026039092
206	0x3d9cffb6	0.076659605
207	0x3d4096f2	0.047018953
208	0xbdc959ed	-0.09831605
209	0xbd12baa0	-0.03582251
210	0x3c47a51b	0.01218536
211	0xbdc9c14b	-0.09851321
212	0x3ceae18d	0.028672004
213	0x3d6fd80c	0.058555648
214	0xbd12f414	-0.035877302
215	0x3bde3870	0.00678163
216	0xb95c897c	-0.00021032052
217	0xbdcac8c6	-0.09901576
218	0x3d92a092	0.071595326
219	0x3b200935	0.002441955
220	0x3d42cf8d	0.047561217
221	0xbca09573	-0.019602513
222	0xbd497417	-0.049182978
223	0x3d30baea	0.043147005
224	0xbcfa4c5c	-0.03055399
225	0xbdb1ee5e	-0.08688043
226	0x3ca8191d	0.020519787
227	0xbd4b1b1a	-0.049586393
228	0xbdc8eef5	-0.098112024
229	0x3d9da151	0.07696784
230	0xbd43f6b0	-0.04784268
231	0x3c56f4a1	0.0131198475
232	0x3db4eef3	0.088346384
233	0xbd967776	-0.07347004
234	0x3d886140	0.06659174
235	0xbd210d44	-0.03931929
236	0xbd877526	-0.06614141
237	0xbd9cea93	-0.07661929
238	0xbd00cf17	-0.031447496
239	0x3cccd8cb	0.025005719
240	0x3c4a917b	0.012363787
241	0x3dd51d9a	0.10406037
242	0xbc125d6c	-0.008933406
243	0x3d85affb	0.06527706
244	0xbce28b13	-0.027654206
245	0x3d9eba17	0.077503376
246	0xbd2407cc	-0.0400465
247	0x3d899298	0.06717414
248	0xbc1f130b	-0.00970913
249	0x3d4f9bdf	0.05068576
250	0x3c6c336b	0.014416556
251	0x3dade030	0.08490026
252	0x3d974cdb	0.07387706
253	0x3c6b54a1	0.014363439
254	0x3d631518	0.05544004
255	0x3d8594b0	0.065225005

lstm.bias_ih_l1 f4 [256]
0	0xbdbf20a3	-0.09332397
1	0xbcf2e036	-0.029647928
2	0xbd931fa1	-0.07183767
3	0x3d04837b	0.032351952
4	0xbd38f86a	-0.04515878
5	0xbd8add11	-0.06780446
6	0xbd2f27d9	-0.04276261
7	0xbceaa2da	-0.028642107
8	0xbdc9e246	-0.09857611
9	0x3c98eeb9	0.01866852
10	0x3bde6f02	0.0067881355
11	0x3d022319	0.031771753
12	0xbdcb59e5	-0.099292554
13	0x3dc5064b	0.09620341
14	0xbd9e57ba	-0.07731576
15	0xbd55791a	-0.052117445
16	0xbdcb8c90	-0.099389195
17	0x3d8acdb4	0.06777516
18	0xbc963887	-0.018337501
19	0xbbbe916f	-0.005815677
20	0x3d3d776b	0.046256464
21	0xbdb73f59	-0.089476295
22	0x3cc0f10e	0.023552444
23	0x3d62d221	0.055376176
24	0x3ca2a491	0.019853862
25	0x3d288848	0.041145593
26	0x3daea82b	0.08528169
27	0xbd225582	-0.039632328
28	0xbc4ffa59	-0.012693965
29	0x3d56bfdb	0.05242906
30	0x3d6edff5	0.05831905
31	0xbd914177	-0.070925646
32	0xbda668e1	-0.08125473
33	0x3d12b60f	0.035818156
34	0xbce729f3	-0.028218245
35	0xbd668498	-0.056278795
36	0xbd9a8ba9	-0.07546169
37	0xbc80f039	-0.015739547
38	0xbd09cc35	-0.033642013
39	0x3db7e09c	0.08978388
40	0x3d882221	0.066471346
41	0xbd6d73f9	-0.05797193
42	0x3d5cb0d1	0.053879563
43	0xbcc62e30	-0.024191946
44	0x3a8a2d6e	0.0010542104
45	0xbd81ee49	-0.063442774
46	0xbd687dc7	-0.056760576
47	0xbd916673	-0.07099619
48	0x3c2aa664	0.010415647
49	0xbda95dad	-0.0826982
50	0x3d8e1ea6	0.069394395
51	0xbcf1a7f0	-0.029499024
52	0xbca03348	-0.019555703
53	0x3d54c08e	0.051941447
54	0x3cd31b3e	0.025769826
55	0x3d8eee1f	0.06979012
56	0xbd8dee9a	-0.06930275
57	0x3d66b5e7	0.05632582
58	0x3bc86696	0.006115745
59	0x3db2247e	0.086983666
60	0x3db53cff	0.08849525
61	0x3d00e56f	0.031468805
62	0x3dd567b6	0.10420172
63	0xbd8cc961	-0.068743475
64	0xbd73e757	-0.059546795
65	0xbdacafcb	-0.08431967
66	0xbd3bbf9e	-0.045837037
67	0x3c51972e	0.012792392
68	0xbd15ab1e	-0.036540143
69	0xbd503f8e	-0.05084186
70	0x3da5f9cd	0.08104286
71	0x3ce1c57b	0.027559986
72	0xbdba767e	-0.09104632
73	0x3d83898e	0.06422721
74	0x3cd1fdaf	0.025633661
75	0x3b7a6541	0.0038207325
76	0xbd01b2d5	-0.03166469
77	0xbdc86793	-0.0978538
78	0x3d966c77	0.07344907
79	0xb9847031	-0.0002526059
80	0xbca6d425	-0.02036483
81	0x3b1bdc32	0.002378237
82	0x3ccf5ceb	0.025312861
83	0xbdc6177c	-0.09672448
84	0xbda87203	-0.08224871
85	0x3d861e0c	0.065487
86	0x3d13abe0	0.036052585
87	0xbd0ffe88	-0.03515485
88	0xbd47b222	-0.048753865
89	0xbd74fbe7	-0.059810545
90	0x3dd707f2	0.10499562
91	0x3db2ddf3	0.0873374
92	0x3d8bf0e8	0.068330586
93	0xbd22c164	-0.039735213
94	0x3dab4866	0.08363418
95	0x3d87bbdf	0.066276304
96	0xbdbb7bd0	-0.09154475
97	0xbca14e66	-0.019690704
98	0xbc83f8bb	-0.016109815
99	0xbd928af0	-0.071554065
100	0xbd420661	-0.047369365
101	0xbdcab809	-0.09898383
102	0x3c6a4559	0.01429876
103	0xbd965bae	-0.07341705
104	0xbdb041a1	-0.08606268
105	0x3d843f15	0.064573444
106	0x3da85cf9	0.08220858
107	0xbcc5ee16	-0.02416138
108	0x3d8c0d99	0.06838531
109	0x3d7f10da	0.06227193
110	0x3c2d777f	0.010587572
111	0xbc439c53	-0.011939126
112	0xbd415a2e	-0.047205143
113	0x3d10d681	0.035360817
114	0xbcb29072	-0.021797393
115	0xbd30edc7	-0.043195512
116	0xbd93737a	-0.0719976
117	0xbdc938a0	-0.098252535
118	0xbcec72b9	-0.028863298
119	0x3d6020ca	0.05471877
120	0x3d83b94b	0.06431826
121	0x3d947b0e	0.07250033
122	0xbdc22815	-0.09480301
123	0x3dcc71f7	0.099826746
124	0xbc0d4779	-0.008622997
125	0x3d1b597e	0.037927143
126	0xbc9f83c2	-0.019472007
127	0xbdb01a86	-0.08598809
128	0xbdc86f2b	-0.097868286
129	0x3cc60ebf	0.024176953
130	0xbd37266a	-0.04471437
131	0xbcd74faa	-0.026283104
132	0x3db59e57	0.088680916
133	0xbdd83ec7	-0.10558849
134	0xbc35dd52	-0.01110013
135	0xbd18f176	-0.03733965
136	0xbd90b44d	-0.0706564
137	0x3d572213	0.05252273
138	0xba39b05a	-0.00070834684
139	0xb92e8e4e	-0.00016646946
140	0xbdd7bdd7	-0.10534256
141	0x3d95762e	0.072979316
142	0x3d97f833	0.07420387
143	0x3ca90bf7	0.020635588
144	0xbd547026	-0.051864766
145	0xbd1dfb2f	-0.038569625
146	0x3d8827bd	0.066482045
147	0xbd4b130e	-0.04957872
148	0xbd0e55d3	-0.034749817
149	0xbc1f4fb8	-0.009723596
150	0x3ca83ff7	0.020538313
151	0x3d80dba5	0.06291894
152	0xbd8648c8	-0.06556851
153	0xbd139543	-0.03603102
154	0x3d9747cc	0.07386741
155	0xbc9a35bf	-0.018824456
156	0xbdaaced4	-0.083402306
157	0xbc87c29b	-0.016572287
158	0xbdda18f2	-0.10649289
159	0xbd3786a7	-0.04480615
160	0xbd9a2a57	-0.07527607
161	0xbc796192	-0.0152210165
162	0x3d411d93	0.047147345
163	0xba5d4d46	-0.00084419956
164	0x3bc2780d	0.0059347213
165	0xbd3fc774	-0.046821073
166	0xbaec0adb	-0.0018008606
167	0x3d6e834d	0.058230687
168	0xbc71205d	-0.014717189
169	0x3d8a9bf8	0.0676803
170	0x3d6f1ae7	0.058375265
171	0x3d9a4670	0.07532966
172	0x3dcc526b	0.099766575
173	0xbb9d445c	-0.004799409
174	0xbd1ccad4	-0.03827937
175	0x3d88a619	0.066723056
176	0x3cb0f5f1	0.021601649
177	0xbd1850ba	-0.03718636
178	0x3da32bc9	0.07967336
179	0xbd4da6f0	-0.050208032
180	0xbdd68c36	-0.10475962
181	0x3d64183c	0.055687174
182	0xbd8be85e	-0.0683143
183	0x3c5c70a1	0.013454587
184	0x3c36a65a	0.01114806
185	0xbdc8fc0e	-0.098137006
186	0x3ca39203	0.019967085
187	0x3a15d99f	0.0005716327
188	0xbd8e19a7	-0.069384865
189	0x3dbce321	0.09223009
190	0xbd66a9cb	-0.05631427
191	0x3d1cb5e3	0.0382594
192	0xbdb6de47	-0.08929115
193	0xbd890d05	-0.066919364
194	0x3d8315d3	0.06400647
195	0x3cd48a02	0.025944714
196	0x3d36b6a3	0.04460777
197	0xbd949e19	-0.07256717
198	0xbd2614d1	-0.040547196
199	0x3da28329	0.07935173
200	0xbdb9487e	-0.0904703
201	0x3c6444b3	0.013932395
202	0xbdbe1dc3	-0.0928302
203	0xbdb3b0b8	-0.08773941
204	0x3ad05b6c	0.0015896386
205	0xbda6628f	-0.08124267
206	0x3d8d4740	0.068983555
207	0xbd16f05c	-0.03685032
208	0x3d3f5b85	0.04671814
209	0x3ce993c6	0.028512847
210	0xbda6c411	-0.081428654
211	0x3dd4d8b6	0.10392897
212	0x3d96f449	0.073708124
213	0xbdc81a60	-0.09770656
214	0x3d9cb0c7	0.07650905
215	0x3d1beaf7	0.038065877
216	0xbc515fc8	-0.012779184
217	0x3d3de737	0.04636308
218	0x3d74fc3b	0.05981086
219	0xbd994128	-0.07483131
220	0xbd489c09	-0.04897693
221	0xbcea89c6	-0.028630149
222	0x3dc0603b	0.093933545
223	0x3d4d17f8	0.050071687
224	0xbda90959	-0.08253736
225	0x3dbfa121	0.09356905
226	0xbd2f0118	-0.042725652
227	0x3db61e9f	0.08892559
228	0x3d8d60f1	0.06903256
229	0x3be1bc95	0.006888936
230	0x3dc7e977	0.09761327
231	0x3d2e56a3	0.042563092
232	0xbcf486d5	-0.02984945
233	0xbdc87320	-0.09787583
234	0x3da947fb	0.08265682
235	0x3d81934d	0.063269235
236	0xbc8adc23	-0.016950672
237	0xbd228e72	-0.039686628
238	0xbc9781d3	-0.018494522
239	0x3b414126	0.0029488294
240	0xbcab826e	-0.020936217
241	0xbd5aa989	-0.053384338
242	0xbb81237d	-0.003940998
243	0xbd8480a2	-0.06469847
244	0xbd8dd7ac	-0.06925902
245	0x3dbe9617	0.09305971
246	0xbd5ac9d0	-0.05341512
247	0xbd45ec79	-0.04832122
248	0xbd41e02e	-0.047332935
249	0xbd32c459	-0.043644283
250	0xbda471db	-0.08029529
251	0xbdcbf7f3	-0.09959402
252	0x3d940ddc	0.07229206
253	0xbd85ad77	-0.065272264
254	0x3d14ff39	0.03637621
255	0xbd26de0b	-0.0407391
