trained networks/6175.pt (torch_old, 484808 bytes, 18 tensors)

lstm.weight_ih_l0 f4 [256, 12]
00000000: af58 c5bd 60c9 96bc f76b 56bd dada adbd
00000010: 391a a3bc 1c44 86bd 0735 91bd 8ac0 babd
00000020: ee80 8dbd 1b02 223d 3d75 b73d ea7c a23d
00000030: a3de 5abb 4b47 2cbd adff edbc 1850 d5bd
00000040: 246c 97bd ec40 38bc e21a b5bc b8ca d5bd
00000050: a6a1 903d 03c3 f73c d96c c1bd e1b2 bb3d
00000060: 4edb 3c3d 7c3f b23c 3f2a dbbc d34c 1abd
00000070: 4158 9abd 8390 d0bc 02e5 913d 2ce0 30bd
00000080: d934 a3bd cc15 78bd 6069 cbbd 6a04 ccbd
00000090: 3e4d 8e3d 9db4 223d 326e 99bd 56a1 033d
000000a0: ba14 993d 8c63 583b fe00 38bd 0362 893d
000000b0: 61cd c03d 86b3 babd e8f9 7cbd 2afd bebd
000000c0: 8188 3ebd 42c4 a73d c752 823a cb27 bf3d
000000d0: 934d 24bd d10d 9abc 2e5e 333b 27c9 24bb
000000e0: 1d57 82bc 9a96 0a3d 3a8c 4abd c408 0fbd
000000f0: 0d93 cf3d d750 cdbd 0cff 28bd 8c35 5dbd
00000100: 1281 d33d 4c40 083d 517e 9cbc c6be 8cbd
00000110: 83bf a73d de5d a73a f5c9 923d bbe4 f0bb
00000120: 7ff7 223c 0709 cf3d 45eb 2b3d 21fa 00bd
00000130: 8700 b73d 70a5 76bb c751 0fbd 6345 b33d
00000140: 60ea 4f3d 76e2 08bd abb8 8e3d d768 f4bc
00000150: 071f c03d 3aba 9d3d 3887 c43d ff49 94bd
00000160: 8fde c43d 569e 04bd 7d94 d23d bf04 b2bd
00000170: 6fe1 25bc 2df3 0ebc 60a9 00bd 567e 07bb
00000180: ac87 563d 5438 043d 4141 c4bc 0cbd 5a3d
00000190: d04c 7abd f492 b0bc d4b8 bbbd f315 8d3d
000001a0: 7023 2f3c e1e6 5f3d 852a ad3d c52b c03d
000001b0: 85a9 5f3c d4c6 b8bd 158c a0bd a791 88bc
000001c0: 03dc 69bd 5ff5 89bd d18d a1bd e359 623d
000001d0: 2bb0 cc3d 75b1 91ba 410c ac3d cc4e 873d
000001e0: 0d1b c83d 0c11 f13b 8ddb cd3d 2bf1 95bd
000001f0: 4d09 513b 9085 813d acfa 9d3c 4ac4 73bd
00000200: 2b49 903d 2e90 c9bc 7898 d0bd e5c1 593c
00000210: 61b5 84bd a1c0 18bc 55f8 0abd 5200 f5bc
00000220: 8c2b 2b3c 2e9d e53b e75c 773d a065 24bd
00000230: ad18 953c 088d 12bd 75ab a13d 4bc1 7c3c
00000240: f95b 85bd 9c2b 083c b020 cdbc 32f8 9ebd
00000250: 8b75 63bd a181 04bd 50c3 3f3b edd4 91bb
00000260: b84c 823d b0e4 c03d e0e7 a9bd ca35 5abd
00000270: 547d c8bd f909 953d 1b18 253b b3f7 b93d
00000280: 48ce 923d a0f8 8f3d 4cbe 51bd c306 783d
00000290: ab1f 2d3d b9ed d2bd 1c73 45bd 00f3 073d
000002a0: f4b1 85bc 5545 d1bd 5a0a 13bd f214 d5bb
000002b0: 8b1b ac3c 9bac babd aace cfbd c3e8 46bd
000002c0: 0262 583b 2b3e 0e3d 7cc1 9e3a d970 a4bd
000002d0: ae4f ad3d 8fe9 fabc 11eb 593d 56c9 c03d
000002e0: b041 5f3d 08b3 7dbd 9c9b 1dbc c858 8cbc
000002f0: e011 d33d 3bce 06bd b11e bcbd 172c 9e3d
00000300: 6e8f b0bc 2994 d43d acf1 803d 5bb8 b43c
00000310: 4cf3 6a3d 0db0 9abd b741 4f3d 28b5 61bc
00000320: 8c0a 29bd f426 adbc 5c70 1b3b d0cb 423d
00000330: 1c92 b7bd 2e72 9439 d61d 0fbd 6795 363c
00000340: 6d6d 13bd 362c 953d 674b 39bd 7e9d 493d
00000350: a9bf 5abd 9a93 a3bd d6ca a83a b7ae 3e3d
00000360: ed03 8fbd 3de4 493d 3b35 a8bd e9c2 3c3d
00000370: 4a61 c73d 8325 c53d e761 d23d 1afa 9d3d
00000380: f7ed 4ebb ad69 063b af82 ac3d 0549 3abd
00000390: 5d1f 3abd 678a 96bd acac 003d 92ad 16b9
000003a0: dfbd 723d 5b95 753d fb42 d2bc 3c87 6c3d
000003b0: ee93 a9bc 47f8 a7bd 9235 c7bd a98c 55bd
000003c0: 6524 c83d f03a 183d 4934 ecbc 0cc4 7d3d
000003d0: 8507 57bd a001 9ebc 5ebc 8b3c 8dd5 bdbc
000003e0: 512f b63d 073f babd 6dc9 b5bc 4e3f c53d
000003f0: f2f9 323d 6448 993c 53ab ba3c d326 90bd
-0.09636056 -0.01840657 -0.052349057 -0.08489008 -0.019909965 -0.065559596 -0.07090192 -0.09118755
-0.06909357 0.03955279 0.08957908 0.07933982 -0.0033396862 -0.042060178 -0.02905258 -0.10415667
-0.07393673 -0.011245947 -0.022107545 -0.10439056 0.07062082 0.030244356 -0.09444589 0.09164978
0.046107583 0.021758787 -0.026753543 -0.03767092 -0.07536364 -0.025459534 0.07123758 -0.043182537
-0.07969064 -0.060567662 -0.09932208 -0.099617794 0.069483265 0.039723027 -0.07491721 0.032136284
0.074746564 0.003301832 -0.04492282 0.067081474 0.09414173 -0.09116273 -0.061761767 -0.09325631
-0.0465169 0.0819173 0.0009942882 0.09333762 -0.040113043 -0.018805416 0.0027369368 -0.002514431
-0.01591068 0.03383503 -0.049450137 -0.03492047 0.101354696 -0.100251846 -0.041258857 -0.054006144
0.103273526 0.033264443 -0.019103201 -0.06872325 0.08190825 0.0012769063 0.071674265 -0.0073514855
0.009946703 0.10109144 0.041972417 -0.03148854 0.089356475 -0.003763523 -0.0349901 0.08753469
0.050760627 -0.033419095 0.06968816 -0.029835148 0.09380918 0.077015355 0.095961034 -0.07240676
0.09612762 -0.032377563 0.10282228 -0.086923115 -0.010124548 -0.00872497 -0.03141153 -0.0020674667
0.05237548 0.03228028 -0.023956897 0.053402945 -0.06110841 -0.021554448 -0.091661125 0.06888952
0.010689601 0.054663543 0.084553756 0.093833484 0.013651256 -0.090222985 -0.078392185 -0.016671015
-0.057094585 -0.06736254 -0.078883775 0.055261504 0.09994539 -0.0011115508 0.08400775 0.06606826
0.097707845 0.0073567685 0.100516416 -0.0732139 0.0031896413 0.06324303 0.019284569 -0.059513368
0.07045206 -0.024604883 -0.10185331 0.013290857 -0.06479908 -0.00932327 -0.033928234 -0.02990738
0.010447394 0.0070072627 0.060391333 -0.04013598 0.018200243 -0.03577903 0.07894031 0.015426944
-0.06511683 0.008311179 -0.02504 -0.07762183 -0.05553202 -0.032350186 0.0029260702 -0.0044504316
0.06362289 0.09418619 -0.0829618 -0.053273953 -0.097895294 0.07277293 0.002519137 0.09080448
0.07168251 0.07029843 -0.051206872 0.060553323 0.04226653 -0.10299248 -0.04820548 0.033190727
-0.016320206 -0.10218302 -0.035898544 -0.006502741 0.021009227 -0.09114953 -0.1014684 -0.048561823
0.0033017402 0.034727257 0.0012112106 -0.080293365 0.08462463 -0.030628948 0.053202692 0.09413402
0.054506004 -0.061938316 -0.00961962 -0.017132178 0.10306144 -0.03291152 -0.091855414 0.07723253
-0.021552768 0.10379822 0.06296095 0.022060564 0.057360932 -0.0755311 0.05059978 -0.013776101
-0.041269824 -0.021136738 0.0023718094 0.047557652 -0.08963415 0.0002831383 -0.034940563 0.011144019
-0.03599303 0.07283823 -0.045237925 0.049222462 -0.053405438 -0.07987137 0.0012877833 0.04655334
-0.06983171 0.04928993 -0.08213278 0.04608432 0.09735353 0.096262954 0.1027258 0.07713719
-0.0031574944 0.0020509765 0.084233634 -0.045479793 -0.045440067 -0.07350617 0.031414673 -0.00014369775
0.059263106 0.05995689 -0.025666704 0.057746157 -0.020700421 -0.08201652 -0.097270146 -0.052136097
0.09772567 0.037165582 -0.028833525 0.061954543 -0.052497406 -0.019287884 0.017057594 -0.023173118
0.08895744 -0.09094053 -0.022190774 0.09631215 0.043695398 0.018711276 0.022786772 -0.07038655

lstm.weight_hh_l0 f4 [256, 64]
00000000: 892e 7abd ffd7 783c 6222 b3bd 2d10 c13c
00000010: 3b85 aaba 2d82 e73c c878 d53d 2840 c8bd
00000020: 34d9 9eba aed3 9e3d 0f1e 3dbd 78eb d3bd
00000030: 8349 1fbd c535 49bd 6e85 4abd b759 323d
00000040: 5ece fbbc 7d49 9fbc 6435 cd3d 4bf6 cfbd
00000050: 648b 603d 0949 7fbd 60ab 99bd db45 bc3d
00000060: b5dc c3bd 8462 1fbc 41c1 f43c 080d c0bd
00000070: 94b1 74bd 4d68 94bd 20ee d83b f654 9e3d
00000080: c8a5 b8bc e784 4c3d a1ba c43d 253b 063d
00000090: 8710 b5bd ac35 cdbd 315e 363d 00cf 98bc
000000a0: 01d7 abbc 1ad2 083c c0a7 fb3c 639f 36bd
000000b0: 0fe2 0abd 9261 6e3d 0d21 033d 2026 493d
000000c0: 3fc1 9e3c 96be 7fbd 0acb 80bd 09f5 a0bd
000000d0: f83b d5bd 1294 8bbd 095b ccbd 1e36 313c
000000e0: 7f75 d1bd 5ffa 9fbb 987a aabc 72c8 78bd
000000f0: cd8e bbbd f173 7bbd fb49 043d 1c67 8a3d
00000100: 1e07 603d f9da 59bc b59b 223d 99d1 243d
00000110: baec f13c 0dcb e1bc 9f47 903c 617e 91bd
00000120: 0ec0 273c 67a6 6a3d d015 323d 5004 623d
00000130: f066 d43c c4bd e5bc 1bb3 363d 6694 f7bc
00000140: 61b3 d4bd 956b 233d c407 7fbd 002c 20bd
00000150: 2a18 7ebd 79a7 8ebd 6651 c1bc 5d5c 8a3d
00000160: f712 003d df5c 89bd 08e7 d93b d0bb a6bd
00000170: c764 3a3c 08a1 c8b8 6f9e 883d 01ca 9dbd
00000180: 7b1d aebd 1e36 863d 482d aebd 8834 5e3d
00000190: 6de7 80bd e0e6 8e3d 55c8 4f3d 4a2a 3e3d
000001a0: 61b9 01bd 0c01 cebb b2fb 32bc 8478 c93d
000001b0: 2c7a 8f3d a672 89bd a644 96bd edfa 82bd
000001c0: 411e 973d 12e7 f03c f880 a83d 861c cc3d
000001d0: 12ec bdbd 4ed7 313d 03f3 933d 974a 0a3d
000001e0: d7a5 903c be94 613c eac8 cdbc 0a68 853b
000001f0: 7bbc 2f3d d36e afbb f609 3abd 2f31 c63d
00000200: 3e18 ba3c 9045 44bc 8fd1 14bd 37cd 31bd
00000210: 9f5a c73d 69f6 733d ffa4 b3bd a00a cebd
00000220: fb60 b53d 6b17 dabc 5e05 993c 455b 32bd
00000230: 0dad e6bc b4f5 293d 8a72 b43d 636e 363d
00000240: ffb1 62bd 701e a83d 774f d7bc 9022 00bd
00000250: d414 163d 97aa 4c3c dbb2 c8bd c189 dbbb
00000260: b87d 943b 94ea c93b fd98 5d3d c0a7 b23b
00000270: 3e31 d43d b1cc 293d a0f3 8b3d 7a57 a33d
00000280: 48f1 a53d eec8 853d abd5 85bd 0ba4 39bd
00000290: 3460 9bbc 8ae3 8139 4c5d bf3d ed11 c93c
000002a0: 1d5d c1bc 1f3c 013d 2cce dfba 46b7 6c3c
000002b0: 38f9 cc3d 0ea6 c5bd 47e8 c1bc 4671 2b3d
000002c0: fe30 ad3c 2888 0fbd 7ec4 443d cafa 6cbd
000002d0: b8d1 37bd 84a3 b73d 69b7 163b 83cf 433d
000002e0: 2765 be3d d7a4 873c f09b d7bb 5899 b43d
000002f0: c907 1d3d 519f d6bc 4def a5bd e66e a13c
00000300: 8e1a 9bbc 59d7 9ebd 6462 44bc 8131 303d
00000310: c536 853d 35cc cdbd 9c76 84bd 055e 4e3d
00000320: d4b6 33bd d319 463d ed83 8dbd e6fb 883c
00000330: 01a5 a6bb e1c9 013c 332a 37bd 7314 433d
00000340: 7701 d4bd 969d 3f3c 08c9 a63c c95d a73d
00000350: 9a46 35bd efd4 4b3d c19c 93bd b6d6 9abd
00000360: 1428 0f3c a271 93bd 31c6 8e3d e4e4 afbc
00000370: 1f43 59bd 677a a63d 1eac 5bbc 8831 593d
00000380: c7bf 99bd 7e71 083d 6dc6 24bd 33c0 903d
00000390: 892f 10bc 2e5c 73bc 8971 443d 91f0 05bd
000003a0: fb0b 02bd 5e8e 77bb 6ea4 95bc 709b d13d
000003b0: 0694 97bd 8b9f bb3c 4885 53bd b4f3 e83c
000003c0: c6bd 05bd f629 403c 3bdf 2e3d ae1b 8fbd
000003d0: 7829 3e3d 8a70 3b3d 9492 5f3b f59f bf3d
000003e0: 9c87 f33c 3ae5 e6bc 821c a7bc c98f 933d
000003f0: 41e1 9b3d ff11 8e3d 545f d03a b0a9 2fbd
-0.061079536 0.015188216 -0.087467924 0.023567284 -0.0013009676 0.028260315 0.10423428 -0.09777862
-0.0012119175 0.077552184 -0.046171244 -0.103476465 -0.038888466 -0.049123544 -0.049443655 0.04354259
-0.030738052 -0.019444222 0.10019949 -0.101543985 0.054820433 -0.06232551 -0.0750339 0.091930114
-0.09563581 -0.009728078 0.029877307 -0.093774855 -0.059739664 -0.07246456 0.0066201836 0.07731049
-0.022539988 0.049931433 0.09605909 0.03277125 -0.08841043 -0.10020003 0.04452342 -0.018653393
-0.020976545 0.008350873 0.030719638 -0.044585597 -0.033906993 0.05819852 0.03201394 0.049108624
0.019379256 -0.062437616 -0.06288727 -0.07859237 -0.10411829 -0.068153515 -0.09978301 0.010816125
-0.10227489 -0.0048821415 -0.02081041 -0.060738035 -0.091580965 -0.061389867 0.032297116 0.06757948
0.054694287 -0.013296836 0.039699275 0.04023895 0.029531825 -0.027562642 0.017612277 -0.07104183
0.0102386605 0.0572876 0.043477833 0.055179894 0.02592799 -0.028044589 0.044604402 -0.03022213
-0.10385776 0.03989752 -0.062263265 -0.03910446 -0.062034763 -0.069655366 -0.023598384 0.06755898
0.031268086 -0.06707167 0.0066498555 -0.08141291 0.011376566 -9.5667376e-05 0.06670844 -0.07704545
-0.08501717 0.06553291 -0.085047305 0.054249316 -0.06294141 0.0697763 0.05072816 0.04642705
-0.03167093 -0.006286746 -0.010924267 0.0983744 0.07005724 -0.067113206 -0.073373124 -0.063955165
0.07378817 0.029407058 0.08227724 0.09966378 -0.092735425 0.04341822 0.07224085 0.03376254
0.017657204 0.013768373 -0.025120217 0.0040712403 0.04290436 -0.0053537874 -0.045419656 0.0967735
0.022716638 -0.011979476 -0.036332663 -0.0434086 0.097340815 0.059561167 -0.08771705 -0.1006062
0.08856388 -0.026622495 0.018679317 -0.043544073 -0.028158689 0.041494086 0.08810909 0.044538867
-0.05534553 0.082089305 -0.026283009 -0.03128296 0.036640957 0.012491844 -0.09799739 -0.006699771
0.0045315884 0.006161997 0.05410098 0.0054521263 0.10360955 0.041454975 0.06833577 0.07975669
0.08102661 0.06532465 -0.065348946 -0.04532246 -0.018966772 0.00024774327 0.09343967 0.02454468
-0.02360397 0.031551477 -0.0017074994 0.014447993 0.10008472 -0.09650813 -0.023670329 0.041856073
0.021141525 -0.035041958 0.048038952 -0.05785636 -0.044877738 0.08966735 0.0022997505 0.04780532
0.09296637 0.016558094 -0.0065798685 0.088183105 0.038337503 -0.026199015 -0.081022836 0.0197062
-0.01893356 -0.07755918 -0.011986349 0.04301596 0.06504587 -0.10048715 -0.064679354 0.050382633
-0.04387553 0.04836447 -0.069099285 0.016721677 -0.005085588 0.007921667 -0.04471798 0.047626924
-0.10351842 0.011695286 0.020359531 0.08172185 -0.044256784 0.049763616 -0.07207633 -0.07560484
0.008737583 -0.07199408 0.06971396 -0.021471448 -0.053042527 0.08128815 -0.013407735 0.053025752
-0.07507282 0.03331136 -0.040228296 0.07067909 -0.008800396 -0.01485352 0.047959838 -0.032700125
-0.031749707 -0.0037774066 -0.018266883 0.102347255 -0.0740128 0.022903224 -0.05164078 0.02843652
-0.032651685 0.011728754 0.042693358 -0.06987701 0.046426266 0.045761622 0.0034114467 0.09356681
0.02972775 -0.028185476 -0.020399336 0.07205159 0.07611323 0.06937026 0.0015897551 -0.042886436

lstm.bias_ih_l0 f4 [256]
00000000: dc68 ba3d 4e9a 1d3d 9f37 b23d 2632 353d
00000010: d72e e93a 71e2 963b 3ce0 773d 627b b0bd
00000020: 5eaf 86bc 99bd b0bd 5a3c 523c 63b4 1ebd
00000030: 58f6 b2bd c8b9 c63d 50d7 2bbd 4d90 fabb
00000040: af97 d5bd e0d6 6a3d 770a bdbb c43a 16bc
00000050: ff62 413d 4a2d 3e3d 53ba 90bd 3d0e 853d
00000060: 8246 913c ee3c 463c e83c 7f3c 9061 21bd
00000070: 1b16 8e3b 4f41 bd3c aa9d b53c badf adba
00000080: 63b7 4e3d 0e28 283d 8bab 103d 43ba 403d
00000090: 58a7 4e3d a6f3 4d3d 107f 41bd 302a 553d
000000a0: 5daa ab3d 0901 59bd cc9a 9ebd 1044 7abd
000000b0: 56fe f63c 8358 7e3d 75dd c13d 1681 a1bc
000000c0: aa9c 4ebb bbf6 b43d 1fba 1e3d b3fb 7c3d
000000d0: 53e6 123d c8e8 b0bd 046e 3dbd 2731 023d
000000e0: 8767 4abd b32d f93c 9616 7c3d 9e20 ae3c
000000f0: 1603 b3bd 9849 933d 961d bb3c e36c c33d
00000100: f40c 3a3c a096 7c3d 4c02 92bd ee4f 613d
00000110: d9fd 8c3b 4515 7bbd 6ac7 81bd 274c 9fbd
00000120: ea9e 4abd 61f5 8d3d b8ea c43d d498 443d
00000130: 1267 c43d 7b14 4fbc f72a dd3c ffc3 ae3d
00000140: 63f7 cd3b dacd 393d c304 ebbb 9f38 91bd
00000150: c5a3 a2bd e13a 953b 1af2 c1bc ad1b e1bc
00000160: 1beb 973d 9efd ac3d 897c 30bd 499d 1e3d
00000170: a539 74bd 111b a03d 3c1d cc3d 4063 37bd
00000180: e3de 763c d956 593d 255a 353b ffc9 acbc
00000190: 50dc 8abd 3baf 7e3d 5735 8f3d 2949 5ebc
000001a0: 11b7 a23d d6dd 863d ee63 cd3d a168 a63d
000001b0: bdb5 06bd 743b 4abd 4fec 6ebb 9010 5cbd
000001c0: 5ea3 923b 70b2 94bd b1aa 3f3d fdee 013b
000001d0: 135c f43a fc77 3dbd 72e7 a5bd 6820 353d
000001e0: 266a 57bc 4e7f d3bc 5382 16bd b3e0 203c
000001f0: e08f 2c3c 8f0b d4bd 1ef0 8b3d 3d0f f23c
00000200: e31b cbbd ea85 c9bd 61f1 033d a7c4 61bd
00000210: 7d1a fcbc 1975 813d 902b c1bc 4954 b2bd
00000220: ee11 50bd ff70 ccbc c533 b83d d932 a8bc
00000230: 2548 c03d 0945 82bd ea1f 8c3d 83d5 143d
00000240: 64e5 91bd 914c cd3d 474a acbc 313b bdbd
00000250: 31e7 c6bd 3f47 9d3c c64b 453d 8207 e63c
00000260: 619f 90bd cac8 9a3c 361c 15bd 662e 81bc
00000270: c2bb ca3d e8d6 a93d 8342 73bd c506 c03d
00000280: 7bcb f73c facd b4bd 8748 663d f406 c53d
00000290: 8416 c83d 7778 32bc e606 c33d 3135 c5bd
000002a0: c09e cebd 0749 99bd 4e79 afbb 3189 0ebb
000002b0: 79a0 8ebc 97ad c6bd 1a9c 12bd f064 52bd
000002c0: d1a3 753d 64d7 873c 924a 853c 4a73 60ba
000002d0: 92b7 a43d cfea bdbc cf9e 5abd 7a46 0dbd
000002e0: 7ae5 b13d 1ba8 3a3d 6d7e 813d b958 b7bd
000002f0: 10c4 6abd 4285 453d 221b a13d 2e53 a7bd
00000300: 02f1 80bc 3a53 3b3d d4b2 0c3d 3c11 813d
00000310: 2cd2 403d 8459 553d 1c07 c13c 1151 b23c
00000320: 5f6f 063d 3ab2 d0bc 3202 63bd a5c6 b83d
00000330: bc52 ce3c d2ad 6fbd d464 a63d 8c65 963d
00000340: 6a53 3ebc 43e7 5a3c e32a 87bd ef83 63bd
00000350: 6271 6b3c d9fc 9d3c 0edb 573d da57 543d
00000360: 6d14 3ebc 9602 163c 57d9 96bd bcd5 d33c
00000370: d4c8 adbd 9f39 813d 4274 cd3d e032 6dbd
00000380: 5497 43bc 9ec3 f2bb 9f61 c5bd d38c 4d3d
00000390: 8c6a 933d 3811 1f3d 4f0b dabc ac6e 963c
000003a0: 5653 5fbd e568 423c 4a36 c13d 577c ce3c
000003b0: db80 41bd 71e9 6f3d ec72 14bd 444f e93c
000003c0: 1546 823d d6a1 a2bd a86c 2cbc c84f ed3c
000003d0: b20a 49bd 9e8c 103d 23db c6bd 2cac a2bd
000003e0: f009 d33b 43af c2bb a426 cf3d 7e71 c5bd
000003f0: 4ded 37bd a9c1 f43b 1a8c 583d 402c 673d
0.091020316 0.038477235 0.08702015 0.04423728 0.0017790449 0.0046046306 0.06051658 -0.086172834
-0.016441043 -0.08629913 0.012831772 -0.03874625 -0.087383926 0.09703404 -0.041953385 -0.0076465965
-0.10429322 0.057333827 -0.00576907 -0.009169284 0.04721355 0.04642991 -0.070667885 0.06496856
0.017733816 0.012099488 0.015578486 -0.039399683 0.0043361313 0.02310243 0.022169907 -0.0013265528
0.05046786 0.041053824 0.035319846 0.047052633 0.05045256 0.05028119 -0.047240317 0.052042186
0.083821036 -0.052979503 -0.07744369 -0.061100066 0.030150574 0.06209613 0.09466068 -0.019714873
-0.0031526485 0.088361226 0.038751718 0.061763477 0.035864186 -0.086381495 -0.046247497 0.031785157
-0.049415138 0.030417299 0.061544977 0.021255787 -0.08740823 0.07191771 0.022841256 0.09542253
0.011355627 0.061667085 -0.07129344 0.055007868 0.004302722 -0.06129958 -0.06336863 -0.07778197
-0.04946796 0.06931568 0.096150815 0.04799731 0.095899716 -0.01263916 0.026998026 0.08533477
0.0062855943 0.04536233 -0.0071721985 -0.07090878 -0.07941393 0.004554138 -0.023675013 -0.027479017
0.0741789 0.08446811 -0.043087516 0.038724218 -0.059625287 0.078176625 0.099665135 -0.044772387
0.015067789 0.05306134 0.0027672139 -0.021092413 -0.067803025 0.06217883 0.06992596 -0.013567247
0.079450734 0.065852806 0.10028826 0.08125425 -0.032888163 -0.049373105 -0.003645677 -0.053726733
0.0044750413 -0.07260597 0.046793643 0.0019826286 0.0018643163 -0.046257004 -0.08100785 0.044220358
-0.013147866 -0.02581754 -0.03674538 0.0098191975 0.010532349 -0.10353767 0.06832908 0.029548282
-0.09917428 -0.09839995 0.03221262 -0.055119183 -0.03077435 0.06321163 -0.023580343 -0.08707482
-0.05079835 -0.024956224 0.08994249 -0.020532059 0.093887605 -0.06360824 0.068420246 0.036336433
-0.07123831 0.100243695 -0.021031512 -0.092398055 -0.09712065 0.019199012 0.048167966 0.028079752
-0.07061649 0.018894572 -0.036403857 -0.015769195 0.09899093 0.08292943 -0.059389602 0.09376291
0.030248394 -0.088283494 0.05622151 0.09620467 0.097699195 -0.010892979 0.095228 -0.09629286
-0.10088873 -0.07484632 -0.005355037 -0.0021749253 -0.017410504 -0.097010784 -0.0357934 -0.051365793
0.05997068 0.016582198 0.01627091 -0.0008562101 0.08042826 -0.023183255 -0.053374108 -0.03449104
0.08686347 0.045570474 0.06322942 -0.089524694 -0.057315886 0.048222788 0.07866503 -0.08170162
-0.015739921 0.045733668 0.03435023 0.06302115 0.047075436 0.052087322 0.02356296 0.021767171
0.032821056 -0.02547561 -0.055422015 0.090222634 0.025185935 -0.058515377 0.081247 0.07343587
-0.011616567 0.013360801 -0.06599977 -0.055545744 0.014370294 0.019285606 0.05269914 0.051841594
-0.01160155 0.00915589 -0.07365673 0.025858752 -0.084855705 0.063098185 0.1003194 -0.057909846
-0.011937935 -0.0074085733 -0.0963776 0.05018313 0.071980566 0.03883478 -0.02661672 0.01836332
-0.054522835 0.011865829 0.09434183 0.025205774 -0.047242027 0.058572236 -0.03624241 0.02848018
0.06361023 -0.07941024 -0.010523953 0.028968707 -0.049082465 0.035290353 -0.09709766 -0.079429954
0.0064403936 -0.005941303 0.10114792 -0.096407875 -0.044904042 0.007469375 0.052867986 0.056438684

lstm.bias_hh_l0 f4 [256]
00000000: daac 98bc 4456 46bd 7e52 693d 146a 5d3d
00000010: 0260 5cbd 9b0c 553b 4082 30bd 9e6f a4bd
00000020: 5a3d 9f3d 7413 f4ba 22f9 d43d 1813 683d
00000030: e255 bbbd e392 b4bd 1104 753d c43d b53d
00000040: 695f babc bf3f aabd d4f0 493d 23ae a3bd
00000050: bdb2 74bd 854c a93b 7151 bbbd 3e86 0f3c
00000060: 8bdd a23c 1a63 2ebd 547f 8f3c b1bc c53d
00000070: 1ef4 b3bb 7d5a 95bc 85b1 9cbd 889a d13d
00000080: b977 91bd e0b3 97bc a5ca 883d c35b a1bd
00000090: f583 333d 22a1 b7bc 7b7f 17bd c655 0cbd
000000a0: d454 abbd c9d4 a63d a058 b9bc c825 8dbd
000000b0: a02d 833d c2d0 103d 3fb3 b7bd 9b53 953c
000000c0: 2d13 81bd 18ec 2fbd ca95 85bd aabb 903d
000000d0: a88d f7bc a835 493d e02f 5c3d 1126 613d
000000e0: 46f8 333d b878 b53d 6a17 8b3d 581e 673c
000000f0: 54d4 443d 4626 773d a474 b9bc 06a8 873d
00000100: 9f8a 2c3c 0047 72bd 5e54 bd3c 5ccf 953d
00000110: 2e39 863c 5f03 b7bc 0337 7dbd d201 24bc
00000120: 94d9 a0bd 297f cebd 48f2 083d 4ee0 5f3c
00000130: 8f06 97bd 27bb 883d eaf4 e9bc bb43 9b3d
00000140: 0005 d63c fdec bd3d ca2c af3b 23bd 55bd
00000150: d768 533d 6f35 7b3c 09bf cebd ff70 933d
00000160: c577 bfbc b852 3d3c 7557 7abd 4312 8fbd
00000170: 6bf7 933d 9341 a9bd 39aa 76bc 4b7f 7f3d
00000180: aca1 9b3d 0da4 9fbd 082e 9c3d f3dc 36bd
00000190: cca6 553b dd85 aabd 0fec b33d b465 c5bc
000001a0: 1eaf a93d c21b 24bd 1bff 8c3b 05b5 c8bd
000001b0: ac31 38bd 933d 9cbc 3bd4 cbbd d2fb c1ba
000001c0: 0a20 953d 5db9 8dbc 911b c73d 1e71 8d3d
000001d0: fa03 803d cff2 a2bd 2138 9fbb 5dfe 97bd
000001e0: 72d6 21bd c37c e4bc 2b12 8fbd fd9f b8bd
000001f0: 7b11 67bc d7b1 c038 215f 6fbd f323 a4bc
00000200: f76b a7bd 693c 6bbd 39ec 183b c39f bcbd
00000210: 77be 05bd 1469 72ba 3e32 173d 617a 4d3d
00000220: 29f6 8abd 1217 ba3d 22c3 6bbc b3b2 83bc
00000230: cc1f d03d 0cfb 2fbc b4d7 d23d 7d60 823d
00000240: 5dab ad3c 5ff6 d93c 6144 183d 4196 86bc
00000250: 0ad3 c03b 89ff ba3d d452 6a3c e39c 373c
00000260: 7b30 c2bd 8e1f f8bb 8dc3 64bb e94f adbd
00000270: ba14 ab3b 60c1 4ebd daae d73c 7d40 9f3d
00000280: 972a 733d fc01 ddba 9005 bf3d 2b77 b6bd
00000290: 2530 98bd 32d3 90bd 192e febc e32f 24bd
000002a0: 6aad 98bd e928 4abd 8338 943d fa96 98bd
000002b0: e168 a83d ba8a bebd ce0a 1b3d 742d c0bd
000002c0: 59fd b5bd 0a1c 24bc 52d3 8c3d 8e99 3b3d
000002d0: d7c9 883d ab7f 71bc 9308 a43d 91c5 8bbd
000002e0: 7223 c43d 9e5b 7dbd 61b7 8abc 0207 b5bd
000002f0: b4ba 15bc 21c1 f2bc 5d81 123d 750a 663d
00000300: f995 babc 9c48 a03d 586c 793d ed43 0a3d
00000310: c77b 4abd 46cd 773c 92cb 88bd 6d03 e63c
00000320: 729e 3e3d c106 a9bc fd32 823b 5aac 4dbd
00000330: 7ba0 aabd 59f2 85bd f3b1 80bd 2052 99bc
00000340: fa4f abbd cc84 e9bc a411 4fbd a9c2 ffbc
00000350: adbb 9dbd 1cde c7bd 5d33 bbbd e77f b63d
00000360: a0fb 0b3c 93a9 55bd e200 123d 9cd8 ffbc
00000370: 5e10 053d 704f ab3b 4785 2cbc 0331 1bbd
00000380: 3535 82bd 47ae 283d 07c4 ccbd b7a1 03bc
00000390: 4954 b0bd f7c3 6e3d 3971 183d bcc0 9fbd
000003a0: 6a29 823d 71f5 06bd 7a70 d5bd c8c2 8e3c
000003b0: 7aed bd3d 76be 3e3d 4906 5d3d 5c5e 853c
000003c0: a31d 9b3d 6099 5cbd f6c5 cabd 812b 79bd
000003d0: bb68 3d3d b8f1 e73b b1e9 c7bc 8c44 bc3c
000003e0: b1ae a6bd 0697 053d abc1 9fbd 9649 ad3d
000003f0: 55a6 bc3d af7b b33c 1b46 b2bd b377 363d
-0.01863711 -0.048422113 0.056963436 0.054056242 -0.053802498 0.0032508734 -0.043092966 -0.08029102
0.07775374 -0.001862152 0.10399081 0.056658834 -0.0914724 -0.08817079 0.05981833 0.088496715
-0.022750573 -0.0831294 0.049301937 -0.07992198 -0.05974077 0.0051665925 -0.09146393 0.008760033
0.01988103 -0.04257498 0.01751677 0.09655131 -0.0054917475 -0.018231625 -0.07651047 0.102345526
-0.071029134 -0.018518388 0.066792764 -0.0787883 0.043827016 -0.022415701 -0.03698681 -0.034261487
-0.08365789 0.08146054 -0.022625268 -0.06891972 0.06405187 0.035355337 -0.08969735 0.018228343
-0.063024856 -0.042949766 -0.065227106 0.07067044 -0.030218914 0.049123436 0.053756595 0.054967944
0.043937944 0.08860916 0.06791575 0.014106356 0.048054054 0.060339235 -0.022638626 0.06623845
0.010531097 -0.059149742 0.023111518 0.07314941 0.016384687 -0.022340475 -0.06182004 -0.0100102
-0.07854 -0.100828476 0.033434182 0.013664318 -0.07374298 0.066763215 -0.028559167 0.07581278
0.026125431 0.092737176 0.0053459154 -0.052182328 0.051613655 0.015332564 -0.10095031 0.07199287
-0.02337254 0.011555366 -0.06111856 -0.06985905 0.072249256 -0.082644604 -0.015055233 0.062377255
0.07599196 -0.07794962 0.07625967 -0.044644307 0.003260064 -0.08326314 0.08785259 -0.024096347
0.08285354 -0.040065534 0.004302872 -0.09800152 -0.044969246 -0.01907233 -0.09952589 -0.001479978
0.072815016 -0.017300302 0.09722055 0.06906341 0.062507585 -0.07956468 -0.004858986 -0.07421563
-0.03951115 -0.027891522 -0.06985887 -0.0901489 -0.014103289 9.188399e-05 -0.05844033 -0.020036673
-0.081748895 -0.05743066 0.002333416 -0.0921016 -0.032652345 -0.0009247225 0.03691315 0.050165538
-0.067852326 0.090864316 -0.014389785 -0.016076421 0.10162315 -0.010741007 0.10295048 0.0636606
0.021199876 0.026606737 0.037174586 -0.016429069 0.005884533 0.09130771 0.014301974 0.011206838
-0.09481903 -0.007572121 -0.0034906596 -0.08462507 0.0052209767 -0.050477386 0.026328493 0.07775972
0.05936679 -0.0016861553 0.09327233 -0.08909448 -0.07431058 -0.07071532 -0.03102784 -0.04008473
-0.07454951 -0.04935542 0.07237341 -0.074506715 0.08223129 -0.09303804 0.0378521 -0.093836695
-0.08886213 -0.010016451 0.06876244 0.045800738 0.06679123 -0.014739911 0.08009448 -0.06824792
0.09577073 -0.06185495 -0.016933145 -0.08839227 -0.009138752 -0.029633107 0.0357679 0.056162316
-0.02277659 0.07826349 0.06089434 0.033756185 -0.04943445 0.015124625 -0.06679453 0.028077805
0.046537824 -0.020633103 0.0039733634 -0.050213195 -0.083313905 -0.06540365 -0.06283941 -0.018715918
-0.08364864 -0.028505705 -0.050553933 -0.03122075 -0.07701812 -0.09759161 -0.09140656 0.08911114
0.008543879 -0.05216367 0.035645373 -0.031231217 0.032486312 0.0052279755 -0.010529823 -0.037888538
-0.06357805 0.04118183 -0.09998327 -0.008034161 -0.08609826 0.058292355 0.037217353 -0.07800433
0.06355555 -0.032948915 -0.10421844 0.017426863 0.09273811 0.046568356 0.053961072 0.016280346
0.07574012 -0.053857207 -0.09901039 -0.060832504 0.046242457 0.0070783757 -0.024403425 0.022981904
-0.081387885 0.03261473 -0.07800611 0.08461301 0.09211413 0.021909563 -0.08704778 0.044547748

lstm.weight_ih_l1 f4 [256, 64]
00000000: 63fd bd3d 419a 4f3d 3708 f7bb 0df6 79bc
00000010: c5ad d53d 1771 93bd 68a6 ac3c 1fc6 763c
00000020: 6f65 92bd 3724 b13d 0b31 433d 73db d23c
00000030: 9967 56bd 671f 6b3d fe49 87bd dd42 8a3d
00000040: 81df adbc 5704 abbd cd29 ae3d 004e a83d
00000050: afad 9c3c f997 c7bc 44fe babd c538 253d
00000060: ac6e 453d fc88 cb3d 8478 333d ee6f a83d
00000070: b97c 0fbd ae05 c93d fb02 07bd be00 b93a
00000080: ca70 0d3d ee63 bbbd d41c 9c3d 90a7 8bbd
00000090: d6cc 7d3d 10cb 12bd 0fe6 b63d bc45 da3c
000000a0: a007 36bc 3cfc 1d3d c611 bdbd 8d61 6c38
000000b0: 55f3 1fbd 48e4 703d 3edb c33d 2fb6 c13d
000000c0: 20c0 923c cdc9 b83c d12f 02bc 0d29 053d
000000d0: 002b 97bd 2f13 b1bd b047 bd3c 0f58 083d
000000e0: 0685 c13d c01a 0a3c 6fea 59bd fd0f 913d
000000f0: ca2e 6c3d 5991 cabc 5daf b9bd 01ee adbd
00000100: 990b f23b 4e4d b2bb 6ce7 f4bc dae4 c63b
00000110: 2fb2 c6bd 10b3 243c e065 fe3c f36b 7d3b
00000120: 89c8 d63b ac8a 273c c7ad fe39 1d84 7cbd
00000130: ab62 b83d dde1 c8bd 6493 b2bd c418 b53d
00000140: b14e 343c 6ce9 65bd f3f2 99bd 8c65 a0bd
00000150: 251f 22bc 9a0c b6bd 8946 55bc 502b cebd
00000160: 94f1 a33c 0feb b43d 4779 b4bc d406 633d
00000170: dcd0 b53d 7a3d c1bd 753b 6fbd 4d55 be3d
00000180: 7bf0 69bd 8bac a6bd a3d8 acbd dbd8 1fbd
00000190: c649 253d a79f f33c b8a9 8c3b 012b 963b
000001a0: 8035 663d c503 39bd ef94 c9bd bdcc aa3d
000001b0: 7a62 98bd 2614 03bc 45d1 83bd 8554 a2bd
000001c0: f84d ae3d 2724 88bd 7ab3 21bd a260 50bd
000001d0: b8de d4bc 2d89 c3bc ba65 86bb 211f 623d
000001e0: 1945 d13b ce99 c53b 0ef1 c93d e33d 803d
000001f0: 9cf0 10bc d210 633d 7bf5 473d 140e 55bc
00000200: c8f8 ba3b 4491 823b 0c24 b5bc afb2 0a3d
00000210: c565 673d 4815 3c3c 04df 003c 6824 4f3c
00000220: b3c3 8a3d c4fa 663d 1c86 15bd 4b55 84bd
00000230: 688b 753d bd70 8ebd 7668 0d3d a3e8 42bb
00000240: 3c63 b7bd 12d0 3bbc ba74 503d 705c 623c
00000250: c4ac ce3d 4dbe 4b3c 1b6e 44bd 323f bb3d
00000260: 90fe 233d 090d e0bc 7b21 54bd b622 08bc
00000270: 8a18 4a3d 5300 c53d f84b bbbd 9557 de3c
00000280: 3644 cd3d bb8a a93c a63a 4cbd a735 07bb
00000290: 6a37 aebd 3842 30bb 24cd a33d 1a8b 903d
000002a0: 34f6 cd3b 71e5 56bd 6713 bd3d 9eed 87bd
000002b0: 264a a2bc ca89 c8bd 4fc8 1dbc 896d 2c3d
000002c0: 6777 38bc 8ba9 b6bd 7af6 cebd 7c14 53bd
000002d0: a78f ba3c 57a7 853d 8ef3 053c ba18 9c3c
000002e0: 4419 093b 0c05 3cbd 8b93 a23d b637 b53d
000002f0: 3c65 68bc b9b8 d33c 6e51 d8bb 21ed d43d
00000300: 1957 84bd da42 3f3d a820 363d 5957 9cbc
00000310: c438 d6bc e0ab 343c 5bf0 b5bd 1bea 57bd
00000320: eefc 963d b1c9 84bc ab42 61bd 1f4a 8d3d
00000330: 7b17 bfbc 1dd4 c53d d6de 433d c18b 823d
00000340: 457c a6bd 4376 763b dd30 973d 8d2c 853d
00000350: ee2b 11bd e4fc ac3c ca89 7bbc fca0 cebd
00000360: 5894 593d 4f2a bdbd d64b 953d 0c9f a03d
00000370: c7c3 3ebd 00b5 a7bb e7dc cb3d 7573 61bd
00000380: 1a79 d1bc 512b 4cbd dc84 673d 0594 833b
00000390: b374 93bd 8d50 98bd 79b4 663c 6d30 9b3c
000003a0: 62db 4c3d b269 2a3d dee7 c63c 67d8 d23d
000003b0: 9f7b 183b 847c 8f3d 5c70 39bd f908 433c
000003c0: aa2b 15bc d200 c8bd 0114 6ebc aa1f a23d
000003d0: acf0 5bbc 4cd8 e23c 6b6f 933d 9013 c7bc
000003e0: f817 84bd 814f d53d 6271 7dbd a9a4 bfbc
000003f0: 2e24 a0bc 9780 b43c f5dd b93d df01 c8bd
0.09276845 0.050684217 -0.007538821 -0.015256417 0.104335345 -0.071993046 0.021075442 0.015061884
-0.07148253 0.086494856 0.047654193 0.025739407 -0.052344892 0.057402994 -0.0660591 0.067510344
-0.021224739 -0.08350437 0.085040666 0.08218002 0.019125788 -0.024364458 -0.091305286 0.040337343
0.048201248 0.09938237 0.043816105 0.08224474 -0.035031054 0.098155364 -0.032961827 0.0014114601
0.034531392 -0.091499195 0.07622686 -0.068190694 0.061962925 -0.035838187 0.08930599 0.02664458
-0.011110216 0.038570628 -0.09231906 5.6357636e-05 -0.03905042 0.058811456 0.095633015 0.09458577
0.017913878 0.022557164 -0.007945971 0.032509852 -0.073812485 -0.08646237 0.023105472 0.033287104
0.094492 0.008429229 -0.05320209 0.07083128 0.05766181 -0.02472751 -0.09066651 -0.08492661
0.0073866365 -0.0054413443 -0.029895507 0.0060697617 -0.097019546 0.010052457 0.031054437 0.003866908
0.0065546674 0.010225933 0.0004857613 -0.06164943 0.090031944 -0.09808705 -0.08719519 0.08842614
0.01100509 -0.05613081 -0.07517042 -0.078318685 -0.009895121 -0.08889122 -0.013017305 -0.10066855
0.020012654 0.08833896 -0.022030486 0.055426434 0.088777274 -0.09435554 -0.058406312 0.092936136
-0.057114106 -0.08138379 -0.08439758 -0.03902517 0.04035356 0.029739214 0.004292693 0.004582763
0.056203365 -0.04516961 -0.0984286 0.08339832 -0.07440658 -0.008000409 -0.06436399 -0.07926277
0.08510965 -0.066475205 -0.039477803 -0.050873406 -0.025985107 -0.023869121 -0.004101482 0.055205468
0.006386411 0.006030298 0.09860431 0.06261804 -0.008846428 0.055435963 0.048818093 -0.013003845
0.0057059266 0.003984602 -0.022111915 0.033861812 0.05649354 0.011479683 0.007865671 0.012642957
0.06775608 0.056391492 -0.03650485 -0.06461581 0.0599474 -0.06955097 0.03452345 -0.0029740713
-0.08954474 -0.011463182 0.05089257 0.013815984 0.10091546 0.012435508 -0.047956567 0.09142913
0.04003769 -0.027349966 -0.051789742 -0.008309057 0.04933981 0.096192025 -0.09145349 0.027141372
0.10022776 0.020696035 -0.04986062 -0.0020631345 -0.08506663 -0.0026894938 0.07998112 0.070577815
0.006285453 -0.052464906 0.09232216 -0.06637119 -0.019810747 -0.09791906 -0.009630277 0.04209665
-0.0112589365 -0.089190565 -0.101056054 -0.051533207 0.022773577 0.06526058 0.008175744 0.01905476
0.00209196 -0.04590325 0.07938298 0.08848517 -0.014184292 0.025844919 -0.006601504 0.10396791
-0.06461925 0.046694614 0.044464737 -0.01908462 -0.026150115 0.011027306 -0.08883735 -0.052713495
0.07372461 -0.016209455 -0.05499522 0.06898903 -0.023326626 0.09659598 0.047819935 0.06374312
-0.08129171 0.003760711 0.07382367 0.06502638 -0.035442285 0.021116681 -0.015352676 -0.10089299
0.053119987 -0.09236585 0.07289855 0.07842836 -0.046573427 -0.0051180124 0.09954243 -0.05504175
-0.025570441 -0.049845997 0.05652319 0.004015448 -0.07199993 -0.07437239 0.014081114 0.01894399
0.050013907 0.041604705 0.024280485 0.10295182 0.0023267043 0.07006171 -0.04527317 0.011903995
-0.009104649 -0.097657815 -0.0145311365 0.07916196 -0.01342408 0.027691029 0.07198986 -0.02430132
-0.06449884 0.10415555 -0.06187571 -0.023393946 -0.019548502 0.022033973 0.09075538 -0.09765982

lstm.weight_hh_l1 f4 [256, 64]
00000000: 384b 28bd bc3c 823d 8c72 053c 7994 07bd
00000010: 0237 cabd 4817 9fbc 7dc5 b2bb 65b6 aabd
00000020: bd5e be3d 0bdc b33d 2e59 9cbd 1f7e abbd
00000030: 0132 98bd 9b35 82bd 0af8 00bd 58e1 c03d
00000040: 1e23 c9bd 5d29 c2bc 7fab cd3d d43a babd
00000050: 2d31 2c3d 1be0 433d 06f8 cabd 980e 9a3d
00000060: be02 31bd ddab bebd ddeb 793d 3524 9f3d
00000070: 3591 aabd 44c0 cc3d 9ef6 c93d d76b 603c
00000080: b8f0 d4bd 7fda 0d3d 09e0 a7bc 93b0 103d
00000090: 971e 983c 4da0 d6bc ef39 8d3d 7f73 df3b
000000a0: 6908 a5bd 6e8c f03b e1e8 4bbd 2409 9bbd
000000b0: 7212 c73d 6b92 cc3d 5af2 c43d e564 c2bd
000000c0: 9bd6 75bd 7aaa 8c3d 7877 a1bd ea31 723d
000000d0: aa36 8d3d 3286 d2bd c791 a9bc bbbd 9b3c
000000e0: e20b cdbd 9a02 8dbc e24d 12bd 5024 a13d
000000f0: a95d 653c f5cb 303d 283e a63d 9fcc 373d
00000100: 49b0 153d ad4e c0bc c747 50bd 35d5 8f3a
00000110: 7cd3 c6bd d76e f43b e51c a63c 2800 acbc
00000120: e117 4fbd 98a8 453d 5f79 173d ec8d 193c
00000130: bc0c 4f3d 982c ac3d bd51 29bb 3726 8fbc
00000140: 2027 3bbd cff0 613d b1eb 9d3b e452 99bc
00000150: dc1c 9d3d 0fec 873d 3d9f 803d 72fb 0a3d
00000160: 97a6 81bc ad2a 94bd ffe0 88bc 19c8 823d
00000170: 8ee3 aabc 3061 8fbd 5c63 513d 8e8d acbd
00000180: 693c d9bc fe45 a3bd ef3b cdbd 5368 2bbd
00000190: a2ac ab3d 62e1 babd 9f0a 273d 527f a63c
000001a0: f94f cabd e4b2 e13c a248 afbd a927 683d
000001b0: a72b 7fbd 82d9 d0bd cad4 883d c560 b53d
000001c0: 0c9f 11bd ce00 b0bd ed47 00bb dc68 8ebd
000001d0: defc 963d 66b1 c93c ac21 8e3d ae6c 403c
000001e0: e927 8fbd 72e8 18bd dc5d 843d 0c45 79bd
000001f0: 7bd3 a8bd cebd c2bd d62c 793d 9ed7 c63d
00000200: 6152 b33c 745e c83d 9d7e 603d f1a1 debb
00000210: 4600 f6ba da2f d03d 2111 8ebc f709 5e3d
00000220: ae82 c0bd ece6 bfbd 3217 2c3c 18a0 9abc
00000230: 650d 9fbd 322c 413d cb06 0bbd c7f7 c63d
00000240: 41e1 a3bd 8622 cc3d 6f74 b2bd b43b 50bd
00000250: 54f2 453d 40a7 bf3d 06af 6dbd ce7b 5c3d
00000260: 2e23 953c 7c70 30bc a4c5 df3a 1ab9 573d
00000270: bba6 3abd b254 a2bd 740c a43d 3699 953d
00000280: 288b a8bd 8ff6 ce3c fe3a 033d 021f 51bd
00000290: 965b a3bc 5fde 2ebd 8ae4 4e3d 159d 59bc
000002a0: e2d0 63bd b9b1 aebd 7f63 3bbd 24af c53d
000002b0: 2d3c ae3d ee2d bc3d 7d4f c0bd 0e00 29bd
000002c0: 6e4b 15bd aab9 bb3d af7f c73d 4612 b63d
000002d0: 504e 4e3d bb5b b1bc 4312 953d 7415 ab3c
000002e0: b26e d33c d8b7 93bc 9045 0bbd c262 953d
000002f0: b7df 223c 6f5e f2bc 4c76 95bd bb73 9ebd
00000300: d398 a63d a84f 54bd 4f7f b43c 1652 d03d
00000310: 7640 80bd d63f 593c c0c6 88bd bcd9 c7bd
00000320: 2f19 6fb9 500d a93d 1e3a b13d 68aa 803d
00000330: 15ae cbbd cbfa a1bd ebcd f2bc 149a b93d
00000340: 2060 d43d 38dd 843a fca7 bc3c 87cd 91bd
00000350: 2846 d9bc 1415 ab3d 829b dd3c 5fc8 a93c
00000360: c0e7 943d 3d9f c43d b25f 02bd 8947 54bd
00000370: 511c 193c f87f bbbc 270f 1bbc a611 d9bc
00000380: 42c1 8e3d 6ac4 ca3d 2e1f 2ebd 6b02 c0bd
00000390: 5cbe c8bd c679 133d 761b 2bbd e11c 8a3d
000003a0: a6fa d33c e2c2 a63b d959 45bd 0b23 e83c
000003b0: 3f17 403d 2868 a5bd bb86 be3c bcc7 0b3d
000003c0: 256e 8b3b 0ae9 93bd a9f7 ab3c 1dc6 b6bd
000003d0: 2d9f e7bc 70ec b83d 19e2 ad3d 0e00 11bd
000003e0: aae9 7abd 50e0 60bd 71ea 4ebb 8a8b bbbd
000003f0: 2a01 173d fdbc b73d 7f56 34bd b1a5 123d
-0.04108736 0.063592404 0.008144986 -0.03310058 -0.09873773 -0.019420281 -0.0054556713 -0.0833557
0.09295414 0.08782204 -0.07634197 -0.08373665 -0.074314125 -0.06357881 -0.03148655 0.09417981
-0.09821151 -0.023701364 0.10042476 -0.09093252 0.042039085 0.047821146 -0.09910588 0.07522315
-0.043215506 -0.09310124 0.061015952 0.07770578 -0.08328477 0.09997609 0.098614916 0.013697586
-0.10397476 0.034632202 -0.02049257 0.035324644 0.018569274 -0.026199484 0.068958156 0.006819188
-0.08058245 0.0073409593 -0.049782638 -0.07570103 0.09720315 0.099888645 0.096165374 -0.094919
-0.060019117 0.06868453 -0.07884115 0.059129633 0.06895192 -0.10279502 -0.020699395 0.019011369
-0.10012032 -0.017213155 -0.035718806 0.07868254 0.013999381 0.04316326 0.08117324 0.044872876
0.03654507 -0.023475016 -0.050849702 0.0010973575 -0.09708306 0.007459502 0.02027745 -0.020996168
-0.050559882 0.048256487 0.036980983 0.009372216 0.050549254 0.08406943 -0.0025836073 -0.017474277
-0.04569161 0.055161294 0.0048193564 -0.018716283 0.0767152 0.066368215 0.06280372 0.033931203
-0.015826507 -0.07234702 -0.016708849 0.06385822 -0.02086046 -0.07000959 0.051120147 -0.08425437
-0.026518064 -0.07972334 -0.10021197 -0.04184754 0.083825365 -0.091250196 0.040781613 0.020324383
-0.09878535 0.027551122 -0.085587755 0.056678448 -0.06229749 -0.10197736 0.06681211 0.08856348
-0.03555207 -0.085939035 -0.001957412 -0.06953594 0.07372449 0.024620723 0.06940016 0.011744661
-0.06990034 -0.037331052 0.06463215 -0.060856864 -0.08243462 -0.095088586 0.060833775 0.097090945
0.021889867 0.097836405 0.054808248 -0.0067942073 -0.0018768392 0.10165377 -0.017342152 0.054208722
-0.09399925 -0.09370217 0.010503577 -0.018875167 -0.07766227 0.04716129 -0.033942025 0.097152285
-0.08001948 0.09967522 -0.08713614 -0.050838187 0.048326805 0.09358072 -0.058028243 0.053829007
0.018205252 -0.010769006 0.0017072451 0.05266676 -0.045569163 -0.079263106 0.08010188 0.07304613
-0.08229667 0.025264053 0.03203868 -0.051054962 -0.019941133 -0.04269254 0.05051092 -0.01328208
-0.055619128 -0.08529992 -0.045749184 0.09652546 0.08507571 0.09188448 -0.09390161 -0.041259818
-0.03644889 0.09166272 0.097411506 0.08890204 0.050367653 -0.021650186 0.07278874 0.020884253
0.02580962 -0.018032 -0.034001887 0.07294227 0.009941033 -0.029586045 -0.07297954 -0.077369176
0.08134618 -0.05183378 0.022033362 0.10171907 -0.06262295 0.013259849 -0.066785336 -0.097583264
-0.00022802198 0.08254492 0.08653663 0.062825024 -0.09945313 -0.07909163 -0.029639205 0.09062591
0.10369897 0.0010136729 0.02302932 -0.07119279 -0.02652271 0.0835363 0.027051691 0.020725427
0.07270765 0.09600685 -0.031829543 -0.051826034 0.00934513 -0.022888169 -0.009464062 -0.026497673
0.06970455 0.09900744 -0.042510204 -0.09375461 -0.09801933 0.036004804 -0.041774236 0.067437895
0.025876354 0.00508915 -0.04818139 0.028337022 0.04689717 -0.08076507 0.023257604 0.03412603
0.0042550736 -0.07222183 0.020992117 -0.08924506 -0.028274143 0.09029472 0.0849039 -0.035400443
-0.061257996 -0.05490142 -0.0031572843 -0.09157474 0.036866345 0.089715935 -0.0440278 0.035802547

lstm.bias_ih_l1 f4 [256]
00000000: 3128 523d ae5f 9b3d ac3d 7f3d 13f6 473a
00000010: a9cc ad3c 2270 db3c f3e6 f03c e451 ca3d
00000020: 7923 a7bd 23aa 123d 0453 a53d b693 81bd
00000030: bcd6 acbc a5c2 5c3d bc0a 24bd 344c aabd
00000040: bdd3 40bd c5d6 1bbd 1e75 94bd 5605 f53c
00000050: aeb5 c2bd 6dfc bbbd fc07 4fbd 5956 cd3d
00000060: d887 44bc 68ac 8a3d 132a 36bd b0a7 953d
00000070: 19d4 93bd 391d 2abd 2b19 813d 57f0 863c
00000080: 255f 75bd d13a a5bd 0bae c33c d4d5 12bc
00000090: e668 d23d 3d8f 913d 53ea 2e3c 2ddb 9e3d
000000a0: 23a6 d3bc cc6b 4d3d 7ab0 34bd 084b bbbd
000000b0: caf0 91bc ce65 853d 60a9 dbbc a6dd 083d
000000c0: 288a 35bc ce20 38bd a691 2fbd 8fdf cc3d
000000d0: c663 123d 5259 243d 4aed f0bc 2518 01bc
000000e0: c81a 803d 561c 18bd 752c 7d3d 5131 aabb
000000f0: 4a3d 833d c529 bcbd 2157 a6bb 5a3a 343d
00000100: ce07 d1bd 2bdf a2bd 3ca3 733d e3da aabd
00000110: 0a51 d3bb c3fb a03d 1fbe bebd e2c8 bbbd
00000120: 926a b83d 3ba0 c0bc d54b 71bd e149 8bbd
00000130: bc52 673d 1d86 c6bd fb85 2d3d dfe0 543d
00000140: 65ff 873d f890 79bd 3c79 d0bd 0a16 22bd
00000150: d2c6 5c3d 1a48 24bd 419d 52bd ada9 afbc
00000160: dd56 233d e091 abbd f251 f8bc 0446 713d
00000170: 8584 9cbd afbb 943d a005 abbc 2eea 6abd
00000180: 47e2 c4bd c339 6e3d e23c fcbc be5b 8cbd
00000190: 6ef2 783d 7e29 83bd b1c6 1a3d 5781 8ebd
000001a0: a93e cebb ad02 673d 9d13 b93d 300e 0fbd
000001b0: ff35 143d a748 08bb 2d08 b9bd 595a ce3d
000001c0: 7467 723d 20fd d5bc c7c5 d63b d248 aebd
000001d0: 5121 98bd 5593 85bd dfb7 ac3d 3b4f c2bd
000001e0: 2be3 ca3d 80f5 5cbd 7570 083d b147 a6bd
000001f0: 8673 4fbc 6d84 103d cd64 36bd 4778 2f3d
00000200: e144 a03d f767 25bd 32dc 02bd 80ab 21bd
00000210: 24b5 a33c 8916 8a3d 6e7c bbbd 1068 e83b
00000220: c505 cfbc df77 b73d 128d 8fbc 70b7 75bd
00000230: d886 40bd fa85 39bd ebb6 65bd f88e bebd
00000240: b8ed 6bbd ee09 d43c dee9 c7bc bf24 1b3d
00000250: a881 713c 1100 703d bbd9 89bd 192e 6ebd
00000260: b4ff a33c 93eb de3c 48aa 553d 09bf 10bd
00000270: 3fdc 58bd 39d1 903d 6aeb 1bbd 1c67 8f3d
00000280: 8909 bfbd 4691 b63d 91b1 b53c 74dc ca3c
00000290: b2fd b8bd 31b0 813d 80c6 cd3d 8a32 2e3d
000002a0: aa7c b0ba ed8e e2bd e342 9e3d a5f6 5ebd
000002b0: 7811 743d 663d 58bd 6c38 bc3d 3670 883a
000002c0: 94dd 233b 3b2f 56bd 72c0 9fbd 62a1 af3c
000002d0: f6ff bebd 22b6 f5bc 7619 cebd fb89 c73d
000002e0: 1d8a ca3d 52cf d4bc d3af ae3d 6b7a a63d
000002f0: 8ae0 b3bc 2006 9b3d 4496 30bd 2f80 cf3c
00000300: 20bf 1dbb 2a2d 9b3d 0997 8c3d 6128 9bbd
00000310: 24b8 09bc 4ab8 1f3d f9d5 81bc fb9b f53c
00000320: 1238 d43d 3628 1cbd 31a2 c5bc 7137 22bd
00000330: 9578 e2bc 6fa3 593c ca84 72bb d6aa a93b
00000340: 8fe1 923d 3770 38bd 4aa0 1dbd 1b87 2bbb
00000350: 4a9d aebd eaaf 1fbd b097 c63d 5b1d 033d
00000360: 8c41 b3bc 4e81 ca3d 8432 a63d 18dc 883d
00000370: a2b2 993d e8da a03c 7036 753d 2111 743d
00000380: fa69 ac3c caf7 0539 95ea babb fcfd 2f3c
00000390: 8ce1 a1bd 55c4 99bd 846b 9c3d 6337 ecbc
000003a0: 67ef cebc 4c93 9fbd 7e76 c3bd fcab a73c
000003b0: 3cdf 6ebc ffb2 76bd dd00 dfba 20b3 94bd
000003c0: d694 1f3d aa6f 8cbc adc7 85bd 161d 233d
000003d0: 6f65 9bbd 8e76 0a3c 114e ce3d 75cd 4a3c
000003e0: ef69 9ebd fa66 3abd 303f a9bd a8f5 c1bd
000003f0: 0e43 ae3d 0a31 423d 7810 123c eba4 9b3d
0.05130786 0.07586609 0.062314674 0.00076279155 0.021215754 0.026786868 0.029407 0.09878901
-0.08161063 0.035806786 0.080724746 -0.06327002 -0.021098487 0.053896565 -0.0400493 -0.08315316
-0.04707693 -0.038046617 -0.07248901 0.029909771 -0.09507309 -0.09179006 -0.050544724 0.10026235
-0.011995278 0.06771165 -0.04447372 0.073073745 -0.07218189 -0.041531775 0.063036285 0.016472025
-0.05990519 -0.08067859 0.023886701 -0.008962113 0.10273914 0.07107399 0.010675984 0.07756648
-0.025836056 0.05015163 -0.044113614 -0.091451705 -0.017815012 0.06513558 -0.026814163 0.033414505
-0.011080302 -0.04495316 -0.04286351 0.10003578 0.035739683 0.040124245 -0.029410023 -0.007879292
0.06255108 -0.0371364 0.061809976 -0.0051938673 0.06408174 -0.091876544 -0.0050763045 0.04400096
-0.10206567 -0.07952722 0.059481844 -0.083425306 -0.0064488696 0.0786052 -0.093136065 -0.09169175
0.09004702 -0.023513904 -0.05891021 -0.06801201 0.056475386 -0.09693549 0.0423641 0.051972266
0.066405095 -0.06092927 -0.101793736 -0.0395718 0.053900547 -0.040107824 -0.0514195 -0.021443212
0.03987776 -0.08377433 -0.030312512 0.058904663 -0.076424636 0.0726236 -0.020876706 -0.057352237
-0.096134715 0.058160555 -0.03079075 -0.06853436 0.060778074 -0.064043984 0.037787143 -0.06958263
-0.0062940908 0.056399036 0.09036944 -0.03492564 0.036184307 -0.0020795257 -0.090347625 0.10075826
0.05918069 -0.026121676 0.0065543386 -0.08509983 -0.074282296 -0.06522242 0.08433508 -0.09487768
0.0990661 -0.053945065 0.033310372 -0.08119143 -0.01266182 0.03528254 -0.044529725 0.042839315
0.078256376 -0.04038235 -0.031948276 -0.039470196 0.019983836 0.067425795 -0.091545925 0.0070924833
-0.025271306 0.089584105 -0.017523322 -0.059989393 -0.047003597 -0.045293786 -0.056082647 -0.09304613
-0.057599753 0.025883641 -0.024403509 0.03787684 0.014740385 0.058593813 -0.06730982 -0.05814943
0.02001939 0.02721194 0.052164346 -0.035338435 -0.052944418 0.07071156 -0.038066305 0.070020884
-0.093279906 0.089144275 0.022179397 0.024763323 -0.090327635 0.06332434 0.100476265 0.042528667
-0.0013464887 -0.11062417 0.077276014 -0.054434437 0.059586972 -0.05279293 0.09190449 0.0010409418
0.0025003897 -0.052291136 -0.07800378 0.021439258 -0.093261644 -0.029994074 -0.1006345 0.097431146
0.09889624 -0.025977764 0.085296296 0.08128818 -0.021957655 0.075695276 -0.043112054 0.025329677
-0.0024070218 0.07576974 0.06864745 -0.07576061 -0.008405719 0.03899411 -0.0158491 0.029981604
0.10362257 -0.038124286 -0.02412519 -0.039603654 -0.027645389 0.0132835945 -0.0037005418 0.005177836
0.07171928 -0.04502889 -0.03848294 -0.0026173058 -0.08526094 -0.038986124 0.09696901 0.032010417
-0.021881841 0.09887944 0.08115104 0.066826046 0.07504775 0.019635633 0.05986637 0.059586648
0.021046627 0.00012776177 -0.005704234 0.010741707 -0.07904348 -0.075081505 0.076376945 -0.028835004
-0.02526064 -0.077917665 -0.09544085 0.02046775 -0.01457959 -0.060229298 -0.0017013807 -0.07260728
0.0389603 -0.01714309 -0.06532226 0.03982266 -0.07587706 0.008451117 0.10073484 0.012378086
-0.07735049 -0.045508362 -0.08264005 -0.09470683 0.085088834 0.04741005 0.008915059 0.07599815
