trained networks/6176.pt (torch_old, 485074 bytes, 18 tensors)

lstm.weight_ih_l0 f4 [256, 12]
000000 6d 35 d8 bd d2 ae 86 3d 7d 24 b9 3d 25 bd ba 3d
       -0.10557065 0.06576313 0.09040163 0.09118108
000010 05 2b 8d bd ef b0 e2 3d aa 3e e1 3c e9 c2 7c 3d
       -0.06892971 0.11068904 0.0274957 0.06170932
000020 ae 00 a6 3d c0 ef aa 3d 4c 76 c4 bd 01 f6 64 3d
       0.081055984 0.0834651 -0.09592876 0.05589867
000030 95 0f 62 bd bd 7c 85 bd 3f bb 61 3d 38 61 1e 3d
       -0.05519064 -0.065179326 0.055110212 0.038666934
000040 06 d2 c5 3d dd 29 e0 bc 39 8b 4e bd d5 91 9a 3d
       0.096591994 -0.027363712 -0.05042574 0.075473465
000050 5a e5 ee 3d 49 c5 b4 3c 73 37 d5 3d d1 12 d6 bd
       0.11664839 0.02206673 0.10410967 -0.10452808
000060 13 26 dd bc ba a4 61 3d 08 2b a9 3c 3a 98 b6 bd
       -0.026995694 0.055088736 0.020650402 -0.08915754
000070 27 23 83 3d 35 ac 62 bc 60 d9 c8 3d 90 bf 1b 3d
       0.06403189 -0.013835003 0.09807086 0.038024485
000080 73 10 d6 3d 93 60 87 bc d8 f1 ec 3d 5f 08 ee 3d
       0.10452356 -0.016525542 0.115695655 0.116226904
000090 63 15 d6 bd 39 e6 4f 3c 7a be 07 3c 05 02 19 3d
       -0.10453298 0.012689167 0.008285159 0.03735544
0000a0 11 55 da 3d ad 97 ba 3d 5e 6d fb 3c 9d c7 d5 bd
       0.106607564 0.09110961 0.030691799 -0.10438464
0000b0 72 90 37 bd e9 8d d1 bd a0 58 aa 3d e2 df 88 3c
       -0.04481549 -0.10232145 0.08317685 0.016708318
0000c0 62 94 af bd 5b 51 64 3d 9c 83 31 3d bd 6f 14 bd
       -0.08573224 0.05574165 0.043338403 -0.036239374
0000d0 34 2e 85 3d 98 64 a3 3d be 8c 13 bd 50 ec 4c 3d
       0.06502953 0.07978171 -0.036022894 0.050030053
0000e0 56 e4 03 3c 6f fc 55 3d 63 e2 41 3d f5 de 6a 3d
       0.008050045 0.052242693 0.04733504 0.057341535
0000f0 3a ee ea bd 01 f6 bf 3c 63 9e ef bc a0 79 a6 3d
       -0.11471219 0.023432733 -0.02925033 0.08128667
000100 c4 3e f3 bd 1f cf 8c bc 75 fe ff 3c 04 e2 df 3c
       -0.11877206 -0.017188607 0.031249264 0.027329452
000110 de 4a d5 bd 96 1d ac 3d d9 da e7 3d b5 b5 2f bc
       -0.104146704 0.084040806 0.11321039 -0.010724475
000120 b4 02 c4 3c dd 2b b4 3d 2b e1 e0 3d c0 39 84 bd
       0.02392707 0.08797429 0.109804474 -0.064563274
000130 a5 9c c4 3d 66 30 cb bd 67 d2 52 bd b8 5f 70 bc
       0.0960019 -0.09921341 -0.051470187 -0.014671259
000140 10 2d e1 bc 5f 18 79 bc c4 68 04 bd 32 ea ef 3d
       -0.027487308 -0.015203564 -0.032326475 0.11714591
000150 9b 66 0f bd e3 fd 8e bd 00 7c f2 bd dd ae f8 3c
       -0.03500996 -0.06982019 -0.118400574 0.030356819
000160 63 8f c3 3c 61 f8 54 bd 90 51 c8 bd 8a 21 1a 3d
       0.023872083 -0.051994685 -0.09781182 0.03762964
000170 5b 2e 1d 3d 57 b7 7f bc 09 ef f4 bd e3 b9 80 bd
       0.038374286 -0.0156076765 -0.11959655 -0.06285455
000180 30 37 9a 3d 77 fb 1f bc 03 a5 bc bd 74 c7 0d bd
       0.075300574 -0.009764544 -0.09211161 -0.03461404
000190 e0 92 d1 3d 10 71 f2 3c 4f b1 2d 3d 4a 59 f1 bd
       0.10233092 0.029594928 0.042405423 -0.11784609
0001a0 6c 7f a7 bc 77 b1 5e 3d ca 43 89 bd c0 c3 cb bd
       -0.020446502 0.054368462 -0.06702383 -0.09949446
0001b0 ec 97 13 3d e3 1b 3a bd 5d 16 b1 bd 3d 53 80 bd
       0.036033556 -0.04543675 -0.086468436 -0.062658764
0001c0 37 c8 66 bd 41 ef 56 3d 1b 97 0b bd ab 63 ea 3d
       -0.056343284 0.052474264 -0.034079652 0.114447914
0001d0 78 51 98 3d d3 93 ca bd fb 40 18 3c 98 d3 9a 3b
       0.07437414 -0.098914765 0.009292836 0.004724931
0001e0 41 a1 41 bd a6 2c 80 3d be 9d 31 3d 18 ed b4 3d
       -0.047272924 0.06258516 0.043363325 0.088342845
0001f0 01 a9 ec 3d f7 72 e9 bd 56 17 c0 3d 02 09 eb bd
       0.115556724 -0.11398881 0.09379451 -0.114763275
000200 4f 8e 27 3d 52 f0 87 bd ed 2d bf 3c 5d d9 8e bd
       0.0409072 -0.06637634 0.023337329 -0.069750525
000210 33 fb 1f bd 6c af 22 bd 47 7a 82 bd d7 35 7e bd
       -0.03905792 -0.039718077 -0.06370979 -0.062063064
000220 45 8a 18 bd 8e bc aa 3d ff a8 bb 3d 08 66 7a 3c
       -0.03724124 0.08336745 0.09163093 0.015283115
000230 3e 6a db bd ad 6c d9 3d 55 20 7f 3d 0c 88 2e 3d
       -0.107136235 0.106164314 0.062286694 0.042610213
000240 fb e9 a4 bc 7f 4d 31 3d a7 47 d0 3d 34 02 ca bd
       -0.020131102 0.043286797 0.101699166 -0.098637015
000250 c9 a2 b0 bc 65 bc 5d bb 7a 4c 3d bd ad aa 4e bd
       -0.021561997 -0.0033834216 -0.04621551 -0.050455738
000260 e5 ab 1f 3d 58 6a f4 bd 2a c4 a8 bd 52 2c 6b bd
       0.03898229 -0.11934346 -0.0824054 -0.057415314
000270 e7 ca ce 3d 12 64 e3 bd cb 76 b6 3d 86 a8 ea 3c
       0.10097294 -0.11103071 0.08909377 0.028644811
000280 cb ba a6 bd 93 88 ee bd 8b ee 5a bd 9c df c0 3d
       -0.08141097 -0.11647143 -0.05345015 0.0941765
000290 e3 ac 33 bd 09 eb a2 3b 74 34 22 3d 79 dd 56 3c
       -0.04386605 0.004971866 0.039600804 0.013114327
0002a0 48 6e 78 3d 10 fa 2d bd 06 38 97 bd f9 8b f4 bd
       0.060652047 -0.042474806 -0.073837325 -0.1194076
0002b0 49 97 af 3d c2 7c b2 3d ee 06 a0 3d a5 80 8f bd
       0.08573777 0.08715202 0.07813822 -0.07006959
0002c0 0b d3 c5 3d 46 a7 88 3d fb f1 cc 3b 73 13 2f 3d
       0.09659394 0.0667253 0.0062544323 0.042743158
0002d0 f7 b9 43 bd b1 45 22 ba 16 29 df bd 5a 81 9e bd
       -0.04778477 -0.00061901944 -0.108965084 -0.077395156
0002e0 d8 da 3f 3d 23 bd 9e 3c 1b d1 3c bd 56 fc c0 bc
       0.046839565 0.019377297 -0.046097856 -0.023557823
0002f0 4e 8e c5 ba 4d 72 d5 bc 38 18 e6 3b 58 4f d5 3d
       -0.0015072317 -0.02605548 0.00702193 0.10415524
000300 8e 95 77 3d 11 6e c3 bb 9c e8 f0 bd 77 b3 56 bd
       0.06044536 -0.0059640487 -0.11763117 -0.052417245
000310 87 08 6f bc 5f 8d e4 bd 0a c1 e0 bd 45 fb 60 bd
       -0.014589435 -0.11159777 -0.10974319 -0.05492713
000320 94 fe 81 bc 4f f6 81 3d e5 72 ea bd 3e 33 93 3d
       -0.015868463 0.06345808 -0.11447696 0.07187508
000330 1a 69 51 3d d6 74 86 bc 72 28 4d 3d 8c 57 c4 bd
       0.051125623 -0.016413134 0.0500874 -0.09587011
000340 4c e6 7b 3d aa 78 a0 bc 6f 0a b2 bd 97 87 e9 3d
       0.061498925 -0.019588787 -0.08693396 0.11402815
000350 b1 0e c0 bc 9f ed 4b bc bc 5f 87 3a 17 fe cb bd
       -0.023444505 -0.01244679 0.0010328214 -0.09960573
000360 c6 be cc 3d e9 b3 62 bd f3 21 b9 3c b4 3e 9c 3b
       0.09997325 -0.055347357 0.022599196 0.004768217
000370 6a 82 9a bd a6 f4 25 bd eb 13 79 3d c0 42 e6 bd
       -0.07544406 -0.040516518 0.06081001 -0.112432
000380 7e ed 1f 3d 54 3e a2 bd a0 05 84 3c 48 82 a3 bd
       0.03904485 -0.079220444 0.016115963 -0.079838336
000390 38 f0 c9 3b 8c 05 f1 bd f8 54 42 bd c5 d8 cc bd
       0.0061626695 -0.11768636 -0.047444314 -0.10002283
0003a0 81 88 2e 3c 8e fb 19 3d de 3e 98 3d be 72 2b 3d
       0.010652662 0.037593417 0.07433866 0.041857474
0003b0 a7 a5 f5 bc e1 60 7d bd ed 26 87 3d bd 10 7f bd
       -0.029986216 -0.06185997 0.065992214 -0.062271822
0003c0 c3 85 a6 3d 6a 3d 80 3d 36 c0 db bd 57 32 46 3d
       0.08130982 0.06261714 -0.10730021 0.04838785
0003d0 e3 67 79 bd 01 bf 19 3d 38 08 fb bc b0 16 3b 3d
       -0.06089009 0.03753567 -0.030643567 0.045675933
0003e0 b9 ad 06 3d 1e f7 c0 3a 6b 23 4e 3d e6 6e b9 3d
       0.03288052 0.0014722084 0.050326746 0.09054355
0003f0 30 09 ed 3c 12 00 d5 bb 51 06 8e bc 90 ed 1e bd
       0.028935045 -0.0065002525 -0.017336996 -0.038800776

lstm.weight_hh_l0 f4 [256, 64]
000000 d3 e1 be 3d 25 05 8a 3c a7 bf 4f 3d 5f 8d e8 bd
       0.09320416 0.016848156 0.050719883 -0.113550894
000010 fa d8 94 bd 84 ec df bd ba f8 d4 bc fb 2c dc 3d
       -0.072679475 -0.10933784 -0.025997508 0.10750767
000020 ae 32 07 bd fd 2f b1 3d 00 53 65 bd 13 99 54 3d
       -0.033007316 0.08651731 -0.055987358 0.051903795
000030 2a d2 e9 bd a6 6e e8 3c 7f b6 9b 3d 8d c5 8c bd
       -0.11417039 0.028373074 0.07603168 -0.06873617
000040 4a 06 a5 3d 6b cc f0 bd bb f1 cb 3d c8 c4 83 3d
       0.0805784 -0.1175774 0.09958216 0.064340174
000050 92 c9 01 3c 32 4a ed bd 04 30 8a 3d c0 4c ec bd
       0.007921593 -0.11586417 0.067474395 -0.115380764
000060 b6 40 4c 3d f3 48 39 bd 42 21 e9 bd 93 0f e4 bd
       0.0498664 -0.045235585 -0.113832965 -0.11135783
000070 d0 5c 77 bc ea be 2d 3d 6d 1c c0 3c 10 b9 c1 3c
       -0.015097812 0.042418398 0.023451054 0.023647815
000080 b5 01 3a bd 92 83 13 3c c6 0a f2 3d 45 c4 90 bb
       -0.045411784 0.009003537 0.11818461 -0.0044179284
000090 8c e5 9d 3d fa fd 49 3c 06 8f b7 3d 64 4a 1a 3b
       0.07709798 0.012328619 0.089628264 0.0023542875
0000a0 a4 6a b2 bc fa 30 c0 3d 80 b7 7b bd 3d 9c da bd
       -0.021779366 0.093843415 -0.061454296 -0.10674331
0000b0 87 89 e1 3d 56 c5 db bd a8 cb d5 3c 00 ce 32 bd
       0.110125594 -0.10730998 0.026098087 -0.04365349
0000c0 fa 63 8e 3d 4a 01 f9 bb 42 bb b3 3d a8 8e df 3d
       0.06952663 -0.0075990306 0.08775951 0.109158814
0000d0 c0 c8 bf bc 7c e3 fd 3c 99 2b 91 bd e3 c5 18 3c
       -0.023411155 0.030992262 -0.07088394 0.009324524
0000e0 30 a7 47 bd b3 de c3 bd 44 59 8d 3d 59 4b b7 bd
       -0.048743427 -0.09563961 0.06901792 -0.08949918
0000f0 0d 73 e9 bd 1f 89 d4 3c f7 dc fd 3c 34 32 6e bb
       -0.11398897 0.02594429 0.030989153 -0.0036345841
000100 45 62 a5 3c a1 94 c6 3d 1b 9c 22 3c 2f 40 dd bc
       0.02018846 0.096963175 0.009924914 -0.027008144
000110 0a 50 3c bc 70 a3 23 3c 94 37 55 3d d6 18 56 3d
       -0.011493692 0.009987697 0.052054957 0.05226978
000120 96 8d de 3c b2 f1 75 3d 0e af a3 bd 2f 2f 6d 3d
       0.027167123 0.06004495 -0.079923734 0.057906326
000130 87 16 c4 3d 46 66 a1 3c f6 4f e6 3d c4 d8 5f bc
       0.09574609 0.019702088 0.1124572 -0.013662521
000140 c5 38 4d 3d de fc f8 3c f1 0d b9 3d c7 d1 9a 3d
       0.050102968 0.030394014 0.09035862 0.07559543
000150 ca e1 73 3d f2 50 35 3c 90 35 cd 3b c0 b9 64 3c
       0.0595415 0.011066662 0.0062624887 0.013960302
000160 c3 75 cf bd 10 e4 59 3d 38 18 81 bd 71 ae c8 3d
       -0.10129883 0.053196013 -0.063034475 0.09798897
000170 6f 92 72 3d 30 c1 bf bd 1e 2a 9f bd e4 27 a2 3d
       0.05922168 -0.093630195 -0.07771705 0.07917765
000180 e6 d4 ee 3d 45 42 c3 bd b2 20 e0 bd e3 ef 85 3d
       0.11661701 -0.09534124 -0.10943736 0.065398954
000190 1d 7a 1e 3d 8a 17 25 3d 65 da e8 bd 3e 19 a2 3d
       0.038690675 0.04030565 -0.113697805 0.07914971
0001a0 83 a8 ac 3d b2 ad e3 3d 26 37 a2 3d 41 db 4b bb
       0.084305786 0.11117114 0.07920675 -0.0031106027
0001b0 d8 e9 0e 3d ea 02 a6 3b f3 ac 54 3c 9d 17 9f 3c
       0.03489098 0.0050662654 0.012980687 0.01942044
0001c0 b3 02 83 3d a8 9e 9b 3d 5b 10 6b bd 30 22 8c bd
       0.06396999 0.07598621 -0.057388645 -0.06842458
0001d0 2f 05 e4 bd 76 08 89 bd a6 cf d2 3d 9e 68 a6 3d
       -0.11133801 -0.06691067 0.10293512 0.08125423
0001e0 3a a1 a0 bd b8 3c 1e 3c b0 f9 a1 bd f6 22 62 bc
       -0.078432515 0.009658031 -0.07908952 -0.013802281
0001f0 57 ae 99 3b 11 3c bf bd 51 f9 1c bd f2 d7 f3 bc
       0.0046899724 -0.09337629 -0.038323704 -0.029766057
000200 da 1a 65 bd 7d 51 c1 3c 2c 3c 4b bd 66 39 58 3c
       -0.05593381 0.023598427 -0.04961793 0.013197279
000210 c3 fc 12 bd 46 50 4c bc 07 c0 69 bc b7 6c eb ba
       -0.035885584 -0.012470311 -0.014266974 -0.0017961477
000220 78 89 ce bd 8e 92 10 3d 9a 99 84 bd 7b cc 91 bc
       -0.10084814 0.035296015 -0.0647461 -0.0177977
000230 45 86 e7 bc b5 1d ef bd 4e df ec bd 8c 9f 26 bd
       -0.028262267 -0.11675588 -0.115660295 -0.0406795
000240 00 e7 cf bd a5 14 b4 bb eb 23 d4 3d e6 de 2f 3c
       -0.10151482 -0.005495625 0.10358413 0.0107342955
000250 d5 25 48 3d 25 fa 7e 3d f5 35 76 3d 52 09 99 bd
       0.048864204 0.062250275 0.06011005 -0.07472481
000260 b8 96 8e bd 80 ab a3 bd 17 02 a3 bc 1f f0 d3 3d
       -0.06962341 -0.079916954 -0.019898457 0.10348534
000270 8a 08 a8 3c f0 52 cc 3d ba c0 c4 3c 3a 79 c7 3d
       0.020511884 0.099767566 0.02401768 0.09739919
000280 bd e6 2e bd 3a 6f d7 bd 43 42 de 3b c0 66 76 bd
       -0.042700518 -0.10519262 0.0067828014 -0.060156584
000290 74 e2 67 bd 62 75 a4 bd 8e 23 a1 3b c6 ec d1 bd
       -0.056612447 -0.080302015 0.0049175685 -0.10250239
0002a0 5a ba a8 3d 76 c6 76 bc 29 1d cd 3d bf 03 4d 39
       0.08238669 -0.015061965 0.100153275 0.00019551719
0002b0 39 f9 a4 bc 6e 1a c2 3d 65 db ea bb fa c2 91 3d
       -0.02013837 0.09477697 -0.007167267 0.07117267
0002c0 85 b1 e3 ba b6 8d 16 bd 35 43 bc 3c 8d e2 8d bd
       -0.001737163 -0.03675624 0.022981266 -0.06927977
0002d0 57 72 c8 bd 81 15 ee bc 61 67 ef 3d 87 94 9d 3d
       -0.097874336 -0.029062988 0.1168964 0.07694345
0002e0 84 82 ee bd 0b 42 53 bc 3b ed b3 bc 25 a9 d5 3d
       -0.11645988 -0.012894164 -0.021963706 0.104326524
0002f0 4a 42 a1 3d b4 35 fc bc c3 c4 b0 3d 34 d8 2b bd
       0.07873972 -0.030787326 0.08631279 -0.041954234
000300 dd 76 fb 3b a1 73 da 3d 38 bb 8e 3b 03 3b 60 3d
       0.0076740817 0.10666586 0.0043558143 0.054743778
000310 ca 74 5b 3d 64 97 28 bd fc 4b 80 3d c4 0c a7 3d
       0.053578176 -0.041160002 0.06264493 0.08156732
000320 99 6b d8 3a d0 6b a4 bd 44 3a 99 3d 0d a5 97 3d
       0.0016511559 -0.08028376 0.074818164 0.07404528
000330 b1 36 bb 3d 38 7c d5 bd cd f4 be 3c 8d 9f 80 3d
       0.09141291 -0.104240835 0.02331009 0.06280432
000340 db f6 73 bd 46 e3 7f bc 77 cf bf 3d 28 89 86 bd
       -0.05956159 -0.015618151 0.09365743 -0.06569129
000350 1b b1 d9 bd b7 cf d2 3c 19 c1 28 bd eb 98 c9 bc
       -0.10629483 0.025733812 -0.041199777 -0.02460905
000360 50 ab 05 3c 27 64 91 3d bc 3b e5 bd a3 48 9a 3d
       0.00815852 0.07099181 -0.11193034 0.075333856
000370 83 71 5a bc 35 cc c3 3d dc 68 94 3d 8f e6 c5 3d
       -0.013332727 0.09560434 0.07246563 0.09663116
000380 aa 3d 72 bd 96 85 f0 bd dd 6a 5e 3d 13 a5 2f 3d
       -0.05914084 -0.117442295 0.05430113 0.042882036
000390 e5 80 15 bc 16 df ec bd c6 fd d1 3d c8 02 e0 3c
       -0.009124969 -0.11565988 0.102534816 0.027345076
0003a0 1e 59 cb bd 15 2e 7c bc 8d e8 0c 3d d7 43 44 bb
       -0.09929107 -0.015391846 0.034401465 -0.0029947662
0003b0 02 70 d0 3d 36 6f 80 bb 89 d0 aa 3d 22 3e e5 3d
       0.10177614 -0.0039195074 0.08340556 0.111934915
0003c0 1a d8 ab 3c 4e f1 a1 bd 29 81 dd bd e7 18 bd bd
       0.020977069 -0.07907353 -0.10815651 -0.09233265
0003d0 09 c4 9f 3c ae 10 83 bd 24 d8 68 3c a4 a5 b0 3d
       0.019502657 -0.06399666 0.014211688 0.086253434
0003e0 15 5b 0f 39 3c 25 59 3c 3c 5e 2b 3c 85 df 90 3d
       0.00013671473 0.013253506 0.010459479 0.07073883
0003f0 c2 53 e1 bd 14 0a a5 bd 9b 2d a5 3c f0 6d b8 3d
       -0.11002304 -0.08058563 0.020163348 0.09005344

lstm.bias_ih_l0 f4 [256]
000000 21 39 b0 bc 7b 7b e3 bd ee 86 6d 3c 81 a2 6e bd
       -0.021511616 -0.111075364 0.014497502 -0.058260445
000010 14 64 c9 3c 84 d0 70 3c 04 f6 18 3d f0 54 b0 bd
       0.024583854 0.0146981515 0.037343994 -0.086099505
000020 ee 0d 9e 3d 13 f7 4c 3d ae c8 b8 3c ba 66 ca 3d
       0.077175006 0.050040316 0.022556629 0.09882875
000030 95 89 ee 3d c0 be ed 3c db f7 b9 3d 45 bc e4 bd
       0.116473354 0.02902162 0.09080478 -0.11168722
000040 53 7f 19 bb f8 d6 e8 3d 6b 8a 80 bd 8b c2 91 3d
       -0.0023421838 0.11369127 -0.06276401 0.07117184
000050 38 e3 cb bc 45 15 9a bd b4 82 43 bc c5 38 54 3d
       -0.02488862 -0.07523588 -0.0119330175 0.051811952
000060 0d 6c 5d bd b8 66 8f bd 62 6d 6a bd 58 78 b9 3d
       -0.054058123 -0.07002014 -0.05723322 0.09056157
000070 47 4b 99 3c 97 e1 e8 3d be 58 c0 bd 8c 45 b7 3d
       0.018712653 0.11371153 -0.09391926 0.08948812
000080 9c a9 da 3d cc 3f 6c 3d de ff 49 3c c7 ef 83 3d
       0.10676882 0.05767803 0.01232907 0.06442218
000090 0f 1e 0b 3d 3c c3 92 bd 47 5a c4 3c 1e fc 3e 3d
       0.033964213 -0.07166144 0.023968829 0.046627156
0000a0 45 02 db 3d 3b 4d 8a 3d 6b 68 bf 3d 76 7a 6a bd
       0.10693792 0.06753012 0.09346088 -0.057245694
0000b0 03 73 25 bd 01 87 82 3d ba 9b d0 bd 8c 27 a8 3d
       -0.040392887 0.06373406 -0.101859525 0.08210668
0000c0 ae 55 e5 bd c7 e5 54 bd 7e fc cd 3d f1 6f bf 3c
       -0.11197983 -0.051976945 0.10057925 0.023368808
0000d0 f6 ea 35 3b 0d 6e 25 bd 42 8c cd 3d cd 9f e7 3d
       0.0027758456 -0.040388156 0.10036518 0.113097765
0000e0 4d ea 92 bd 8a f2 e3 3d e7 3d bd 3c 6a 65 ae 3c
       -0.071735956 0.11130245 0.023100806 0.021288592
0000f0 a2 ee de 3d 0b 20 af bd 3d d0 0a 3d ef a8 50 bd
       0.10885359 -0.085510336 0.033889998 -0.050942358
000100 eb ae 2d 3d 85 d9 91 bd c7 74 a4 bc 8e a7 0b 3d
       0.042403143 -0.07121567 -0.020075215 0.03409534
000110 7f 4a 0f bd a5 49 a3 3d eb df bd bd 90 36 94 3d
       -0.034983154 0.07973031 -0.092712246 0.072369695
000120 fa d7 95 3d b3 bc 7f 3d 62 f5 17 bd 59 c4 7a 3d
       0.07316585 0.062435817 -0.03709925 0.061222408
000130 8a 57 a4 bc f5 a9 df 3d 51 15 96 bd 14 ce 73 bd
       -0.020061273 0.109210886 -0.073282845 -0.059522703
000140 99 ec 90 bd e5 53 73 bd 3b e5 23 bd bd 69 7d bc
       -0.070763774 -0.05940618 -0.040013533 -0.0154671045
000150 05 f3 49 bd 0d 19 35 bd b9 e5 db 3d 25 4e d7 3d
       -0.049304027 -0.044213343 0.107371755 0.10512952
000160 cc 28 b5 bd 26 25 79 3d bb 82 d7 3d 51 f5 ef 3c
       -0.08845672 0.060826443 0.10522982 0.02929178
000170 84 4d d1 bd 86 69 b9 bd ea 79 36 3c 71 d2 9b bd
       -0.10219863 -0.0905333 0.011137465 -0.07608498
000180 4c 95 7a 3b 28 f2 f2 3c e9 d0 ae bc 4f bd 76 bd
       0.003823596 0.029656485 -0.02133985 -0.060239132
000190 14 96 0f 3d e2 37 ac bd c3 4b b2 3d 3f 94 05 3d
       0.035055235 -0.08409096 0.08705857 0.03261208
0001a0 c6 57 9e bd 1e e6 a7 3b f7 f7 31 bb d5 a1 19 3d
       -0.07731585 0.0051238677 -0.0027155855 0.03750785
0001b0 24 33 bc 3d 05 69 6f 3d 50 4f 22 bd c1 8b 6b 3d
       0.09189442 0.058449764 -0.03962642 0.057506327
0001c0 e5 14 d3 3d 4e a8 cb bd be b5 2d bd 9e ad c4 bd
       0.1030672 -0.09944211 -0.04240965 -0.09603427
0001d0 f0 8a 4c 3d 33 17 c0 3c aa 3a ca bd 22 2e 7f 3d
       0.04993719 0.023448562 -0.098744705 0.062299855
0001e0 bf fa c6 3d 56 07 99 bd e0 0c 83 bd fd a3 5a 3d
       0.09715795 -0.07472102 -0.0639894 0.053379048
0001f0 a3 79 e0 bd c3 38 a8 ba 10 6d eb 3d 4e 7e 91 bd
       -0.109607 -0.0012834299 0.114954114 -0.07104169
000200 59 48 3e 3c 6e 3b 76 3d 02 42 a4 bd 27 ff 19 3c
       0.011613929 0.06011527 -0.080204025 0.009399212
000210 bd 41 43 3b a5 20 07 bd d1 89 d4 bd 3c a4 bb bd
       0.0029793822 -0.032990117 -0.10377849 -0.091621846
000220 70 cf c5 bb 58 27 d1 3d 9a e0 44 bd 20 ea 98 bd
       -0.0060366914 0.10212582 -0.04806576 -0.07466531
000230 c5 15 b6 3d db 71 d3 bd c0 5f dc 3d e4 83 c5 3d
       0.08890871 -0.103244506 0.1076045 0.09644297
000240 41 af d5 bd 04 7b 83 bd 4c 55 e3 bd 38 f1 1b 3d
       -0.10433818 -0.06419948 -0.111002535 0.03807184
000250 d6 d4 19 bd 14 ca 9f 3c 2e da a0 3d 3d a6 1d 3d
       -0.03755649 0.019505538 0.078541145 0.038488615
000260 26 ce e4 3d eb a7 43 3b 3e b2 f3 3d 79 6c 67 bc
       0.11172132 0.0029854726 0.118992314 -0.014124983
000270 66 fa 95 3b 80 64 dd bd f6 5c 68 3d 00 58 7c bd
       0.004576969 -0.108101845 0.05672928 -0.06160736
000280 13 1b 10 bd 80 8f c4 bd 51 8e 2f b8 ee 23 b3 3c
       -0.03518207 -0.09597683 -4.1855794e-05 0.021867719
000290 27 2f 7d bd 74 19 87 3d 73 97 c4 bc 81 c6 7b bd
       -0.061812546 0.06596652 -0.023997998 -0.061468605
0002a0 7f 83 c0 3c be 5c f2 bc 2e f5 f2 3d 14 af 2a bd
       0.023500202 -0.029585239 0.118631706 -0.041670874
0002b0 5e c6 e8 3d bd 4b 14 bd 8f 2f ab 3c 22 cf 95 bb
       0.113659605 -0.036205042 0.020896701 -0.0045718113
0002c0 66 d7 d3 bd 41 75 9f 3d 29 d8 b1 3c 52 47 ce bc
       -0.10343818 0.07786036 0.021709519 -0.025180493
0002d0 ec 23 a5 3c df d5 04 bd 5e 73 8d 3d ab f0 f1 bd
       0.02015873 -0.032430526 0.0690677 -0.11813482
0002e0 55 3b f4 bd 6b fb 04 3d 4f 34 b7 bc ad 12 58 3c
       -0.11925379 0.032466333 -0.02236381 0.013188046
0002f0 25 b3 dd bd 80 16 2a 3d 5d a5 fb 3c 76 fb a7 3d
       -0.10825185 0.041525364 0.0307185 0.08202259
000300 51 47 02 3d a7 ef ad bd cd a4 08 3b 11 2b f2 bc
       0.031806294 -0.08492976 0.0020850182 -0.029561551
000310 1a 12 56 bd 67 0c 7c 3d 93 6c d6 3d 5b 13 0f bd
       -0.052263357 0.061535265 0.10469928 -0.03493057
000320 8f 7e 22 3d eb d4 b7 3d 89 cc a8 bb 8b be 59 bc
       0.039671477 0.08976158 -0.0051513356 -0.013290058
000330 c6 24 de bd 34 df 9c 3d 5a 3d 3f 3d 5a 94 e1 bd
       -0.10846858 0.0765976 0.04668937 -0.11014624
000340 75 92 91 bd b9 3c be bd 30 5a a6 bd 3a 53 be bc
       -0.071080126 -0.09288926 -0.08122671 -0.023233045
000350 02 9b 1c 3d 99 35 6d 3c 27 3a 4b bc f1 3f b7 3d
       0.038233764 0.014478111 -0.012404001 0.08947743
000360 9d b7 0f 3d f0 b7 3d bd 5c b0 0a 3d 6b 08 91 3d
       0.035087217 -0.046317995 0.033859596 0.07081684
000370 54 f2 bc bd e5 04 8a 3c ef 3d 7f 3d 2f d4 ab bd
       -0.09225908 0.016848037 0.062314924 -0.0839008
000380 d0 de db bd 16 86 82 bd 8f 02 ce bc 8f a2 50 bd
       -0.107358575 -0.06373231 -0.025147704 -0.050936278
000390 ce 4b f0 3c 28 45 25 bd 74 4b e8 bc 73 53 24 3d
       0.029333021 -0.040349156 -0.028356291 0.040118646
0003a0 f9 84 be bd 84 32 4c 3d 04 b4 9d 3d 7e 5e 25 3d
       -0.09302706 0.049852863 0.07700351 0.040373318
0003b0 e7 3e 5a bc 23 ac 43 3d af 96 8e 3c 57 e3 e9 3d
       -0.013320661 0.047771584 0.017405836 0.11420315
0003c0 b8 87 b3 bd da 5b a2 3c 0d 8f 5c bb b2 f2 18 3d
       -0.08766121 0.019819189 -0.00336546 0.037340827
0003d0 b3 79 ba bc 5a 42 1e 3d b1 87 29 3d 73 1e df 3d
       -0.022763109 0.038637497 0.04138917 0.108944796
0003e0 69 75 e8 bc 67 53 cb bd 3f f6 9a bc 2e b4 87 3d
       -0.028376298 -0.09928017 -0.018916247 0.066261634
0003f0 57 e5 ad 3d da 9c 8b bd 94 ab 83 bd e9 cb a5 3d
       0.08491009 -0.068170264 -0.0642921 0.080955334

lstm.bias_hh_l0 f4 [256]
000000 2c b5 e8 3d be 7f 3d bd 88 e9 dc bd 17 82 22 3d
       0.11362681 -0.046264403 -0.1078673 0.039674845
000010 13 75 a3 3d 23 fd 11 3c 78 12 94 3c 5e a6 d8 bc
       0.079813145 0.00891045 0.018075213 -0.026446518
000020 1b e7 ee bd a9 25 f1 bd 9a 24 14 bc 40 57 be bd
       -0.116651736 -0.11774761 -0.00904193 -0.09293985
000030 13 23 c8 bd 6a 40 14 bc 90 f1 8a 3d 91 47 42 bd
       -0.09772315 -0.009048561 0.06784356 -0.047431532
000040 72 8a 15 3d 10 dd b9 bd f5 f6 21 bd 9f 26 70 bd
       0.036508985 -0.090753675 -0.039542157 -0.058630582
000050 7c 7f 6f bd 27 86 a9 3d f6 31 ec 3c cd 39 b8 3d
       -0.058471188 0.08277541 0.028832417 0.089953996
000060 78 75 e4 3d 8f 2d 86 bd 54 cb e9 bd 8a 09 bb 3d
       0.11155218 -0.06551658 -0.11415735 0.09132679
000070 9b dc 8e 3d 1c c3 b1 bd 9d 07 b3 3c 10 0a 9b bd
       0.06975671 -0.08679792 0.021854216 -0.07570279
000080 46 3b 90 bd 8d e4 be bd f9 f0 a7 3d 21 a1 9b bd
       -0.070425555 -0.09320936 0.08200259 -0.07599092
000090 dc 24 49 bd 25 b3 3b bd 65 84 f3 3c be 9b 12 3d
       -0.049107417 -0.045825142 0.029726217 0.03579306
0000a0 e4 d8 2f 3c a9 29 eb 3d 78 3f 05 bc e6 8a 9e 3d
       0.010732863 0.114825554 -0.008132808 0.077413365
0000b0 7e 94 1c bd 66 06 ae 3d 0e b4 e2 bd 98 f2 d2 bd
       -0.03822755 0.08497314 -0.11069499 -0.10300177
0000c0 31 e6 97 3d 59 6f cf bd cb c6 bb 3d 78 e0 4c 3d
       0.074169524 -0.1012866 0.09168776 0.050018758
0000d0 77 8e bc 3d 3f 43 16 3d d4 d1 82 bd fa ab 6f 3c
       0.092068605 0.036685225 -0.06387678 0.014628405
0000e0 0c d1 93 3c d1 89 b9 3d 68 4b 24 bd d1 11 55 bc
       0.018044017 0.090594895 -0.040110976 -0.013004736
0000f0 7e 0a 9e 3c 7a 6e f2 3d 50 b3 bf bd ec 6b 41 bd
       0.019292112 0.11837478 -0.09360373 -0.047222063
000100 91 f6 37 3d a3 32 9f bd e8 2b 88 bd d3 ef 9e bd
       0.04491288 -0.0777333 -0.066489995 -0.077605866
000110 8c ee dd bd 3b a2 e0 3d 90 22 07 bd fb 13 ed bb
       -0.10836515 0.10968443 -0.032991946 -0.007235048
000120 c4 03 c0 3b d2 29 a3 bd 9e f1 e1 bb ce 9d ee bd
       0.005859824 -0.07966961 -0.006895258 -0.116511926
000130 3e b2 8a 3c 4f be be 3d 8c d3 c9 bd cf f4 cb bd
       0.016930696 0.09313642 -0.098548025 -0.09958803
000140 92 e2 4c bc 20 36 02 b9 d4 ce d2 3d 7d 6c 93 bd
       -0.01250519 -0.00012417929 0.102933556 -0.07198427
000150 c6 7a 84 3d 02 bc b3 bd 12 c0 4c 3b cd 8a c7 bd
       0.0646873 -0.08776094 0.0031242413 -0.09743271
000160 a2 a2 75 3c 98 95 a2 3d 6f 25 a9 3d 45 af 7c 3d
       0.014992388 0.07938689 0.08259093 0.061690588
000170 6e 03 96 3d 15 34 0c bd 6e 34 ba 3d 61 f2 98 bd
       0.07324873 -0.034229357 0.090920314 -0.07468105
000180 2d e2 69 39 1d 2d aa 3c bc 9e 28 bd 47 e3 83 bd
       0.00022304869 0.020773465 -0.041167006 -0.06439834
000190 4a c0 f0 bc 35 8e 94 bd e7 b4 2e bd d1 67 93 bc
       -0.029388566 -0.07253686 -0.04265299 -0.01799384
0001a0 c6 df 9f 3c bd 7b 48 bd 97 fd f6 bc e7 fe ac bd
       0.019515883 -0.04894613 -0.030150218 -0.08447056
0001b0 9a 6d 61 3d 07 7c af 3d 46 25 50 bd ea a1 76 bd
       0.055036165 0.08568578 -0.050816797 -0.060213007
0001c0 7d 5b e5 3d c4 28 06 bd a7 00 f9 bc 57 e8 11 3d
       0.11199091 -0.03275372 -0.030395819 0.035621967
0001d0 6c 43 58 bd 39 a2 be ba ec 5c 14 3d 51 fb a8 bd
       -0.052798674 -0.0014544196 0.03622143 -0.0825106
0001e0 02 03 aa 3d 33 de 4a 3d f9 65 b9 bd 63 58 3d bc
       0.08301355 0.049528312 -0.09052653 -0.011556718
0001f0 52 da 86 3d 01 e4 87 bc 6f 40 d0 ba ec 59 a5 3d
       0.0658461 -0.016588213 -0.0015888343 0.08073792
000200 d1 72 ae 3d 55 b8 0c 3d 71 c0 04 3d 95 88 b1 bd
       0.08517993 0.03435548 0.03241009 -0.08668629
000210 d9 22 7b 3d c3 2e f2 3d 45 43 91 bd ea e5 e9 bd
       0.06131253 0.11825325 -0.07092909 -0.11420806
000220 4a 3a 19 3d d6 9f e7 3d 2b 27 57 bd 5b 84 e7 3d
       0.037409104 0.11309783 -0.052527588 0.11304542
000230 9c 19 b2 3d 7c 2c cc 3d e0 2f e6 3d 6b 66 77 3d
       0.08696291 0.09969422 0.112396 0.060400408
000240 d7 26 bf bb 64 6d ec bd da c2 a1 bc 2e d5 bd bd
       -0.0058334875 -0.11544302 -0.019746233 -0.092691764
000250 40 10 9b 3d f3 01 f0 3d b3 44 ca bd 3c 30 ce 3d
       0.07571459 0.11719122 -0.098763846 0.10067794
000260 5a 25 d9 3d 08 c8 1b bd b4 8f 8a 3d 8b 13 08 bd
       0.10602827 -0.03803256 0.067656904 -0.033221763
000270 ad 99 19 3d a1 e2 dd bd a3 4b ac bc 94 c0 c6 3d
       0.037500072 -0.10834242 -0.02103216 0.097047
000280 f5 e7 cf bd 4f 4a 35 3c 74 42 d4 3d f4 57 91 3d
       -0.10151664 0.01106508 0.103642374 0.07096854
000290 b0 af 55 3d 42 d4 17 bd bc a8 d4 3c 17 ef da 3d
       0.0521695 -0.03706766 0.025959365 0.10690134
0002a0 a0 bd 14 3d 8b 2a 80 bd ef 5b 86 bd 28 17 7c bc
       0.036313653 -0.062581144 -0.06560504 -0.01538638
0002b0 98 16 52 3d 36 fa e2 3d b9 fa 40 bb 3b 84 fc bc
       0.05129108 0.1108288 -0.0029446317 -0.030824771
0002c0 05 bc 31 3d c0 f2 e1 3b ab 53 e7 bd 93 5f 94 bc
       0.0433922 0.006895393 -0.11295255 -0.01811198
0002d0 ad b8 30 bd 55 bc 93 3d 6d f2 8a 3c 6a 81 cb bd
       -0.04314487 0.07213656 0.0169613 -0.09936793
0002e0 22 37 81 3d 29 3c e8 bd 7d ae 91 3c ca c3 f0 bd
       0.06309344 -0.113396 0.017783398 -0.11756094
0002f0 96 67 b8 bd 7e 77 69 bd 63 36 b1 bd 25 da 31 3d
       -0.090041324 -0.056998722 -0.086529516 0.04342093
000300 7c 4c a0 3d 47 51 d3 3c cc 8d 91 bd 79 17 03 3d
       0.07827088 0.025795592 -0.07107124 0.032004807
000310 f5 57 c6 bb 6f a8 ae 3b 34 a2 a5 3d 62 54 c7 bd
       -0.0060529658 0.0053301374 0.080875784 -0.097328916
000320 58 3d 9e bc cf a3 10 3d c2 61 e2 bd 9a 6c 60 3d
       -0.01931636 0.03531247 -0.11053802 0.05479107
000330 73 c7 28 3d a9 f1 2e bc 99 77 c3 bc 5f ea ec 3d
       0.041205835 -0.010677733 -0.02386074 0.1156814
000340 a5 cf d9 bd 12 41 81 3d db 83 39 bd ed 35 99 ba
       -0.10635308 0.06311239 -0.045291763 -0.0011689045
000350 99 15 a6 bd cc bb f2 bd 7f 6e 1d 3d 71 66 e0 3d
       -0.08109588 -0.11852226 0.038435455 0.10957039
000360 79 52 d0 3c 42 c9 b4 3d d2 c4 00 3d db 30 2c bd
       0.025429951 0.088274494 0.031437702 -0.04203878
000370 4a 98 fd bc 6f dc d9 3d 34 04 1a bd 31 68 9f 3d
       -0.030956406 0.106377475 -0.037601665 0.07783545
000380 ff e4 b7 bc 49 cb 76 3d b0 4b 9f 3b fd 7c 8c 3d
       -0.022448061 0.06025246 0.0048613176 0.06859777
000390 ab f3 1e bb a6 bb 1a bd c6 4c a6 3d c9 cb c9 bd
       -0.0024254124 -0.03777661 0.08120112 -0.09853322
0003a0 e6 79 71 bd 7c 5e 2a 3d 34 2a b2 bd 3f c5 1c 3c
       -0.058954142 0.041594014 -0.08699456 0.0095685115
0003b0 14 bc a3 bd b0 38 96 3d 51 a9 7c bd c0 4c 34 3c
       -0.079948574 0.07335031 -0.06168491 0.011004627
0003c0 80 1d f4 3d 1b 61 b8 3d 11 75 13 3d 35 35 ce 3d
       0.11919689 0.090028964 0.036000315 0.10068742
0003d0 91 53 db bd 28 84 c8 3d 07 ab ed bd 74 4a c7 bd
       -0.107092984 0.09790832 -0.116048865 -0.09730998
0003e0 24 10 8d bd 64 e7 12 bc c5 0c ef 3d ad eb 79 bc
       -0.06887844 -0.008966301 0.116723575 -0.015253943
0003f0 5f 0f 9d 3d 3f 44 65 3d d5 de 8d 3b eb 8a 2b 3c
       0.076689474 0.055973288 0.004329542 0.010470132

lstm.weight_ih_l1 f4 [256, 64]
000000 96 94 dc bd 9f b8 9d 3d 13 7a dd bd f3 94 83 ba
       -0.10770528 0.07701229 -0.108142994 -0.0010038897
000010 21 48 3e bd 0f 67 65 bc 13 7d 7d bd 81 37 b8 bd
       -0.046455506 -0.014001622 -0.06188686 -0.089949615
000020 18 e7 ad 3d 8e b8 86 3d ef a9 33 3d 83 b0 c2 bd
       0.08491343 0.0657817 0.043863233 -0.09506323
000030 fd 85 06 bc c1 53 8f 3d 38 08 4b 3d 1d 43 ea bc
       -0.008210656 0.06998397 0.049568385 -0.028596455
000040 4f 77 d6 bd b7 99 66 3c 4e a9 9f bd 54 d7 bb 3c
       -0.10471975 0.014074734 -0.07795964 0.022929825
000050 f5 b2 9d bc a3 15 f4 bd 0b 12 81 3d 9d cf a7 3d
       -0.019250372 -0.119181894 0.063022695 0.08193896
000060 97 1b b9 3d 5c 79 de bc 78 64 36 3d 93 ff 3a 3d
       0.090384655 -0.027157478 0.04452941 0.04565389
000070 80 af f6 3b 1f 85 cb 3d 04 c2 82 bd bb ab 74 3d
       0.0075282454 0.099375 -0.06384662 0.059734087
000080 33 d6 9d 3d 0a ae 7f 3d 2d 4b 4e bd a3 94 2f bd
       0.07706871 0.062421836 -0.050364662 -0.04286636
000090 7d 9b dc bd 13 36 c5 3d b6 a9 f3 3d 9d 70 ef 3b
       -0.107718445 0.096294545 0.11897604 0.0073071257
0000a0 6b fe 3a bc 34 a6 f4 3c 42 81 bf bc f1 41 f0 bd
       -0.011413197 0.029864408 -0.023377065 -0.11731327
0000b0 c5 5f 23 3d c7 96 6f bb 48 85 28 bc 40 b5 cd bd
       0.039886255 -0.0036558376 -0.010285683 -0.10044336
0000c0 d4 ff 42 3c 15 66 b2 3d d4 c2 62 bd 97 02 ee bd
       0.0119018145 0.08710877 -0.055361584 -0.11621588
0000d0 7b e3 50 bd 89 75 e4 3d cf a2 4d 3c 74 14 dd bd
       -0.050998192 0.111552306 0.012551024 -0.10794917
0000e0 e6 97 80 bd 40 85 e3 bd 44 7e 52 3d 06 7a 38 3d
       -0.06278972 -0.111094 0.051389948 0.045038246
0000f0 50 1b 83 3d eb 24 c0 bc e4 49 39 3d 18 da 59 3d
       0.06401694 -0.023455104 0.045236483 0.053186506
000100 7e 5a 5b bd 6b 27 85 3d b5 4a 98 3c 75 87 e5 bd
       -0.053553097 0.06501659 0.01859031 -0.11207477
000110 84 f1 b3 3d 08 b8 0b bd b0 f6 8b 3d 4c cd f3 3d
       0.087863 -0.034111053 0.06834161 0.11904392
000120 8e a4 da 3d 1e fa 2c 3d 52 8f c6 bd be b3 0a 3c
       0.106759176 0.042230718 -0.09695305 0.008465705
000130 0b 10 db bd 9e 4f 76 bd d1 ff f1 bd bf 2c 50 3d
       -0.10696419 -0.060134523 -0.11816371 0.050823923
000140 f1 b9 95 3d 8a 3b ed bc 5f 98 c5 3d c1 5f df bc
       0.07310856 -0.028959054 0.09648203 -0.027267339
000150 45 ab 96 3d 9e 6c 96 3d c9 7b f6 3c e7 0c 95 3d
       0.07356886 0.07344936 0.030088322 0.072778516
000160 42 92 cb bd 4b 83 c8 3d b7 38 f2 3c f5 c0 3b 3d
       -0.09940006 0.09790667 0.02956806 0.045838315
000170 bb ca 94 bc 78 fd 88 bd 7b 68 ec bc e7 86 16 3d
       -0.018163076 -0.0668897 -0.028858414 0.036749747
000180 89 33 d3 3d d8 0a 9c bd 51 b1 ac bd dc de 23 bd
       0.10312564 -0.07619256 -0.08432258 -0.040007457
000190 66 3f da 3d ce 31 06 3d 04 b5 46 bd b2 60 5a bd
       0.106566235 0.03276234 -0.048512474 -0.053314872
0001a0 16 a3 f0 bc 21 be cb 39 c2 f5 2e bc 41 b8 8c 3d
       -0.02937464 0.00038860834 -0.01067871 0.06871081
0001b0 a8 fa 78 3d a3 b7 de bd f3 89 9c bc 59 2b 5f 3c
       0.06078592 -0.1087487 -0.019108748 0.013621175
0001c0 94 c4 9c bc 38 95 70 bc 4c 02 2e 3d e1 94 e3 3d
       -0.019136705 -0.014684014 0.04248266 0.11112381
0001d0 6f 7a 6d 3d a5 d3 a6 3d 52 d6 ee bd 6a 80 b6 bc
       0.05797809 0.08145837 -0.11661972 -0.02227803
0001e0 3c f7 ab bd e9 b8 f4 3d 4d 2f d5 3d a5 6a 49 3c
       -0.083967656 0.11949331 0.104094125 0.012293492
0001f0 64 bf e9 3d d9 8e ab 3c fd 46 ef bd ac 73 73 bd
       0.11413458 0.020942139 -0.11683462 -0.059436485
000200 d7 c0 b8 bd 0b 57 b7 3d e4 c6 eb 3c e8 45 a7 3b
       -0.09021156 0.08952149 0.028781362 0.005104769
000210 be ed cd 3d 98 a6 c2 3d fc 49 b8 bd 9f 5b b1 bc
       0.10055111 0.095044315 -0.089984864 -0.021650134
000220 82 73 a9 bd 43 90 4c bd bc 71 69 b9 61 a4 ab bd
       -0.082739845 -0.049942266 -0.00022262981 -0.08380962
000230 26 b6 b9 bc 11 2a 9c 3d c8 f2 c4 3d 41 b7 7d 3d
       -0.022669863 0.07625211 0.09616619 0.061942343
000240 47 3e 57 3d 67 77 bd bd 03 69 a6 bd 2a 0a 28 bc
       0.052549627 -0.0925129 -0.08125498 -0.01025633
000250 bc f9 4b 3d 03 93 14 bc 23 71 4e 3d 75 d0 39 bd
       0.049798712 -0.009068253 0.050400864 -0.045364816
000260 64 f8 cf 3d e6 63 11 3d aa 04 a4 3d e5 52 ed 3d
       0.101547986 0.03549566 0.08008702 0.115880765
000270 25 68 cc bb be 48 df 3d 2d 8f f0 bd 85 0a c5 3d
       -0.006238001 0.10902546 -0.117460586 0.09621147
000280 8a 8e 0a 3d cc 1e 11 b8 01 b2 d2 3d f6 e5 e5 bd
       0.033827342 -3.4599376e-05 0.10287858 -0.11225502
000290 ff 06 3d bd 0b cc 31 bd 40 4a d4 3d 0b da d7 3d
       -0.04614925 -0.04340748 0.103657246 0.10539635
0002a0 28 ca cf 3d 80 f5 e2 3a 70 eb e5 bb 28 f7 b9 3d
       0.1014598 0.0017315596 -0.0070165917 0.090803444
0002b0 f1 57 b6 3d b7 96 35 3d 7f 99 df 3c a9 0a 8a 3d
       0.08903492 0.044333186 0.027294872 0.067403145
0002c0 32 2a ce bd e9 45 d2 3c 5e c2 64 bd 41 5d bf 3c
       -0.10066642 0.025668101 -0.055849425 0.023359897
0002d0 dc a9 06 3d ee 54 dc bd a8 72 a6 3d 6d f0 16 3d
       0.032876834 -0.107583866 0.08127338 0.03685038
0002e0 53 f0 82 bb 39 1c 8f bc 67 e9 ae 3d 6b a4 3b bd
       -0.003995934 -0.017469512 0.08540612 -0.045811098
0002f0 ae 28 20 bc c5 19 a8 3d 92 8c cc 3d b2 22 1a 3d
       -0.009775324 0.0820804 0.09987749 0.037630744
000300 e9 e5 8b 3d b3 62 11 bd 60 3c 1d bd 51 a7 d4 bd
       0.06830961 -0.035494518 -0.038387656 -0.103834756
000310 29 8c b4 bd 89 0a 37 bd 5c 53 3f bc ef 23 86 bd
       -0.08815796 -0.04468778 -0.011677589 -0.065498225
000320 f6 5d f4 3d 6c 08 a0 3d 14 37 9f 3d b2 84 23 bc
       0.11931984 0.07814106 0.07774177 -0.0099803675
000330 f7 dc b8 bd 04 6e d4 3d ff e2 4c 3d 77 ae c9 bc
       -0.09026521 0.10372546 0.050021168 -0.024619324
000340 81 f5 87 3d 86 3a b1 bd fd f7 e5 3d bc 64 e2 3d
       0.06638623 -0.086537406 0.11228941 0.1105437
000350 c9 b3 98 3d 31 10 5b 3d 4d 79 87 3d 26 bc 48 bc
       0.07456166 0.05348224 0.06614933 -0.012251889
000360 3b 17 2b bd 27 2f 87 3d 29 63 cf bd 6a 49 a7 bd
       -0.0417702 0.066007905 -0.10126335 -0.081682995
000370 84 fb ce 3d 62 e6 d5 bd 3a f6 a1 bd 56 6b df 3d
       0.101065665 -0.10444333 -0.07908292 0.109091446
000380 d3 65 ae bd 09 46 2e bd b6 a4 86 3d e7 e9 ac bc
       -0.08515515 -0.04254726 0.06574385 -0.021107627
000390 98 9b d2 3d 4b ff 06 bd 33 18 a4 3d ca 79 e1 3d
       0.102835834 -0.03295831 0.08012428 0.110095575
0003a0 9d 0c b6 bd 42 df f0 3d 3c e7 e2 3d ee da 8e bc
       -0.088891245 0.11761333 0.11079261 -0.017438378
0003b0 e6 9f 99 3d e2 ae 7d 3d a1 fd 99 bc 53 42 98 bd
       0.07501201 0.06193436 -0.018797697 -0.07434525
0003c0 de 32 b8 bd aa 9e 46 3d a4 ba 83 3b 31 8f 06 3d
       -0.08994077 0.048491158 0.004020052 0.0328514
0003d0 0a fb 8c 3d 8c d4 b9 3d c1 bc b8 3d 81 a0 9b 3c
       0.068838194 0.09073743 0.09020377 0.018997433
0003e0 9f 31 d2 3d 04 52 94 3d c2 0b 9b bc d0 9a a2 bd
       0.10263371 0.07242206 -0.018926505 -0.079396844
0003f0 78 1d 9a bd 2b 11 84 bd 5e 79 e1 3d 8d 0e b0 3d
       -0.07525152 -0.06448587 0.11009477 0.08596525

lstm.weight_hh_l1 f4 [256, 64]
000000 12 25 be bd 83 f1 db 3c 2a 7e ae 3d 92 59 93 3d
       -0.09284414 0.02684856 0.08520158 0.071948186
000010 f7 63 ab bd 80 ad e0 bd c9 71 6b 3d e7 3b f3 bd
       -0.08368676 -0.109705925 0.05748156 -0.1187666
000020 b8 6a 21 bd 0d 4b 98 bd 13 67 47 3d 5c a4 f2 bd
       -0.039408416 -0.0743619 0.048682284 -0.11847755
000030 96 e8 e2 3d da 65 2a bd 92 69 58 bd dc fe cf bd
       0.110795185 -0.04160104 -0.052835055 -0.101560324
000040 88 78 68 bc c3 98 41 bd 7d 66 89 3c 74 46 be 3c
       -0.014188893 -0.047264826 0.016772503 0.023226954
000050 76 08 20 bd 06 38 13 bd c7 d1 c3 bd de 71 b2 bd
       -0.03907057 -0.0359421 -0.09561496 -0.08713125
000060 9b 54 c1 bd 1f 58 ce bc f9 8a 74 3d 8c 89 ad 3c
       -0.09439965 -0.025188504 0.059702847 0.021183752
000070 28 75 2b ba 5c c8 6b 3d c5 9d d4 bd 07 c4 b8 bd
       -0.000654059 0.057564124 -0.10381655 -0.09021764
000080 41 7d e4 bd 3c 8b bf bd d4 0d 19 3c b1 28 b5 bd
       -0.11156703 -0.09352729 0.009341676 -0.08845652
000090 c6 f2 89 bd ae b0 b8 3d 39 31 bb 3d c7 3c 21 3a
       -0.067357585 0.09018074 0.09140248 0.0006150719
0000a0 07 78 bd 3d 3d 82 c6 bd 87 d7 b2 bd 5e b4 f4 3d
       0.09251409 -0.0969281 -0.08732515 0.11948465
0000b0 0f 01 3d bc 6a fb ad 3c 1f db e5 3c c3 75 d4 bc
       -0.011535897 0.021238048 0.028058587 -0.02593506
0000c0 8b f4 c5 3c 6a 7f 10 3d e0 cc 5f bd d4 00 80 bd
       0.024164459 0.03527776 -0.054638743 -0.06250158
0000d0 05 df 29 bd 58 0e a2 bd f7 37 46 bd 20 5d 29 3d
       -0.041472454 -0.07912892 -0.048393216 0.041348577
0000e0 41 6e 8f 3c e1 30 db 3d 9c 0e d2 3c b7 2f d8 3b
       0.017508628 0.10702682 0.025641732 0.006597485
0000f0 bb 97 12 bb 11 bd 4b 3b 12 de da bd 89 7a 81 3d
       -0.002236827 0.0031088034 -0.10686888 0.063222
000100 73 a4 38 bc a7 35 91 3d e8 b7 99 3d b5 5f 2e bb
       -0.0112696765 0.070903115 0.075057805 -0.0026607339
000110 55 44 e0 bd 3d 6b d7 3d 90 59 5e 3d 12 e4 9f bd
       -0.10950533 0.10518501 0.054284632 -0.07807173
000120 8f 89 cf bd 69 d0 0e 3d e9 89 e4 3c 44 70 47 bd
       -0.10133659 0.034866724 0.027897792 -0.04869105
000130 14 94 01 bd ff 4e 4a bd 21 e9 a1 3d 2d 5e 71 bd
       -0.03163536 -0.049391743 0.07905794 -0.058927704
000140 b5 07 c3 bd 94 8c 87 3d 26 1f b7 bd 76 4d d8 bc
       -0.095229544 0.0661861 -0.08941488 -0.026404124
000150 cf 22 ad bb b9 d5 b4 3d 10 ad d8 bd 54 e4 9d bd
       -0.0052836905 0.08829827 -0.10579884 -0.07709566
000160 2c 38 3c 3d 29 fa c0 3d a2 84 15 3d 01 05 5e 3d
       0.045952007 0.09422714 0.03650344 0.05420399
000170 74 8a ce 3d 5c 4f 51 bb e9 de 85 3d dc e0 13 3d
       0.100850016 -0.003193817 0.06536657 0.036103114
000180 9a 61 9d bd 38 fb 4f 3b e6 c8 8f bd d2 d5 db 3d
       -0.07684632 0.0031735431 -0.0702074 0.10734142
000190 89 5a e5 3c d2 ac ca 3d e9 39 ca 3d 32 5d c3 bd
       0.027997272 0.09896244 0.09874327 -0.0953926
0001a0 35 36 4f bd 2f e4 fc 3c b6 3f 98 bd 30 cc 88 bd
       -0.050588805 0.030870525 -0.07434027 -0.06679571
0001b0 37 18 e4 bc d3 aa c8 3d 6d 36 d0 bd dc 14 b8 bc
       -0.027843578 0.09798207 -0.10166631 -0.022470884
0001c0 bb 68 aa bb 6e 66 0a b9 f8 6e 38 3d a5 b1 1a bd
       -0.005200473 -0.00013198864 0.045027703 -0.03776707
0001d0 bf d9 e7 bc 3c 86 51 bd 94 b3 ea bd cd dd ce bc
       -0.028302072 -0.051153407 -0.11460033 -0.025252247
0001e0 e6 0b ca 3c 27 f0 de 3c 30 5b e4 bd 64 d0 fe 3c
       0.024663877 0.027214123 -0.11150205 0.031105228
0001f0 0c 8a fa bc 38 d7 81 bd 97 eb f2 bd 16 28 ec bd
       -0.030583404 -0.06339878 -0.118613414 -0.11531083
000200 ab 9a e3 bd 5f cb 15 bd b1 9b ea bd 21 5b e4 bd
       -0.11113485 -0.036570903 -0.11455477 -0.11150194
000210 6e 3e ae 3b 97 39 a6 3d 5b 77 b8 bd 6b ee 7e bd
       0.005317501 0.08116453 -0.0900714 -0.06223909
000220 eb e8 35 bd d6 41 a5 3d dd 78 9a 3d 4f d5 48 3d
       -0.04441158 0.08069198 0.07542584 0.049031552
000230 46 06 e7 bd 97 44 4c bc 84 3e b2 bd 36 bd f2 bc
       -0.112804934 -0.012467525 -0.0870333 -0.029631238
000240 fb c3 72 bd 5b ae 86 bd e1 0c 9b bd 09 5d 39 3d
       -0.059268933 -0.065762244 -0.07570816 0.04525474
000250 7c 39 d7 3d c5 12 a6 3c f8 4c ca 3c 9c f9 43 3d
       0.10509011 0.020272622 0.024694905 0.047845468
000260 08 4b 6b 3c d8 26 b0 3d f6 1d f0 3b 35 5a 3a bd
       0.014361151 0.08601159 0.0073277904 -0.045496184
000270 c0 fc b6 3d 2f 90 60 bc 45 27 9a 3d 02 c0 d1 bd
       0.08934927 -0.013706251 0.07527021 -0.10241701
000280 f4 a6 97 3d 1e 25 55 3d 9c ea ab 3d 7f 45 bd 3d
       0.07404891 0.05203735 0.083943576 0.09241771
000290 d5 76 88 3c 5e 0a d1 3c 16 1c b0 bd ac 94 7a 3d
       0.016658226 0.025517639 -0.08599107 0.06117694
0002a0 29 22 bb bd 81 b2 67 bd 73 c2 13 bd f7 12 7c bd
       -0.09137375 -0.05656672 -0.036074113 -0.061541524
0002b0 4a 81 7c 3c 44 df ea bd e8 86 48 3d 97 03 b3 bd
       0.015411684 -0.11468366 0.04895678 -0.08740919
0002c0 3d e1 59 bd b5 0b 62 bd 74 ed 91 bd aa c0 31 3d
       -0.05319332 -0.055186946 -0.07125369 0.04339663
0002d0 4c a9 d6 bb 02 75 b2 3d ed 94 94 bd 80 3d 86 bd
       -0.0065509435 0.08713724 -0.07254968 -0.06554699
0002e0 10 c8 f1 3d ef d0 4b 3d 11 79 94 3d 5e 5e 64 3d
       0.11805737 0.0497598 0.07249654 0.055754058
0002f0 97 71 a8 bd 25 d1 47 bd 74 70 60 bd 36 2d c3 3d
       -0.082247905 -0.04878344 -0.054794744 0.09530108
000300 80 03 84 bd cd d8 28 bd c5 ad 8b bd 6f f1 63 3d
       -0.0644598 -0.041222382 -0.06820253 0.05565017
000310 2e 99 b3 3d ce bb bd 3b d9 94 69 3d 6a 18 7d 3d
       0.08769451 0.0057902103 0.057026718 0.06179086
000320 21 66 b4 3d af e9 b9 3d 4a fa e1 3d 1b 4b 8a bd
       0.08808542 0.09077775 0.11034067 -0.067526065
000330 64 c6 e9 3d 78 fa 08 bc 1c 61 35 bc 8b 18 73 bd
       0.11414793 -0.008360498 -0.011070516 -0.059349578
000340 8a bc 72 bd 59 e0 7d 3d ca d8 c3 3d e7 a3 93 3d
       -0.059261836 0.061981533 0.095628336 0.07208996
000350 ae 0c ea bd 7b 42 0f bd e6 ab d6 3b 25 25 8b bd
       -0.114282 -0.03497551 0.0065512536 -0.06794194
000360 d0 a6 82 bd b5 28 3c bd 01 2c 76 bd ff b2 39 bd
       -0.06379473 -0.04593726 -0.06010056 -0.04533672
000370 8b 0c 9e 3d b2 f6 8c bd 4a d1 c0 bd 04 ce 18 bd
       0.07717236 -0.06882991 -0.09414919 -0.037305847
000380 a1 30 5f 3b c7 41 7d bd e0 e9 9b 3c 65 5a 91 3d
       0.0034056085 -0.06183031 0.019032419 0.070973195
000390 c8 12 52 bb 85 77 a8 3c 83 a2 b3 3d 3e 80 a1 bc
       -0.0032054652 0.020564804 0.08771231 -0.019714471
0003a0 b4 49 c3 3c d0 03 db bd 48 e2 a2 3d f6 25 52 bc
       0.023838855 -0.106940866 0.07953316 -0.012826433
0003b0 7d 27 2e 3d eb 58 ae bd 34 f6 8f ba 57 6e bf bd
       0.042518128 -0.085130535 -0.0010983408 -0.093472175
0003c0 b7 91 df 3c ff 98 f4 3d 02 40 87 3c 95 5e a9 3c
       0.027291162 0.11943244 0.016510013 0.020674983
0003d0 84 20 4f bd f9 aa ef bd ae 85 e3 bd 2d cf 9f 3d
       -0.05056812 -0.11702532 -0.11109482 0.078031875
0003e0 9e 75 ca bd 5f 07 1c bd 4f 79 7f 3d 37 5d 2d 3d
       -0.09885715 -0.038092967 0.06237155 0.042325225
0003f0 24 dc d9 bc bf ac 4e 3d 6c 90 8a bd 1f 28 66 3c
       -0.026594229 0.050457712 -0.067658275 0.014047652

lstm.bias_ih_l1 f4 [256]
000000 d3 e6 a3 3a c2 d0 e7 3d e9 41 97 3d 13 d8 a8 3d
       0.0012504704 0.11319114 0.07385618 0.08244338
000010 8d 35 af bd dc 2c b9 3b 3e f3 2c 3c cf 2a 3f bd
       -0.08555136 0.0056510996 0.01055604 -0.046671685
000020 89 05 bf bc be fa 24 3d 21 65 b1 bd 5f dd ba 3d
       -0.023318069 0.04027819 -0.08661867 0.091242544
000030 7e 0b dd bd 13 e7 8c bd 73 28 db 3d a5 65 73 bd
       -0.107932076 -0.068800114 0.107010745 -0.059423108
000040 fe 43 ef 3d d1 31 0a bd d9 91 e6 bd 56 0d 76 bd
       0.1168289 -0.033738915 -0.11258287 -0.060071312
000050 db 23 ea 3d d9 77 e2 bd a3 21 62 3d 2f 59 bb 3c
       0.1143262 -0.110580154 0.05520786 0.022869674
000060 16 46 29 3d 6d 59 90 3d 0e 46 87 3d 3a 97 c9 3d
       0.041326605 0.070483066 0.06605159 0.09843297
000070 de 2d ba 3d 3b ee a5 3d d3 3a da bd 0d 43 ce 3d
       0.0909078 0.081020795 -0.10655751 0.10071383
000080 e6 2d a5 bd 3a 2e 6c bd 74 ac d1 3d ea 12 9a 3d
       -0.08065395 -0.057661273 0.10237971 0.07523139
000090 32 0a 7c bd 69 12 b1 3c ae f2 ea 3d d6 cd a1 3d
       -0.06153316 0.021615224 0.11472069 0.07900588
0000a0 14 60 f3 bd 6f c7 ae bc fd c1 c9 bd fe 83 a1 3c
       -0.1188356 -0.021335332 -0.098514535 0.01971626
0000b0 82 e7 e0 bd 3d 4c bc 3d dc cc c1 bd 0b 1f dd bd
       -0.109816566 0.09194229 -0.09462902 -0.107969366
0000c0 c1 09 d9 3c fe 95 84 bd 50 9c e1 bd ed 72 66 3d
       0.026493909 -0.06473921 -0.11016142 0.056261946
0000d0 4e 2f fd 3c a9 d2 1f bd 55 21 ab bd 59 12 76 3d
       0.030906346 -0.03901926 -0.08355967 0.06007609
0000e0 9b ec e3 bd a0 ee 8c bd 7d c2 ea bc f2 68 aa 39
       -0.11129113 -0.068814516 -0.028657192 0.00032503117
0000f0 51 22 90 bd 14 c3 f2 bd 24 1b 74 3d 51 b7 8a bb
       -0.07037795 -0.118536144 0.059596196 -0.004233279
000100 58 ba 44 3d 8f a4 ec bd 3f 0b 84 bd 68 88 c7 3b
       0.048029274 -0.115548246 -0.064474575 0.006089259
000110 b4 79 3d 3c 4b 10 46 3d c7 f4 47 3d 63 52 c9 bb
       0.011564661 0.048355382 0.048817422 -0.0061438545
000120 d8 cf e3 bd 9d 7a d6 3d f1 f7 82 3c 30 a1 88 bb
       -0.111236274 0.104726054 0.015987368 -0.0041696057
000130 5c ba 31 3d 57 87 8c bd 97 fe 8c 3d 58 79 46 3d
       0.043390617 -0.068617515 0.06884497 0.048455566
000140 b0 af e3 3d 7d db eb 3d 52 ab f1 bc ee 20 76 3d
       0.11117494 0.115164734 -0.029500637 0.060089998
000150 88 34 8e bd d8 bd 4d bd 9f 38 a8 bd c7 f0 8a bd
       -0.06943613 -0.050229877 -0.082139246 -0.06784206
000160 8e 4f 62 bc 5a ff 69 bd 56 55 b7 3d 98 7d ec 3d
       -0.013812913 -0.057128288 0.089518234 0.115473926
000170 da f2 ad 3d 4d 7b c6 3d b0 da 8f 3b d6 95 8b bd
       0.08493586 0.096914865 0.0043900833 -0.06815688
000180 75 92 bb 3d d8 04 5a bd 34 6a e7 bd 01 46 5b 3d
       0.09158794 -0.053227276 -0.112995535 0.053533558
000190 d4 17 e2 3d f7 15 79 3d 75 7d 36 3d 00 de 75 bd
       0.11039701 0.060811963 0.04455324 -0.06002617
0001a0 9d 19 4a ba 2b ef 8f bd ca 8f 4f 3b fc ff dc 3c
       -0.0007709505 -0.070280395 0.0031671398 0.026977532
0001b0 55 bc 43 3d c1 80 5a bb d9 5e 63 3d 5c 19 56 bd
       0.04778703 -0.0033340903 0.055510376 -0.05227028
0001c0 46 c1 cf 3d 39 9a 8c 3d 67 cd 46 bb 3a df 34 3d
       0.10144286 0.06865353 -0.0030334832 0.044158198
0001d0 1e 89 f1 bd 88 29 e4 3d de 74 57 bd 16 55 f4 bc
       -0.11793731 0.11140734 -0.052601688 -0.029825728
0001e0 65 05 85 bd 30 5c 30 bd 5e 44 a7 bd d3 b7 36 3d
       -0.064951696 -0.043056667 -0.08167337 0.044608902
0001f0 8a bc 28 bd 2c bc 02 3d 58 fe 80 bd 5f eb b4 3d
       -0.04119543 0.031917736 -0.06298512 0.08833956
000200 ec 71 30 3d 6f 63 8a bd 95 25 8d bc d8 b7 a8 bd
       0.043077394 -0.06757247 -0.017229835 -0.082381904
000210 12 29 8e bd 64 4c bd bd f1 dc 02 3d ae 01 9b bd
       -0.06941427 -0.09243086 0.031948987 -0.0756868
000220 7d 81 96 bc 3c 3a c8 bd 32 bc 9e 3c 8f e3 b0 3d
       -0.018372292 -0.09776732 0.019376848 0.08637153
000230 ee 0d 3d 3d 21 b3 e5 bd eb 8e 52 3d db 43 db bd
       0.046155863 -0.11215807 0.05140583 -0.10706302
000240 9b 30 cc 3d ce 34 ed 3c dc 88 8f bd f4 63 20 bd
       0.09970208 0.028955843 -0.07008526 -0.039157823
000250 ac cf 85 3c f4 56 d9 bc 57 68 91 bd 26 05 7f 3d
       0.016334377 -0.02653072 -0.07099979 0.06226077
000260 8a 8a 69 3d 52 42 dc bc 44 e8 da bd c0 27 c9 bd
       0.057016887 -0.026887093 -0.106888324 -0.09822035
000270 28 48 78 3d 68 a6 39 bd 4e e4 ea bd 8a b9 be bc
       0.06061569 -0.045324713 -0.11469327 -0.023281831
000280 a3 03 65 bc 45 9a 35 3d 97 ea fd 3c bf 49 26 3d
       -0.013977918 0.044336576 0.03099565 0.040597674
000290 0a e1 83 3d c9 9e c1 bc 1c e6 bd 3d 1a d3 b3 bd
       0.06439407 -0.023635285 0.092724055 -0.08780499
0002a0 b5 0f d9 bb a5 06 4e bd be a8 ba bd 83 cf 86 bd
       -0.006624187 -0.050299305 -0.09114216 -0.065825485
0002b0 b8 5e 3e bd a0 38 f0 3b 17 8a 11 bd aa ea 2e 3d
       -0.04647705 0.007330969 -0.035532083 0.04270426
0002c0 27 f2 fa 3c fc 7e 70 3d 6f e6 3f 3d 29 40 16 bd
       0.030633045 0.05871485 0.046850618 -0.03668228
0002d0 55 42 36 3d 56 ab fa 3b e2 23 a2 39 e2 2a db bd
       0.044496853 0.0076498194 0.00030925783 -0.107015386
0002e0 a9 bf 8d bd 0e c5 37 bd e0 3d 12 bd a4 0e 6d bd
       -0.06921322 -0.04486566 -0.03570354 -0.05787529
0002f0 3a 97 6c bd 5a 3d ef bd a9 b0 7c bc bb 41 91 bc
       -0.05776141 -0.11681624 -0.015422978 -0.017731538
000300 59 7e 48 3c ec 38 9f 3d 9e ce c1 3c c1 e1 82 3d
       0.012237155 0.07774529 0.023658093 0.063907154
000310 3a ac ce 3d d3 3e 5d bd 38 16 b0 3d c8 b6 a6 3d
       0.10091443 -0.054014992 0.08597988 0.081403315
000320 a9 ea 64 3d 6f 86 cc 3d 6b 9f ee bc 90 ca b6 bd
       0.055887852 0.09986579 -0.02912875 -0.089253545
000330 ac 1b 98 3d bc 9d e3 bd 3b 17 2d 3d 5c a5 e3 bd
       0.07427153 -0.1111407 0.042258482 -0.11115524
000340 6b 9f 20 bd 51 dc 42 3d d6 a3 9d 3d 64 7b 9d bc
       -0.039214533 0.04757339 0.07697265 -0.019223876
000350 75 1e ad 3d 1d f9 02 bb 11 e6 9e 3d 88 51 78 bd
       0.08453075 -0.001998491 0.077587254 -0.06062463
000360 65 91 31 bd ed 9e e9 3d aa b4 e9 bd 75 2f e8 bd
       -0.04335155 0.11407266 -0.11411412 -0.11337177
000370 3d c4 65 bd a9 41 d8 bd 01 5d 41 bd 0d 01 00 3d
       -0.05609535 -0.10559399 -0.047207836 0.031251002
000380 da 90 a8 3c 1e e8 85 bd 5e bd f3 bc e6 0e 92 3d
       0.020576883 -0.065384135 -0.029753383 0.07131748
000390 45 56 82 bd 46 58 f2 3d e9 71 6d 3d 21 4a e4 3d
       -0.06364111 0.11833243 0.05796996 0.111469515
0003a0 9f a5 ce bd 27 1c c9 3d f0 61 c1 3d b0 4d 42 3d
       -0.100901835 0.09819823 0.09442508 0.04743737
0003b0 38 02 3c 3d 97 18 0c 3c bc 28 62 bb db 76 ed 3d
       0.045900553 0.008550785 -0.0034509143 0.115949355
0003c0 bd 80 b4 bc 18 2f 45 3d 7f cf 81 bd 60 dd c0 3d
       -0.022034043 0.048140615 -0.06338405 0.09417224
0003d0 aa 16 25 3c 93 1f ec bd 89 2f c4 bd d3 34 d6 3d
       0.010076204 -0.1152946 -0.09579379 0.10459294
0003e0 06 5d d8 3d 26 96 ba bd be bf 96 bd e8 5d 52 3b
       0.10564618 -0.0911067 -0.07360791 0.003209943
0003f0 7b fb 5f bd 4f 59 bc 3d 27 35 cf 3d cd 8d 6d 3d
       -0.05468319 0.09196722 0.1011756 0.05799656
