trained networks/6275.pt (torch_old, 681792 bytes, 24 tensors)

main.0.weight f4 [144, 5]
00000000: a5cf 173f a31b 9ebe 2390 d23d c07b 543d
00000010: 1185 c03e 5846 debe 94ae 14bf 6414 30bc
00000020: 409c d3be c333 983e 07a1 28be 86ba 83be
00000030: 47ea 4c3e 0a21 0dbf 60a6 90be b277 493f
00000040: fcb5 bd3e d7db 4a3e 0f40 023e 8600 283f
00000050: 513f 4ebd da35 dabd 813c 95bd 939a a1bd
00000060: 41d6 adbe 52a8 b2be a477 353e 8c57 25be
00000070: 45a5 0a3f bd98 15bf d7dd 663b 9cfd 0d3c
00000080: 25a7 983e e039 08be 40a2 c7bd 8412 123f
00000090: a1f3 853e 122b c8be 5062 c1be 0717 b43c
000000a0: b352 dcbe 6c9d d4bd 5fb4 f6bd d1f1 debe
000000b0: c865 69be 5343 8d3e 3415 53be e846 4bbd
000000c0: 7aa7 803e a3d1 ffbe 87ab 3a3f 17bc 4abe
000000d0: dc60 0ebd fb73 273f 6a0e 8dbd bbcb 5b3e
000000e0: f744 933e 87e8 efbe a424 173f 7a60 e5be
000000f0: 48b9 44bf 9780 853e 9d4e 293e 7381 133e
00000100: c96f 0b3e 3216 c13e 92ef ebbd 9790 9cbe
00000110: 80db 9a3e 86e6 c73d 4027 ffbe e8e4 13bf
00000120: 40d1 11be 3ff1 36be 40be b1be b204 9c3d
00000130: 9152 c83d 8a74 1abe e978 003f 1d95 7e3d
00000140: 40ad 9b3e e872 b63e 1354 0e3f 9e77 a0be
00000150: a2e8 233f b24e 3f3f 57f2 b43e ead0 223e
00000160: fb7a 073f 1440 0bbe 58de 5cbe 3649 01bf
00000170: 4c93 cc3d 4a33 b33e 7408 723e 5d72 2b3e
00000180: ced5 1dbe ab47 4cbe bb51 13be 47b2 0a3f
00000190: 0a9e 41bd c0d7 883b 5755 6b3e 7b7d b1be
000001a0: 9607 033e 623e 0e3f 664c fabe 5f12 12be
000001b0: 726e e23c e7ca a83e 0649 f63e 92f2 263f
000001c0: 32c4 c73d 08b9 36be d2e6 6b3e 2c7a d3bd
000001d0: 5213 5dbf e5c1 5c3d 10fa d53d d045 263f
000001e0: 3fff 983e de34 0e3f 336b 013e b354 1c3e
000001f0: ddcd 2fbf a82f ef3d 634b 1cbf b3c5 743d
00000200: 7fad dbbe b011 c4be 32aa 123e be5c a3bd
00000210: 39c8 f83d 2487 093f 20a6 9dbe 9e69 b73c
00000220: 279d 853d afb4 153f afc2 19be 7794 6fbd
00000230: b17d 2cbd cf38 ff3e 0e88 163f 9bad 8f3e
00000240: ebfd 94be 60d9 a7bd 443d fe3e 0e31 083e
00000250: cb36 12be fdee 1cbf 980c e3be 4bfa dabc
00000260: 715b 09bf 0ee0 5b3e f040 c93d f6ad de3e
00000270: ab70 cbbd 527b 8bbe 00dd a4be 1202 8b3e
00000280: 7c23 38bf 1bec 403e a53c 3dbe f275 66be
00000290: cda6 8c3e 7d4f e5bd c2bb bdbe 5c4f 5abe
000002a0: f56a 00bf fac2 e83e 379c edbe e917 b13e
000002b0: 0bb4 913e ec59 1c3e 0135 603e 1802 a73e
000002c0: c34b a73c 9ed2 9f3e ec47 6dbf de70 193c
000002d0: a021 963c ddcd b1be ee64 8d3d 9046 71bd
000002e0: 8984 0dbf 4261 5abd c9eb bfbd f817 64be
000002f0: 58b7 2bbf 4b5e 97bd d53d 0b3f a932 9c3d
00000300: 9f29 5ebe 4216 f73e 407a 3bbf d06c 013f
00000310: abd8 5c3c 0cb4 e5be f067 38bd deea 0abf
00000320: 3baa c6be 4abb 27bf f0ab 70be e6ff 9ebe
00000330: 31da 013f 274d 8abe 795d 7abf 677a a03e
00000340: 1cc5 8e3e 1d13 b13e ff88 4ebe 8fde f8be
00000350: 4de7 43ba d263 3bbf 6cb6 1f3f 4f53 abbe
00000360: 29cb 51be ea07 9f3e 30e9 c83e f02c d2be
00000370: 048e 68be 5315 9e3e aa2c 20bf 85d1 e63e
00000380: e2cb fb3d 4d05 0cbf 38da 2d3c 0bfa b9be
00000390: 658c 6d3e 631c 3dbd ad3a 893e d590 a03e
000003a0: 5e0f 2e3e c7fd 80be 081a babe 85c2 13be
000003b0: 9dcb 5f3d 418a f23d 9f5a db3e 4bb0 39bf
000003c0: ec4b 07bf f643 13bf 9108 403e 7007 bd3e
000003d0: 9ba4 203c 6366 3b3f 216d b53d 8204 00be
000003e0: 156c df3e 188d debe 0b3c f03d d845 e0be
000003f0: 5a0f e1be e170 d23e 1300 aabe 75f9 293e
0.59301215 -0.3088046 0.10281398 0.05187583 0.37601522 -0.43413043 -0.58078885 -0.010747049
-0.41330147 0.2972699 -0.16467677 -0.25728244 0.20011245 -0.5512854 -0.28251934 0.78698266
0.37052906 0.19810425 0.12719749 0.656258 -0.050353352 -0.106548026 -0.07286931 -0.07890811
-0.33952525 -0.34894043 0.1772142 -0.16146678 0.5415843 -0.58436185 0.0035227442 0.008666422
0.2981502 -0.13303328 -0.097477436 0.570595 0.26162437 -0.3909536 -0.3777032 0.021983637
-0.43031844 -0.10381588 -0.12046122 -0.43543866 -0.22792733 0.27590427 -0.20613557 -0.04962817
0.25127774 -0.49964628 0.7291798 -0.19798313 -0.03476034 0.6541135 -0.06887515 0.21464436
0.28763554 -0.46857092 0.59040284 -0.44800168 -0.76845217 0.2607467 0.16533895 0.1440485
0.13616861 0.37712246 -0.11520304 -0.30579063 0.3024559 0.09760766 -0.49834633 -0.5777116
-0.14239979 -0.17865466 -0.34715462 0.07618083 0.09781373 -0.15083519 0.50184494 0.062153924
0.30405617 0.35634542 0.5559704 -0.3134126 0.64026845 0.74729455 0.3534114 0.15900007
0.5292203 -0.13598663 -0.21569192 -0.50502336 0.09989032 0.35000068 0.23636037 0.16742845
-0.15413591 -0.19949214 -0.14386646 0.5417828 -0.04726986 0.00417611 0.22981773 -0.34666047
0.12795863 0.5556394 -0.48886412 -0.1426482 0.027640555 0.32967302 0.48102587 0.6521388
0.09754218 -0.17844021 0.2303727 -0.10326037 -0.86357605 0.05389585 0.10448086 0.64950275
0.29882237 0.5554942 0.1263855 0.15266685 -0.686735 0.116790116 -0.6105253 0.059758853
-0.42905805 -0.38294744 0.14322737 -0.079766735 0.121475644 0.53721833 -0.30790806 0.02238923
0.06524115 0.58478826 -0.15015672 -0.058491196 -0.042112056 0.4984803 0.5880135 0.28062138
-0.29099974 -0.08195758 0.49656117 0.13299963 -0.14278714 -0.6130217 -0.44345546 -0.026730677
-0.53655154 0.21472189 0.09826839 0.43492097 -0.09933599 -0.27242523 -0.3219986 0.27150017
-0.71929145 0.18840067 -0.18480165 -0.2250593 0.2747101 -0.11196802 -0.3705731 -0.21319336
-0.50163203 0.45461255 -0.46408245 0.34588555 0.28457674 0.15268677 0.2189522 0.32618785
0.020421868 0.31215376 -0.9268787 0.009365289 0.01832658 -0.34727374 0.069040164 -0.058905184
-0.5528036 -0.05331541 -0.09371144 -0.22274768 -0.67076635 -0.07391032 0.54391223 0.0762685
-0.21695565 0.4825917 -0.73233414 0.5055666 0.013479392 -0.44863927 -0.045020998 -0.5426463
-0.3880175 -0.65520155 -0.23503089 -0.3105461 0.5072356 -0.27011988 -0.9779888 0.31343386
0.27884758 0.34584895 -0.20169447 -0.486073 -0.0007473126 -0.7319919 0.6238773 -0.33461997
-0.20487656 0.31060725 0.39240408 -0.4104991 -0.22710425 0.30875644 -0.6256815 0.45081726
0.12294747 -0.5469559 0.010611109 -0.3632358 0.23198088 -0.04616965 0.2680258 0.31360498
0.1699805 -0.25193617 -0.36347985 -0.14429672 0.05463754 0.11842776 0.42842576 -0.72534627
-0.5285022 -0.57525575 0.18753268 0.36919737 0.00980487 0.73203105 0.08858705 -0.1250172
0.43637148 -0.4346702 0.11730202 -0.43803287 -0.43957025 0.41101745 -0.33203182 0.16599067

main.0.bias f4 [144]
00000000: 9bd7 d8be 55e0 65be eaab 343f e5b7 2bbe
00000010: 756a 41bf 586a 933f a8c2 a4bf bc71 3dbe
00000020: 2a76 423f 04ff 693f 03b8 db3d 75d5 e33c
00000030: b63d 093e ffee 77bf dc90 813f c447 7fbe
00000040: 8976 40be 663a ffbe 9811 163f 34cc 87bf
00000050: e22a 9b3f 7031 26be 7bff 10bf 4276 9fbd
00000060: 0c3f 9c3f 9a25 503f 4b07 813f 24a0 3d3f
00000070: 595d e13e fc09 683e 3a03 2fbf ba34 3a3f
00000080: b337 4bbc 08fd a5be 4845 f9be d713 abbe
00000090: d03c a33f b084 853f 190f 1d3f cbd6 2a3f
000000a0: ce92 873e 5e3b e23c f464 c8bb 34de 573f
000000b0: fbf9 49be 4579 24bf 8300 713f 2025 cf3e
000000c0: 06c0 663f b7d1 03bf d563 f6bc 962c aa3f
000000d0: aa1e 33bf 2021 0ebf 20dd 3cbf 40e2 89bd
000000e0: 7490 10bf bede 143f 9fe1 dfbe f81f 52be
000000f0: 8259 cf3e 162b 5fbf d1d4 93bc 761c bf3f
00000100: 2b1f 16be ddb7 b03f 22db 16bf 2efe 323f
00000110: 4aa1 683d 0cd5 44bf 25ea 963f 9e75 1e3f
00000120: 11bb 573f 2e27 d03e 504b 213f 2e95 c43e
00000130: cf5b 503f 5dcc d13e 5e9f 6bbf 0089 413d
00000140: 1980 213f c1f5 41bf b6ee 7bbf 1296 0f3f
00000150: 0982 bebd 9b24 153e 49a3 4f3e 5a22 74bf
00000160: c1c3 9a3e e1ac 54bf 2de8 8dbc 0991 613f
00000170: b3c5 97bd 4f40 023f cc66 9ebd d71a 30bf
00000180: 6010 8a3f 42d1 963f f1d9 9b3f 7881 8b3f
00000190: e1c2 3fbe bb1a 013f f991 3abf a9b8 093f
000001a0: 3562 84be 367e 29bf 4f07 39bf 30d1 0e3f
000001b0: 4aeb 51be abe4 be3e 87e8 4c3f 1fe6 20bf
000001c0: 0085 20be 7ff5 15be 923f 783f 47bf 333f
000001d0: fd03 6e3f 5991 d63d 5e08 bbbe 1db4 9c3f
000001e0: 74ce bbbe aeee 0fbf 3b05 e53e d168 08be
000001f0: de35 07be 6481 8a3f 64a5 433f 700a 203f
00000200: a062 ac3d 1b2a f2be 7dda 74bd 97e7 ddbe
00000210: dbdc 743f b2f0 9e3e e679 55bf d025 f0be
00000220: 3cd3 823f af06 debe 9c2a 953f 38e0 3abf
00000230: 328c 5ebf 1023 48bf d23f 663f 136d 07bf
-0.42351994 -0.22448857 0.7057482 -0.16769369 -0.75553066 1.1516829 -1.2871904 -0.18500417
0.75961554 0.9140475 0.10728457 0.027811745 0.13402447 -0.96849054 1.0122333 -0.2492972
-0.18795218 -0.49849242 0.58620596 -1.0609193 1.2122462 -0.16229796 -0.5663983 -0.07786228
1.220674 0.81307375 1.0080351 0.7407248 0.4401653 0.22660059 -0.683643 0.72736704
-0.012403416 -0.3241961 -0.4868567 -0.33413574 1.2752934 1.0431118 0.6135116 0.66734
0.2647919 0.0276162 -0.00611555 0.8432343 -0.19724266 -0.6424754 0.94141406 0.40458012
0.90136755 -0.51491874 -0.0300769 1.3294857 -0.69968665 -0.55519295 -0.7377491 -0.06732607
-0.5647042 0.5815238 -0.43726823 -0.20520008 0.40497977 -0.8717512 -0.018045815 1.493056
-0.14660327 1.3806111 -0.5892812 0.699191 0.056794442 -0.76887584 1.1790205 0.6189822
0.84269816 0.40654892 0.6300554 0.38395065 0.8139009 0.4097623 -0.9204005 0.047249794
0.63086087 -0.75765616 -0.9841112 0.56088364 -0.09302146 0.14564745 0.20277132 -0.95364916
0.30227473 -0.8307629 -0.017322624 0.8811193 -0.07410755 0.5087938 -0.07734451 -0.68790954
1.0786247 1.178261 1.2175885 1.0898886 -0.18726684 0.5043141 -0.72878987 0.53797394
-0.25856176 -0.6620821 -0.7227678 0.55787945 -0.20499912 0.37283835 0.8004231 -0.62851137
-0.15675735 -0.1464443 0.96972 0.7021374 0.92974836 0.104769416 -0.3652982 1.2242466
-0.3668095 -0.5622357 0.44730553 -0.13321234 -0.13204142 1.0820737 0.7642424 0.62515926
0.08417249 -0.4729775 -0.05977868 -0.43340752 0.956495 0.3104301 -0.8338913 -0.4690385
1.0220714 -0.43364474 1.1653628 -0.7299838 -0.8693267 -0.781785 0.8994113 -0.5290081

main.2.weight f4 [144, 144]
00000000: c1dc 303f c793 62be b174 31bd 8681 4d3e
00000010: 4828 37bd 156c afbe 9804 563e c5ae 39be
00000020: bf46 27bf 7a2e 283e 0e2d 473e 0d06 53be
00000030: 4ea1 8cbe 90dd fc3d 2d20 b8be 025e 8cbe
00000040: 60d3 7d3e 0b6a f03d 4677 763e 5da0 ab3e
00000050: 1d97 4c3c 04e1 e73e bc3f e8bd b2d1 c83e
00000060: 3254 f5bd c2cd e0bc 9cbf 283e 828f e83d
00000070: 5319 343e 1212 c73c 2f27 d9bd aa9a fb3c
00000080: e480 f4be bce3 9a3d f3d6 b03d 4591 21bd
00000090: b2d6 5fbd 8b8d 28be b24a a93d fd09 8abe
000000a0: a300 44be a731 dc3e 5d70 4c3d a527 0a3e
000000b0: f80e bcbe f942 e5bc ec63 4abe 4d19 1f3b
000000c0: 1827 253e f27a 633b 9344 563d c470 f03b
000000d0: 101a c2bd 90c9 833e c7aa 10be 3f9f c73c
000000e0: 3adc 413e f026 09be 9f3f 9a3e 8c7c b7bc
000000f0: 6244 3e3c ec1d 44bd ebc0 463e 43e7 72be
00000100: 6358 213d 898b 73be 6480 6f3e 2540 96be
00000110: a156 5b3d 4331 673d feac a03b 7042 f5bd
00000120: e264 54be eb75 81be 6bbe fb3d dd55 d03d
00000130: 9515 2bbf e10c af3d cc4e 7d3e 1bdd 07be
00000140: 3c00 8bbd 5b3d e4bd 599b 943e 91b1 79be
00000150: b7b5 843e df8c edbe ac76 14bf 03fb ed3d
00000160: 4964 e7be d636 8f3e f131 b43e f6ba 78bc
00000170: 2d58 bc3e b930 123e 33e1 f33c 87b3 203e
00000180: b599 65bf 2348 3cbe a8e9 9bbd e356 09be
00000190: fad1 bbbe 2d44 c2bd 85f9 e2bd 3be1 213d
000001a0: c86d 98be c852 59be b9a1 1c3f 5bac 67be
000001b0: f4ec 913e 921e 0fbf 3c34 183e 26ba 46be
000001c0: fccd 483c 0d4d b83c 874a 5cbb c4e8 83bd
000001d0: 1050 f9be d0fc 773e 5c99 053f 7b11 3f3e
000001e0: a1c6 4f3e 18d5 d73e 94ff 37bd f99f 783e
000001f0: 1c86 88be 0b65 0cbe 6ac9 d13c f0b6 093d
00000200: dc10 0abf 6610 7d3e 5c3f fabe df98 843c
00000210: 3150 213d 5ddb fd3b 1807 03be 4e08 803e
00000220: 01b4 25be cecb 0dbe c96a bbbe 097a e73e
00000230: ec05 2cbc bb15 dfbc 611a 3d3d d39c 603e
00000240: 99d1 40bd b3af 003f 3586 763e eb71 3abd
00000250: 3e49 763e c3b1 f1be 2ed9 893e 3e76 f4bd
00000260: ccbb 733e 74bc 03bf 7663 fdbe 2249 0dbe
00000270: 05cf b43d fb24 4bbd 5bfd a73d 6dfa 8ebe
00000280: f6dc ab3e c41b 68be eb72 b3bd 23b5 ef3d
00000290: 8dc3 e33d 90cc 96bd 3388 30be eae3 933a
000002a0: ffc5 2dbf 3791 213d 71bc f9be b823 d83c
000002b0: bcea 6abe ec84 98be 101e e93e b13c 55bd
000002c0: 0042 8e3e 6f83 cc3e 0077 173d 489d 133f
000002d0: 91b0 17be 9a80 5c3d f483 23bf 3f52 d2be
000002e0: 8fac 4f3e e2ac ca3d 77bf 0f3f 6678 77bd
000002f0: 4cc2 16be f2a4 8b3e df47 7ebe dcf8 71be
00000300: 4bfb bf3d cb1f 6ebe 3bea 5fbe d6dd 48be
00000310: 4edb 0c3f d626 663d 472e e6bd 3ad4 b9be
00000320: 6044 4b3e c021 95be e104 173f 8cd6 7abe
00000330: e4e2 52be 2597 9f3c 5236 523e e8b6 0ebe
00000340: 95ef c23e fa09 18be cdcb 49be e712 d1bd
00000350: 1b4a eebb 7680 723e cc3e d2be 480e 51bd
00000360: 2a9d 7ebe 1ae7 be3a 2dad ac3d 0bb9 4bbf
00000370: b64d aebd ec22 9d3e 63f8 d13e 53ea a8be
00000380: e6a7 323c 5d61 3dbc 5fa5 683c a3c9 013d
00000390: b2c9 b43e e029 b7bc ec8b 2e3e f93b b83e
000003a0: 6873 c8be 2724 793f d4e9 e03c 9395 8f3d
000003b0: 8961 de3e 2a35 3b3e d72d 46be 73ce 91be
000003c0: 12b3 3bbd c261 d4be 6a7f 053e 2018 1dbd
000003d0: 6f9a eb3d 2324 e13d 2bea 14be 110f d7bd
000003e0: ab98 9abd d2f8 f8bd b06c 343f 3fc6 9b3d
000003f0: 5983 603e 0910 61bd 6124 05bf bf47 ed3e
0.69086844 -0.22126685 -0.043324176 0.2006894 -0.04471615 -0.34262148 0.2090019 -0.18133076
-0.65342325 0.1642398 0.19450781 -0.20607777 -0.27466816 0.12346947 -0.35962048 -0.27415472
0.24787664 0.11738976 0.24068937 0.33520785 0.0124872 0.4528886 -0.11340281 0.39222485
-0.119789496 -0.027441863 0.16479343 0.11355497 0.17587785 0.024300609 -0.10603177 0.030713398
-0.47754586 0.07562968 0.08634748 -0.03944518 -0.05464811 -0.16460244 0.082662 -0.26960745
-0.19140868 0.43006632 0.049911845 0.13491686 -0.3673017 -0.027986037 -0.1976468 0.0024276555
0.16128194 0.0034710732 0.05231149 0.0073376615 -0.09477627 0.25739717 -0.14127646 0.024367927
0.18931666 -0.1339376 0.30126664 -0.022398256 0.011612983 -0.0478801 0.1940953 -0.23721032
0.039390933 -0.23783697 0.23388821 -0.29345813 0.053549413 0.056443464 0.004903435 -0.119755626
-0.20741609 -0.25285277 0.12292179 0.10172627 -0.66829807 0.08547378 0.2473709 -0.13267939
-0.06787154 -0.11144515 0.2902477 -0.24384142 0.25919887 -0.4639654 -0.5799358 0.11620142
-0.451937 0.27971524 0.35194352 -0.015181294 0.36786023 0.14276399 0.02977047 0.15693484
-0.89687663 -0.18386893 -0.07612926 -0.13412051 -0.36683637 -0.0948566 -0.11082748 0.039521437
-0.29771256 -0.21222985 0.6118427 -0.22624342 0.28501093 -0.5590602 0.14863676 -0.19406947
0.012256142 0.022497678 -0.0033613758 -0.06440881 -0.48693895 0.24217534 0.5218713 0.18659012
0.20290615 0.42154765 -0.044921473 0.24279775 -0.26664817 -0.1371042 0.025608737 0.03362173
-0.53931975 0.24713287 -0.48876464 0.016186176 0.039383117 0.0077470974 -0.12795675 0.25006336
-0.16181947 -0.13847277 -0.36604908 0.45210293 -0.010499459 -0.027232042 0.046167735 0.21934824
-0.047074888 0.50268096 0.24074633 -0.045518797 0.24051377 -0.47205934 0.26923507 -0.119366154
0.23802108 -0.5145943 -0.49489945 -0.13797429 0.08828548 -0.049595814 0.082026206 -0.27925435
0.33567017 -0.22666842 -0.08762153 0.11704471 0.11121283 -0.07363236 -0.17239456 0.0011283134
-0.67880243 0.03944513 -0.48776582 0.02638422 -0.22941107 -0.2978891 0.45530748 -0.052059833
0.2778473 0.39944026 0.03697872 0.5766187 -0.14813448 0.05383358 -0.6387322 -0.41078374
0.2028067 0.09896256 0.5615153 -0.060417555 -0.14722556 0.2727428 -0.24832104 -0.23630089
0.09374102 -0.23254316 -0.21866696 -0.19615874 0.5502213 0.05618938 -0.112392955 -0.3629473
0.19850302 -0.29127312 0.5899182 -0.24495906 -0.20594364 0.019481251 0.20528534 -0.1393696
0.38073412 -0.14847556 -0.1970665 -0.102086835 -0.0072720177 0.23681816 -0.41063535 -0.05103901
-0.24864641 0.0014564723 0.08431468 -0.7957923 -0.08510916 0.30690706 0.41009817 -0.32991275
0.010904288 -0.011558858 0.014199584 0.031686436 0.3531013 -0.022358835 0.17045563 0.35983256
-0.39150548 0.9732079 0.027455248 0.07010951 0.43433788 0.18281999 -0.19353424 -0.2847782
-0.04582507 -0.41480833 0.13036886 -0.038353086 0.11504065 0.10993221 -0.14542453 -0.105009206
-0.0754865 -0.12156834 0.70478344 0.07606172 0.21925105 -0.054946933 -0.52008635 0.463438

main.2.bias f4 [144]
00000000: b814 bebd c9db cfbd 66ec a2bd 9652 5abe
00000010: 240f 54be fd5a b8be cd49 513f d225 a1be
00000020: 7c4e d9be 4727 92be f2f6 a1bd 8c50 b7bc
00000030: 8cb2 01bf e1a4 31be 5973 5cbe 9199 1abe
00000040: 3c9b debe c49f acbd 81c8 a3be 0d70 903d
00000050: 0b83 a8bd 7e04 c8be 2757 73be 87be 7cbe
00000060: 32a1 333d d6c6 83bd dcc0 cd3d 61cd ccbe
00000070: c593 50be a939 813f be34 e0bd 9ea3 e73c
00000080: 38c0 be3d 3899 c6bd 894a 45be 0de0 8c3e
00000090: 9829 9a3e b138 203d 7023 36be eaa5 1abe
000000a0: 9308 f2bd ecb1 0ebe 67c4 853e ec55 eb3e
000000b0: 4675 ba3c 303e 49bc 51db 54be 2a55 82be
000000c0: 6794 03be 3bc2 e1be 437d 41be 7ee0 18be
000000d0: b312 9abe 0747 06bf ff7f ba3d ac92 a33d
000000e0: d964 abbe fd7c cabe 8ffa c0be 0cd3 63bc
000000f0: 2f6c 87bd 3cf3 57be cd69 263e b691 46be
00000100: 7161 e1be 8042 ddbe 176e e4bd 899e 403e
00000110: 3844 0c3e 967b 7cbd b7e4 5bbe 83fa a4be
00000120: 708e 9abe dbf8 60be 28c8 c3be e578 02bf
00000130: 6abd 89be a75e cdbe ac10 dbbd f491 6a3e
00000140: 5b13 d33c c307 e7bd 0f09 e6bc 4320 58be
00000150: deba 72be 58c7 d3be 897c c33d a471 30bd
00000160: 04c7 a0be 886e 713d 55e1 d23d 1b75 80be
00000170: 23b5 823e b016 923e a1ff 9abd 2481 0c3f
00000180: f23b dbbe 046f 13be 81e4 3abe 582e 5d3d
00000190: 84bc 8fbe eb6e d1be 04ae 9ebe 31d9 863e
000001a0: 04ab b5be f0f8 493f 39cc d5bd 9df0 c4bd
000001b0: 9b97 a4bd 7f14 a23d 4cdd 66be 0a0b 7f3d
000001c0: 825c 953d 97e8 7cbe 6ed9 f1be 6588 4abe
000001d0: 5167 15bf a2b4 87be 8220 a83d 80dd 1e3d
000001e0: f77c f6be c6dd 86be 9e14 f1be c629 f2be
000001f0: 0b57 d5be 1e01 c3be f499 febe bfd4 f7be
00000200: baa9 bfbe c049 29be 6277 b03d c140 64be
00000210: 9c46 9dbe 95d7 9bbd 9a04 adbd 9e64 99be
00000220: f333 9c3c 15b3 1f3c 30a1 2abe 6e68 e6be
00000230: fdef 953d a237 e3be a5ce cfbe 0f65 18be
-0.092812955 -0.101493426 -0.07955246 -0.21320567 -0.207089 -0.3600692 0.81753236 -0.31474167
-0.4244269 -0.2854559 -0.07908429 -0.022377275 -0.50663066 -0.17348053 -0.21528377 -0.15097643
-0.4347781 -0.084289104 -0.3198891 0.07052622 -0.082281195 -0.39065927 -0.23763715 -0.24682055
0.0438549 -0.06434409 0.10046551 -0.40000442 -0.2036887 1.0095721 -0.1094756 0.028276261
0.093140066 -0.09697193 -0.19266714 0.27514687 0.3010986 0.039116565 -0.17786956 -0.15102354
-0.11818042 -0.1393506 0.26126406 0.4596399 0.022760998 -0.012282893 -0.20786788 -0.254556
-0.1284958 -0.440935 -0.1889544 -0.14929387 -0.3009239 -0.5245213 0.091064446 0.0798696
-0.33475378 -0.39548483 -0.3769116 -0.013905298 -0.06612431 -0.2108888 0.16251297 -0.19391522
-0.44019654 -0.43214798 -0.111538105 0.18810476 0.13697898 -0.0616413 -0.21473967 -0.32222375
-0.30186796 -0.21969931 -0.38238645 -0.5096572 -0.26902324 -0.40111277 -0.10696539 0.22907239
0.025766065 -0.11280777 -0.028080491 -0.21106057 -0.23704097 -0.41363025 0.095452376 -0.043077126
-0.31401837 0.0589433 0.10296885 -0.25089344 0.2552882 0.28532934 -0.075682886 0.5488455
-0.42819172 -0.14397818 -0.1825123 0.053999275 -0.28073514 -0.40904936 -0.30992138 0.2633758
-0.35482037 0.78895473 -0.10439343 -0.09616206 -0.08036729 0.079140656 -0.22545356 0.062266387
0.07293035 -0.24698101 -0.47236198 -0.19778593 -0.58360773 -0.26505 0.082093254 0.038785458
-0.48142216 -0.26341075 -0.47086042 -0.47297496 -0.4166797 -0.3808679 -0.49726832 -0.484045
-0.3743418 -0.1653204 0.086165205 -0.22290327 -0.30717933 -0.076094784 -0.08448143 -0.29959577
0.01906774 0.009747286 -0.1666305 -0.4500155 0.07321165 -0.44378382 -0.40587345 -0.14882301

main.4.weight f4 [144, 144]
00000000: 4b98 04bf b3ea f2be 4299 6dbe 86c6 0cbe
00000010: dda1 dcbd dfa5 833e e5aa bfbc 3c5d e0bd
00000020: 9fd0 5abe 7a48 3bbd 5eaa dcbd c631 d73d
00000030: ac70 11be ca2b 10be 8d0c e1be edb5 dfbe
00000040: 7e6d b6bd 4379 203f d803 1ebd 2784 02bf
00000050: 20ac 4dbe 8650 d1be 192a 1dbe 2620 4abe
00000060: 84eb 37be 19c6 34be af15 13be 7513 b3be
00000070: 9efc fc3e ce83 55bd e64d 21be 293a 67be
00000080: 067b 093e c970 3b3e 6190 abbd d6f6 88be
00000090: d6c1 373c 8972 8a3e a6c2 4d3d 58b7 de3d
000000a0: 70ed 833e 0429 a8be 0885 b5bd abc1 833d
000000b0: dbe3 2d3d f3ec a03e 7203 d73e 6911 97bd
000000c0: 4823 b5be a8d1 7bbc 4b78 3abd 28c6 30bd
000000d0: a0b4 03bf a6ee 1dbd 9156 d6be 13a3 32bf
000000e0: 498c 89be a3ca c5bd 2ca8 c33d 07fc 433e
000000f0: 4fb8 693e 5673 063f 6f76 a63d 3009 cabc
00000100: 318a ffbd ff75 85be d1b2 34bf 8f0f 653e
00000110: c964 373d cc5c 43bc 984e d7bd 21cb b5be
00000120: bfb1 0a3e 6fa7 893e 0c69 6fbe cfca 23be
00000130: b95d ad3d 255b a2be bf42 cdbe beb8 413e
00000140: 3a4c a93e 5b7a d2bd 4388 38bf 25a9 97be
00000150: 8465 46be cc2f 70be b302 e6be abfc bb3e
00000160: 609e 3bbe 16d4 b73d 960a 893e b972 8ebc
00000170: 280d 7dbe 1d5d acbe 9c24 753e 3a4c b33c
00000180: caaf 00be b8a4 07be 0374 a8bd cc8d da3d
00000190: 0c63 373d c61d 83be 5fcb 0cbe 6654 933e
000001a0: 23a7 27be 7f8c 653c 2f8d 013e 5265 b2be
000001b0: 4e8b 27be bce5 8cbc 68f8 66be 55ab 2a3e
000001c0: 2edb cb3e 1644 89bd ba91 1fbe 21b2 40bf
000001d0: c4f9 f9bc 062d 97be a713 0c3f cd1d 0c3e
000001e0: 6fdc 19be 0187 9d3e 6d3c a8be e7fe 31bc
000001f0: dceb afbe 6538 03be 2af2 8cbd 72f0 6ebe
00000200: 1819 fc3d c9ad 383e 7832 083e 0601 043c
00000210: 15f5 5b3d d002 7dbf d167 52be e30c 56bd
00000220: 8b6e 473e 2f51 b0be 0202 52be 79fe 0dbe
00000230: d2fd bfbe a3c8 023e 775a 3e3e f0f9 34be
00000240: 7da8 86be 7581 2dbd c4d8 a9bd 1ef5 133d
00000250: 9715 40be b3f3 e63e 654a 293d 8f91 a33e
00000260: 5312 1cbc 6e1d d43e 7c21 303e d648 813e
00000270: e38a f5bd 7804 65be 2b3b 3bbe 962b 1ebe
00000280: e492 023e 4f24 063f 9512 65be 5732 c6be
00000290: 874c 073e 0039 823e d22f 79be 8be1 43bd
000002a0: 77e8 f23d 6048 08be 416d 00bf 40ac 7dbe
000002b0: 563d 233e 2fd3 e23d 10d8 0bbe 6676 d33c
000002c0: 292e 56bd 53e2 21bf 030b 38be 73a4 25bf
000002d0: 175e 95bd 3f23 6cbe 4d6a e93d 47ef 6dbe
000002e0: 847a 283e 80f7 a43e 44f8 df3d 1f0a 293e
000002f0: c7fd a2bd 4883 7e3d 590b 463e 226d dabd
00000300: 3435 05be d84a a63c 6cbf 91be ad9a c93e
00000310: b021 c4be e689 e5bd 6027 a5be 3b3e a4be
00000320: 7aea f5bc 2bda d03d 2b0a 2abe 2ccb 813d
00000330: 3866 843e 0ec2 003f c718 2dbd 3eee 833d
00000340: cb28 093f fd2a f0bc e907 61be 904d 0c3e
00000350: b6da 493e 9aa4 353e ba2b 3d3d 70b9 a83c
00000360: e73e 453f ee6f a03e 0f05 8ebe d3c7 1fbe
00000370: f2a0 7a3e ac7b 1f3e bbb3 1e3f c74d e33d
00000380: e4c9 843d 457b 72be 9621 6cbe 9658 12bd
00000390: a068 2dbe a381 f9be 2424 a03e 1b09 eb3e
000003a0: c819 d13c a212 133e 5324 74be a18b d2bd
000003b0: 4a61 96be dedc 18bf dd02 603e f902 fc3d
000003c0: 546a d9bd 7611 9e3e 3272 98be 9eba 3ebd
000003d0: d105 07be 6b05 533d cce3 70bd 63ca fbbd
000003e0: 9d96 513e b624 55be 7110 3b3e bafd 7d3e
000003f0: 947f 2cbe c74b 37be d342 853d 2137 a3be
-0.5179488 -0.47444686 -0.23202994 -0.13747606 -0.107730605 0.25712487 -0.023396919 -0.10955283
-0.21368645 -0.045723416 -0.107746825 0.105075404 -0.14203137 -0.14079204 -0.43954888 -0.43693486
-0.08907603 0.6268503 -0.038577884 -0.509829 -0.20085192 -0.40881747 -0.1534809 -0.19738826
-0.17960936 -0.17653693 -0.1436374 -0.34975782 0.49411482 -0.052127652 -0.15752372 -0.2258078
0.13425836 0.18304743 -0.083771475 -0.2675082 0.011215648 0.27040508 0.05023446 0.10874814
0.25767088 -0.32843792 -0.08863264 0.064334236 0.042453628 0.31430778 0.41994816 -0.073763676
-0.3537848 -0.01536981 -0.045524877 -0.043157727 -0.51447487 -0.03855767 -0.4186292 -0.6978008
-0.26864842 -0.096577905 0.095535606 0.1913911 0.22824214 0.5251974 0.08128058 -0.024662584
-0.1247753 -0.26066586 -0.7058535 0.22369216 0.04477385 -0.01192398 -0.105130374 -0.35506538
0.13544367 0.26885554 -0.23379916 -0.15995334 0.08465142 -0.31710163 -0.40089986 0.1891813
0.3306597 -0.10277244 -0.7208292 -0.29621235 -0.19374663 -0.23455733 -0.44923934 0.36716208
-0.18322134 0.08975999 0.2676589 -0.017388688 -0.2471205 -0.3366479 0.23939747 0.021886934
-0.12567058 -0.13246429 -0.082252525 0.10671577 0.044772193 -0.25608653 -0.13749455 0.28775328
-0.16372351 0.014010548 0.12651514 -0.34842926 -0.16361734 -0.01719939 -0.22555697 0.1666692
0.39815658 -0.067024395 -0.15582934 -0.75271803 -0.030514605 -0.29526538 0.5471749 0.13683243
-0.15025495 0.30767062 -0.328586 -0.010863996 -0.34359634 -0.12814482 -0.06882127 -0.2333391
0.12309474 0.18035044 0.13300502 0.008056885 0.053700525 -0.98832417 -0.20547415 -0.052258383
0.19475763 -0.34436938 -0.20508578 -0.13866605 -0.37498337 0.1277185 0.18589197 -0.17673469
-0.2630042 -0.042359788 -0.08293298 0.036122434 -0.18758236 0.45107803 0.041330714 0.3194699
-0.009525853 0.41428703 0.17200273 0.25250882 -0.11989381 -0.22364986 -0.1828429 -0.15446314
0.12751347 0.5239915 -0.2237037 -0.3871028 0.13212787 0.25434113 -0.24334648 -0.047822516
0.118607454 -0.13308859 -0.5016671 -0.2477274 0.15941367 0.11075436 -0.1365664 0.025813293
-0.052290116 -0.6323597 -0.1797295 -0.64704055 -0.07293337 -0.2306032 0.113972284 -0.23235808
0.16452986 0.32220078 0.10936025 0.16507767 -0.079585604 0.06213692 0.19340266 -0.10665347
-0.13008577 0.02029936 -0.28466356 0.3937582 -0.38306952 -0.11207943 -0.32256603 -0.32078728
-0.030019034 0.10197862 -0.16605441 0.0633758 0.25859237 0.50296104 -0.042259958 0.064419255
0.5357787 -0.029317373 -0.21975674 0.13701463 0.19712338 0.17738572 0.04618428 0.020596236
0.77049106 0.31335396 -0.27738234 -0.1560357 0.24475458 0.15574521 0.61992997 0.11098819
0.0648382 -0.23679836 -0.23059687 -0.035729013 -0.16934443 -0.48731717 0.31277573 0.45905384
0.025524989 0.14362577 -0.23841982 -0.10280538 -0.293711 -0.59712017 0.21876092 0.123052545
-0.106159836 0.30872697 -0.29774624 -0.04656469 -0.13185813 0.05151884 -0.058810994 -0.122944616
0.2046761 -0.20814785 0.1826799 0.2480382 -0.16845542 -0.179 0.06506886 -0.31877998

main.4.bias f4 [144]
00000000: 6bac bebc 2c09 b23d e79b f3be d431 8fbd
00000010: f8a3 2c3d eb44 a1be 837b 66bd 551c 29bd
00000020: b87a f4bc 1da8 72bc 41d4 3f3c 4f9f 4cbe
00000030: aaa0 97be 4c57 86be 209b 8bbd f1c1 a3be
00000040: e3e9 bbbe d984 b73d 8bc5 efbe 4de0 0cbf
00000050: 1466 32be 3749 fabe c634 b4be 4ad0 a4bc
00000060: 793d 1dbd 52ab 4bbd f76e 9cbc dd5e 2dbe
00000070: 6717 f73c 8aec 65be 4fac 823d 75db 31be
00000080: a84b b9be e486 80be 57b6 0ebf 1d76 90be
00000090: 7658 73be d646 1cbe 67f0 22be 01f8 16be
000000a0: 0449 86bd ddcb 68be b454 913c 33c8 6cbc
000000b0: 011c 78be 73c9 14be 9620 e7bd 4279 0bbf
000000c0: cc4e 5bbd 4f65 c7be c117 96bd 44d4 98be
000000d0: 1cd5 10be 50a4 02be 2d2a e9be 7cdb 89be
000000e0: c80d d9bd ea72 85be 30b0 013d cb14 dabe
000000f0: df27 a7bd 75df 2abe d4d8 5bbe 9de2 0cbd
00000100: c9ac b1bd bd8d 1abf 6043 983d 494a 6cbe
00000110: 33c3 b3be 748e 70be 4770 59be bfa5 65be
00000120: 1c99 a6be 7a98 ca3b a9f9 0bbe 1e78 20be
00000130: 20f0 74be 48c9 97be 5ed6 2cbe b4c7 9fbd
00000140: 364d 8d3e ec63 243d 2817 34bd 1390 023e
00000150: 2dd8 8d3c d085 46bd 36cd 87be 8078 d2be
00000160: ab2f 18be 8dae 87be 3021 963d b41b cabe
00000170: e29d 00bd 2776 24be 735b a2be 14ef e6bd
00000180: b44b 7abd 0e5e a2bd 8a33 0dbe 0cea 44bd
00000190: ef74 5ebd b686 4fbd 1b4e 5fbe 837e 05be
000001a0: e6b2 a1bd 480b 763c 8ada 6fbe d001 a1be
000001b0: 6be5 14be d07a 27be d0e2 0bbf eb08 1cbd
000001c0: fc75 63be 5ade 7fbd 54fc 283d b2cf edbc
000001d0: cd9c acbe 3945 c6bd b297 3bbe c21d 67be
000001e0: 2d4d f3bd 3256 9fbe f74c edbd bb66 23be
000001f0: 2f29 fcbd 15ca 193c 446d b3bd dceb bdbe
00000200: 0a46 fd3b d813 b9be de87 a33d 1a1c 45be
00000210: 7e63 c73d 3608 e83c eb24 02bd 35e5 9e3c
00000220: cb35 adbc 9f3e 39be 8526 aabe 6dfa 85be
00000230: b44d d63c eaea c33c cc2f adbd a01d eabd
-0.023275575 0.08693156 -0.47579882 -0.06991926 0.04214856 -0.31497893 -0.056270134 -0.041286785
-0.029843673 -0.014810589 0.01170832 -0.19982646 -0.29614764 -0.26238477 -0.06816697 -0.31983903
-0.3670188 0.089608856 -0.468304 -0.55029756 -0.17421752 -0.48883983 -0.35196513 -0.020118851
-0.038388703 -0.04972393 -0.01909588 -0.16930719 0.030162526 -0.22453514 0.063805215 -0.17368872
-0.36190534 -0.25102913 -0.5574698 -0.28215113 -0.23764214 -0.15261397 -0.15912019 -0.14743043
-0.065568954 -0.22734018 0.017740585 -0.014452028 -0.24229433 -0.14529972 -0.11285512 -0.544819
-0.053541943 -0.3894448 -0.073287494 -0.29849446 -0.14143795 -0.12757993 -0.4553999 -0.26925266
-0.10598332 -0.26064235 0.031662166 -0.4259399 -0.08161902 -0.16686805 -0.21469432 -0.034395803
-0.08675534 -0.60372525 0.07434726 -0.23075213 -0.35109863 -0.23491842 -0.21234237 -0.22426508
-0.32538688 0.0061827274 -0.13669457 -0.15670821 -0.23919725 -0.29645753 -0.1687865 -0.07801762
0.2759797 0.040134355 -0.043967396 0.12750272 0.017314995 -0.048467457 -0.2652375 -0.4110756
-0.14861934 -0.2650036 0.07330549 -0.3947426 -0.03140057 -0.16060697 -0.31710395 -0.11276069
-0.061107352 -0.07928096 -0.13789192 -0.048074767 -0.054310735 -0.05066558 -0.21807139 -0.13036542
-0.0789545 0.015017338 -0.2342321 -0.31446695 -0.14540641 -0.16355443 -0.54642963 -0.038094442
-0.22212976 -0.06246791 0.041256264 -0.0290297 -0.3371338 -0.09681172 -0.18319586 -0.22569945
-0.118799545 -0.3112045 -0.115869455 -0.15957157 -0.12312543 0.009386559 -0.08761075 -0.3709401
0.0077292966 -0.36147952 0.07984899 -0.19249001 0.097357735 0.028324228 -0.03177349 0.019396404
-0.021143815 -0.18090294 -0.33232513 -0.26167622 0.026160099 0.023915727 -0.08456382 -0.11431432

main.6.weight f4 [96, 144]
00000000: 2a32 433f 3ab8 d73e 2883 9b3d bc6a 073e
00000010: 497b c23e 3589 8f3d 7e52 353e 51c4 93bd
00000020: 5663 cd3d 49f6 e0bd c47d b33e 053d b03e
00000030: 282f e2be 49bd 58be 3921 633e a019 4c3e
00000040: 07ec 3e3e 179e d73e d81b 13bc 3a21 f6be
00000050: e7f9 2b3e 80b7 b9be ecad 0a3d d2f1 a83d
00000060: c244 983e e89f 0b3f 9960 653e 85bb 283d
00000070: 7a73 573e 537a 0c3f b3a0 613e c034 87be
00000080: 82c0 abbe 55b0 8bbc 23cb 4fbd 34a7 2e3d
00000090: 3ea6 8c3e fd4d 05be dce0 2f3f 6cde b73e
000000a0: ab62 963e f2d4 b33e 0f74 443e bcdc e43e
000000b0: 881e 2ebd 99fc ca3e 84bb a73e 752e 213e
000000c0: 2a03 493e 25ad 6abe f3fe 6abc f10a ef3a
000000d0: 57ea ae3e ce06 173e c901 f5bd 1b0e 073e
000000e0: 4439 b83e 6fa5 43be ced3 f83e 7ab9 bbbe
000000f0: 52b9 f53e 275e 823e 14f6 463e 8da0 de3e
00000100: 63b2 8d3e c1cb 11be cc3d fa3e 8684 383e
00000110: d89d 7bbd 9768 c23e 11e8 863d b0b7 463e
00000120: ac13 86bd e1de 1d3e 86ae dbbe 1ffb 123e
00000130: 519a bd3d 01ed 9b3c 3074 d3bd 70c9 febd
00000140: 574e 493f f57c ef3e 7909 d23e 51d1 1d3f
00000150: d73e c53e 1f74 b03e a683 d43d 6f31 9bbd
00000160: b850 833e 84a0 9e3d 9228 253f 951d aebd
00000170: 5288 a83e 00d5 713e 9a49 27be e34e 653d
00000180: b1a3 403e c2ce e33e 0749 9a3e 9e96 2f3f
00000190: f01b 2c3f 12ea f03e 9d3b 5c3e 8be0 afbd
000001a0: 01f5 533f b0d5 1cbd f7d1 b23e 29b0 113f
000001b0: 3b4e de3d 8847 bc3e 1350 0bbe 2377 c33d
000001c0: e8c5 11be b720 583f 6442 283d d9c9 93be
000001d0: 3b29 713d 8240 fcbd ceb1 1c3e 8fc5 6fbe
000001e0: 5e43 203f cbd0 59be 685e 1e3f ab5b b83e
000001f0: 8a8f 8d3e e495 1d3f dd06 a6bd 8f6f fcbe
00000200: a536 503e 6d67 0e3e 9d30 0f3e 0983 203e
00000210: b540 19bd 5446 283d 1c08 e83e 3466 043f
00000220: 9966 2f3e 059c 1cbe 7d6a 1b3e 6f60 1f3c
00000230: c065 233f 83a2 053f b572 073f 9e8a b13e
00000240: 1aab 0bbf 718f f23e b2a4 993e b8e3 343f
00000250: 28df ab3b 39d8 65be 5675 003d 3d58 1c3f
00000260: ecf7 753e b166 b83e 5662 a83e b67a b83e
00000270: 607b 923e f4cb efbe 98e6 6a3e 9dae 2d3f
00000280: 8812 413e 188d 133f be25 6a3a def4 af3e
00000290: 7eb6 443e 488a 00be 8154 38be db5f d23d
000002a0: c393 103f b781 203e f79a 423d e004 8dbd
000002b0: c9cc 9f3e 511d 2a3f 9347 763e fabc f03c
000002c0: 489f 673d c4bb cd3e d236 6dbd 45d2 f23c
000002d0: 61ef ca3e a2a3 6e3f 0d42 cb3e 0e30 9d3e
000002e0: e027 3f3f bf99 c13e 1463 033f 6fcc d73e
000002f0: 9533 c93d 04a1 173f de02 3f3e 3bf8 adbe
00000300: d5c0 cf3e ceb3 adbe d811 c43e d7c1 0cbc
00000310: b19c 43be 4af8 e63e c8b2 0cbe ee4e 333e
00000320: d067 433e 1067 e23d 9bae c83e 2d04 8fbe
00000330: 94e2 ca3d 7b1f 393f 77d3 4ebe d620 943d
00000340: 2b4a 413e 72c8 35bd fb16 0b3f 9d22 ab3e
00000350: 33b3 723d 2a39 51be 89cf 9b3e 4894 cebc
00000360: c562 973e 2b35 0c3f 64e2 a4bd 6aa6 053f
00000370: 9bc1 f6bd 8a2f b73e 13dd c83e 31be fb3e
00000380: 1412 be3e 4b6e 84be e90d bc3e 55f6 073f
00000390: 2dcb 313f 58f8 c6bd b813 dd3e 2aaf 483e
000003a0: 3374 923d 5295 c13e b6dc 193f 340a b93e
000003b0: f415 2f3f df7d e53d ccc5 5fbd 9131 3e3f
000003c0: 6d7b 783f 38ef 153f 96a5 783e a46d 233f
000003d0: 3f5f 30be ad98 cbbe 7507 233e 3f0d e3bd
000003e0: 7588 043f d016 183f 87aa 533d 4038 443e
000003f0: ff4d b1be 9809 553e 2954 2abe ae5d 4e3f
0.7624842 0.4213274 0.075933754 0.1322431 0.37984684 0.07008592 0.1770725 -0.07215179
0.100287125 -0.10984475 0.3505689 0.34421554 -0.44176602 -0.21165957 0.22180642 0.1993165
0.18644725 0.421128 -0.008978806 -0.48072225 0.16794549 -0.36272812 0.03385727 0.082492486
0.29739958 0.5454087 0.2240013 0.041194458 0.21040145 0.5487415 0.22033958 -0.26407433
-0.3354531 -0.017051855 -0.050730836 0.042639926 0.27470583 -0.13018031 0.68702483 0.35911882
0.29372153 0.35123402 0.19184898 0.44699657 -0.042509586 0.39645842 0.3276025 0.15740378
0.19630113 -0.22917612 -0.014343011 0.0018237514 0.34163162 0.1474869 -0.11963231 0.13188975
0.3598119 -0.19106077 0.48599094 -0.36664945 0.4799295 0.25462458 0.19429809 0.43481866
0.2767516 -0.14237882 0.48875272 0.18019304 -0.06142983 0.3797042 0.06587232 0.19406009
-0.06546721 0.15417053 -0.42906588 0.14353608 0.09257949 0.01903391 -0.103248954 -0.12440765
0.7863516 0.46775022 0.41022852 0.61647516 0.38524505 0.34463593 0.103766724 -0.07577788
0.2564752 0.0774546 0.6451503 -0.08501736 0.32916504 0.2361641 -0.1633667 0.055983435
0.18812443 0.4449368 0.3013384 0.685892 0.6723013 0.4705358 0.21507116 -0.0858775
0.8279572 -0.038289726 0.34925815 0.56909424 0.10854765 0.36773324 -0.13604765 0.09544208
-0.14235651 0.8442492 0.04107894 -0.28864935 0.05887721 -0.123169914 0.15302202 -0.23415206
0.62602794 -0.21271054 0.618628 0.36007437 0.27648574 0.6155684 -0.08106778 -0.49303862
0.20333345 0.13906641 0.13983388 0.15674986 -0.037415225 0.041082695 0.45318687 0.5171845
0.17128982 -0.15293892 0.15177341 0.009727581 0.63827133 0.522011 0.52909404 0.3467607
-0.54557955 0.47375062 0.30008465 0.7065997 0.005245108 -0.22445764 0.0313619 0.6107214
0.24020356 0.36015847 0.32887524 0.3603112 0.28609753 -0.4683529 0.22939527 0.67844564
0.18854725 0.57637167 0.00089320156 0.34366506 0.1921024 -0.1255275 -0.18000986 0.10272189
0.56475466 0.15674482 0.047511067 -0.068856955 0.31210926 0.66450983 0.24050741 0.029386986
0.056548387 0.40182316 -0.05791361 0.02964128 0.39635757 0.93218434 0.3969883 0.30700725
0.7467022 0.3781261 0.51323056 0.42148158 0.098242916 0.59230065 0.18653437 -0.33978447
0.40576807 -0.33926243 0.38294864 -0.008591137 -0.19102742 0.45111305 -0.13740075 0.17510578
0.1908257 0.11054814 0.39195713 -0.27932873 0.099064976 0.7231366 -0.20197855 0.072328255
0.18875949 -0.044380613 0.5433194 0.33424845 0.05925293 -0.20431963 0.30431774 -0.02521719
0.29567543 0.5476863 -0.08050993 0.5220705 -0.12048646 0.35778457 0.39231166 0.49168542
0.37123168 -0.25865397 0.36729363 0.5311025 0.69450647 -0.097153366 0.43179107 0.1959807
0.071510695 0.37809235 0.60102403 0.36140597 0.6839287 0.11205649 -0.054631993 0.7429438
0.9706333 0.58568144 0.24281916 0.63839173 -0.17223834 -0.3976492 0.15920813 -0.11086511
0.51770717 0.5940981 0.0516763 0.19162083 -0.3462982 0.20804441 -0.16633667 0.80611694

main.6.bias f4 [96]
00000000: 0970 073f c57d 173f bc0a 9b3e f9a8 693d
00000010: 4b74 493d 1a39 d93e 7540 a2bd e29a d23e
00000020: f18a 5d3e 0ea6 943e 9740 d73e b6cd 9d3e
00000030: 03c8 213f 5d71 0c3f cab6 083e 54f1 0f3d
00000040: 23a8 273c dc3d fc3e a0b7 b53c 7804 f43e
00000050: 3e83 093d f2a4 883e 16dc bb3e efb4 c33e
00000060: ee77 1b3f a0df 6e3e 3807 303e 91e0 d13d
00000070: 1d39 1b3e 8011 c03e a523 a4bd 1503 bc3e
00000080: 2242 be3d f463 343e 6641 d13e e2fd 043f
00000090: 0762 2f3f e43d 013f 36fc d23e 0107 db3d
000000a0: bf38 833e 5951 023f bc7a 9dbe d5f9 8e3e
000000b0: cf4f 903e 4d65 a03e 34ea 043f 71df b13e
000000c0: 91fa 3c3f 1f26 ea3e 7a9d 8b3e 1fe1 d93e
000000d0: 4aee 14be cdab ad3e e8c9 363d e220 683e
000000e0: 4ae0 b83d b77a c53e d047 ad3e 7a4e ae3e
000000f0: 3a8b 213f b4f7 993e 809b 843e 8395 303d
00000100: 1509 513e 005b 833e 2f98 163e e3c9 b23e
00000110: 3367 8e3d 1b2f 833e 8cae cf3e d558 013f
00000120: f8b2 593f a043 833e 1842 4d3e 9ab9 8a3e
00000130: 7757 8a3d d80f 003f a340 90bd bc9b 933e
00000140: 1599 05bd 28a8 613e f568 e03e b1ed a53e
00000150: 9efc 3b3f ed7e 9f3e 35b0 d63e 49ea 283e
00000160: 7ebc 8d3e e42e b03e d770 643e 0a4d 1f3f
00000170: 30d5 24be 9e30 953d 52d6 1d3f 9b44 9e3e
0.5290533 0.59176284 0.30281627 0.05704591 0.04918317 0.42426378 -0.079224505 0.4113379
0.21635033 0.2903294 0.42041466 0.30821007 0.6319582 0.5486048 0.13350978 0.035142258
0.010232958 0.49265945 0.022182286 0.4765966 0.033572428 0.26688343 0.3669135 0.3822398
0.60729873 0.23327494 0.17190254 0.10247911 0.15158506 0.3751335 -0.08014611 0.367211
0.092899576 0.17616254 0.40870208 0.51949894 0.6850895 0.5048506 0.41208047 0.10694695
0.2562923 0.50905377 -0.307577 0.27924982 0.2818589 0.31327286 0.51919866 0.34740785
0.73819834 0.4573221 0.27268583 0.42554566 -0.14544025 0.33920136 0.044626147 0.22668794
0.09027155 0.38570186 0.3384385 0.34044248 0.6310307 0.30071795 0.25899887 0.043111335
0.20413621 0.25655365 0.14706491 0.34919652 0.069532774 0.25621876 0.40562856 0.5052617
0.8503871 0.2563753 0.20044744 0.27094728 0.06754964 0.50024176 -0.070435785 0.28829753
-0.032616694 0.22036803 0.43830076 0.32407907 0.7343234 0.31151524 0.4193131 0.16495623
0.2768287 0.34410775 0.2230867 0.6222693 -0.1609695 0.072846636 0.6165515 0.30911717

exp_avg f4 [144, 5]
00000000: 78e8 45bd 948f a7bc 0026 1eb9 5f9c 3c3d
00000010: d822 673c ca1f e5bc a672 91bc 4c9e c53d
00000020: 521d b43d d1f8 863d db75 9dbc d4c8 883c
00000030: dc88 363d a083 9d39 0e88 f63d d7ef 24bc
00000040: b70a 963c bd27 89bd 1cbb 523c 3ddf 71bd
00000050: 9aea 643c 79fc 91bc c849 453c b662 68bc
00000060: bc70 d43b f2c5 4b3d e204 00bd b0d2 16bd
00000070: 7a2b b5bd 42aa c9bc 4e53 87bc 4b5e fabb
00000080: 774c 143b 87c5 693c fe6d c13b ab4d 4dbc
00000090: 9e96 0e3d 7278 49bc e436 a43b 3b23 173c
000000a0: 20ac d0b9 5e80 f2bb b6c2 af3d 6dec e2bc
000000b0: 71c8 8c3d 0a02 9fbc 9944 54bd 5c4e 35bd
000000c0: 51a8 de3c 5bb4 be3d 7439 373c ad03 da3b
000000d0: 7978 89bd 96a9 44bd 4268 55bd 79f8 193d
000000e0: 2079 66bd 7f84 69bd 64eb 81bd 05bf 7ebd
000000f0: 5a64 0b3d 6334 033c fb82 0e3d 969c 1ebd
00000100: 8e87 c6bd f1a0 5cbc 4c6c acbc beab cc3c
00000110: f21c d63c 3a28 093c 6eec f2bc cd75 48bd
00000120: b82e bd3d 3ead 223c 1f6e a93d 78ab d83c
00000130: a401 1d3b 70b4 07bd 0186 b2bd e208 c6bd
00000140: 5e4d bbbc 3c39 e43c fe29 5dbd 0826 393d
00000150: f20c e1bc 1466 ed3b aae3 013d 54d6 8ebd
00000160: 0aec 7cbd 64dd 92bd 128c 46bc 80ba 22bd
00000170: fc1e af3c fcae ea3d 1027 a33a 0267 e5bc
00000180: 8aa9 41bc 2a32 2f3d cc15 943d 5096 8cbc
00000190: 5c90 8d3c 2272 083d cc9b 5dbd 0830 00bc
000001a0: 907b fd3b c26c 41bd 8e78 ccbc c067 873b
000001b0: ab5a a03d 3505 673d 6475 6bbc 96d2 d33c
000001c0: 2615 6fbd 94fd 9c3a ad1e 08bd 3c37 3cbd
000001d0: 215a 8ebc bcd2 9b3d 3239 123e 7690 513d
000001e0: 5951 553d e4dd a03c fe63 8dbd 88a2 a5bd
000001f0: 8059 a93c 27c3 50bd 48ca 97bc d093 9f3b
00000200: 0692 f73c 2b8c 133e 7ab1 4f3c 3881 cbbc
00000210: ef7c a0bd 64cf 59bc bc05 233c 848b 693c
00000220: 13d8 263d 1c07 63bd b00d db3c e852 b63b
00000230: 573e 663d 0c9b 7c3d 4481 92bd bc1d c4bd
00000240: e037 3ebd 3c6d 483c e20f 5f3c 0304 07bc
00000250: d338 26bd 0532 6c3d 6824 08bb 5681 fbbc
00000260: 4e5c 1c3d 1c7f 94bd 4b60 d7bc 142d d4bc
00000270: 8a27 0e3c b06f e2ba 1427 913d e591 973d
00000280: 9d59 593c defb 94bb e0ad 893d 7894 2f3a
00000290: fa43 26bd b69c 6ebd ecf4 d0bb 7920 b13d
000002a0: f201 c33d 002d 603d 47b0 97bc 6875 8f3c
000002b0: 803d dc3c b2b4 3a3c 4386 dfbb 6136 74bc
000002c0: 3c18 853d e805 8cbb bd1f 8ebd 83de 3a3d
000002d0: d2a4 c5bc eb83 fabc 9e87 f4bc 5083 cd3a
000002e0: c657 ed3d 74f5 79bc 6f90 cb3c c81c 163d
000002f0: 98d5 383d c631 a83d 0f09 ce3c 772a 3ebd
00000300: fc01 70bd 02a3 2d3c e4b3 463d d93b 0bbb
00000310: 5d40 59bc f753 a4bc 9a0f d7bc 9b6a 883d
00000320: deb6 b9bc 4cd8 99bc 61a9 a13d 4cb2 be3d
00000330: c886 f93c 4268 5abd 30af 09bd a4e4 3e3d
00000340: f90c ec3d 8410 f43c 7ceb 66bd 74b9 363c
00000350: f75e c13d c491 c33d 3f42 b83d 4bc4 c23b
00000360: 3e58 34bd 7c3f 1cbd 82d9 1fbd d1bb 45bc
00000370: cdcc 01bc 4c52 a1bc 4cbd 5a3c 68d2 57bd
00000380: 40ea 25bd bc06 42bb 87aa 5cbd ed3f 263d
00000390: 42a9 52bd 39fa 2dbd b02d 0d3d 7079 513d
000003a0: 79b8 48bd 8c96 edbb f66f 123d 1aa9 083d
000003b0: 2402 53bd 8a64 70bd eae9 a1bd d621 7fbd
000003c0: 3260 44bc 7ec6 65bd 6a2f ea3c e9f1 293d
000003d0: 68ea 03bb 1f89 293c 8fd2 acbc e78d 6abd
000003e0: 3eb4 cf3a 4060 b9bc fc1f 983c f6a7 bfbd
000003f0: 531b 9dbc d289 fc3c bb36 b63c 9759 e9bc
-0.048317403 -0.020454206 -0.0001508221 0.046047565 0.0141074285 -0.02796926 -0.017754864 0.09649333
0.08794655 0.06590427 -0.019221237 0.016697325 0.044564113 0.00030043442 0.12037669 -0.010066948
0.018315656 -0.066970326 0.012861993 -0.059050787 0.013971949 -0.017820584 0.012041517 -0.014183691
0.0064831655 0.049749322 -0.031254657 -0.03682202 -0.08846183 -0.024617318 -0.016519215 -0.007640635
0.0022628584 0.014268286 0.0059030047 -0.0125307245 0.03481161 -0.012296783 0.0050114263 0.009224708
-0.00039801095 -0.0074005565 0.0858206 -0.027700627 0.06874169 -0.019410152 -0.051823232 -0.044264182
0.027179869 0.09311744 0.0111831315 0.00665327 -0.067124315 -0.048013292 -0.05210138 0.037590478
-0.056267858 -0.057011124 -0.06343725 -0.06219389 0.03403125 0.008008095 0.03479288 -0.03872355
-0.09693824 -0.013466106 -0.021047734 0.024984237 0.02613685 0.008371407 -0.029653754 -0.04894047
0.092374265 0.0099289995 0.08272957 0.02644895 0.0023957277 -0.033131063 -0.087169655 -0.09669663
-0.02286404 0.027859323 -0.053995125 0.045202285 -0.027471993 0.0072448347 0.031711258 -0.069744736
-0.061748542 -0.07171133 -0.012118356 -0.03972864 0.02137708 0.11459157 0.0012447555 -0.02800322
-0.011820206 0.04277245 0.0723072 -0.017161518 0.01728075 0.03331197 -0.054103658 -0.007823952
0.007735677 -0.04722286 -0.024959829 0.004132241 0.078297935 0.05640145 -0.01437125 0.025857251
-0.058369778 0.0011977428 -0.03323238 -0.045951113 -0.017376961 0.07608554 0.14279631 0.05116316
0.052079532 0.019637056 -0.069038376 -0.08087641 0.02067256 -0.05096736 -0.018529072 0.0048699155
0.030220997 0.14408939 0.012676591 -0.02484189 -0.07836329 -0.013294075 0.009950098 0.0142544545
0.04073341 -0.055426702 0.026739925 0.0055640824 0.056211796 0.0616713 -0.07153562 -0.09575984
-0.046440005 0.012233075 0.013614627 -0.008240703 -0.040581536 0.05766489 -0.0020773653 -0.03070132
0.038173966 -0.07250807 -0.026291033 -0.025900401 0.008676419 -0.0017275717 0.07087532 0.07400874
0.013265994 -0.0045466265 0.06722617 0.0006697844 -0.04059217 -0.05825492 -0.006376853 0.08648772
0.095218554 0.054730415 -0.018516673 0.017512038 0.026884794 0.01139562 -0.006821425 -0.014905543
0.06498763 -0.004273165 -0.06939647 0.04562236 -0.024126444 -0.030580482 -0.029849824 0.0015679393
0.11589007 -0.0152562745 0.024849145 0.03664854 0.045125574 0.082126185 0.025150804 -0.046427216
-0.058595642 0.010597946 0.0485114 -0.0021245389 -0.013259974 -0.020059569 -0.026252557 0.066609584
-0.022670206 -0.018779896 0.078936346 0.09311351 0.030459777 -0.053322084 -0.033614337 0.046604767
0.11525912 0.029793032 -0.05637692 0.011152614 0.09441941 0.09549287 0.089970104 0.00594381
-0.044029467 -0.03814648 -0.03902579 -0.012068705 -0.0079223635 -0.019692563 0.013350796 -0.052690893
-0.0405066 -0.0029606065 -0.053873565 0.040588308 -0.051430948 -0.04247496 0.0344674 0.051141202
-0.04900405 -0.0072506126 0.035751306 0.033364393 -0.051515713 -0.05868963 -0.07905944 -0.062288128
-0.011985825 -0.0560975 0.028587062 0.04149047 -0.002012873 0.010347634 -0.021096496 -0.057264235
0.0015846563 -0.022628903 0.018569939 -0.09358208 -0.019178068 0.030827437 0.022242894 -0.028485103

exp_avg_sq f4 [144, 5]
00000000: 74e6 6d3c b30a e33c 1bc7 af3c 0112 ae3c
00000010: fbd6 a53c dbdd 1a3d d374 2d3d e4f2 8a3d
00000020: 8d04 543d 555f 413d f170 283d 3e68 693d
00000030: 90db 0b3d 5fa4 123d 1667 773d 4271 a23c
00000040: 78a2 f13c df66 013d c07a e83c 1d61 b93c
00000050: 8cdd d33b 09d5 c23b 8001 733c cdb2 463c
00000060: 124e ab3b 4cc3 4d3d be0c 3f3d b46a 6e3d
00000070: 651e 1e3d b21d 623d 958e a63b 8319 903b
00000080: 6c8f db3b d52d 883b 59b6 de3b 6d66 4f3c
00000090: 684d b23c 4f77 b73c 98e6 b43c a72d 8e3c
000000a0: 7288 2e3d d60e 533d e6f1 453d 3ba6 303d
000000b0: 0e06 403d 4823 3f3d 344e 613d e721 443d
000000c0: 885d 273d 2e62 863d 0999 e13c 96b3 353d
000000d0: b78d 283d 446f 1c3d f099 433d 1433 fb3c
000000e0: c93a 063d d4d2 193d c220 1c3d 6e74 563d
000000f0: c017 fa3c 08bb 183d ab20 d13c 9228 1b3d
00000100: a072 593d 13ab 953c ba22 643d 407a 083d
00000110: 712e a23c bba9 693c 85e5 273d 2003 213d
00000120: 2630 383d 44da 143d 55de 153d f5f0 e83c
00000130: 7242 e13c a223 b53c 4bd5 c63c 3243 f53c
00000140: 703d 283d 60e3 2e3d d1c2 403d a584 7f3d
00000150: fd29 ad3d 04b4 a73c 84e8 033d 527b e13c
00000160: 32f1 e23c 6300 f13c 941d 033d b11d 363d
00000170: 1b95 183d df3d 283d eaf8 6e3d fc37 963c
00000180: 49bd 143d 7f17 ed3c ccde b83c 8144 533d
00000190: a369 153d d070 673d f019 9c3d 55a1 833d
000001a0: c575 1d3d afbd 8b3c 50ca de3c e0ec bc3c
000001b0: 9fca ad3c 9bb3 ac3c 5dee 903c a37e e83c
000001c0: 4c32 df3c 6ebd db3c d2d9 273d 0489 353d
000001d0: a060 933d 6627 483d 3271 4a3d 8e56 873d
000001e0: c418 7c3d e2b2 883d 7035 993d 8e16 6f3d
000001f0: dc88 963d 4c34 0d3d 9eb5 193d 1e25 013d
00000200: 79d6 cc3c 0f78 263d bb85 313d 67c8 493d
00000210: 48a0 713d b5da 2f3d 257c a13d df0e 463d
00000220: a7a9 563d 63ae 913d fe3f 9a3d 8d6b 703d
00000230: 9674 063d 57ce f53c 191b 073d c018 ec3c
00000240: 756a 063d 1026 e73c 2600 e13c 151a 043d
00000250: d327 d73c e428 ea3c 0b0f 593d cf4c 233d
00000260: b653 5e3d 5fcd 593d fd35 033d 836d 133d
00000270: 55c5 213d de77 ea3c bb69 063d c415 3a3d
00000280: 6d43 063d 2ecd 2d3d e27c f43c a9b9 2e3d
00000290: ce1d 7f3d eb4c 0f3d eef1 323d ca36 673d
000002a0: 0ea5 2e3d a90f 543d a7a5 183d 94ea 113d
000002b0: 6166 003d 1112 f93c 1acb 1d3d 6124 3a3d
000002c0: e8a3 be3d 5eb5 533d 9659 dd3d 6260 373e
000002d0: 93cd 513d ef2f 6e3d cbf9 493d aefa 273d
000002e0: cf26 a83d faec 243d 1483 543d b940 113d
000002f0: f67f 033d ba4b 3f3d c29e f43c 60c1 593d
00000300: 6b19 153d e1b8 0d3d 1dcd 1e3d 3967 c43c
00000310: 9c51 4a3d 381a 023d 5ffd 133d 16de e63c
00000320: e5c1 183d 00ae 4f3d 82ff 553d 36e7 643d
00000330: a402 a23d 0800 1d3d 37d1 643d 25f4 2d3d
00000340: 05a7 103d 339f 163d cfbb 143d 3d3b 273d
00000350: 6dca 393d 961a 143d 7f2f 423d 96a4 cb3c
00000360: 6068 f53c 88f0 1b3d 4480 e73c da77 333d
00000370: e82c 383d ff3c 183d 21e9 263d 8de3 513d
00000380: 304f 693d 3be3 813d f2c4 263d 21e5 1c3d
00000390: 811b 453d 5f66 0c3d 58cc 763d 616e be3d
000003a0: 071e a03d 4553 953d 6711 963d a0a4 073d
000003b0: d078 123d a4b5 203d 5fd5 e03c 9578 ec3c
000003c0: a058 eb3c a905 2a3d ef62 283d 88b4 153d
000003d0: 7a53 473d 4760 453c 4a3f 6d3c 746a 823c
000003e0: 31d3 863c 8ad7 923c 36ad 0d3d b80a 483d
000003f0: a2ea 873d 27c7 6d3d d2ee 2e3d e9fe 793d
0.014520276 0.027715063 0.021457246 0.02124882 0.020244112 0.037809234 0.04234774 0.06784609
0.051762152 0.047210056 0.041123334 0.05698418 0.034144938 0.035801288 0.060401045 0.019829396
0.029496416 0.031592246 0.028378844 0.022629315 0.0064656194 0.005945806 0.014831901 0.01212759
0.0052278126 0.050235078 0.04664301 0.05820723 0.038603205 0.0552041 0.005082915 0.0043975725
0.006700447 0.004155854 0.00679664 0.012658698 0.021765426 0.022395758 0.022082612 0.017355753
0.042610593 0.05152782 0.048326395 0.04312728 0.046880774 0.046664506 0.05500622 0.047883894
0.040860683 0.06561695 0.027538793 0.04436072 0.041150775 0.03819205 0.047754228 0.030664004
0.032770906 0.037554577 0.038117178 0.05235713 0.030528903 0.037287742 0.025528273 0.037880488
0.05308783 0.018270051 0.05569718 0.03331971 0.019797536 0.014261658 0.04099037 0.03930962
0.044967793 0.036340967 0.036588985 0.02843521 0.027497504 0.022111718 0.024271628 0.029939268
0.041074216 0.04269731 0.04706079 0.06238236 0.08455274 0.02047158 0.032204166 0.027524624
0.027702902 0.02941913 0.03201063 0.04446191 0.037251573 0.04107463 0.05834285 0.018337242
0.03631333 0.028941868 0.022567175 0.051579002 0.036477696 0.05650407 0.07622135 0.06427256
0.038442392 0.017058222 0.02719608 0.02306217 0.021214781 0.021081736 0.017691785 0.028380698
0.027245663 0.026823726 0.040979214 0.04432012 0.07196164 0.0488657 0.049424358 0.06608306
0.061547056 0.06674744 0.074808955 0.05837112 0.073503226 0.034473702 0.03752672 0.03152954
0.025004612 0.04064184 0.043340426 0.049263384 0.058990747 0.042933185 0.07885007 0.048354026
0.052407887 0.0711334 0.07531737 0.05869632 0.03282603 0.030005617 0.032984827 0.028820395
0.03281637 0.028216392 0.027465891 0.032251436 0.026264107 0.028583951 0.05299286 0.039868172
0.05427905 0.053174373 0.03203391 0.03599311 0.03949483 0.02862161 0.032815676 0.045430914
0.032779146 0.042432003 0.029844705 0.042657528 0.062284283 0.034985464 0.043687753 0.056448735
0.042637877 0.051772747 0.037267353 0.0356241 0.031347636 0.030404123 0.03852377 0.04544485
0.093086064 0.051686637 0.10808103 0.17907861 0.05122144 0.05815118 0.049310487 0.04101055
0.08210527 0.04026506 0.05188282 0.035462115 0.032104455 0.046703078 0.029860858 0.053162932
0.036401194 0.034600142 0.03876983 0.023975002 0.049394235 0.031763285 0.036130305 0.02818207
0.037294287 0.05070305 0.052245624 0.055884562 0.0791066 0.038330108 0.055863585 0.042469162
0.035315532 0.036772918 0.03631192 0.04082798 0.045359064 0.036158167 0.047408577 0.024858754
0.029956996 0.038071185 0.028259404 0.04381547 0.0449647 0.037167545 0.040749673 0.0512424
0.056960285 0.06342169 0.040715165 0.03830445 0.048121933 0.034277316 0.06025347 0.09298397
0.07818227 0.07291273 0.07327538 0.033115983 0.035759747 0.039235726 0.027445493 0.028866092
0.028728783 0.041509304 0.041109975 0.03654912 0.048663594 0.01204688 0.014480421 0.015919901
0.016458126 0.017925043 0.034589015 0.048838347 0.066365495 0.058051255 0.042708226 0.061034117
