trained networks/6276.pt (torch_old, 430563 bytes, 18 tensors)

main.0.weight f4 [144, 5]
-0.2974779 -0.75471115 0.1706404 -0.64281154 0.10533839 -0.5160186 -0.13686143 -0.013165263
0.21559206 0.70205224 0.1652671 -0.0059119826 -0.57825583 -0.3171608 -0.51536816 -0.07790978
-0.57751703 0.57523364 0.33199626 0.11264007 1.2125887 -0.39518714 -0.3373291 -0.6295967
-0.19799909 -0.48254517 -0.5234823 0.24103121 -0.1807599 0.3717877 -0.39399564 -0.9218214
-0.15855093 -0.39774722 -0.23926719 0.22659034 -0.03785712 -0.9489326 -0.4868341 -0.3201286
-0.6119993 0.39635772 0.44092554 0.109307006 -0.021666128 -0.4335234 -0.98141396 0.16827536
-0.23330724 -0.39964458 0.18718229 0.5457381 0.6704442 0.4204119 -0.27161852 0.46629193
-0.6977616 0.29312098 -0.27983868 0.82997715 -0.81421626 -0.19593936 0.11245991 -0.3408697
-0.09258259 -0.28175235 -0.50761443 0.20287547 0.004745178 -0.6971442 0.31339207 -0.46179974
0.17478548 1.1239154 -0.21470909 0.4232039 -1.7456671 0.16717657 -0.2689389 -0.097065814
0.31965688 -0.4544644 -0.22060104 -1.1604304 -0.51498294 -0.25840586 0.27943707 -0.17341696
0.6063729 0.10697377 -0.26079482 0.18351756 0.7785234 -0.4463456 -0.54514194 -0.07829506
0.4453466 -0.41093436 0.24893165 0.30895942 -0.25854045 0.29609406 -0.6340468 0.1677332
0.08395768 0.81712604 -0.9551965 -0.84050685 0.3603417 -0.23977579 -0.4310459 -0.7432743
-0.208425 0.023692476 -0.15248285 1.1526278 0.052593023 0.44202024 -0.99494827 -0.30724806
-0.06636734 -0.1505947 0.7071925 0.5585529 -0.4424934 -0.38859493 0.47682482 0.07535647
-0.35845047 -0.10419058 1.230483 0.47968963 0.0229115 0.008773339 0.330981 -0.045302734
-0.41363218 -0.45702836 -0.22079985 -0.32282996 0.10341031 -0.76432055 -1.0133138 0.72390854
-0.40992284 0.16682415 -0.58842736 0.09504855 0.19758576 0.06287409 -0.6319741 -0.5489788
0.26551616 0.050752606 -0.5580503 -0.71427727 0.10607121 0.08623402 0.18676926 0.23002869
0.13933095 -0.79984593 -0.921019 -0.64500374 -0.06674824 0.15055734 1.1994002 -0.29225552
0.0820401 0.0018661947 -0.6543951 0.39513922 -0.32082528 -0.40992892 -0.31410167 -0.6229951
0.57276994 0.28921446 -0.80023634 0.0018982562 -0.01772642 0.2818692 -0.79135996 -0.9410014
0.36504075 0.12944156 0.03478964 0.34010872 0.5133762 0.6081745 0.6152274 0.535956
-0.28851813 -0.065649115 -0.5982002 0.29104105 -1.3850408 0.43350437 0.38156286 0.47374
0.28950232 0.5572288 -0.07237685 0.054870594 -0.42415512 1.0507187 0.349262 -0.5087395
0.21920723 0.24691312 0.5958602 0.14287429 0.7446448 -0.3380547 0.42719153 -0.18098791
0.47993264 -0.5648199 0.11343786 -0.1507252 -0.08909706 0.33279422 -0.5293557 0.24092548
0.4222017 0.066414826 0.05306458 -0.5157083 -0.70261514 0.50789976 -0.58878285 0.9742973
-0.4269476 0.07528874 -0.7143841 0.06299728 0.16907473 0.44250065 1.2847499 0.074613266
-0.40753508 -0.38764584 0.40611935 0.1994062 -0.06289727 0.240033 -0.60152555 0.5342037
0.8658965 -0.687128 0.011815971 0.44208124 0.6125895 -0.38996276 0.045881197 -0.10680585
00000000: 064f 98be c034 41bf 5bbc 2e3e 4c8f 24bf
00000010: a7bb d73d cc19 04bf 6725 0cbe 1eb3 57bc
00000020: 2ac4 5c3e b2b9 333f c73b 293e 4eb9 c1bb
00000030: 9308 14bf e662 a2be 2bef 03bf 2a8f 9fbd
00000040: 28d8 13bf 8342 133f 6afb a93e d6af e63d
00000050: 1b36 9b3f f855 cabe 66b6 acbe 402d 21bf
00000060: 46c0 4abe 2910 f7be f002 06bf e3d0 763e
00000070: 2019 39be f55a be3e ccb9 c9be 7dfc 6bbf
00000080: 2d5b 22be 86a5 cbbe 7502 75be 4c07 683e
00000090: 1110 1bbd 3fed 72bf 5242 f9be e5e7 a3be
000000a0: fcab 1cbf 66ef ca3e fec0 e13e 5adc df3d
000000b0: 2a7d b1bc c7f6 ddbe f23d 7bbf 6050 2c3e
000000c0: 18e8 6ebe 379e ccbe b7ac 3f3e 7eb5 0b3f
000000d0: 3ba2 2b3f 3b40 d73e 9511 8bbe d1bd ee3e
000000e0: 81a0 32bf f413 963e 0447 8fbe 6279 543f
000000f0: 7a70 50bf 54a4 48be 6251 e63d 7986 aebe
00000100: f19b bdbd d841 90be 05f3 01bf 96be 4f3e
00000110: 707d 9b3b 0b78 32bf ed74 a03e 0471 ecbe
00000120: f7fa 323e 76dc 8f3f b3dc 5bbe 2eae d83e
00000130: 0572 dfbf 5630 2b3e 5cb2 89be 71ca c6bd
00000140: 11aa a33e 8faf e8be 3de5 61be fc88 94bf
00000150: ecd5 03bf c64d 84be 6012 8f3e 3794 31be
00000160: 413b 1b3f 1015 db3d e686 85be 07ec 3b3e
00000170: 4f4d 473f 6987 e4be 6c8e 0bbf 2959 a0bd
00000180: 7804 e43e fd65 d2be f0e7 7e3e ee2f 9e3e
00000190: 6a5f 84be a499 973e e450 22bf 41c2 2b3e
000001a0: 01f2 ab3d 2c2f 513f c287 74bf 752b 57bf
000001b0: b57e b83e c987 75be 0cb2 dcbe 3947 3ebf
000001c0: 5d6d 55be b916 c23c 7724 1cbe 4f89 933f
000001d0: c86b 573d 7a50 e23e eeb4 7ebf 9e4f 9dbe
000001e0: 9aeb 87bd 7f35 1abe 910a 353f 53fd 0e3f
000001f0: 7f8e e2be eaf5 c6be 6222 f43e 7e54 9a3d
00000200: d286 b7be df61 d5bd 7880 9d3f e199 f53e
00000210: e6b0 bb3c 0dbe 0f3c 5776 a93e 5c8f 39bd
00000220: 99c7 d3be 9fff e9be 5b19 62be f849 a5be
00000230: c9c8 d33d 83aa 43bf 44b4 81bf 1252 393f
00000240: 68e1 d1be f3d3 2a3e 2da3 16bf d0a8 c23d
00000250: ec53 4a3e 22c4 803d 0ec9 21bf e089 0cbf
00000260: bcf1 873e f7e1 4f3d 62dc 0ebf e0da 36bf
00000270: dd3b d93d 769b b03d 7140 3f3e a48c 6b3e
00000280: c6ac 0e3e b4c2 4cbf e7c7 6bbf f71e 25bf
00000290: 4db3 88bd b42b 1a3e f285 993f 84a2 95be
000002a0: a404 a83d 1a9b f43a 7086 27bf b04f ca3e
000002b0: 3643 a4be 34e2 d1be efd1 a0be 9b7c 1fbf
000002c0: 0da1 123f eb13 943e 4adc 4cbf e9ce f83a
000002d0: ff36 91bc 2951 903e 9196 4abf 78e5 70bf
000002e0: 9fe6 ba3e 548c 043e 957f 0e3d bb22 ae3e
000002f0: 9f6c 033f 53b1 1b3f 8b7f 1d3f 6a34 093f
00000300: a6b8 93be 0b73 86bd a623 19bf 5503 953e
00000310: 0449 b1bf 49f4 dd3e 355c c33e 0d8e f23e
00000320: a639 943e 8ca6 0e3f 503a 94bd fdbf 603d
00000330: dc2a d9be f37d 863f 78d2 b23e c03c 02bf
00000340: dc77 603e cbd6 7c3e 4b8a 183f a34d 123e
00000350: 0ba1 3e3f 8115 adbe d9b8 da3e e554 39be
00000360: bbb9 f53e 0998 10bf 1c52 e83d b557 1abe
00000370: 8578 b6bd 0164 aa3e db83 07bf 2bb5 763e
00000380: d22a d83e 7f04 883d 3f5a 593d 7605 04bf
00000390: 96de 33bf b805 023f 79ba 16bf 8c6b 793f
000003a0: e098 dabe fc30 9a3d e0e1 36bf b804 813d
000003b0: ed21 2d3e 728f e23e af72 a43f d7ce 983d
000003c0: 70a8 d0be 8479 c6be e0ee cf3e 2431 4c3e
000003d0: 49d0 80bd 36cb 753e 94fd 19bf 93c1 083f
000003e0: 65ab 5d3f 9fe7 2fbf c697 413c 7958 e23e
000003f0: aad2 1c3f 33a9 c7be eced 3b3d 07bd dabd

main.0.bias f4 [144]
1.0216068 -0.74803144 1.8715512 -1.174003 -0.26050594 0.87463826 1.5540941 0.7504038
0.21573594 0.6004423 0.8080686 0.63900703 -0.77988523 1.6572028 -0.7710326 0.29718593
-0.08927786 -0.8362743 -0.45370734 0.8336488 -0.3701157 -0.5966705 0.58175594 0.2614588
-1.0487616 0.7664041 -0.69717354 2.012607 0.26055872 1.094954 1.5127183 0.081124246
0.33907178 -0.43203115 -0.6071694 -0.7658079 0.045461617 0.42304265 1.5203066 -0.13292971
1.6320314 0.93058294 -1.1183407 1.2267073 0.45684913 1.5831604 -0.7623172 0.16205138
1.4889694 0.66553485 0.7297412 -0.4904172 -0.5242732 0.9764359 0.9721877 0.5727484
1.281481 0.17160007 -0.7488399 -0.39596415 -0.37202215 -1.0759964 0.2735702 1.5015522
1.6968873 -0.97104096 0.3484867 -0.96007514 1.7260708 0.51737535 -1.1845628 -1.1038829
1.0283444 0.05035377 0.9547349 0.6841359 0.99968696 0.24164307 0.12640055 0.87597126
-1.2482958 0.44156963 -0.5054468 1.2967193 0.030479588 -0.7755102 -0.68809986 -0.92866546
-0.14598957 0.1462304 1.6096352 0.77887 0.72257644 -1.3440734 -0.90616643 -0.28920683
1.3543298 -0.6556341 0.18973847 1.5305095 -1.2363849 0.29022923 1.1073846 0.4524618
0.44240388 -0.029295556 -0.26474017 1.3411268 -0.42730537 -0.14782484 0.8220583 0.619169
1.1033254 -0.02632684 0.27097192 0.83917797 -1.0866404 -0.43436542 1.2841662 0.47719505
-0.77044886 0.659985 1.1648438 -0.7160099 -0.9418937 1.045314 1.3099511 1.3840262
-0.8895523 -0.054169126 0.12052041 1.4180185 -0.65481585 0.42399094 1.044671 -1.4988827
0.5070425 -1.159611 1.0964668 0.47234964 0.6350094 0.17208657 -0.19458531 1.4907378
00000000: 03c4 823f fd7e 3fbf fd8e ef3f bb45 96bf
00000010: 0961 85be 4be8 5f3f 8eec c63f 771a 403f
00000020: e2e9 5c3e 96b6 193f 95dd 4e3f f795 233f
00000030: 8fa6 47bf 391f d43f 6462 45bf c128 983e
00000040: 50d7 b6bd 1316 56bf 544c e8be 026a 553f
00000050: ce7f bdbe 66bf 18bf f5ed 143f eedd 853e
00000060: d23d 86bf 0f33 443f f779 32bf 8ece 0040
00000070: f467 853e 7427 8c3f c1a0 c13f 7824 a63d
00000080: d19a ad3e 3033 ddbe 746f 1bbf fd0b 44bf
00000090: f635 3a3d 0c99 d83e 6899 c23f ba1e 08be
000000a0: 68e6 d03f af3a 6e3f ca25 8fbf bf04 9d3f
000000b0: 21e8 e93e 00a5 ca3f 3827 43bf ccf0 253e
000000c0: 8d96 be3f 7e60 2a3f 52d0 3a3f f717 fbbe
000000d0: c536 06bf b4f7 793f 4be1 783f a49f 123f
000000e0: 9207 a43f eeb7 2f3e f9b3 3fbf d0bb cabe
000000f0: b079 bebe 40ba 89bf 6511 8c3e dd32 c03f
00000100: 9a33 d93f 2496 78bf d96c b23e 7cc7 75bf
00000110: e3ef dc3f b672 043f c19f 97bf 094c 8dbf
00000120: caa0 833f c13f 4e3d 8269 743f 8823 2f3f
00000130: 7ceb 7f3f 4871 773e 256f 013e a73f 603f
00000140: 28c8 9fbf 6a15 e23e f664 01bf e6fa a53f
00000150: 54b0 f93c d687 46bf 5027 30bf 05bd 6dbf
00000160: 4a7e 15be 6cbd 153e 8708 ce3f 0664 473f
00000170: c5fa 383f 990a acbf 86fa 67bf eb12 94be
00000180: ae5a ad3f a3d7 27bf cd4a 423e bce7 c33f
00000190: dc41 9ebf ed98 943e c7be 8d3f 13a9 e73e
000001a0: c382 e23e 3cfd efbc 068c 87be 0baa ab3f
000001b0: c5c7 dabe 655f 17be 6a72 523f dc81 1e3f
000001c0: c439 8d3f 63ab d7bc d5bc 8a3e 5ed4 563f
000001d0: 0817 8bbf 2565 debe 8f5f a43f e952 f43e
000001e0: 233c 45bf c7f4 283f 9a19 953f 6d4c 37bf
000001f0: f21f 71bf d9cc 853f 7aac a73f c527 b13f
00000200: b3b9 63bf 72e0 5dbd 68d3 f63d a181 b53f
00000210: 03a2 27bf 5715 d93e c8b7 853f 63db bfbf
00000220: 8acd 013f 226e 94bf 0659 8c3f d0d7 f13e
00000230: fa8f 223f 7637 303e 5f41 47be 7fd0 be3f

main.2.weight f4 [144, 144]
-0.043469124 0.0014960954 0.057561472 0.033171915 -0.088419 -0.21526916 -0.049009506 -0.023018137
-0.21439359 -0.30943677 -0.09582137 -0.12393216 -0.33874634 -0.22962686 -0.07122691 0.013549668
-0.23035541 -0.18419702 -0.24644211 0.08820928 -0.25295076 -0.021553226 -0.08296705 -0.17072037
-0.018731557 -0.25386742 0.1146752 -0.046500098 -0.21823855 -0.018079516 -0.33801544 -0.28463522
0.14269917 0.15825856 -0.3275467 -0.07164114 0.24687636 -0.026292136 0.100225665 -0.26139292
-0.04310826 0.07963385 -0.30460683 -0.058834642 0.022215301 0.028601967 -0.3139992 -0.12883821
-0.15247008 -0.21592249 0.16623436 0.042073835 -0.2379 -0.53527796 -0.112260535 -0.3307739
-0.054446902 -0.18976408 -0.28138122 -0.3704223 -0.27777445 -0.18904887 -0.28661108 -0.027978865
0.046912633 0.12975678 -0.0027417082 -0.23125479 0.12457262 0.15909922 -0.08273596 0.009441697
-0.1276813 -0.12912923 -0.014298433 0.10480308 -0.055721276 0.051669512 0.03684319 0.03982866
-0.08548715 -0.44414088 -0.22438625 -0.25496465 -0.50459266 -0.3551327 -0.11610328 0.07482346
-0.1780475 0.089560054 0.013589002 -0.44225392 0.07195308 -0.051419757 -0.0957478 -0.5094748
0.05692919 -0.23598726 -0.4155878 -0.07571223 -0.21141686 -0.17038496 -0.031830106 -0.6096183
-0.42199522 -0.62851065 -0.15867291 -0.06992373 0.09187568 0.084411256 -0.023076063 -0.061861593
-0.095999025 -0.03286817 -0.3987599 0.16156255 -0.19960703 -0.27484787 -0.2596547 -0.13143459
-0.20241566 0.07889153 -0.23736608 -0.128982 -0.29968986 -0.07077492 -0.37640783 0.022118554
-0.26382935 0.046958968 -0.002465033 -0.1295251 0.13212232 -0.1478766 -0.018042253 0.22160135
-0.4647456 -0.1633354 0.17444593 0.08604709 0.089871794 -0.30359787 -0.34445482 0.11236094
0.029151905 -0.006385571 -0.12510043 0.63833594 0.017720953 -0.0199411 0.099039614 -0.23917615
-0.46736023 0.2794969 -0.30445248 0.1271808 0.00453343 0.120115586 0.17394236 0.44555697
-0.229946 -0.17616974 -0.15139651 -0.2743829 0.05458212 0.3082574 0.18134493 -0.22842492
0.051391564 -0.9974591 0.039786182 0.037767414 0.35842165 0.25788844 0.03616129 -0.21054797
0.16702463 -0.14864165 -0.20357642 -0.31772605 -0.4683592 -0.084911026 -0.37530985 0.51129293
-0.36625564 -0.098475106 0.33905488 -0.40596882 -0.14523278 -0.21927933 -0.21185347 -0.12125056
0.043615557 0.16282913 -0.4722147 -0.17420134 0.25999808 -0.661481 -0.8543378 -0.77025336
-0.18231422 0.50985664 0.27471897 0.63037264 0.03662887 -0.1510645 0.29742733 0.009787335
-0.3224856 -0.3034834 -0.03624161 -0.06450732 0.24446312 0.25258186 -0.023162905 -0.12056757
-0.8835331 0.18347651 0.18848331 -0.49406126 0.12176184 -0.08367564 -0.10587286 -0.25985613
0.26379773 0.025410974 -0.12797412 -0.23082729 -0.045375496 0.15537338 -0.21098572 -0.20245473
-0.28906822 0.49517208 0.24776064 -0.043175817 -0.11499382 0.2751585 0.31058812 -0.11284667
-0.23018096 -0.112833716 0.3027594 -0.4738265 -0.11758251 0.43685243 -0.29067576 -0.4283898
-0.72672236 0.16130695 0.19193067 -0.26820126 0.012671459 -0.097993314 0.06066415 -0.10092439
00000000: ae0c 32bd a218 c43a 94c5 6b3d 46df 073d
00000010: 0515 b5bd 856f 5cbe 31be 48bd 8890 bcbc
00000020: fe89 5bbe 7f6e 9ebe ff3d c4bd 25d0 fdbd
00000030: 2970 adbe 4e23 6bbe 6adf 91bd 6dff 5d3c
00000040: 4ae2 6bbe 259e 3cbe 525b 7cbe 11a7 b43d
00000050: c382 81be 6490 b0bc a1ea a9bd 52d1 2ebe
00000060: ec72 99bc e9fa 81be d5da ea3d e376 3ebd
00000070: ed79 5fbe 7e1b 94bc 5c10 adbe b5bb 91be
00000080: bb1f 123e 880e 223e 33b4 a7be 97b8 92bd
00000090: 28cd 7c3e 9b62 d7bc 1d43 cd3d 4bd5 85be
000000a0: 4992 30bd 1217 a33d 6df5 9bbe 98fc 70bd
000000b0: ddfc b53c ac4e ea3c 81c4 a0be 2aee 03be
000000c0: 1e21 1cbe c91a 5dbe 5739 2a3e 9d55 2c3d
000000d0: 0f9c 73be fa07 09bf dae8 e5bd 325b a9be
000000e0: b703 5fbd 8451 42be 3311 90be fea7 bdbe
000000f0: 7438 8ebe 0796 41be b0be 92be ef33 e5bc
00000100: 7627 403d f6de 043e 3bae 33bb 0ece 6cbe
00000110: ee1f ff3d e8ea 223e 7971 a9bd 59b1 1a3c
00000120: e3be 02be 743a 04be fa43 6abc ffa2 d63d
00000130: fe3b 64bd 69a3 533d e3e8 163d 6123 233d
00000140: e313 afbd 6f66 e3be 82c5 65be ba8a 82be
00000150: fc2c 01bf f4d3 b5be 8ec7 edbd 0b3d 993d
00000160: 1552 36be 436b b73d 68a4 5e3c 1b6f e2be
00000170: 235c 933d 869d 52bd 6c17 c4bd f16c 02bf
00000180: 952e 693d a5a6 71be edc7 d4be 030f 9bbd
00000190: a97d 58be 6579 2ebe 4960 02bd f20f 1cbf
000001a0: c20f d8be 13e6 20bf 277b 22be 2c34 8fbd
000001b0: 5129 bc3d cfdf ac3d 030a bdbc 9562 7dbd
000001c0: 239b c4bd c6a0 06bd 422a ccbe a770 253e
000001d0: c965 4cbe dcb8 8cbe 76f1 84be ca96 06be
000001e0: 0d46 4fbe e291 a13d 1810 73be db13 04be
000001f0: f370 99be 71f2 90bd 87b8 c0be f831 b53c
00000200: a414 87be 0c58 403d 648c 21bb 3aa2 04be
00000210: 134b 073e f76c 17be 59cd 93bc 77eb 623e
00000220: 23f3 edbe 6541 27be f4a1 323e 7539 b03d
00000230: b40e b83d 2e71 9bbe 625c b0be 7e1d e63d
00000240: facf ee3c 0d3e d1bb 541a 00be fc69 233f
00000250: 882b 913c 855b a3bc 48d5 ca3d 98ea 74be
00000260: d749 efbe 381a 8f3e 32e1 9bbe af3b 023e
00000270: 2b8d 943b 29ff f53d f21d 323e 0b20 e43e
00000280: f776 6bbe d765 34be b007 1bbe ea7b 8cbe
00000290: 8091 5f3d ead3 9d3e 7cb2 393e 39e8 69be
000002a0: f67f 523d 7b59 7fbf d6f6 223d 01b2 1a3d
000002b0: 0b83 b73e f409 843e dc1d 143d e399 57be
000002c0: 8108 2b3e 8435 18be 5676 50be fdac a2be
000002d0: c7cc efbe d5e5 adbd 9d28 c0be 18e4 023f
000002e0: dc85 bbbe 51ad c9bd 9a98 ad3e 25db cfbe
000002f0: e7b7 14be c38a 60be 1ef0 58be 3752 f8bd
00000300: 3aa6 323d aebc 263e 20c6 f1be d661 32be
00000310: 781e 853e d256 29bf e2b5 5abf 532f 45bf
00000320: 94b0 3abe f785 023f f7a7 8c3e 1a60 213f
00000330: 2708 163d a7b0 1abe 6548 983e 0f5b 203c
00000340: d51c a5be 2d62 9bbe 1572 14bd 6a1c 84bd
00000350: 8a54 7a3e 6952 813e 22c0 bdbc 21ec f6bd
00000360: 3a2f 62bf 44e1 3b3e c501 413e 99f5 fcbe
00000370: 465e f93d 225e abbd dfd3 d8bd dd0b 85be
00000380: 7f10 873e ad2a d03c a60b 03be fd5d 6cbe
00000390: a8db 39bd 331a 1f3e a40c 58be 4b50 4fbe
000003a0: c000 94be 3287 fd3e f7b4 7d3e 20d9 30bd
000003b0: e181 ebbd 93e1 8c3e 6805 9f3e 281c e7bd
000003c0: 8fb4 6bbe 5d15 e7bd 4803 9b3e 6399 f2be
000003d0: 19cf f0bd 1fab df3e 74d3 94be e855 dbbe
000003e0: 7a0a 3abf a62d 253e 7989 443e ad51 89be
000003f0: f39b 4f3c b8b0 c8bd f97a 783d 72b1 cebd

main.2.bias f4 [144]
-0.19067717 -0.20009027 -0.16686305 -0.43812796 -0.09149847 -0.23754801 -0.11499641 -0.18206322
-0.10598417 -0.18079707 -0.17405355 -0.2282646 -0.31721058 0.0016022618 -0.42579165 -0.24700227
-0.18420708 -0.0052892636 -0.33313546 -0.22938786 -0.3041426 -0.21743599 -0.09083126 -0.043502647
-0.3010586 -0.06678336 -0.43568465 -0.07962153 -0.3002986 -0.13156027 -0.22763105 -0.48206073
-0.13820638 -0.37064967 -0.4950591 -0.3948438 -0.22268116 -0.17040977 0.008435025 -0.31963986
-0.33063126 -0.30952877 -0.16465762 -0.31886622 -0.26481956 -0.022270015 -0.3432147 -0.25525433
-0.050655864 -0.2527587 -0.058420245 -0.094786145 -0.24736771 -0.13403279 -0.0811818 -0.277843
-0.21322569 -0.051969524 -0.360794 -0.32735315 0.023577617 -0.05130832 -0.30486572 -0.2035998
-0.33855024 -0.058899924 -0.13169323 -0.28644225 -0.057161033 -0.06058538 -0.06558311 -0.36733127
-0.061723713 -0.21675822 -0.36459365 -0.39615157 -0.21617645 -0.31418586 -0.26200256 -0.107968934
-0.11734404 -0.16130595 0.07769384 -0.10951422 -0.04989264 -0.17122106 -0.27549535 -0.08893088
-0.0390024 0.00039004858 -0.2355157 -0.38630944 -0.14213416 -0.08183427 -0.34634873 -0.2846647
-0.2334727 -0.36392185 -0.21828197 -0.35694697 -0.054667722 -0.23580243 -0.36753836 -0.32739776
-0.24774283 -0.10458822 -0.28805467 -0.17455204 -0.34652627 -0.32516903 -0.4942325 -0.32426062
-0.23945512 -0.32480925 -0.15081653 -0.32065582 -0.23197773 -0.49855638 -0.31619093 -0.40667233
-0.3378671 -0.17129777 -0.07011063 -0.050070178 -0.17951004 -0.14793424 -0.3002232 -0.06970697
-0.33781213 -0.21459518 -0.04863447 -0.48222023 -0.38180512 -0.33520943 -0.12847453 -0.29442608
-0.10975129 -0.38417116 -0.25973356 -0.4830549 -0.48921797 -0.22917087 -0.141842 -0.18949698
00000000: e040 43be 77e4 4cbe 26de 2abe 4f52 e0be
00000010: 8d63 bbbd c93f 73be 3d83 ebbd c86e 3abe
00000020: 3b0e d9bd de22 39be 183b 32be 32be 69be
00000030: 6d69 a2be fc02 d23a 5d01 dabe 2aee 7cbe
00000040: c8a0 3cbe 8f51 adbb bb90 aabe a7e4 6abe
00000050: 94b8 9bbe 8aa7 5ebe bd05 babd d52f 32bd
00000060: 5a24 9abe b7c5 88bd 0f12 dfbe 9d10 a3bd
00000070: bdc0 99be bcb7 06be 1d18 69be aad0 f6be
00000080: f985 0dbe cbc5 bdbe 6378 fdbe f728 cabe
00000090: 8806 64be e67f 2ebe 0f33 0a3c d6a7 a3be
000000a0: 8048 a9be 8e7a 9ebe 029c 28be 6f42 a3be
000000b0: 6e96 87be 9b6f b6bc d6b9 afbe b2b0 82be
000000c0: 867c 4fbd 9769 81be 114a 6fbd 3d1f c2bd
000000d0: f64d 7dbe e43f 09be a542 a6bd 7041 8ebe
000000e0: d657 5abe ffdd 54bd feb9 b8be d59a a7be
000000f0: d925 c13c ac28 52bd 5c17 9cbe 777c 50be
00000100: 7556 adbe 0c41 71bd 97da 06be 8fa8 92be
00000110: b021 6abd 6028 78bd 7050 86bd d812 bcbe
00000120: 01d2 7cbd def5 5dbe 05ac babe 61d4 cabe
00000130: 5c5d 5dbe f8dc a0be 3325 86be d11e ddbd
00000140: 1252 f0bd 632d 25be f31d 9f3d fe48 e0bd
00000150: 3a5c 4cbd 9354 2fbe ba0d 8dbe 6521 b6bd
00000160: fbc0 1fbd 6f7f cc39 072b 71be 5aca c5be
00000170: 9e8b 11be ba98 a7bd 9f54 b1be 92bf 91be
00000180: 7813 6fbe f753 babe 4f85 5fbe c1c1 b6be
00000190: 43eb 5fbd 3176 71be fd2d bcbe aea0 a7be
000001a0: 4cb0 7dbe 5932 d6bd e77b 93be c5bd 32be
000001b0: e46b b1be 8e7c a6be 0b0c fdbe 7d05 a6be
000001c0: b933 75be 664d a6be a66f 1abe 002d a4be
000001d0: 928b 6dbe c842 ffbe c7e3 a1be 5b37 d0be
000001e0: ebfc acbe af68 2fbe 2996 8fbd 6316 4dbd
000001f0: 7bd1 37be 137c 17be dbb6 99be 87c2 8ebd
00000200: b6f5 acbe d7be 5bbe f034 47bd 92e5 f6be
00000210: f67b c3be 92a0 abbe d48e 03be 04bf 96be
00000220: 49c5 e0bd 15b2 c4be ccfb 84be f952 f7be
00000230: c77a fabe c5ab 6abe 073f 11be 7f0b 42be

main.4.weight f4 [96, 144]
0.64242315 0.13383487 0.42072144 0.16436093 0.7149988 0.18446949 0.5344819 0.09199285
0.21103059 0.21834691 1.0546134 0.81143874 0.18866265 1.0877306 0.1607119 0.7082137
0.6476693 0.4234388 -0.04600415 0.32514343 0.3916035 0.5895739 0.38106856 0.6841458
0.12045607 0.6787719 0.20064968 0.71432465 0.58375126 0.71966606 0.7596835 -0.09444479
1.1301705 1.0426835 -0.10033143 0.49889177 0.46910024 0.07709313 0.8448262 0.53813475
0.38631144 0.3100282 0.15402253 0.5151174 0.5726017 0.3710451 0.40619528 -0.19911692
0.34661147 0.44888565 0.37309828 0.5844389 -0.16131556 0.521923 0.7837763 0.58927166
0.5605067 0.4388249 -0.26405695 0.70818156 0.56249136 0.8938586 -0.17777337 0.84100074
0.28236222 0.8307773 0.41207552 -0.07067729 0.71014106 0.7499336 0.7326036 0.380349
0.27729523 0.4793655 0.56474394 -0.025794301 0.3509546 0.1221728 0.19399725 1.1970345
0.15521626 0.9102471 0.9444675 0.42791456 0.6120671 0.7889379 -0.17507406 0.7216966
0.9108256 0.5693995 0.29856953 -0.53162557 0.29874325 0.7607866 0.023069376 0.29818845
0.5359219 0.4836619 0.39752516 0.4135042 0.22144112 0.1709755 -0.23745055 0.79514396
0.573753 0.89744383 0.54673994 -0.09240114 -0.3551931 0.34020942 -0.18770765 0.43299356
0.35595042 0.39640132 0.7882891 0.03854175 0.5414356 -0.48090562 -0.31185356 0.099125154
0.6670146 0.8587341 0.68905 0.707471 0.77008843 -0.041520685 0.26458701 0.6499404
0.06387842 0.255601 0.55189645 0.47846454 0.02776215 -0.5701887 0.98661685 0.4503503
0.56463623 -0.18639673 0.98780876 0.5399107 0.29411358 0.3838845 0.7366203 0.40789777
0.31303242 0.52429754 0.264833 0.2328461 0.79893583 0.3677359 0.79657555 -0.66728723
0.6033909 0.28870213 0.7974454 0.59616613 0.31825697 0.48646426 0.4342331 0.655089
0.12261569 0.57144517 0.45369262 -0.090674356 0.355476 0.5324328 0.5185481 0.55071616
0.19827498 0.43168297 -0.19102135 0.16181806 0.2853725 -0.06015394 0.6131705 -0.3556678
0.56751096 0.3756787 0.13133496 0.7445024 0.4360175 0.56239253 0.32655197 0.5271298
0.5875634 0.17868753 0.38427237 0.38419858 0.13686454 0.93486476 -0.034928717 0.56321913
0.82588744 0.67666686 0.64354485 0.4595062 0.3479838 0.79689777 0.15582831 0.10947498
0.63472205 0.8066438 0.5275917 0.076139405 0.58988667 0.9744762 0.5304376 0.7948646
0.2176585 0.98606336 -0.10796372 0.33491826 0.92175776 0.88089573 0.30133522 0.10320028
0.62426156 0.024672393 0.47066528 -0.032592088 0.68304694 0.7929643 0.41900644 0.6538695
0.52345115 0.13000113 0.70702136 0.578558 0.82420313 0.6065042 0.31985494 0.5517193
0.13993578 0.53989357 0.64422274 -0.10402633 0.051958516 0.7654014 0.750504 0.02384904
0.20457667 0.0123753175 0.39463866 -0.32760724 0.92792445 0.2365074 0.42943206 0.40461946
0.015472827 0.7215479 0.2314943 0.69071925 0.36621332 0.9304403 -0.10043494 0.6112787
00000000: d875 243f 020c 093e cd68 d73e 3b4e 283e
00000010: 290a 373f 92e5 3c3e ced3 083f bf66 bc3d
00000020: 6718 583e 5596 5f3e 92fd 863f 73ba 4f3f
00000030: c830 413e c23a 8b3f a991 243e 7e4d 353f
00000040: a8cd 253f f8cc d83e d96e 3cbd 3379 a63e
00000050: 4180 c83e 51ee 163f 6b1b c33e 2e24 2f3f
00000060: acb1 f63d ffc3 2d3f 1c77 4d3e fbdd 363f
00000070: b970 153f 093c 383f 9e7a 423f 456c c1bd
00000080: 6da9 903f a776 853f 917a cdbd be6e ff3e
00000090: e82d f03e 01e3 9d3d 8846 583f 33c3 093f
000000a0: 9dca c53e 04bc 9e3e 15b8 1d3e bcde 033f
000000b0: 0696 123f a0f9 bd3e d4f8 cf3e 4ee5 4bbe
000000c0: 0f77 b13e 57d4 e53e bd06 bf3e ca9d 153f
000000d0: e82f 25be bf9c 053f 90a5 483f 82da 163f
000000e0: 5e7d 0f3f a8ad e03e 7932 87be 634b 353f
000000f0: 6fff 0f3f ebd3 643f 390a 36be d34b 573f
00000100: c891 903e d2ad 543f 90fb d23e 41bf 90bd
00000110: cecb 353f a6fb 3f3f e98b 3b3f 1bbd c23e
00000120: a4f9 8d3e 656f f53e 0f93 103f 924e d3bc
00000130: 52b0 b33e bc35 fa3d 37a7 463e 6d38 993f
00000140: 03f1 1e3e f405 693f 9fc8 713f 9e17 db3e
00000150: 6eb0 1c3f d6f7 493f 9d46 33be 1cc1 383f
00000160: de2b 693f 2ac4 113f 1bde 983e 9d18 08bf
00000170: e0f4 983e e9c2 423f fdfb bc3c 28ac 983e
00000180: 2d32 093f 88a2 f73e 6b88 cb3e d3b6 d33e
00000190: 76c1 623e 3414 2f3e 3d26 73be 8e8e 4b3f
000001a0: 7ae1 123f e1be 653f 26f7 0b3f cf3c bdbd
000001b0: dfdb b5be ee2f ae3e 6f36 40be 55b1 dd3e
000001c0: 223f b63e 1df5 ca3e 51cd 493f f4dd 1d3d
000001d0: 869b 0a3f 4339 f6be 45ab 9fbe 2102 cb3d
000001e0: 78c1 2a3f ffd5 5b3f 9565 303f d21c 353f
000001f0: 8424 453f 9811 2abd f377 873e 7e62 263f
00000200: b0d2 823d 22de 823e 1649 0d3f 4ef9 f43e
00000210: 736d e33c e3f7 11bf ec92 7c3f 5194 e63e
00000220: 008c 103f c9de 3ebe 09e1 7c3f 9637 0a3f
00000230: 0e96 963e 828c c43e 2693 3c3f fad7 d03e
00000240: c945 a03e 5d38 063f 3198 873e 356f 6e3e
00000250: 0f87 4c3f e147 bc3e 60ec 4b3f 56d3 2abf
00000260: d377 1a3f c4d0 933e 6225 4c3f 589e 183f
00000270: 94f2 a23e d811 f93e cd53 de3e eab3 273f
00000280: ef1d fb3d 3b4a 123f 664a e83e 7ab3 b9bd
00000290: f300 b63e 844d 083f 91bf 043f bcfb 0c3f
000002a0: 9908 4b3e 8d05 dd3e 1a9b 43be a2b3 253e
000002b0: 581c 923e fa63 76bd bef8 1c3f 171a b6be
000002c0: 6648 113f f558 c03e ac7c 063e b697 3e3f
000002d0: b03d df3e f5f8 0f3f d231 a73e fbf1 063f
000002e0: 8e6a 163f ddf9 363e 59bf c43e adb5 c43e
000002f0: 3826 0c3e 4c53 6f3f 6a11 0fbd 212f 103f
00000300: 5c6d 533f 0a3a 2d3f 5bbf 243f 6644 eb3e
00000310: ef2a b23e 7e01 4c3f 7591 1f3e 6b34 e03d
00000320: 257d 223f 3580 4e3f 4010 073f faee 9b3d
00000330: d002 173f 4677 793f c2ca 073f 3f7c 4b3f
00000340: dfe1 5e3e a66e 7c3f 151c ddbd 687a ab3e
00000350: 51f8 6b3f 6282 613f 9c48 9a3e ab5a d33d
00000360: 9bcf 1f3f c21d ca3c 0afb f03e 487f 05bd
00000370: 2adc 2e3f b5ff 4a3f 0388 d63e fe63 273f
00000380: e500 063f 041f 053e 5aff 343f 611c 143f
00000390: fafe 523f dc43 1b3f 07c4 a33e 7a3d 0d3f
000003a0: 534b 0f3e 7736 0a3f c8eb 243f c20b d5bd
000003b0: 74d2 543d 59f1 433f 0821 403f 105f c33c
000003c0: 8c7c 513e d8c1 4a3c 140e ca3e 23bc a7be
000003d0: 758c 6d3f ff2e 723e 85de db3e 482a cf3e
000003e0: bd81 7d3c 5db7 383f d70c 6d3e fad2 303f
000003f0: 5080 bb3e 5631 6e3f d5b0 cdbd c37c 1c3f

main.4.bias f4 [96]
0.5902096 0.29352263 0.3574772 0.2063279 0.21506837 0.4105375 -0.06753686 0.21648955
0.28068927 0.14513138 0.48176187 0.24392585 0.72977054 0.3009419 0.14546336 0.27129632
0.2214601 0.0268481 -0.051100187 0.31345293 0.076764844 0.34544972 0.061597608 0.2652557
0.6357433 0.23490416 0.3594728 0.060177617 0.2241026 0.3927465 0.034630977 0.20566629
0.15028828 0.06831764 0.53535116 0.20902765 0.57016754 0.10233082 0.18835576 0.17018011
0.21727353 0.4395312 0.042222403 0.10549422 0.12048354 0.30790707 0.30783653 0.25383177
0.69897044 -0.23234412 0.2389772 0.07914689 0.17933851 0.39148805 0.14489512 0.5099655
0.09770384 0.27407816 0.14162333 0.2532794 0.5627276 0.13770528 0.12450834 0.116618946
0.16810359 0.3598286 -0.039559532 0.41533732 -0.12996 0.11594731 0.3968186 0.18376382
0.4933005 0.20819491 0.19292538 0.11640673 0.31413007 0.22099616 -0.034605622 0.35303304
0.028246911 0.18375862 0.30000126 0.30805096 0.692574 0.069603115 0.17875588 0.15843104
0.27655628 0.4237083 0.00055530143 0.5436989 0.15687744 0.17703259 0.06671616 0.15209807
00000000: fa17 173f 9948 963e 4007 b73e 9f47 533e
00000010: e23a 5c3e f931 d23e c450 8abd 70af 5d3e
00000020: 81b6 8f3e 529d 143e 7ea9 f63e b3c7 793e
00000030: 3ed2 3a3f 0f15 9a3e 59f4 143e 5ae7 8a3e
00000040: 70c6 623e 8cf0 db3c 6e4e 51bd e77c a03e
00000050: e336 9d3d c9de b03e c64d 7c3d 98cf 873e
00000060: 13c0 223f b78a 703e d20c b83e ce7c 763d
00000070: 277b 653e 1216 c93e 36d9 0d3d 2f9a 523e
00000080: 2ce5 193e 1eea 8b3d c60c 093f 580b 563e
00000090: 80f6 113f d292 d13d 55e0 403e b243 2e3e
000000a0: f47c 5e3e 3c0a e13e 66f1 2c3d 5b0d d83d
000000b0: 13c0 f63d ffa5 9d3e c09c 9d3e 3df6 813e
000000c0: baef 323f 9eeb 6dbe 70b6 743e c417 a23d
000000d0: 84a4 373e 1f71 c83e 635f 143e 198d 023f
000000e0: f318 c83d f953 8c3e b505 113e d6ad 813e
000000f0: ea0e 103f 9d02 0d3e 3bfe fe3d ead5 ee3d
00000100: 5923 2c3e 743b b83e 2d09 22bd 18a7 d43e
00000110: 3c14 05be c975 ed3d cf2b cb3e 952c 3c3e
00000120: e291 fc3e 0c31 553e 3b8e 453e a766 ee3d
00000130: a8d5 a03e d14c 623e a0be 0dbd bfc0 b43e
00000140: 1166 e73c 382b 3c3e c499 993e dbb8 9d3e
00000150: 884c 313f 148c 8e3d c80b 373e bf3b 223e
00000160: c998 8d3e 4bf0 d83e a691 113a da2f 0b3f
00000170: 7ba4 203e 0848 353e 7ba2 883d 99bf 1b3e

exp_avg f4 [144, 5]
0.02464226 -0.07167053 -0.051763274 0.012269213 0.033471506 0.009262437 -0.002887506 0.01127301
0.030298676 0.015397775 -0.04196094 0.0008941991 -0.02986822 0.0006512292 0.032508142 0.051744692
0.03153311 -0.06209559 0.0077330824 -0.0074505527 -0.05463629 0.06372411 -0.045744848 0.035417717
-0.038816392 0.01926868 -0.068621255 -0.03429236 -0.009355042 0.004422147 -0.045553774 -0.046595678
-0.060122598 -0.0028826967 0.036103364 -0.04955776 -0.013701681 -0.03317456 0.010973012 0.022533186
0.0055674594 -0.050130785 0.006056443 -0.011092259 -0.022812197 -0.018698804 -0.015353395 -0.07782311
-0.004390424 -0.036609847 -3.652484e-05 -0.0037708678 0.0023452528 -0.055987224 0.015557962 0.015664937
-0.0019246042 0.0064897416 -0.0135631915 0.025457691 -0.0020846669 0.013761783 -0.050657023 0.056329668
-0.025094323 -0.017773524 -0.02796156 -0.06407829 -0.08649508 0.012230886 -0.00805699 0.07716997
-0.008726401 0.007960692 -0.03959069 -0.048871722 -0.0051631937 -0.05623279 -0.057006318 -0.0051709004
-0.013216527 -0.023022065 -0.10206978 0.05407884 0.014696684 -0.008045774 0.023045009 0.00630161
0.06861767 -0.023269342 0.04101518 -0.022769801 -0.08404997 0.034060486 0.022866763 -0.054248117
0.04207781 0.120006636 0.010087594 -0.028699454 -0.026093666 -0.0046119136 0.05736471 0.06959159
0.029578097 -0.055818144 0.052142385 -0.01601425 -0.0072871633 -0.06343857 -0.015858334 -0.01301958
-0.006241685 -0.030352768 -0.031196559 -0.038048163 0.06180618 -0.037131242 0.0079131145 -0.004475802
0.03201087 0.050001226 -0.026552102 0.008181643 -0.02547592 -0.019470427 -0.09421234 -0.006156152
0.0046610255 -0.006643131 -0.037773453 0.07821182 -0.0051859617 0.004246639 -0.041985832 -0.059894986
-0.0243092 -0.030057387 -0.016769297 0.029694442 -0.061520934 0.026229948 0.02169907 -0.0032080878
-0.082372405 0.017239677 -0.013742574 -0.032444127 -0.059696674 -0.008479949 -0.019118566 -0.05072938
-0.074599095 -0.05621818 -0.011710152 -0.02284765 -0.028246196 0.010196665 0.0393679 -0.017986678
-0.007439308 -0.023565428 0.0053168903 0.0186161 -0.018898807 -0.022696503 -0.005389411 0.008541988
0.013653349 0.01736146 -0.041713733 -0.04264802 -0.0038706148 0.06016119 0.014168394 0.024657764
-0.014911303 -0.03798624 0.091207385 0.030553684 -0.038961615 -0.0010660067 0.014502392 0.043099634
0.063310176 -0.0005049687 0.0003180639 0.05255327 -0.060335103 -0.017960537 -0.05804418 0.023202585
-0.0102653755 -0.04083095 0.0032228688 0.017458327 0.01294196 -0.024497576 -0.041298654 0.0076740505
-0.041182652 -0.011636157 0.0012927391 -0.067342095 0.025599144 -0.040402584 0.0424612 0.011519501
-0.011266633 0.0051873 -0.027702777 0.034603134 0.04017675 -0.004312465 0.012472345 -0.07385001
-0.0035489658 0.051858686 0.01508172 -0.015241159 -0.098537594 0.033736892 0.062601745 0.007913394
0.0006990414 -0.0020989478 -0.030702 0.022641277 0.00017859042 0.09890028 -0.025000837 -0.046801336
-0.04286034 0.053145397 0.056816503 0.02821841 0.0416331 0.01268457 -0.028308112 -0.030090747
-0.0328948 -0.08176367 -0.03518882 -0.080359496 0.018005563 0.027427774 0.023658045 -0.069907084
-0.035317354 -0.0394668 0.034711346 -0.059306644 0.00021417346 -0.026690487 0.04685667 -0.010741971
00000000: 91de c93c 00c8 92bd ba05 54bd cf04 493c
00000010: 6b19 093d 7ac1 173c 503c 3dbb 6eb2 383c
00000020: ee34 f83c f346 7c3c 3cdf 2bbd b068 6a3a
00000030: 33ae f4bc 40b7 2a3a 4227 053d 3ef2 533d
00000040: dd28 013d f257 7ebd cc65 fd3b c423 f4bb
00000050: 4dca 5fbd c981 823d f35e 3bbd 2b12 113d
00000060: f0fd 1ebd 5ad9 9d3c 4d89 8cbd 2576 0cbd
00000070: e445 19bc a8e7 903b 9896 3abd 1cdb 3ebd
00000080: 1d43 76bd a0eb 3cbb 1fe1 133d 14fd 4abd
00000090: 047d 60bc 0ce2 07bd 26c8 333c 8497 b83c
000000a0: 3c6f b63b f055 4dbd 2075 c63b 4ebc 35bc
000000b0: a5e0 babc 3c2e 99bc ce8c 7bbc b961 9fbd
000000c0: 8cdd 8fbb 35f4 15bd 4032 19b8 aa20 77bb
000000d0: d0b2 193b dc52 65bd d2e6 7e3c c153 803c
000000e0: 0043 fcba e6a7 d43b 2638 5ebc a68c d03c
000000f0: e89e 08bb 1a79 613c bd7d 4fbd f0b9 663d
00000100: 9c92 cdbc c899 91bc a40f e5bc 7a3b 83bd
00000110: 5524 b1bd 0e64 483c 7701 04bc 4a0b 9e3d
00000120: 2ef9 0ebc 906d 023c d929 22bd b72d 48bd
00000130: 0230 a9bb 5b54 66bd 757f 69bd a870 a9bb
00000140: 228a 58bc c598 bcbc f609 d1bd c681 5d3d
00000150: 5cca 703c 6cd2 03bc e3c8 bc3c bc7d ce3b
00000160: 6c87 8c3d 599f bebc 89ff 273d bc87 babc
00000170: 6422 acbd 0283 0b3d 1453 bb3c 4633 5ebd
00000180: c859 2c3d 0ac6 f53d 7046 253c 1e1b ebbc
00000190: 62c2 d5bc 891f 97bb 42f7 6a3d 0986 8e3d
000001a0: c44d f23c 91a1 64bd 4193 553d 5130 83bc
000001b0: 28c9 eebb 15ec 81bd 56e9 81bc 1450 55bc
000001c0: 0c87 ccbb 5ea6 f8bc ed8f ffbc 64d8 1bbd
000001d0: 7a28 7d3d ee16 18bd 02a6 013c c0a9 92bb
000001e0: d41d 033d 16ce 4c3d cb83 d9bc 4c0c 063c
000001f0: e0b2 d0bc 7280 9fbc 66f2 c0bd 8cb9 c9bb
00000200: 84bb 983b 9fae d9bb 56b8 1abd 852d a03d
00000210: 00ef a9bb 6427 8b3b 56f9 2bbd 7254 75bd
00000220: 1624 c7bc e93a f6bc c45f 89bc c241 f33c
00000230: 60fd 7bbd 30e0 d63c 40c2 b13c c83e 52bb
00000240: ddb2 a8bd 393a 8d3c 8828 61bc 22e4 04bd
00000250: 8084 74bd 7cef 0abc 8a9e 9cbc 9cc9 4fbd
00000260: 69c7 98bd 0945 66bd f0db 3fbc ff2a bbbc
00000270: 9164 e7bc ea0f 273c 3c40 213d cc58 93bc
00000280: 70c5 f3bb 490c c1bc 4f39 ae3b cb80 983c
00000290: acd1 9abc 04ee b9bc a899 b0bb b2f3 0b3c
000002a0: 4cb2 5f3c 9f39 8e3c 05dc 2abd b1af 2ebd
000002b0: 24aa 7dbb 946b 763d 8d22 683c 14ff c93c
000002c0: 8a4e 74bc 7697 1bbd f0ca ba3d b84b fa3c
000002d0: 3796 1fbd 40b9 8bba 719b 6d3c 3e89 303d
000002e0: c4a8 813d e05f 04ba d0c1 a639 1942 573d
000002f0: f121 77bd fa21 93bc bcbf 6dbd 5913 be3c
00000300: 1b30 28bc 5b3e 27bd c436 533b c404 8f3c
00000310: 840a 543c 24af c8bc c728 29bd 9a76 fb3b
00000320: 24af 28bd 94a5 3ebc 2071 a93a a7ea 89bd
00000330: 4cb5 d13c 2e7d 25bd cceb 2d3d 4abc 3c3c
00000340: af97 38bc 3afa a93b eff0 e2bc 04bc 0d3d
00000350: 6090 243d 944f 8dbb ce58 4c3c ad3e 97bd
00000360: c495 68bb c669 543d 5219 773c 0eb6 79bc
00000370: 14ce c9bd b22f 0a3d 5835 803d 2ea7 013c
00000380: e03f 373a 808e 09bb c382 fbbc 337a b93c
00000390: 0044 3b39 3b8c ca3d 8ece ccbc c2b2 3fbd
000003a0: 538e 2fbd fdae 593d 6cb8 683d 4c2a e73c
000003b0: 7887 2a3d f1d2 4f3c 6ae6 e7bc df80 f6bc
000003c0: b3bc 06bd b673 a7bd 2722 10bd 8593 a4bd
000003d0: 6780 933c 36b0 e03c 84ce c13c 722b 8fbd
000003e0: eea8 10bd f0a7 21bd 7c2d 0e3d 86eb 72bd
000003f0: c093 6039 02a6 dabc c8ec 3f3d 18ff 2fbc

exp_avg_sq f4 [144, 5]
0.044783276 0.024038328 0.049657863 0.043743886 0.03948331 0.02796139 0.03399656 0.02782953
0.023887169 0.04689501 0.034582615 0.03492195 0.029919233 0.03711902 0.038807947 0.011513519
0.016703675 0.022282664 0.0109137 0.012481179 0.025618946 0.02666774 0.036878392 0.029927721
0.031491965 0.059574418 0.045701995 0.050124288 0.05997736 0.04530449 0.040510565 0.023740543
0.046573523 0.05708147 0.041109536 0.035529364 0.07400619 0.032579415 0.046586093 0.03870201
0.0302312 0.05122453 0.03399556 0.05827694 0.034395263 0.053163487 0.02177083 0.057116453
0.05158089 0.047485657 0.03758455 0.047691878 0.031566083 0.04842337 0.052573595 0.03965521
0.026726145 0.044589393 0.045453858 0.03198876 0.0238228 0.022599906 0.0225245 0.018713886
0.0209079 0.046311986 0.03888147 0.045211878 0.048828147 0.05992548 0.039216295 0.028726084
0.03965507 0.057945732 0.036787566 0.048884965 0.015772827 0.042777684 0.045037713 0.038498748
0.029814286 0.048517082 0.03752187 0.033926822 0.03950511 0.041934934 0.026356481 0.03420699
0.044337995 0.029721944 0.03319137 0.029116975 0.031149156 0.019605871 0.02373965 0.047975805
0.038241185 0.05700665 0.056076825 0.047150705 0.041929275 0.044503726 0.037382115 0.036733843
0.03120514 0.04774453 0.022002885 0.035702407 0.048523273 0.03509756 0.037112676 0.02926855
0.04961028 0.040838752 0.03847567 0.022394504 0.04598495 0.033067532 0.028157935 0.030463565
0.025565436 0.016366804 0.03753231 0.036143776 0.028933194 0.042026177 0.0390087 0.038578194
0.063994825 0.036976162 0.040636618 0.040709656 0.031233875 0.041771308 0.0300834 0.020082254
0.0184523 0.02541752 0.02938685 0.02367103 0.05265326 0.028734904 0.035451747 0.042441558
0.03876735 0.04846351 0.047851484 0.06352884 0.05211124 0.047208928 0.058619652 0.051560033
0.05401033 0.076824404 0.06160853 0.02994558 0.073364794 0.04129193 0.04512106 0.04602309
0.03190755 0.023791114 0.030162634 0.0365514 0.034739494 0.027304066 0.044466473 0.044474315
0.041922234 0.031159913 0.038764033 0.031876083 0.042680405 0.041630242 0.03351977 0.028688218
0.025481783 0.038555544 0.031939846 0.032561574 0.039018203 0.05028896 0.047804806 0.037005965
0.04856499 0.038949598 0.05484324 0.03804369 0.034473665 0.039338578 0.039596524 0.06518059
0.037647523 0.03516911 0.04723517 0.054172684 0.023103444 0.050698504 0.04926511 0.050138067
0.029095896 0.049174108 0.028659044 0.029572614 0.04322025 0.029568547 0.028794674 0.04850423
0.039781027 0.040326487 0.020975942 0.017723039 0.03278045 0.029750558 0.023914307 0.029214025
0.030708646 0.038181808 0.040784605 0.036738276 0.047783144 0.042177487 0.039541025 0.059014097
0.04351789 0.056902766 0.037880752 0.061770905 0.06456467 0.055346355 0.05724424 0.065490454
0.06273025 0.045462 0.038973257 0.028237648 0.058938347 0.033580434 0.030424612 0.04766922
0.037873343 0.0456834 0.04012141 0.04823625 0.038391925 0.05014093 0.03372267 0.047729872
0.04736055 0.042371117 0.05100324 0.05936997 0.035943907 0.060666125 0.05608351 0.03631415
00000000: ab6e 373d 07ec c43c 0b66 4b3d ca2c 333d
00000010: 40b9 213d 490f e53c fa3f 0b3d c1fa e33c
00000020: 06af c33c fb14 403d 80a6 0d3d 520a 0f3d
00000030: 2e19 f53c 1d0a 183d 15f5 1e3d 33a3 3c3c
00000040: 25d6 883c 228a b63c 60cf 323c dc7d 4c3c
00000050: d3de d13c 4e76 da3c cc0d 173d fb2a f53c
00000060: b8fd 003d 4e04 743d 0432 3b3d 204f 4d3d
00000070: d2aa 753d 3391 393d 68ee 253d 877b c23c
00000080: e1c3 3e3d 42ce 693d 7962 283d 3d87 113d
00000090: 8f90 973d fe71 053d 0fd1 3e3d 0086 1e3d
000000a0: 6ca7 f73c d0d0 513d ee3e 0b3d cdb3 6e3d
000000b0: 0ce2 0c3d f5c1 593d bd58 b23c f1f2 693d
000000c0: 7c46 533d 5280 423d 42f2 193d 8f58 433d
000000d0: 704b 013d 9557 463d 6957 573d 806d 223d
000000e0: caf0 da3c 5ea3 363d d32d 3a3d a506 033d
000000f0: 0828 c33c 7023 b93c 4d85 b83c dd4d 993c
00000100: 0b47 ab3c a3b1 3d3d 2d42 1f3d 1730 393d
00000110: 0600 483d 6c74 753d 44a1 203d f752 eb3c
00000120: 5b6d 223d 8158 6d3d 8fae 163d 9a3b 483d
00000130: 0436 813c a737 2f3d 7779 383d ddb0 1d3d
00000140: 173d f43c d9b9 463d 88b0 193d daf6 0a3d
00000150: 1cd0 213d f7c3 2b3d 8ce9 d73c a11c 0c3d
00000160: c29b 353d 6f7b f33c adf3 073d b986 ee3c
00000170: 842c ff3c 7e9c a03c a879 c23c 4782 443d
00000180: caa2 1c3d ce7f 693d d0b0 653d 1921 413d
00000190: 08be 2b3d 8a49 363d fd1d 193d 3a76 163d
000001a0: eca1 ff3c c58f 433d 653f b43c b03c 123d
000001b0: 57c0 463d 76c2 0f3d 7603 183d 99c4 ef3c
000001c0: 2634 4b3d 8946 273d aa98 1d3d ae74 b73c
000001d0: b75a 3c3d d271 073d 78ab e63c ba8e f93c
000001e0: 9b6e d13c ad13 863c 7bbb 193d 7f0b 143d
000001f0: 4e05 ed3c a423 2c3d 96c7 1f3d 2b04 1e3d
00000200: b80f 833d 5174 173d 9572 263d 2bbf 263d
00000210: 2fde ff3c 6418 2b3d 7671 f63c 8a83 a43c
00000220: 4729 973c 6738 d03c b1bc f03c bfe9 c13c
00000230: f2aa 573d 7665 eb3c da35 113d 33d7 2d3d
00000240: 83ca 1e3d ac81 463d ebff 433d 691b 823d
00000250: 9872 553d 265e 413d 291b 703d 9d30 533d
00000260: f039 5d3d 1d56 9d3d 3a59 7c3d 6f50 f53c
00000270: 4840 963d ba21 293d dcd0 383d b582 3c3d
00000280: 7eb1 023d 95e5 c23c a117 f73c ecb6 153d
00000290: 004b 0e3d c7ac df3c 7a22 363d b32a 363d
000002a0: a6b6 2b3d 1343 ff3c 09c7 1e3d 7f90 023d
000002b0: a6d1 2e3d 7984 2a3d 074c 093d 8e03 eb3c
000002c0: 2cbf d03c 6bec 1d3d 5bd3 023d 495f 053d
000002d0: 8dd1 1f3d ccfb 4d3d f9ce 433d 9193 173d
000002e0: 15ec 463d 9d89 1f3d 4ea3 603d b3d3 1b3d
000002f0: 4234 0d3d 7d21 213d f72f 223d 677d 853d
00000300: 4a34 1a3d 7c0d 103d aa79 413d 2de4 5d3d
00000310: 6f43 bd3c 3ca9 4f3d 36ca 493d 935d 4d3d
00000320: 845a ee3c ca6a 493d 5fc6 ea3c 4442 f23c
00000330: b807 313d bd39 f23c cfe2 eb3c 5fac 463d
00000340: 6ef1 223d 632d 253d bdd5 ab3c e82f 913c
00000350: cb44 063d 71b7 f33c f0e7 c33c 4052 ef3c
00000360: b390 fb3c 8764 1c3d c20d 273d e07a 163d
00000370: 42b8 433d 4dc2 2c3d c5f5 213d c4b8 713d
00000380: d13f 323d e012 693d d928 1b3d 7d03 7d3d
00000390: 7b3a 843d dcb2 623d f078 6a3d dc1f 863d
000003a0: b878 803d 5d36 3a3d 6ca2 1f3d a452 e73c
000003b0: 5669 713d a38b 093d 093d f93c cd40 433d
000003c0: 1421 1b3d 841e 3b3d 5956 243d 6093 453d
000003d0: da40 1d3d 9360 4d3d c820 0a3d 6680 433d
000003e0: 23fd 413d 568d 2d3d c6e8 503d ed2d 733d
000003f0: eb39 133d 0b7d 783d d3b7 653d 25be 143d

exp_avg f4 [144]
0.021279333 0.022311205 -0.02965538 -0.038739175 -0.0135365315 0.07048805 -0.00658991 -0.017240563
0.060023382 -0.016186686 0.034028187 0.043885343 -0.023153566 0.05349494 4.4409186e-05 -0.0027414635
-0.012706024 0.044203628 -0.03528976 0.045924157 -0.026261412 -0.059987642 0.02057058 0.02641173
-0.0044334205 0.044751175 -0.010426061 -0.0008278666 -0.0023431303 0.02998471 0.052384652 0.05029388
-0.011661986 -0.019811135 -0.011774287 -0.054568753 0.022918118 0.05157835 0.008625444 -0.0012691887
0.056279648 -0.017325055 0.0057018995 0.028363187 0.05388732 0.007902187 -0.014864693 0.024464522
0.05693301 -0.015446225 0.04251647 0.009054964 -0.03709077 0.023799838 0.012050765 0.033946514
-0.01538774 -0.050771065 -0.00073018763 0.0031210063 -0.022154815 -0.012628423 0.05038047 0.008389633
0.03516411 -0.06015922 0.055858795 -0.024097897 -0.020264808 0.033761777 -0.07994256 -0.02099891
0.04203716 -0.021344041 0.014575278 0.06516999 0.01168461 0.062372297 0.06869315 0.03704188
-0.035089392 0.052903276 -0.04139067 0.08139572 0.018129092 0.013933194 -0.062474526 -0.038770206
0.050112806 -0.038461305 -0.0032728678 0.043923307 0.022370435 -0.0027926657 -0.007995287 0.024646036
-0.033267625 -0.06607787 0.0002808515 0.02126883 -0.020121425 -0.055495024 0.054165162 0.010776863
0.0073773377 0.013921062 -0.048189737 0.040566947 -0.02056018 0.04164339 0.05835156 0.07674741
0.000411937 0.040424548 0.0003815461 0.04488265 -0.05227596 -0.0051699034 0.076293044 0.05848034
-0.017590797 0.032930933 0.04465235 -0.01625034 0.0198646 0.024261098 0.054364197 0.046800677
0.07814753 0.04327201 0.021804888 -0.021136947 -0.03243933 -0.0147201605 -0.037489105 -0.010762939
-0.00018003536 -0.012562094 0.00957226 0.016918141 0.048549645 0.012577172 -0.011232944 0.06798491
00000000: ff51 ae3c fdc5 b63c d7ef f2bc f8ac 1ebd
00000010: 54c8 5dbc 0a5c 903d 2cf0 d7bb 153c 8dbc
00000020: 14db 753d f199 84bc 2461 0b3d 1ec1 333d
00000030: 8cac bdbc 831d 5b3d 0044 3a38 20aa 33bb
00000040: ed2c 50bc dd0e 353d ff8b 10bd f81a 3c3d
00000050: 2c22 d7bc 9ab5 75bd a283 a83c 6a5d d83c
00000060: 3a46 91bb 024d 373d 12d2 2abc 3005 59ba
00000070: 348f 19bb 7fa2 f53c 4a91 563d f500 4e3d
00000080: ea11 3fbc f64a a2bc f0e8 40bc 7c83 5fbd
00000090: c7be bb3c d243 533d bc51 0d3c e85a a6ba
000000a0: 7d85 663d 46ed 8dbc 00d7 ba3b ea59 e83c
000000b0: f3b8 5c3d 2d78 013c 0b8b 73bc d269 c83c
000000c0: 9732 693d 2a12 7dbc c025 2e3d 465b 143c
000000d0: 7eec 17bd e1f7 c23c 9270 453c 800b 0b3d
000000e0: dc1c 7cbc 52f5 4fbd 106a 3fba cc89 4c3b
000000f0: 047e b5bc 72e7 4ebc c05b 4e3d ac74 093c
00000100: 3e08 103d 8469 76bd 31cc 643d f468 c5bc
00000110: 6202 a6bc ca49 0a3d edb8 a3bd e805 acbc
00000120: 282f 2c3d b3d9 aebc 26cd 6e3c d877 853d
00000130: ce70 3f3c 187a 7f3d ffae 8c3d 3ab9 173d
00000140: e5b9 0fbd 1bb1 583d 4389 29bd cdb2 a63d
00000150: 7683 943c 0d48 643c 4ae5 7fbd 82cd 1ebd
00000160: 1643 4d3d 9a89 1dbd 9c7d 56bb ede8 333d
00000170: 3442 b73c 2805 37bb aafe 02bc 7ce6 c93c
00000180: a243 08bd d653 87bd 403f 9339 f83b ae3c
00000190: b0d5 a4bc c04e 63bd 4adc 5d3d 7191 303c
000001a0: 98bd f13b 2b15 643c 9a62 45bd 8729 263d
000001b0: d36d a8bc 4292 2a3d 0c02 6f3d bf2d 9d3d
000001c0: 40f9 d739 3694 253d 400a c839 dfd6 373d
000001d0: 511f 56bd 4b68 a9bb 873f 9c3d 1589 6f3d
000001e0: 931a 90bc 96e2 063d 62e5 363d 6f1f 85bc
000001f0: 16bb a23c 36bf c63c feac 5e3d 11b2 3f3d
00000200: d00b a03d fe3d 313d 2aa0 b23c 6427 adbc
00000210: 1adf 04bd d42c 71bc 2d8e 19bd 0a57 30bc
00000220: e0c7 3cb9 3ed1 4dbc f8d4 1c3c ea97 8a3c
00000230: fedb 463d 7c10 4e3c 620a 38bc ac3b 8b3d

exp_avg_sq f4 [144]
0.048980135 0.03844492 0.037966307 0.014849631 0.033263613 0.075289816 0.049618773 0.065597214
0.061594408 0.08004783 0.065050356 0.043676186 0.023746345 0.062032584 0.05381801 0.053891227
0.04660334 0.036283813 0.038897283 0.061580777 0.05228314 0.0495227 0.05644077 0.039583378
0.03114734 0.065013595 0.042335525 0.022837853 0.058323737 0.057365857 0.09283468 0.066904776
0.04633339 0.050138406 0.045974392 0.03466071 0.058099646 0.062152732 0.061762787 0.07388118
0.04723987 0.05044388 0.029827876 0.03979831 0.0636932 0.05773385 0.06616269 0.06892911
0.058507375 0.07134209 0.081506975 0.050068658 0.03180729 0.06346608 0.04593263 0.04349309
0.056615114 0.071597435 0.036093093 0.059413735 0.047579713 0.024399254 0.0612019 0.048323806
0.036322154 0.034738008 0.039055195 0.048498347 0.05167375 0.049646486 0.037109755 0.037810348
0.069390304 0.05540358 0.064284734 0.05408356 0.049732056 0.032321505 0.052352745 0.06444248
0.010669237 0.053059727 0.03187114 0.0680897 0.06425155 0.042331792 0.04662446 0.028880414
0.04205845 0.057860263 0.055403102 0.046662424 0.056905035 0.012413297 0.04173222 0.05218307
0.04438938 0.027566003 0.056661554 0.054836694 0.022146847 0.053205606 0.07254332 0.05779403
0.035516404 0.057686552 0.06468814 0.048048537 0.05046573 0.05465999 0.068739936 0.041118156
0.047489822 0.045844834 0.08307343 0.052484233 0.02927819 0.04279541 0.09800329 0.06463385
0.05127344 0.05638522 0.065471664 0.051331848 0.024629403 0.06357417 0.057107005 0.05365912
0.034918007 0.034529086 0.052465945 0.055142064 0.0422876 0.047466278 0.055141117 0.0025079737
0.053713463 0.024890535 0.052897546 0.0500317 0.06487789 0.052275702 0.061429027 0.060057987
00000000: 659f 483d 6c78 1d3d 8f82 1b3d de4b 733c
00000010: 6d3f 083d 8c31 9a3d 0e3d 4b3d d557 863d
00000020: 6b4a 7c3d 1ef0 a33d 1f39 853d cde5 323d
00000030: b287 c23c e115 7e3d 4670 5c3d 0cbd 5c3d
00000040: 25e3 3e3d 569e 143d c252 1f3d 203c 7c3d
00000050: d926 563d 51d8 4a3d 702e 673d 2e22 223d
00000060: b528 ff3c d925 853d 0468 2d3d 7316 bb3c
00000070: dfe4 6e3d 76f8 6a3d 1c20 be3d 5f05 893d
00000080: 15c8 3d3d ee5d 4d3d a54f 3c3d 63f8 0d3d
00000090: e5f9 6d3d dd93 7e3d fafa 7c3d 044f 973d
000000a0: 987e 413d 3e9e 4e3d 9759 f43c 8d03 233d
000000b0: 9571 823d 547a 6c3d 4e80 873d b52a 8d3d
000000c0: 6ea5 6f3d cd1b 923d 21ed a63d cb14 4d3d
000000d0: 5c48 023d 81fa 813d da23 3c3d cf25 323d
000000e0: 40e5 673d ada1 923d 5ad6 133d d15b 733d
000000f0: f2e2 423d f2e0 c73c d8ae 7a3d 2fef 453d
00000100: 8ac6 143d 7149 0e3d 57f8 1f3d 34a6 463d
00000110: dba7 533d 1d5a 4b3d 6600 183d 06df 1a3d
00000120: 811c 8e3d ddee 623d b7a7 833d b986 5d3d
00000130: d7b3 4b3d 8e63 043d d56f 563d 6bfa 833d
00000140: 06ce 2e3c 2855 593d 508b 023d 9d72 8b3d
00000150: 5196 833d 1a64 2d3d 4af9 3e3d 9e96 ec3c
00000160: 7b45 2c3d e2fe 6c3d 5dee 623d 1921 3f3d
00000170: 4115 693d 2461 4b3c 68ef 2a3d eabd 553d
00000180: a3d1 353d 19d2 e13c f215 683d 719c 603d
00000190: 4e6d b53c 1fee 593d 9891 943d 6fb9 6c3d
000001a0: a679 113d bc48 6c3d 377b 843d 8bce 443d
000001b0: 27b5 4e3d 27e3 5f3d 86c7 8c3d 836b 283d
000001c0: b084 423d cbc7 3b3d 6722 aa3d b5f9 563d
000001d0: d1d8 ef3c 3d4a 2f3d f3b5 c83d c05e 843d
000001e0: 1904 523d 30f4 663d 0216 863d 5841 523d
000001f0: 9ac3 c93c 2d33 823d 09e9 693d aac9 5b3d
00000200: 2f06 0f3d 5f6e 0d3d 88e6 563d a5dc 613d
00000210: c335 2d3d 006c 423d a7db 613d d15c 243b
00000220: a602 5c3d 3ce7 cb3c 19ab 583d 0aee 4c3d
00000230: b3de 843d 0c1f 563d 019d 7b3d 5dff 753d
